cached_models/MINT_models/MINT_BiRNNmodel.pth (torch, 80433 bytes, 12 tensors)

rnn.weight_ih_l0 f4 [64, 20]
0.029223548 0.029799676 -0.00820227 -0.0025241422 -0.07269584 -0.050374378 -0.037678923 -0.039545055
-0.039707154 -0.03885004 -0.038495917 -0.042880695 -0.053788166 -0.039598778 -0.27013803 0.003046499
-0.008219922 -0.11511831 -0.011310083 0.13030861 -0.03825802 -0.036340836 -0.0033737763 0.0011921525
-0.003696124 0.0057554175 0.007162999 0.01650158 0.012131507 0.014141076 0.0072278916 0.004987765
0.028769776 -0.0012799077 -0.16965948 0.00046092918 -8.51665e-06 -0.009652997 -0.005492169 0.0044812993
0.032312483 0.038939312 -0.05299961 -0.017207066 0.12356761 -0.108812146 -0.0745141 -0.036743425
-0.05510151 -0.058214806 -0.011846512 -0.043761786 0.049536332 -0.060454134 0.15538402 0.01838538
-0.02391347 0.01695081 -0.059381124 0.06973201 0.07100362 0.071185894 -0.018581806 -0.010335156
0.0049894047 0.027904749 -0.022684889 -0.017540261 -0.022525564 -0.021611003 -0.01880378 -0.018712517
-0.0330189 -0.020863898 -0.22601879 0.010234704 -0.008172928 -0.09661637 -0.023689512 0.12785943
-0.055296093 -0.05285978 -0.008724188 0.008461458 -0.05819607 -0.043563742 -0.0009790005 0.0031363447
-0.000847829 -0.006241128 -0.0088119665 -0.021673461 -0.00062909076 -0.0211472 0.20534067 0.008856557
0.00088131556 0.03458329 -0.017319202 -0.044577617 -0.007409774 -0.0066222046 0.035796158 0.043081667
-0.11937497 -0.110030085 0.01234406 0.013491702 0.01596926 0.014866314 0.009205555 0.007908004
0.028035121 0.0055091423 -0.15157567 -0.00033691732 0.0030104078 -0.012069479 -0.006371399 0.0098848
0.07738507 0.07314996 -0.028407754 -0.042302355 -0.096586116 -0.06898064 0.054450296 0.01774941
0.034464143 0.04240078 -0.020383311 -0.0039923615 -0.01674784 0.009045501 -0.24961336 -0.043951415
-0.0023986879 -0.120068975 0.09301397 0.046301946 -0.025618002 -0.02476731 -0.036565237 -0.018269371
0.020239955 0.0374392 -0.012994325 -0.001817028 -0.0072156205 -0.014586553 -0.022415733 -0.02805237
-0.013227035 -0.033089872 0.19353361 0.011605664 0.0022467426 0.04985196 -0.030163227 -0.059594937
0.030427087 0.03342705 -0.10745307 -0.09005736 -0.040198375 -0.024678295 0.08760903 0.09238888
0.091699794 0.089131355 0.081887744 0.07871514 0.09311568 0.07690772 0.20996423 0.0077996277
0.0031697613 0.031960815 -0.013756776 -0.033213932 0.020044373 0.023100864 -0.052796226 -0.050363336
-0.047710735 -0.039747562 -0.045444574 -0.04069965 -0.038025867 -0.041614387 -0.04652185 -0.051136546
-0.030126 -0.049690064 -0.15471321 -0.0003392718 0.0036737423 -0.011106497 -0.0041297176 0.008756154
0.039353125 0.039452944 -0.05392222 -0.052905925 -0.047878012 -0.033037372 -0.04436415 -0.05205227
-0.04652528 -0.044474818 -0.049533937 -0.05399664 -0.062306315 -0.046962578 -0.29759684 -0.0018942913
-0.0068418016 -0.12492549 0.00041809032 0.12907766 0.04640712 -0.0033016577 0.15786284 0.050288886
-0.04364538 0.068721 -0.051115952 -0.053192563 -0.04856767 -0.0442435 -0.016826805 -0.041812148
-0.049267393 -0.037985835 -0.9095924 0.0025181496 -0.10590051 -0.662429 -0.037486497 0.67636573
0.03513578 -0.004036324 -0.07419692 -0.036780283 0.070430756 -0.06092179 0.012828039 0.003835758
-0.047300626 -0.05911862 -0.055640273 -0.06594255 -0.03830326 -0.07422424 -0.41555774 0.16230264
00000000: 3966 ef3c 731e f43c d062 06bc 146c 25bb
00000010: 8ee1 94bd 5d55 4ebd 3755 1abd fff9 21bd
00000020: f8a3 22bd 3821 1fbd e5ad 1dbd aba3 2fbd
00000030: fb50 5cbd 5432 22bd 884f 8abe c6a7 473b
00000040: daac 06bc 26c3 ebbd ed4d 39bc 9f6f 053e
00000050: 71b4 1cbd 21da 14bd 931a 5dbb 0042 9c3a
00000060: ac3a 72bb f197 bc3b 97b7 ea3b 522e 873c
00000070: 3ac3 463c f9af 673c f3d7 ec3b 6870 a33b
00000080: 98ae eb3c 93c2 a7ba 37bb 2dbe dea8 f139
00000090: bce2 0eb7 9b27 1ebc a7f7 b3bb ddd7 923b
000000a0: 185a 043d d47e 1f3d 1e16 59bd d5f5 8cbc
000000b0: 0411 fd3d e7d8 debd d99a 98bd 4680 16bd
000000c0: 1fb2 61bd a672 6ebd df17 42bc 8f3f 33bd
000000d0: 9ce6 4a3d c19e 77bd fd1c 1f3e f09c 963c
000000e0: 2ee6 c3bc 6ddc 8a3c 9f39 73bd a8cf 8e3d
000000f0: 596a 913d e9c9 913d df38 98bc c954 29bc
00000100: 297e a33b 8098 e43c a9d5 b9bc 98b0 8fbc
00000110: 8887 b8bc 8f09 b1bc 630a 9abc fe4a 99bc
00000120: d33e 07bd c4ea aabc 7871 67be 76af 273c
00000130: bfe7 05bc cede c5bd 8210 c2bc 95ed 023e
00000140: 287e 62bd 7f83 58bd e6ef 0ebc eda1 0a3c
00000150: 015f 6ebd e56f 32bd ce51 80ba 228b 4d3b
00000160: d740 5eba 6082 ccbb 1160 10bc 8b8c b1bc
00000170: 91e9 24ba e53c adbc d344 523e 181b 113c
00000180: 1608 673a 35a7 0d3d 00e1 8dbc 0597 36bd
00000190: b1cd f2bb 14ff d8bb fe9e 123d 6776 303d
000001a0: dd7a f4bd 7457 e1bd bd3e 4a3c 4d0c 5d3c
000001b0: f7d1 823c d791 733c e5d2 163c 9390 013c
000001c0: e9a9 e53c 0986 b43b a736 1bbe 47a4 b0b9
000001d0: 434a 453b 10bf 45bc 2bc7 d0bb dbf3 213c
000001e0: 107c 9e3d a5cf 953d 61b7 e8bc 3c45 2dbd
000001f0: f1ce c5bd b945 8dbd 4607 5f3d 3667 913c
00000200: 462a 0d3d 71ac 2d3d e7fa a6bc 5bd2 82bb
00000210: c432 89bc 9533 143c a59a 7fbe 6606 34bd
00000220: 4e33 1dbb b9e6 f5bd 1c7e be3d 1ca7 3d3d
00000230: d8dc d1bc d0e4 cabc 6ec5 15bd a6a9 95bc
00000240: 43ce a53c d959 193d 26e6 54bc 5829 eeba
00000250: 0371 ecbb 70fc 6ebc 33a1 b7bc 15ce e5bc
00000260: 35b6 58bc 3f89 07bd ad2d 463e af25 3e3c
00000270: 163e 133b 9231 4c3d df18 f7bc d219 74bd
00000280: 3a42 f93c cdea 083d 5b10 dcbd fe6f b8bd
00000290: 0da7 24bd 232a cabc 5d6c b33d 6236 bd3d
000002a0: 1acd bb3d 808a b63d c3b4 a73d 6735 a13d
000002b0: 6fb3 be3d cb81 9d3d dd00 573e 0594 ff3b
000002c0: c5bb 4f3b 58e9 023d 1a64 61bc 550b 08bd
000002d0: 1934 a43c 063e bd3c db40 58bd c949 4ebd
000002e0: 556c 43bd 57ce 22bd 1724 3abd adb4 26bd
000002f0: 03c1 1bbd d973 2abd b28d 3ebd 8e74 51bd
00000300: cdca f6bc cf87 4bbd 246d 1ebe 4ae0 b1b9
00000310: 2bc3 703b 06f8 35bc 9552 87bb f975 0f3c
00000320: be30 213d 6999 213d 8cdd 5cbd e2b3 58bd
00000330: bc1b 44bd 3252 07bd 2fb7 35bd c334 55bd
00000340: 4b91 3ebd 3a2b 36bd 19e4 4abd 952b 5dbd
00000350: e834 7fbd d55b 40bd 9d5e 98be de49 f8ba
00000360: 3131 e0bb efd8 ffbd 2233 db39 ef2c 043e
00000370: 6415 3e3d a060 58bb cca6 213e b8fb 4d3d
00000380: 7fc5 32bd 98bd 8c3d f65e 51bd 72e0 59bd
00000390: e5ee 46bd ac38 35bd 5ed8 89bc 3743 2bbd
000003a0: 9bcc 49bd 0997 1bbd 0cdb 68bf 8a07 253b
000003b0: 5ee2 d8bd f294 29bf 718b 19bd 4e26 2d3f
000003c0: 89ea 0f3d 2443 84bb 8ef4 97bd eca6 16bd
000003d0: 003e 903d 2089 79bd b22c 523c 5761 7b3b
000003e0: 4dbe 41bd 5e26 72bd 0ee7 63bd e30c 87bd
000003f0: e1e3 1cbd e102 98bd fcc3 d4be aa32 263e

rnn.weight_hh_l0 f4 [64, 64]
0.016949393 -0.051578097 0.0519589 0.053776477 -0.059853688 0.035376955 -0.08060045 0.00073856174
0.13250537 0.03066609 -0.043835748 -0.05366261 0.010731249 -0.020678878 -0.063593246 0.12069156
-0.1840999 0.09918882 0.00438272 -0.044416156 0.0070759444 0.039409373 0.02042686 0.024657628
0.00023513012 0.06453794 -0.013073941 -0.021904483 -0.0682452 -0.1036349 0.017483855 0.021604033
-0.048934832 -0.027299393 0.027265433 0.016007256 -0.016253384 -0.0581443 -0.05545871 0.029275222
0.007969143 0.062867515 -0.01184307 -0.10333222 -0.025104854 0.09633976 0.051984187 -0.073326655
-0.09549903 -0.014530829 0.086916596 -0.016869644 0.020821167 0.09481319 -0.004457081 -0.025543522
-0.08047101 0.019915352 0.13259044 0.08456328 0.0068358737 -0.034688957 0.005421041 -0.018721696
0.06190914 -0.06910204 -0.05892312 -0.03362414 0.022561979 0.02650162 -0.04729543 0.007597592
0.0030187892 -0.072811574 0.046770062 0.011202721 -0.03097818 -0.028505852 -0.11214417 0.038878396
-0.08052049 -0.04178948 -0.05086719 0.024908254 -0.081364065 -0.04994707 0.011038533 0.090372294
-0.016641209 -0.0111619 -0.09598987 -0.03412454 0.076095656 0.003994067 0.007295983 -0.057156034
0.024997743 -0.012077561 0.0368686 0.00073796354 0.0495141 -0.018781701 -0.037393916 -0.015316096
0.08613103 0.100282334 0.015285214 0.040836167 0.03029929 0.04398537 -0.07536176 0.0406543
-0.0016954303 0.013935256 -0.04268979 0.011807297 -0.03143652 -0.06352171 -0.00114902 0.06991957
0.03003 -0.002129911 0.025584763 0.024493957 -0.075573795 0.012506278 0.11577523 0.01594373
0.032208644 0.07832841 -0.018121801 -0.013045662 -0.06311255 0.02985151 -0.082974866 0.12135914
0.047574025 -0.02279003 -0.05758418 -0.050319616 0.037456565 0.026393082 0.05260003 -0.02465971
0.044205405 -0.061558932 0.03641316 -0.030204562 -0.043789417 -0.013748416 -0.014300117 -0.050553616
-0.09599522 0.045737628 0.15704447 -0.024619205 -0.07314881 0.087127805 0.055166144 0.024022045
-0.08903512 0.0041371007 0.046849232 0.026622 -0.0439281 -0.0758015 0.17239967 0.05201509
-0.008793645 0.09414825 -0.05800288 0.018395577 -0.07984964 0.052731782 0.013757287 0.12131533
0.107453786 0.039456334 -0.047057696 0.0075364495 0.0108241765 -0.08135298 0.017979633 -0.07471932
-0.0812767 -0.0097546885 -0.015150657 0.13234402 0.040862005 -0.087431654 -0.05468986 0.032150757
-0.04666965 0.04909538 -0.0029008582 -0.08634383 -0.021530934 0.044749603 0.042116497 -0.047943715
0.013914987 0.05064982 0.055590875 -0.036861673 0.012748614 -0.013764644 -0.07209867 -0.022075053
-0.017340565 -0.07318861 0.017152825 -0.038586978 0.028330466 -0.08831582 0.07262389 -0.018813157
0.06966639 0.06831773 -0.05145837 -0.054213177 0.10092608 -0.036439408 0.079037175 -0.00592648
-0.04761311 0.058227804 0.019989006 0.009356652 0.0344049 -0.051476307 0.02432482 0.032870013
0.09433973 -0.05212404 -0.04394366 -0.010503831 0.038197353 -0.07136816 -0.04763408 -0.027612595
0.0013495854 0.017150532 -0.029617943 0.028509436 0.0018496983 0.020714289 -0.005433027 -0.014061463
0.009942315 -0.0009400428 0.0039581675 -0.030367482 0.026112778 -0.11848728 -0.08692036 0.011481939
00000000: 74d9 8a3c 8e43 53bd dbd2 543d b944 5c3d
00000010: 2429 75bd 6de7 103d d911 a5bd 0a9c 413a
00000020: 7daf 073e 7437 fb3c 1d8d 33bd 53cd 5bbd
00000030: 1fd2 2f3c c066 a9bc 2d3d 82bd 232d f73d
00000040: af84 3cbe 8223 cb3d ec9c 8f3b b7ed 35bd
00000050: 53dd e73b b96b 213d 3b56 a73c cbfe c93c
00000060: 438d 7639 782c 843d 1534 56bc 0871 b3bc
00000070: 24c4 8bbd 893e d4bd 4d3a 8f3c f1fa b03c
00000080: e46f 48bd faa2 dfbc c25b df3c a621 833c
00000090: d125 85bc b828 6ebd ac28 63bd 97d2 ef3c
000000a0: 0291 023c afc0 803d 7009 42bc d89f d3bd
000000b0: b2a8 cdbc c84d c53d 5fed 543d 492c 96bd
000000c0: ff94 c3bd b712 6ebc 5401 b23d 3532 8abc
000000d0: 2791 aa3c 6b2d c23d b50c 92bb a640 d1bc
000000e0: fccd a4bd 8525 a33c cac5 073e 832f ad3d
000000f0: 77ff df3b 0216 0ebd fda2 b13b 3e5e 99bc
00000100: 7094 7d3d 5f85 8dbd 5f59 71bd 77b9 09bd
00000110: e6d3 b83c ed19 d93c dab8 41bd 39f5 f83b
00000120: e1d6 453b 3c1e 95bd f791 3f3d 9e8b 373c
00000130: f4c5 fdbc 1b85 e9bc d8ab e5bd f43e 1f3d
00000140: ede7 a4bd 722b 2bbd 1d5a 50bd 650c cc3c
00000150: 34a2 a6bd 4d95 4cbd f7da 343c 1c15 b93d
00000160: 2553 88bc 67e0 36bc 5696 c4bd 2cc6 0bbd
00000170: 0ad8 9b3d aae0 823b 2413 ef3b 721c 6abd
00000180: 11c8 cc3c f6e0 45bc 8703 173d e573 413a
00000190: 4ccf 4a3d 15dc 99bc 5d2a 19bd 5df0 7abc
000001a0: 7765 b03d d360 cd3d d66e 7a3c d343 273d
000001b0: 3736 f83c 012a 343d 4457 9abd 2085 263d
000001c0: 3339 deba b350 643c 7ddb 2ebd 6573 413c
000001d0: 95c3 00bd ac17 82bd b79a 96ba fe31 8f3d
000001e0: 7901 f63c fa95 0bbb 2397 d13c 8da7 c83c
000001f0: 6fc6 9abd 22e7 4c3c 901b ed3d 6d9c 823c
00000200: 36ed 033d a56a a03d 2c74 94bc 79bd 55bc
00000210: 2741 81bd 278b f43c baee a9bd 248b f83d
00000220: fbdc 423d 28b2 babc 64dd 6bbd f11b 4ebd
00000230: 0e6c 193d 4e36 d83c 2173 573d 2903 cabc
00000240: ba10 353d 3825 7cbd f725 153d 8f6f f7bc
00000250: 885c 33bd 0941 61bc 0a4b 6abc 4f11 4fbd
00000260: 2499 c4bd 6157 3b3d 44d0 203e 37ae c9bc
00000270: 0bcf 95bd 1070 b23d e5f5 613d e1c9 c43c
00000280: 0c58 b6bd 8490 873b fbe4 3f3d 6116 da3c
00000290: f4ed 33bd d13d 9bbd 8a89 303e c60d 553d
000002a0: 3813 10bc ccd0 c03d 6e94 6dbd 52b2 963c
000002b0: 3588 a3bd 48fd 573d 3e66 613c 2c74 f83d
000002c0: bb10 dc3d f79c 213d 92bf 40bd 52f4 f63b
000002d0: e357 313c 649c a6bd 064a 933c 7106 99bd
000002e0: 6674 a6bd 21d2 1fbc 763a 78bc 3185 073e
000002f0: eb5e 273d 5e0f b3bd 7a02 60bd 83b0 033d
00000300: ad28 3fbd 3d18 493d 531c 3ebb 09d5 b0bd
00000310: a461 b0bc 5c4b 373d 5982 2c3d a160 44bd
00000320: b0fb 633c 3076 4f3d 42b3 633d 44fc 16bd
00000330: 90df 503c 1a85 61bc 78a8 93bd bed6 b4bc
00000340: cd0d 8ebc e9e3 95bd 1584 8c3c 610d 1ebd
00000350: 4b15 e83c edde b4bd d6bb 943d 0d1e 9abc
00000360: 41ad 8e3d 2bea 8b3d 03c6 52bd a30e 5ebd
00000370: 55b2 ce3d 7d41 15bd 3ede a13d eb32 c2bb
00000380: f705 43bd 4780 6e3d fcbf a33c a54c 193c
00000390: 27ec 0c3d d2d8 52bd d844 c73c b5a2 063d
000003a0: 3035 c13d 0480 55bd 44fe 33bd 4318 2cbc
000003b0: d474 1c3d 7829 92bd f41b 43bd cf33 e2bc
000003c0: 92e4 b03a 467f 8c3c 54a1 f2bc 9f8c e93c
000003d0: 9371 f23a 03b1 a93c 8907 b2bb 0d62 66bc
000003e0: 17e5 223c 346d 76ba 84b3 813b 3ac5 f8bc
000003f0: 77ea d53c 76a9 f2bd 4d03 b2bd be1e 3c3c

rnn.bias_ih_l0 f4 [64]
-0.0056276275 0.13191107 -0.04730769 -0.020228015 0.05210556 0.07737273 -0.013502422 -0.12011682
-0.028794471 0.12070932 0.016151417 0.08145133 -0.022450417 0.0044195205 0.07011572 -0.04675873
0.0044775675 0.06756349 0.12606868 0.027124884 0.035959415 -0.10023665 -0.0002991925 -0.047982916
-0.09102311 0.10701712 -0.04710835 -0.031412996 -0.036581486 -0.06480512 -0.045977466 0.0073281014
-0.05318328 -0.08322556 -0.09313506 -0.03423321 0.107711785 0.08839334 0.06839209 -0.14391503
0.09286536 -0.112937875 -0.15727343 0.107937776 -0.11749725 -0.03066224 0.0769376 0.04375258
-0.11195266 -0.0053927517 0.011487462 -0.0031708884 0.00030734297 0.07489605 0.1597997 0.015940757
-0.04417642 0.036245074 0.0938279 0.08775288 0.09720961 -0.09332671 0.0073358216 0.009397615
00000000: f667 b8bb b213 073e b5c5 41bd 39b5 a5bc
00000010: a46c 553d 9875 9e3d 4339 5dbc cfff f5bd
00000020: 62e2 ebbc 7336 f73d fa4f 843c f4cf a63d
00000030: f0e9 b7bc a0d1 903b d598 8f3d 1586 3fbd
00000040: 8fb8 923b ba5e 8a3d 2618 013e 0135 de3c
00000050: 2e4a 133d df48 cdbd f0dc 9cb9 bc89 44bd
00000060: 536a babd cb2b db3d aff4 40bd eaaa 00bd
00000070: 78d6 15bd 8cb8 84bd de52 3cbd 9220 f03b
00000080: b6d6 59bd 2a72 aabd 98bd bebd 1f38 0cbd
00000090: ff97 dc3d 9107 b53d 2711 8c3d 765e 13be
000000a0: 3230 be3d f94b e7bd 490c 21be 7b0e dd3d
000000b0: 66a2 f0bd 612f fbbc 7691 9d3d e835 333d
000000c0: 7047 e5bd aeb5 b0bb e835 3c3c aece 4fbb
000000d0: e022 a139 1a63 993d 88a2 233e 3196 823c
000000e0: 55f2 34bd b775 143d d828 c03d c8b7 b33d
000000f0: d515 c73d 1322 bfbd 5561 f03b 74f8 193c

rnn.bias_hh_l0 f4 [64]
0.045753364 -0.07331504 0.105635695 -0.05728987 0.039303266 0.027377691 0.04620248 0.112414725
0.049076475 0.024853878 0.05164011 0.032773346 -0.1061765 -0.08971851 -0.015442387 -0.09468083
-0.03933713 -0.09189212 0.012062472 -0.0026361991 0.044090327 0.016402755 -0.03466305 0.049128473
0.032386046 -0.092689194 0.0740641 -0.09435194 0.066756725 -0.060502045 -0.113692015 -0.022574214
0.0034418767 0.11031837 -0.01297556 -0.14447157 -0.05124676 -0.01406434 -0.0007443519 0.08860138
-0.042085566 0.12050488 -0.1097875 0.008335861 0.116386265 -0.010433688 0.019603994 -0.07010842
-0.10508801 0.057881035 0.12719508 -0.15856528 -0.08535976 0.02782321 0.055441134 0.05161177
-0.07977834 0.10791288 0.0242304 0.008178918 -0.09877558 0.017010732 0.096315645 -0.09205545
00000000: e167 3b3d 3226 96bd 8757 d83d c8a8 6abd
00000010: 76fc 203d 2e47 e03c d03e 3d3d b139 e63d
00000020: 6a04 493d 5c9a cb3c 9484 533d 583d 063d
00000030: 1173 d9bd 57be b7bd 1102 7dbc 06e8 c1bd
00000040: f81f 21bd f031 bcbd ada1 453c 15c4 2cbb
00000050: 0f98 343d 125f 863c d8fa 0dbd f03a 493d
00000060: 3ba7 043d d5d3 bdbd ebae 973d 973b c1bd
00000070: c0b7 883d fed0 77bd 5cd7 e8bd 8fed b8bc
00000080: 1c91 613b 99ee e13d 7197 54bc 5bf0 13be
00000090: 1fe8 51bd 1e6e 66bc 9c20 43ba a474 b53d
000000a0: ea61 2cbd 43cb f63d 45d8 e0bd 2393 083c
000000b0: ec5b ee3d 0ff2 2abc 8e98 a03c 0195 8fbd
000000c0: 6238 d7bd aa14 6d3d 6d3f 023e f05e 22be
000000d0: 19d1 aebd 80ed e33c 3e16 633d dd66 533d
000000e0: d462 a3bd 6e01 dd3d d57e c63c de00 063c
000000f0: da4a cabd 175a 8b3c 2341 c53d 9187 bcbd

rnn.weight_ih_l0_reverse f4 [64, 20]
-0.034772284 -0.033466842 -0.051648166 -0.037677705 -0.05472133 -0.010796412 -0.033560157 -0.030248677
-0.031149559 -0.03250584 -0.02704631 -0.03403106 -0.016193593 -0.035062622 0.1295293 0.0065642614
0.0017473092 -0.023607424 -0.013373815 0.011873727 -0.011961649 -0.01225486 0.022776442 0.03304776
-0.009390994 0.01624225 -0.019125931 -0.017915634 -0.0177385 -0.018485243 -0.046192244 -0.041892786
-0.04010075 -0.041679002 -0.20952012 0.005473038 -0.009635985 -0.095396586 -0.008132219 0.06439966
-0.046652365 -0.05032206 0.096954204 0.038211368 0.077553846 -0.017272409 -0.053709645 -0.07219416
-0.06328875 -0.061567124 -0.027942188 -0.016805151 -0.03154119 -0.006436316 0.49326456 -0.02159562
-0.006183538 0.09345807 0.047930427 0.0076212944 0.0047688964 0.014066746 -0.033245068 -0.029233197
-0.067867845 0.09079945 0.10251623 0.08518525 0.11080508 0.12425584 -0.114522494 -0.10908244
-0.047160193 -0.10942621 1.5566783 -0.050137635 -0.006534373 -0.12508695 0.10069079 0.08980238
-0.0257248 -0.02302737 0.018486973 0.0332846 -0.018952405 -0.008614181 -0.027641855 -0.023238538
-0.026174227 -0.027404152 -0.040216986 -0.047218002 -0.03104481 -0.051331144 0.15813549 0.007038603
-0.0021544225 0.020099299 -0.010490456 -0.041721396 0.06772742 0.066913135 -0.099670984 -0.09389842
-0.0361525 -0.011860861 -0.06353781 -0.062229417 -0.062155776 -0.064293765 -0.094510116 -0.09455991
-0.09892376 -0.09458986 -0.22096802 -0.0014726645 -0.006209392 -0.095234096 -0.001350285 0.04989677
-0.042721543 -0.038501304 0.08823584 0.105266996 -0.006179784 0.0036582674 0.029346015 0.027761128
0.025262807 0.024876012 0.016942414 0.0134124905 0.026561825 0.009796674 0.19622764 0.006051914
0.0023122577 0.020119986 -0.0071363514 -0.026938276 0.06985258 0.07390774 -0.009874547 0.0042713056
0.067233056 0.06723909 -0.033440985 -0.028258186 -0.0332719 -0.032484747 -0.041959114 -0.040138617
-0.038390692 -0.043800786 0.082936466 -0.00048490404 0.0047069932 -0.053002704 -0.0021453858 -0.019220926
0.118557915 0.1181053 -0.0010244828 0.010982638 -0.08681675 -0.07202414 0.04871013 0.053215876
0.04944847 0.049437895 0.030833412 0.02346151 0.043119453 0.025296062 0.13270813 0.0028280264
-0.0008912643 0.023461998 -0.009974425 -0.06493797 0.03734562 0.03738064 0.0032437379 0.0093612205
-0.09909202 -0.054055538 0.0012554945 -0.0048889103 -0.0070794257 -0.0069642966 0.0034723245 0.00044970252
0.014044629 -0.0062283846 0.16666488 0.0048431004 -0.0021417434 -0.02486831 -0.009044957 0.02865524
-0.019010639 -0.017642133 -0.03134221 -0.019803517 -0.0012042114 0.04825007 -0.0040449807 0.0054749143
0.0012796016 0.0051515247 0.004585813 -0.0021403236 0.014664415 -0.002786746 0.11124931 0.0042301673
0.0021957208 -0.028546868 -0.006501342 0.006576298 -0.018687483 -0.01894971 -0.081448466 -0.07263895
-0.108341984 -0.0787494 0.01858194 0.023689557 0.021109382 0.024820171 0.012110022 0.012741154
0.028231971 0.008603617 0.010476453 0.0017162539 -0.0004590796 -0.046130855 -0.00766761 0.027680537
-0.068701945 -0.105883844 0.19382893 -0.5876514 -0.0010523933 -0.18176483 -0.02207724 -0.0010507819
-0.0019779287 0.013397032 -0.11335083 -0.05684719 -0.13370882 -0.020630497 -0.21613833 -0.10792321
00000000: 626d 0ebd 8714 09bd 078d 53bd f053 1abd
00000010: 7923 60bd 6fe3 30bc 6076 09bd 13cc f7bc
00000020: 5c2d ffbc d824 05bd 3990 ddbc 2764 0bbd
00000030: 6da8 84bc d39d 0fbd 54a3 043e 0419 d73b
00000040: f805 e53a 5b64 c1bc d91d 5bbc 058a 423c
00000050: cbfa 43bc 9cc8 48bc a995 ba3c 175d 073d
00000060: afdc 19bc 780e 853c fcad 9cbc cfc3 92bc
00000070: 5550 91bc 5d6e 97bc 1434 3dbd c597 2bbd
00000080: af40 24bd 9ab7 2abd 718c 56be 2c57 b33b
00000090: 40e0 1dbc 495f c3bd 003d 05bc f8e3 833d
000000a0: 8d16 3fbd 811e 4ebd ed8f c63d 8683 1c3d
000000b0: 8dd4 9e3d de7e 8dbc a5fe 5bbd 88da 93bd
000000c0: 889d 81bd cf2d 7cbd 04e7 e4bc f5aa 89bc
000000d0: 5631 01bd bbe7 d2bb 2c8d fc3e 4ce9 b0bc
000000e0: 479f cabb f266 bf3d b252 443d 0dbc f93b
000000f0: 6744 9c3b 3678 663c fb2b 08bd 757a efbc
00000100: 4cfe 8abd 10f5 b93d 07f4 d13d 9b75 ae3d
00000110: c6ed e23d d979 fe3d c58a eabd 9d66 dfbd
00000120: 0c2b 41bd d91a e0bd 3c41 c73f 1f5d 4dbd
00000130: 4b1e d6bb cb16 00be f936 ce3d 4fea b73d
00000140: d1bc d2bc e5a3 bcbc fe71 973c 6f55 083d
00000150: 1342 9bbc 7e22 0dbc 2c71 e2bc bf5e bebc
00000160: 556b d6bc ac7e e0bc 91ba 24bd aa67 41bd
00000170: af51 febc 9b40 52bd 45ee 213e 15a4 e63b
00000180: 3631 0dbb 49a7 a43c 29e0 2bbc 0ee4 2abd
00000190: acb4 8a3d c109 893d 4d20 ccbd d14d c0bd
000001a0: a514 14bd 0f54 42bc 1d20 82bd 46e4 7ebd
000001b0: 0e97 7ebd 73ac 83bd 858e c1bd a0a8 c1bd
000001c0: 8a98 cabd 54b8 c1bd 7145 62be 6c06 c1ba
000001d0: 2878 cbbb 180a c3bd 0cfc b0ba 8e60 4c3d
000001e0: c9fc 2ebd 8bb3 1dbd feb4 b43d 3996 d73d
000001f0: c97f cabb 8bbf 6f3b 0e67 f03c 4e6b e33c
00000200: f2f3 ce3c c7c8 cb3c d1ca 8a3c 10c0 5b3c
00000210: 2f98 d93c 3b82 203c e6ef 483e 224f c63b
00000220: 3f89 173b abd2 a43c 0ed8 e9bb a9ad dcbc
00000230: df0e 8f3d f15c 973d dac8 21bc 4ff6 8b3b
00000240: 7cb1 893d a6b4 893d 6af9 08bd b67d e7bc
00000250: 1e48 08bd ba0e 05bd 52dd 2bbd 6468 24bd
00000260: 8f3f 1dbd 7468 33bd 98da a93d b83a feb9
00000270: 1f3d 9a3b 5d19 59bd 9a99 0cbb 3475 9dbc
00000280: 7ece f23d 31e1 f13d f047 86ba 86f0 333c
00000290: fbcc b1bd 6481 93bd 4684 473d e4f8 593d
000002a0: 7b8a 4a3d 647f 4a3d 5a96 fc3c 5a32 c03c
000002b0: 069e 303d b039 cf3c a4e4 073e 6956 393b
000002c0: bca3 69ba 6033 c03c c56b 23bc 33fe 84bd
000002d0: b9f7 183d 711c 193d e494 543b ce5f 193c
000002e0: c2f0 cabd 5769 5dbd 688f a43a 2733 a0bb
000002f0: 87fa e7bb c134 e4bb f08f 633b 0dc6 eb39
00000300: 721b 663c 7a17 ccbb 33aa 2a3e dfb2 9e3b
00000310: 7e5c 0cbb a0b8 cbbc 4d31 14bc 65be ea3c
00000320: 33bc 9bbc 3c86 90bc b060 00bd fc3a a2bc
00000330: a1d6 9dba dea1 453d c28b 84bb e966 b33b
00000340: 4eb8 a73a 1fce a83b 9644 963b ac44 0cbb
00000350: 0443 703c d7a1 36bb aed6 e33d 379d 8a3b
00000360: 15e6 0f3b 1fdb e9bc 3609 d5bb fc7d d73b
00000370: 7e16 99bc 6c3c 9bbc 74ce a6bd bbc3 94bd
00000380: 67e2 ddbd 5e47 a1bd 2739 983c 9a10 c23c
00000390: 95ed ac3c ac53 cb3c 1d69 463c 46c0 503c
000003a0: bc46 e73c 2ff6 0c3c 6ea5 2b3c edf3 e03a
000003b0: 9fb0 f0b9 b5f3 3cbd 9340 fbbb 4bc2 e23c
000003c0: 9bb3 8cbd a1d9 d8bd 177b 463e 5270 16bf
000003d0: 76f0 89ba 8f20 3abe 54db b4bc 64ba 89ba
000003e0: 23a0 01bb 3a7f 5b3c 7b24 e8bd 99d8 68bd
000003f0: f7ea 08be 4a01 a9bc 5e53 5dbe d806 ddbd

rnn.weight_hh_l0_reverse f4 [64, 64]
-0.10964222 0.02183636 0.025937857 -0.04060298 0.038261462 0.09958105 0.00050023076 -0.032724958
0.05255503 -0.016164072 0.037805866 -0.003023148 -0.0030740062 0.048105616 -0.053768456 0.013464204
-0.049428523 0.018979043 0.050273906 -0.090528406 -0.03837548 0.022865048 -0.0019680897 0.064782225
0.08739364 0.004529466 -0.03565418 -0.010115147 0.0019667125 -0.036678266 -0.06010034 0.0021507982
-0.01331734 0.03619957 0.029180193 0.0484372 0.035979733 0.069898926 -0.017453704 -0.080985084
0.0043886127 -0.006051765 0.008547646 -0.04511393 -0.046182454 -0.031983767 -0.05195677 0.017510531
0.0622412 -0.08440609 -0.07927733 0.017111696 -0.04684674 0.12587805 -0.0610893 0.1047821
-0.085640356 0.05592495 -0.007815175 -0.048107155 0.030413028 -0.014193594 0.003987569 0.11304746
0.027369836 -0.047647968 -0.10584103 0.0045045307 -0.028907921 -0.025243117 0.049724996 -0.063719295
-0.017603235 0.04607574 -0.034957707 0.11500586 0.0050748438 -0.040082984 -0.0044463803 -0.052516207
0.06438143 0.015054702 0.040299244 0.076069705 0.033593066 0.05769886 -0.0567571 -0.023519827
-0.041866943 -0.008442919 -0.011924378 -0.045899518 0.03501782 -0.048714686 -0.061265953 -0.13333757
-0.043984734 0.05561356 -0.08923869 0.03986912 -0.045482993 0.018912535 0.0045858715 0.08540227
-0.053289827 -0.039374016 -0.073742226 0.004456783 -0.034952775 0.03887447 -0.13995264 -0.06581507
-0.0028525207 -0.058016337 -0.02473915 -0.032682024 0.03892099 0.0133630615 -0.011884602 0.017874353
-0.0014333336 0.010664945 0.10507332 -0.02875969 0.014457542 -0.013360497 -0.05870336 -0.046715252
-0.042427465 0.119010516 0.059233226 -0.003280751 0.021658918 -0.028741445 -0.014465984 0.027327599
0.06830675 0.053034317 -0.032113954 -0.004316635 0.009392399 0.019529628 -0.026865141 0.16806212
0.050873887 -0.07628449 0.017368387 0.06982447 -0.0029545315 0.14358279 0.0075750086 0.060896672
-0.07387329 0.04141492 0.09931939 -0.013292451 -0.06987515 0.07781026 -0.020371366 -0.02218915
0.09427232 0.049487308 0.045826603 0.021172862 0.04801004 -0.026776357 -0.043918587 0.07034478
-0.08097885 -0.026956756 -0.048686042 -0.056858517 0.079344444 -0.11376817 -0.047946703 0.073648475
0.028135916 0.041558083 0.114868924 -0.10139257 0.022302687 -0.054049846 0.050632875 -0.026128735
-0.071957104 -0.040362854 0.0155062415 0.04874327 0.058487374 0.027539657 0.035740353 0.07958121
-0.07590029 -0.06815302 -0.07276076 0.014934308 0.023300702 0.043312125 -0.026882933 -0.0012923806
-0.023807647 0.06275129 -0.003289267 0.09706472 0.01170054 0.088941954 -0.0051070284 -0.041496906
-0.07016463 -0.03949885 0.032681257 -0.0023063947 -0.027209574 -0.022193516 0.096587844 -0.033659212
-0.086982064 -0.03451103 0.061354205 -0.025092049 0.023798428 -0.014248711 0.031281583 0.036438227
0.112646475 0.03626025 0.031013079 0.02723996 -0.061626527 -0.042556114 -0.07519024 0.030083211
0.030485393 0.052161798 0.01959168 -0.010850637 -0.09241123 0.049022973 0.00060172146 -0.043252785
0.046689503 -0.037033338 0.029631188 -0.04035883 0.011805109 0.061310615 0.06756837 -0.02664703
-0.02894353 0.014076999 -0.025383472 -1.764372e-05 -0.07673076 0.00490652 0.07295142 0.014117398
00000000: 1a8c e0bd 2be2 b23c a17b d43c 4f4f 26bd
00000010: 0db8 1c3d 26f1 cb3d eb21 033a 9b0a 06bd
00000020: f143 573d 846a 84bc 53da 1a3d 0220 46bb
00000030: 4475 49bb 650a 453d 503c 5cbd f798 5c3c
00000040: 9075 4abd f079 9b3c 03ec 4d3d f566 b9bd
00000050: 9b2f 1dbd 7b4f bb3c 11fb 00bb 8bac 843d
00000060: 70fb b23d ea6b 943b 1e0a 12bd 00ba 25bc
00000070: f6e3 003b f33b 16bd c62b 76bd 68f4 0c3b
00000080: f930 5abc 0046 143d 4d0b ef3c 1666 463d
00000090: 7c5f 133d 2b27 8f3d 12fb 8ebc 82db a5bd
000000a0: 5ace 8f3b e24d c6bb 6d0b 0c3c 62c9 38bd
000000b0: d029 3dbd 6901 03bd 9fd0 54bd 3f72 8f3c
000000c0: a1f0 7e3d 1add acbd 275c a2bd d42d 8c3c
000000d0: 5ee2 3fbd 2de6 003e c638 7abd ff97 d63d
000000e0: 3664 afbd 8f11 653d 380b 00bc 020c 45bd
000000f0: be24 f93c 408c 68bc 27aa 823b 6d85 e73d
00000100: b536 e03c 842a 43bd 2fc3 d8bd be9a 933b
00000110: 4ed0 ecbc a7ca cebc 70ac 4b3d 437f 82bd
00000120: a934 90bc eab9 3c3d d02f 0fbd 3188 eb3d
00000130: e04a a63b 0e2e 24bd f1b2 91bb 3c1b 57bd
00000140: 69da 833d ffa7 763c d210 253d 6fca 9b3d
00000150: e298 093d a455 6c3d 227a 68bd a7ac c0bc
00000160: ac7c 2bbd 2b54 0abc 775e 43bc 2201 3cbd
00000170: d86e 0f3d 0d89 47bd 02f2 7abd a589 08be
00000180: 5629 34bd 0bcb 633d c6c2 b6bd cd4d 233d
00000190: 604c 3abd 76ee 9a3c 1445 963b 63e7 ae3d
000001a0: 6f46 5abd a646 21bd 2a06 97bd 350a 923b
000001b0: a42a 0fbd d63a 1f3d bf4f 0fbe 0dca 86bd
000001c0: 5bf1 3abb 8aa2 6dbd c2a9 cabc 96dd 05bd
000001d0: 9e6b 1f3d bef0 5a3c a2b7 42bc 3c6d 923c
000001e0: b2de bbba 05bc 2e3c ae30 d73d 7199 ebbc
000001f0: 54df 6c3c fce5 5abc ef72 70bd 7e58 3fbd
00000200: 6cc8 2dbd c9bb f33d 8a9e 723d de01 57bb
00000210: 0b6e b13c 2e73 ebbc bc02 6dbc 21de df3c
00000220: 69e4 8b3d 833a 593d ec89 03bd 8f72 8dbb
00000230: 94e2 193c 99fc 9f3c 4914 dcbc 7a18 2c3e
00000240: 2361 503d 0b3b 9cbd 2648 8e3c 2200 8f3d
00000250: d0a0 41bb 5e07 133e c737 f83b ca6e 793d
00000260: e14a 97bd b1a2 293d f767 cb3d 95c8 59bc
00000270: b41a 8fbd fc5a 9f3d dae1 a6bc 05c6 b5bc
00000280: d911 c13d 34b3 4a3d adb4 3b3d b672 ad3c
00000290: 2da6 443d 175a dbbc fae3 33bd ed10 903d
000002a0: 3dd8 a5bd 6ad4 dcbc 046b 47bd 7ae4 68bd
000002b0: 577f a23d 49ff e8bd c363 44bd 03d5 963d
000002c0: 4b7d e63c cf38 2a3d 6640 eb3d e8a6 cfbd
000002d0: 20b4 b63c 5f63 5dbd 6b64 4f3d ee0b d6bc
000002e0: 3f5e 93bd 8553 25bd e40d 7e3c 06a7 473d
000002f0: 7590 6f3d d99a e13c 7a64 123d 79fb a23d
00000300: 9c71 9bbd d093 8bbd 9803 95bd 07af 743c
00000310: 1de1 be3c 0e68 313d 9939 dcbc 1965 a9ba
00000320: 4108 c3bc c083 803d be90 57bb dec9 c63d
00000330: 9fb3 3f3c 3327 b63d dc58 a7bb a9f8 29bd
00000340: 79b2 8fbd 8cc9 21bd c8dc 053d e226 17bb
00000350: 9de6 debc 2dcf b5bc d9cf c53d 3ede 09bd
00000360: a723 b2bd 705b 0dbd 8c4e 7b3d d78d cdbc
00000370: ecf4 c23c 6d73 69bc 1e21 003d 4040 153d
00000380: 32b3 e63d a185 143d 240f fe3c 5626 df3c
00000390: 196c 7cbd 524f 2ebd 57fd 99bd 1171 f63c
000003a0: 81bc f93c 9ca7 553d bb7e a03c dfc6 31bc
000003b0: 1942 bdbd 50cc 483d d8bc 1d3a d529 31bd
000003c0: 7e3d 3f3d 45b0 17bd 1bbd f23c 4d4f 25bd
000003d0: 376a 413c d720 7b3d 4961 8a3d df4a dabc
000003e0: fb1a edbc 37a3 663c 00f1 cfbc 9a01 94b7
000003f0: 0425 9dbd dfc6 a03b 8e67 953d a94c 673c

rnn.bias_ih_l0_reverse f4 [64]
0.014112261 -0.07327102 0.005676651 -0.008047297 0.12347945 0.016276544 -0.08030069 -0.10682652
-0.058818925 -0.05038935 0.034924757 0.004186954 -0.13311987 -0.019973572 -0.101510614 -0.039043006
0.07280054 -0.06303728 -0.029780801 -0.033883233 0.009380734 -0.010140848 -0.058074933 -0.024248878
-0.08922431 -0.05943298 -0.0085046915 0.015231508 -0.10500189 0.060709834 -0.08277944 0.06394213
-0.066231996 -0.05493898 0.05931195 0.09536341 0.07056772 -0.08367983 -0.0013050424 0.073712975
-0.053139806 0.05682097 0.06025206 -0.07914806 -0.05294133 0.100058444 -0.062190138 0.07256302
-0.11880527 -0.099973984 -0.061977036 -0.10042591 0.101712815 -0.09553433 0.01348406 -0.003787694
0.045347743 0.02499583 -0.090900995 0.04620071 0.02122605 -0.02183393 -0.030374495 0.10879243
00000000: 1d37 673c 1e0f 96bd 3303 ba3b cfd8 03bc
00000010: cbe2 fc3d 6356 853c b074 a4bd ddc7 dabd
00000020: 1dec 70bd 1065 4ebd 430d 0f3d b732 893b
00000030: 9350 08be 9e9f a3bc cce4 cfbd 8feb 1fbd
00000040: 7318 953d b119 81bd def6 f3bc 25c9 0abd
00000050: a6b1 193c cd25 26bc fbdf 6dbd 95a5 c6bc
00000060: 3cbb b6bd ff6f 73bd 4357 0bbc 938d 793c
00000070: 3b0b d7bd e0aa 783d 4488 a9bd 17f4 823d
00000080: a4a4 87bd b207 61bd 16f1 723d e44d c33d
00000090: cf85 903d 5560 abbd f50d abba d4f6 963d
000000a0: 20a9 59bd 1bbd 683d ddca 763d 6118 a2bd
000000b0: 02d9 58bd 71eb cc3d 16bb 7ebd ec9b 943d
000000c0: 2d50 f3bd 29bf ccbd a2db 7dbd 19ac cdbd
000000d0: cf4e d03d 81a7 c3bd 3fec 5c3c f63a 78bb
000000e0: 8ebe 393d 0ec4 cc3c 4d2a babd f53c 3d3d
000000f0: 41e2 ad3c 12dd b2bc efd3 f8bc 91ce de3d

rnn.bias_hh_l0_reverse f4 [64]
0.06714059 0.056030344 -0.09728019 0.041924592 -0.09666938 0.075394034 0.024074906 -0.04196988
-0.078715876 -0.012062601 -0.083306834 0.024732763 -0.11282057 0.042197727 0.06974053 0.034166057
-0.017981922 0.02615438 0.14137612 0.019006863 -0.082949996 0.011886896 -0.057718676 0.04010138
0.09339912 0.06732714 -0.030944845 0.014313688 -0.029758995 0.044942707 0.007025631 0.025156425
0.016973138 0.063018374 -0.09511331 -0.08184647 0.08334317 -0.04658474 -0.04485224 0.05382565
-0.07291155 0.07119089 0.07512437 0.051681787 0.04163535 0.025731087 -0.009288952 -0.07690369
0.054863293 0.0012398252 -0.07462781 -0.08385456 -0.057707347 -0.05474883 -0.10495662 0.031443037
0.12928277 0.04916548 -0.054643292 -0.055586196 -0.039581243 -0.011865681 0.10626917 -0.10352735
00000000: 0181 893d 1380 653d d63a c7bd 1fb9 2b3d
00000010: 99fa c5bd 3068 9a3d bd38 c53c 9ce8 2bbd
00000020: ca35 a1bd 37a2 45bc c69c aabd 5d9c ca3c
00000030: 790e e7bd 86d7 2c3d 1fd4 8e3d b5f1 0b3d
00000040: d34e 93bc b641 d63c e7c4 103e 48b4 9b3c
00000050: b0e1 a9bd 41c1 423c 6b6a 6cbd 5841 243d
00000060: 0a48 bf3d d0e2 893d 0b80 fdbc f583 6a3c
00000070: 23c9 f3bc d815 383d 4437 e63b d914 ce3c
00000080: 400b 8b3c c70f 813d c4ca c2bd 1f9f a7bd
00000090: d3af aa3d a4cf 3ebd fbb6 37bd 4978 5c3d
000000a0: a752 95bd 88cc 913d ceda 993d 48b0 533d
000000b0: d489 2a3d 00ca d23c b030 18bc af7f 9dbd
000000c0: 55b8 603d a181 a23a 77d6 98bd f1bb abbd
000000d0: 8a5e 6cbd 4f40 60bd 7ff3 d6bd 6aca 003d
000000e0: b462 043e be61 493d a5d1 5fbd 5aae 63bd
000000f0: f11f 22bd 4668 42bc a7a3 d93d 2606 d4bd

fc.weight f4 [61, 128]
-0.019960538 -0.11088071 -0.006487466 -0.012180989 0.020397434 -0.11744734 -0.01620845 0.015603805
0.02304769 -0.1126019 -0.01664452 -0.0010920706 -0.0032529046 -0.012184485 -0.10354441 0.013766627
0.019587973 0.024903784 0.18904734 0.0074551385 0.02454564 -0.025594082 -0.02750877 -0.027324433
0.020550767 -0.080964655 -0.120461956 0.0014965623 0.022818113 -0.16102423 0.020814009 -0.0014063289
0.027156495 -0.020521184 0.018454494 0.017338926 -0.13765565 -0.015446226 -0.049929503 -0.014197498
-0.0119810095 0.021416923 0.0005896676 -0.009630983 -0.10433795 -0.13111925 -0.16292727 -0.14600958
-0.02557595 0.017947417 -0.015917005 -0.00092217274 -0.033204325 -0.022435458 0.016166082 -0.023494482
-0.012946775 -0.11566373 -0.021165302 0.022844022 0.020075198 0.024866153 -0.02134791 0.007385945
0.054065704 -0.026803527 0.023229705 0.08168413 0.021050824 -0.032275993 0.018516365 -0.010558039
0.017437361 0.07392896 0.03938012 0.13269985 0.0028480217 0.026050637 0.018598076 -0.18112713
-0.02368106 0.0155783575 -0.015387671 0.019846167 -0.0023967847 0.023304362 -0.037080552 -0.12228827
0.025848804 0.087795176 -0.17380138 -0.14537942 0.03420346 -0.023644583 0.022847116 -0.21584578
-0.2536961 -0.15394914 -0.22591408 -0.12038031 -0.18080525 0.0756735 -0.035514783 0.027389882
0.07317642 -0.14244261 0.018879762 0.019732065 -0.1493081 0.025837544 0.05106878 0.013760573
0.026661834 0.021707004 0.0154667385 -0.027483735 -0.15467523 0.020951634 0.02357942 0.024136635
-0.1490902 -0.14051892 -0.01508522 0.017450443 0.024885323 -0.027645806 0.025487076 0.02373942
-0.026988598 -0.11152741 0.018452711 -0.020306818 0.017559651 -0.11979857 -0.022650246 0.012218201
0.018600969 -0.115684725 -0.02161987 -0.0030439876 0.0012518262 0.0034991656 -0.10610017 0.011429632
0.01805184 0.022120256 0.19862308 0.01011433 0.020248542 -0.029050933 -0.030145617 -0.031029897
0.0160947 -0.109620266 -0.11348803 -0.0052557853 0.023926824 -0.15361987 0.019062225 0.010530903
0.030748948 -0.036183685 0.017050177 0.013089117 -0.12548983 -0.026114745 -0.09543049 -0.019266065
-0.018303853 0.020385992 0.005535604 0.01005746 -0.11246744 -0.12481672 -0.14893813 -0.13863076
-0.028798932 0.015518183 -0.025808169 -0.0024999352 -0.061834205 -0.03942896 8.474556e-05 -0.05850011
0.005323724 -0.11561519 0.0005188146 0.021538433 0.01877174 0.022053005 -0.03272875 0.008990419
0.01173595 -0.04399395 0.04400398 0.06995869 0.016005166 -0.045876894 0.014518429 0.000106179476
0.013182789 0.03727635 -0.0045446693 0.08386912 0.003800193 0.020527001 0.013541986 -0.17073989
-0.03534671 0.011195616 -0.016947437 0.016261408 0.022421943 0.021776984 -0.041761953 -0.12436901
0.02049249 0.039766118 -0.16638239 -0.13988139 -0.0050115264 -0.060413253 0.021075904 -0.20467533
-0.23434499 -0.1589703 -0.20987265 -0.12537201 -0.17039986 0.06337983 -0.04613731 0.022506548
0.026029518 -0.13806844 0.017911851 0.013152727 -0.1778575 0.022279171 0.017321037 -0.0154800955
0.021266418 0.014642522 0.013601539 -0.03019818 -0.14715514 0.015624133 0.019001957 0.01656303
-0.14419957 -0.13399743 0.0028926278 0.013466205 0.018794201 -0.040357396 0.020357259 0.0034258184
00000000: 4884 a3bc 6d15 e3bd cf94 d4bb c592 47bc
00000010: 8518 a73c 3b88 f0bd 95c7 84bc 1aa7 7f3c
00000020: 82ce bc3c d39b e6bd 175a 88bc cf23 8fba
00000030: af2e 55bb 6fa1 47bc 170f d4bd 6b8d 613c
00000040: f576 a03c 0503 cc3c a095 413e 3c4a f43b
00000050: f013 c93c aeaa d1bc 125a e1bc 7dd7 dfbc
00000060: 155a a83c ccd0 a5bd c2b4 f6bd 4c28 c43a
00000070: 0ded ba3c 89e3 24be 2482 aa3c 9154 b8ba
00000080: 4c77 de3c 0b1c a8bc e12d 973c 5d0a 8e3c
00000090: 9af5 0cbe 2b12 7dbc e182 4cbd 9f9c 68bc
000000a0: ff4b 44bc 8b72 af3c ec93 1a3a 45cb 1dbc
000000b0: 23af d5bd 2044 06be 68d6 26be 8983 15be
000000c0: a884 d1bc 7606 933c 6164 82bc f7bd 71ba
000000d0: 4201 08bd 91ca b7bc bb6e 843c 8077 c0bc
000000e0: b61e 54bc 1be1 ecbd db62 adbc 6323 bb3c
000000f0: be74 a43c 1ab4 cb3c d0e1 aebc cc05 f23b
00000100: 0074 5d3d 1293 dbbc 394c be3c 024a a73d
00000110: c772 ac3c d533 04bd a2af 973c a0fb 2cbc
00000120: ccd8 8e3c 1168 973d 0c4d 213d 78e2 073e
00000130: e0a5 3a3b 2568 d53c fe5a 983c 6479 39be
00000140: c8fe c1bc 5e3c 7f3c 921c 7cbc 6e94 a23c
00000150: 6013 1dbb cae8 be3c c7e1 17bd 4672 fabd
00000160: dfc0 d33c f5cd b33d fdf8 31be 58de 14be
00000170: ed18 0c3d 49b2 c1bc e029 bb3c ad06 5dbe
00000180: 75e4 81be d8a4 1dbe 0556 67be f489 f6bd
00000190: 0325 39be b5fa 9a3d f377 11bd bf60 e03c
000001a0: 85dd 953d 7adc 11be bba9 9a3c 24a5 a13c
000001b0: 39e4 18be 42a9 d33c 7f2d 513d 0774 613c
000001c0: eb69 da3c e3d2 b13c 3468 7d3c 9225 e1bc
000001d0: 2f63 1ebe c3a2 ab3c a129 c13c 31ba c53c
000001e0: 1aab 18be 31e4 0fbe 0028 77bc 3bf4 8e3c
000001f0: 4edc cb3c 7579 e2bc 46ca d03c 2c79 c23c
00000200: 3117 ddbc 7c68 e4bd 242a 973c 7c5a a6bc
00000210: 42d9 8f3c f458 f5bd 028d b9bc d92e 483c
00000220: 0f61 983c 1dec ecbd 271c b1bc a37d 47bb
00000230: 5114 a43a 4252 653b 0c4b d9bd 5a43 3b3c
00000240: 74e1 933c 8a35 b53c d963 4b3e 93b6 253c
00000250: 45e0 a53c 39fc edbc f1f3 f6bc 6932 febc
00000260: 08d9 833c 9780 e0bd 6a6c e8bd b938 acbb
00000270: 3002 c43c 874e 1dbe 6228 9c3c cf89 2c3c
00000280: 38e5 fb3c 5835 14bd d0ac 8b3c bc73 563c
00000290: 6880 00be 97ee d5bc 1071 c3bd ded3 9dbc
000002a0: f6f1 95bc 8600 a73c 0364 b53b 0bc8 243c
000002b0: 5455 e6bd e99f ffbd 3d83 18be 39f5 0dbe
000002c0: bdeb ebbc fa3f 7e3c a76b d3bc f4d5 23bb
000002d0: dd45 7dbd 4380 21bd 6db9 b138 d09d 6fbd
000002e0: a272 ae3b a8c7 ecbd 0f01 083a 5e71 b03c
000002f0: 31c7 993c 81a8 b43c 950e 06bd 8d4c 133c
00000300: 2448 403c 0033 34bd 843d 343d 8046 8f3d
00000310: 441d 833c 69e9 3bbd b4de 6d3c acac de38
00000320: a0fc 573c 16af 183d 73eb 94bb 93c3 ab3d
00000330: a90c 793b 3e28 a83c 35df 5d3c 70d6 2ebe
00000340: b6c7 10bd d16d 373c 5ad5 8abc a536 853c
00000350: 39ae b73c a565 b23c 950e 2bbd 2eb5 febd
00000360: dedf a73c cce1 223d 2560 2abe 113d 0fbe
00000370: bb37 a4bb e373 77bd 60a7 ac3c 6996 51be
00000380: 22f8 6fbe 1cc9 22be dbe8 56be 8561 00be
00000390: 4d7d 2ebe 49cd 813d 7afa 3cbd a75f b83c
000003a0: db3b d53c d061 0dbe e0bb 923c 897e 573c
000003b0: 4720 36be cf82 b63c d9e4 8d3c 3aa0 7dbc
000003c0: e936 ae3c 30e7 6f3c fdd8 5e3c 2c62 f7bc
000003d0: d6af 16be 5dfc 7f3c fea9 9b3c 31af 873c
000003e0: 0da9 13be 9f36 09be 3e92 3d3b 5ca1 5c3c
000003f0: 4cf6 993c cc4d 25bd 44c4 a63c b283 603b

fc.bias f4 [61]
-0.440525 -0.5402138 -0.71571046 -0.87992907 -0.99815947 -0.989511 -0.9080488 -0.80908716
-0.68758535 -0.5620948 -0.46315747 -0.40089783 -0.4048907 -0.4942865 -0.6631099 -0.8235718
-0.94565916 -0.96398914 -0.92426336 -0.86909723 -0.7900807 -0.6906356 -0.60122854 -0.54005885
-0.5345992 -0.60482764 -0.73189014 -0.8604885 -0.9695193 -0.96325165 -0.89894414 -0.82689583
-0.736635 -0.62437373 -0.5202669 -0.44513804 -0.42031628 -0.4739878 -0.5970455 -0.72775805
-0.8484706 -0.8645419 -0.8082406 -0.7426126 -0.6621971 -0.559463 -0.46090242 -0.3869902
-0.3554047 -0.39956915 -0.532273 -0.7029642 -0.8558559 -0.9350548 -0.9210114 -0.8783041
-0.81920165 -0.72829694 -0.6261603 -0.54427516 -0.50418603
00000000: 7e8c e1be 744b 0abf cd38 37bf 0843 61bf
00000010: 6187 7fbf 9850 7dbf e375 68bf 5620 4fbf
00000020: 9805 30bf 72e5 0fbf fa22 edbe 7b42 cdbe
00000030: d54d cfbe 1f13 fdbe 92c1 29bf 9ad5 52bf
00000040: b816 72bf fec7 76bf 869c 6cbf 287d 5ebf
00000050: bb42 4abf 7fcd 30bf 1dea 19bf 4c41 0abf
00000060: 7edb 08bf fcd5 1abf 275d 3bbf f948 5cbf
00000070: 6b32 78bf a997 76bf 3421 66bf 72af 53bf
00000080: 1d94 3cbf f5d6 1fbf 3630 05bf 22e9 e3be
00000090: b233 d7be 87ae f2be f9d7 18bf 5a4e 3abf
000000a0: 5f35 59bf 9e52 5dbf dbe8 4ebf dc1b 3ebf
000000b0: c085 29bf f838 0fbf 67fb ebbe 9423 c6be
000000c0: 9bf7 b5be 5494 ccbe 0b43 08bf 76f5 33bf
000000d0: 5f19 5bbf c05f 6fbf 67c7 6bbf 8ad8 60bf
000000e0: 33b7 51bf ab71 3abf 0b4c 20bf 9e55 0bbf
000000f0: 5612 01bf

ln.weight f4 [128]
0.69914633 0.9659011 0.5850361 0.7582474 0.83670896 0.99630827 0.82811254 0.8800715
0.761557 0.9876994 0.7059186 0.5029269 0.51065016 0.9558903 0.96990305 0.8897339
0.7996459 0.8199553 0.274164 0.7253194 0.8464522 0.3455644 0.3715445 0.3575298
0.8682623 0.95157415 0.9520012 0.52728206 0.47531277 0.95244706 0.9171467 0.747601
0.40045765 0.75390804 0.8994886 0.83912957 0.93314713 0.7531475 0.82993174 0.8009064
0.7992324 0.5581704 0.6602584 0.6466505 0.9353448 1.0050417 0.95033884 0.9950989
0.3824271 0.90977 0.8191188 0.5892096 0.33687896 0.7689578 0.2901421 0.8827337
0.79409033 1.0051055 0.78007424 0.77516997 0.9672821 0.8372942 0.7386614 0.44317713
0.98823 0.7102073 0.61645555 0.30716658 0.883376 0.7844259 0.8148288 0.9811717
0.99492323 0.9714591 0.9653489 0.702717 0.3584711 0.81912935 0.8476843 1.0135942
0.7607767 0.8736531 0.9900931 0.8189545 0.9461194 0.86840844 0.64135706 0.996487
0.88681155 0.7471823 1.0406164 1.008941 0.99382186 0.88636315 0.8737968 1.0172167
0.9771737 1.0452447 0.9828072 0.970307 1.0099438 0.3049256 0.6379114 0.75786954
0.9293823 0.979834 0.7183083 0.813816 0.9578245 0.8527806 0.9726804 0.97540855
0.87547284 0.873492 0.8797772 0.46037173 1.0338993 0.88380605 0.89765555 0.931162
1.0115026 0.9837972 0.8896842 0.87299716 0.82223314 0.73633236 0.77660275 0.98707724
00000000: 41fb 323f 4b45 773f edc4 153f 801c 423f
00000010: 8f32 563f 0f0e 7f3f 2fff 533f 5e4c 613f
00000020: 66f5 423f ded9 7c3f 15b7 343f d1bf 003f
00000030: f8b9 023f 3ab5 743f 914b 783f 9ac5 633f
00000040: 98b5 4c3f 97e8 513f 395f 8c3e 88ae 393f
00000050: 17b1 583f d1ed b03e 153b be3e 250e b73e
00000060: 7046 5e3f 5d9a 733f 5ab6 733f f5fb 063f
00000070: 325c f33e 92d3 733f 20ca 6a3f c762 3f3f
00000080: c908 cd3e 1e00 413f e344 663f 32d1 563f
00000090: bbe2 6e3f 46ce 403f 6876 543f 3408 4d3f
000000a0: 7f9a 4c3f 41e4 0e3f b206 293f e38a 253f
000000b0: c272 6f3f 35a5 803f 6849 733f cdbe 7e3f
000000c0: 7ccd c33e b0e6 683f c5b1 513f 71d6 163f
000000d0: 667b ac3e 6bda 443f 818d 943e d6fa 613f
000000e0: 8149 4b3f 4ca7 803f f2b2 473f 8a71 463f
000000f0: cd9f 773f ea58 563f ea18 3d3f 1de8 e23e
00000100: a4fc 7c3f 25d0 353f 08d0 1d3f f044 9d3e
00000110: ee24 623f 23d0 483f 9f98 503f 122e 7b3f
00000120: 4ab3 7e3f 8bb1 783f 1b21 773f 43e5 333f
00000130: 8689 b73e 76b2 513f d701 593f 74bd 813f
00000140: 43c2 423f bba7 5f3f be76 7d3f 01a7 513f
00000150: e234 723f 0450 5e3f fa2f 243f c619 7f3f
00000160: 1506 633f 5747 3f3f eb32 853f fb24 813f
00000170: 1c6b 7e3f b2e8 623f 26b1 5f3f 2834 823f
00000180: 0e28 7a3f 94ca 853f 4199 7b3f 0a66 783f
00000190: d745 813f 351f 9c3e 294e 233f bd03 423f
000001a0: 00ec 6d3f 67d6 7a3f 0ee3 373f 3f56 503f
000001b0: fd33 753f d44f 5a3f 9501 793f 60b4 793f
000001c0: fd1e 603f 2c9d 5f3f 1439 613f d8b5 eb3e
000001d0: d056 843f 1d41 623f c1cc 653f a260 6e3f
000001e0: eb78 813f 22da 7b3f 58c2 633f be7c 5f3f
000001f0: df7d 523f 4780 3c3f 70cf 463f 18b1 7c3f

ln.bias f4 [128]
0.458599 0.16412379 -0.30185068 0.36944833 -0.3708926 0.10430639 0.3923453 -0.24764732
-0.44122764 0.10641677 0.526946 0.72226775 0.63881594 0.026762538 0.105711445 -0.22774942
-0.26622492 -0.38230824 -0.89798605 -0.49982578 -0.30214974 0.9285748 0.9701764 0.98270565
-0.06929147 0.110716216 0.014600718 0.21046948 -0.7332077 -0.06092918 -0.14428504 -0.029451463
-0.90908045 0.38680345 -0.28563175 -0.47656164 -0.06225755 0.38691214 0.36819065 0.38104534
0.34553894 -0.74346364 -0.38191488 -0.20324875 0.243801 -0.018304741 -0.19751012 -0.0428729
0.96903676 -0.32632273 0.45503443 0.23170461 0.9488008 0.30062503 -1.1465036 0.27391773
0.12573473 0.062561765 0.16757262 -0.26987955 0.007712503 -0.38107836 0.47231945 0.62631184
-0.0007270095 0.40021342 -0.63383204 -0.9708713 -0.29808378 0.51781994 -0.48059657 0.10374242
-0.0741437 -0.026462732 0.041087914 0.39042082 0.89844036 -0.39852312 -0.32930094 -0.06436989
0.4324858 -0.22229968 -0.07229222 -0.32937208 0.02297923 -0.17818792 0.5628459 0.10716158
-0.26946086 0.3258539 -0.054289438 -0.036972836 -0.10147669 0.2067064 -0.36245623 -0.061619546
-0.15548542 0.02738426 -0.11606696 0.19473314 -0.059003823 -0.9228587 0.48722282 -0.47169665
0.067964375 -0.00044889562 -0.5800064 -0.41247636 0.09335176 -0.332588 -0.049332183 -0.07229782
-0.29632553 -0.3168206 -0.18301415 0.8653169 0.0015242827 -0.29906532 -0.269378 -0.14951201
0.090128124 0.079272196 0.14197344 -0.42263007 -0.45409438 0.5247707 -0.44910687 -0.13524573
00000000: 7dcd ea3e 1110 283e 2c8c 9abe 5528 bd3e
00000010: a3e5 bdbe 979e d53d 7ce1 c83e 4297 7dbe
00000020: 97e8 e1be 09f1 d93d efe5 063f 8ae6 383f
00000030: 7189 233f 1c3d db3c 3e7f d83d 2537 69be
00000040: a24e 88be e8bd c3be 6ae2 65bf 2ae9 ffbe
00000050: 5fb3 9abe 14b7 6d3f 7b5d 783f 9992 7b3f
00000060: b0e8 8dbd 2fbf e23d da37 6f3c 5085 573e
00000070: 80b3 3bbf e090 79bd 75bf 13be 3244 f1bc
00000080: 7fb9 68bf 1a0b c63e 533e 92be e3ff f3be
00000090: c601 7fbd 5919 c63e 7c83 bc3e 6018 c33e
000000a0: 7bea b03e a253 3ebf 598a c3be 7120 50be
000000b0: f8a6 793e d3f3 95bc 1840 4abe 7e9b 2fbd
000000c0: cb12 783f c613 a7be 46fa e83e f943 6d3e
000000d0: 9ce4 723f 86eb 993e a1c0 92bf f23e 8c3e
000000e0: 9bc0 003e 6220 803d 2898 2b3e a72d 8abe
000000f0: 2ab9 fc3b b41c c3be dbd3 f13e f955 203f
00000100: c894 3eba c6e8 cc3e d142 22bf 068b 78bf
00000110: 709e 98be d98f 043f c110 f6be e876 d43d
00000120: a7d8 97bd 5fc8 d8bc cd4b 283d 3de5 c73e
00000130: 3000 663f 390b ccbe 229a a8be 5cd4 83bd
00000140: c76e dd3e 87a2 63be f20d 94bd 75a3 a8be
00000150: f03e bc3c e576 36be ab16 103f 8877 db3d
00000160: c6f6 89be 53d6 a63e 9a5e 5ebd d470 17bd
00000170: 03d3 cfbd d8aa 533e dd93 b9be c764 7cbd
00000180: 9237 1fbe f554 e03c 84b4 edbd 2068 473e
00000190: fead 71bd 7840 6cbf 4575 f93e 3982 f1be
000001a0: e830 8b3d c059 ebb9 4d7b 14bf 1a30 d3be
000001b0: 352f bf3d f948 aabe 8b10 4abd e110 94bd
000001c0: fbb7 97be 4f36 a2be 1068 3bbe 6985 5d3f
000001d0: 71ca c73a 171f 99be eaeb 89be ad19 19be
000001e0: 1895 b83d 7659 a23d 7c61 113e f862 d8be
000001f0: 0f7f e8be 5f57 063f 56f1 e5be db7d 0abe
