BiRNNmodel.pth (torch, 172267 bytes, 12 tensors)

rnn.weight_ih_l0 f4 [64, 3]
0	0xbd4dd6e4	-0.050253764
1	0xbd88164c	-0.06644878
2	0x3da4968c	0.08036527
3	0xbd8d370f	-0.06895267
4	0xbd8ef5ee	-0.06980501
5	0xbd802740	-0.06257486
6	0x3d50516f	0.05085891
7	0xbc776123	-0.015098843
8	0x3ce6c2e0	0.028169096
9	0xbd9c4811	-0.07630933
10	0xbc88e24c	-0.01670947
11	0xbc91a3e0	-0.017778337
12	0xbd32f092	-0.043686457
13	0xbd3d8aee	-0.04627507
14	0x3dbf466c	0.09339604
15	0x3d17ad9f	0.037030812
16	0xbd453db0	-0.048154533
17	0xbd9a38a6	-0.07530336
18	0xbd2e6727	-0.042578842
19	0xbd72c11c	-0.059266195
20	0x3dbcc110	0.09216511
21	0xbcae03e9	-0.021242099
22	0xbd35543a	-0.044269778
23	0xbd9fb446	-0.07798056
24	0x3d1fa9d5	0.038980324
25	0x3d5123c5	0.051059503
26	0x3d82cf80	0.06387234
27	0x3c05a683	0.008157375
28	0xbcae28aa	-0.021259625
29	0x3d21dd2c	0.039517567
30	0x3a6dadeb	0.00090667483
31	0xbd96c59d	-0.073619105
32	0x3dd0719e	0.10177921
33	0x3d3c7d37	0.04601785
34	0x3caeaa2e	0.021321382
35	0xbd7cb628	-0.061697155
36	0x3d9057b0	0.07047975
37	0xbc239d29	-0.0099862
38	0xbd9319b0	-0.07182634
39	0xbd1dbefc	-0.038512215
40	0x3d85b7f0	0.06529224
41	0xbd6906a0	-0.056891084
42	0xbd594476	-0.053043805
43	0x3d41e00d	0.047332812
44	0x3d1cc430	0.038273036
45	0x3d26b6b8	0.040701598
46	0xbbd69bb9	-0.0065493253
47	0x3c315510	0.010823503
48	0xbc93804f	-0.018005518
49	0xbd2cb2fa	-0.042162873
50	0xbd260ea4	-0.040541306
51	0xbd807810	-0.062729
52	0x3d48435d	0.048892368
53	0x3d1698a8	0.036766678
54	0x3d864ab6	0.06557219
55	0x3d2accd9	0.041699264
56	0x3dbaaafe	0.091146454
57	0xbc1771ad	-0.009243411
58	0x3c4f7dc8	0.012664266
59	0xbd830364	-0.06397131
60	0xbd53c93a	-0.051705576
61	0xbd918792	-0.07105936
62	0x3dafa832	0.085770026
63	0xbc897809	-0.01678087
64	0x3cfb7350	0.030694634
65	0x3dd106c8	0.102063715
66	0xbdb73e3e	-0.08947419
67	0x3d61aec1	0.0550983
68	0x39dd9200	0.00042261183
69	0xbd8a1489	-0.06742198
70	0xbca3f37a	-0.02001356
71	0xbdce9d4c	-0.10088596
72	0x3cdaac15	0.026693383
73	0x3bf6ea1a	0.0075352313
74	0x3cd36db8	0.025809154
75	0xba8a1d1b	-0.0010537239
76	0x3b93d47d	0.0045114146
77	0xbb6ae780	-0.003584355
78	0xbddcf10c	-0.107881635
79	0xbd3343b0	-0.043765724
80	0x3be1f600	0.0068957806
81	0xbd46c066	-0.04852333
82	0xbd910451	-0.070809014
83	0x3d9f4294	0.07776371
84	0x3d30bab8	0.04314682
85	0x3d0c6900	0.034279823
86	0x3c8a5c50	0.016889721
87	0xbd457c63	-0.048214328
88	0xbd728275	-0.059206445
89	0x3d06146c	0.03273432
90	0x3da82536	0.082102224
91	0xbb84cc1a	-0.004052651
92	0xbd7113e8	-0.058856875
93	0x3d1a95d1	0.037740532
94	0xbb59cc8b	-0.003323349
95	0xbdd7cf80	-0.10537624
96	0x3d06dcc3	0.03292538
97	0x3d9c8f7c	0.07644555
98	0xbb93ab40	-0.0045064986
99	0x3d81d5ed	0.06339631
100	0x3c6a2d78	0.014293067
101	0x3ca8b5c0	0.020594478
102	0xbda9cd77	-0.082911424
103	0x3c95fd5b	0.018309286
104	0xbdec8538	-0.11548847
105	0x3d2a6f38	0.041609973
106	0x3c2bc07b	0.010482903
107	0xbd1f69fc	-0.038919434
108	0x3d858912	0.06520285
109	0x3d820b74	0.06349841
110	0xbdce86f2	-0.100843325
111	0x3d6c0c8f	0.057629164
112	0x3c8b90c7	0.017036809
113	0x3d822a8e	0.06355773
114	0xbd8e4c1b	-0.0694811
115	0xbcc6318b	-0.024193546
116	0xbdbc5c5c	-0.09197304
117	0x3abc4b1d	0.0014365647
118	0xbd850065	-0.06494216
119	0x3ddbb500	0.107278824
120	0xbc04f832	-0.008115815
121	0xba20143f	-0.00061065325
122	0x3df411e2	0.119174734
123	0xbd84bdab	-0.06481489
124	0xbd809f8b	-0.062804304
125	0x3debe97a	0.115191415
126	0xbde699f3	-0.11259832
127	0xbda42189	-0.08014209
128	0xbd969d08	-0.0735417
129	0x3d1f99d8	0.038965076
130	0x3d41f95c	0.04735695
131	0xbccd4468	-0.025057033
132	0x3d90e958	0.07075757
133	0x3c88c9cd	0.016697789
134	0xbdb228d4	-0.086991936
135	0x3d0e0829	0.03467575
136	0xbc1cbbf0	-0.009566292
137	0x3cc0ffd8	0.023559496
138	0xbcb52990	-0.022114545
139	0xbce0dc0c	-0.027448677
140	0x3db4704c	0.088104814
141	0x3a8990c7	0.0010495418
142	0x3d1d2c43	0.03837229
143	0x3af0dd80	0.0018376559
144	0x3d8dd058	0.06924504
145	0xbc468441	-0.012116493
146	0x3ca67488	0.020319238
147	0xbcca97fa	-0.024730671
148	0x3d1b61b6	0.03793498
149	0xbda6bf20	-0.08141923
150	0xbbc26722	-0.0059327045
151	0xbaf56477	-0.0018721957
152	0xbd82fda6	-0.06396036
153	0x3d836c7c	0.06417176
154	0x3d713cd4	0.0588959
155	0xbdce4ff0	-0.100738406
156	0x3dc23687	0.094830565
157	0xbd203e80	-0.039122105
158	0x3d0e2e00	0.034711838
159	0x3d4f3e45	0.050596494
160	0x3caeb5ab	0.02132686
161	0x3b49fc40	0.0030820519
162	0xbd132b5f	-0.035930034
163	0xbd845901	-0.06462289
164	0xbda9bfda	-0.08288546
165	0x3cf18f13	0.029487168
166	0x3afee67e	0.0019447354
167	0xbc732390	-0.014840022
168	0x3c8ec53b	0.017428031
169	0xbd9b364e	-0.07578717
170	0xbc30a860	-0.010782331
171	0xbcb1f646	-0.021723878
172	0x3bfa7d94	0.0076443646
173	0x3dbe2ff2	0.092864886
174	0x3cd21357	0.025643988
175	0xbcc8f271	-0.024529668
176	0xbd271e08	-0.040800124
177	0xbd1db967	-0.03850689
178	0xbc7d0b6a	-0.015444616
179	0x3db50e84	0.08840659
180	0x3d1b7887	0.03795674
181	0xbd22fdf0	-0.039792955
182	0x3dbed3fa	0.09317775
183	0xbc12836a	-0.008942464
184	0x3cc689e0	0.024235666
185	0xbdb6e324	-0.089300424
186	0x3d273815	0.04082497
187	0xbc6dcfce	-0.0145148765
188	0x3dc56648	0.09638649
189	0x3d2b619f	0.041841146
190	0xbcdfb369	-0.02730723
191	0x3d68c6b4	0.056830123

rnn.weight_hh_l0 f4 [64, 64]
0	0x3cca8976	0.02472375
1	0x3e0a5a05	0.13510902
2	0xbd2f153b	-0.042744856
3	0xbda84ee5	-0.08218173
4	0x3d347521	0.044057015
5	0x3e0ab63c	0.1354608
6	0xbd80deaa	-0.0629247
7	0x3d00d38b	0.031451743
8	0xbdd7de60	-0.105404615
9	0x3d0e6de9	0.034772787
10	0xbcdc0b1c	-0.026860766
11	0xbcce9c8f	-0.025221137
12	0xbe053db1	-0.13011815
13	0x3dbe6d95	0.09298245
14	0xbd06ddc7	-0.032926347
15	0xbd315f85	-0.043303985
16	0x3c3a7b7b	0.011381979
17	0xbd8ec38b	-0.069708906
18	0x3d80cb14	0.06288734
19	0x3e062efe	0.13103864
20	0xbc9fcee0	-0.019507825
21	0xbd830663	-0.063977025
22	0x3d14c4b9	0.03632042
23	0x3e00911b	0.12555353
24	0x3d17776f	0.036979135
25	0x3cd4e9a9	0.025990324
26	0xbe135532	-0.14387968
27	0xbc424dc5	-0.011859362
28	0x3d9f447d	0.07776735
29	0xbc1fe5f4	-0.009759415
30	0xbe20ea5e	-0.15714404
31	0x3d70e46b	0.058811586
32	0x3c923693	0.017848289
33	0xbd1e03d6	-0.038577877
34	0x3b8a27dd	0.004216178
35	0xbbaa1b23	-0.005191223
36	0xbc6565af	-0.014001294
37	0x3d211a95	0.03933199
38	0xbda611d8	-0.08108872
39	0xbde31dcf	-0.1108967
40	0xbde42c7d	-0.11141298
41	0xbdf7d006	-0.12100224
42	0xbe010d27	-0.12602673
43	0xbe0f7eb5	-0.14013179
44	0x3d9f66f8	0.077833116
45	0xbcc25f28	-0.023727015
46	0x3c151bce	0.009100867
47	0x3dc552b9	0.09634919
48	0xbdacea2e	-0.08443104
49	0x3d7f7358	0.06236586
50	0xbd2320cf	-0.03982621
51	0x3ba8c765	0.005150723
52	0xbd6dbdac	-0.058042213
53	0x3daa3c93	0.08312335
54	0x3cf82674	0.030291773
55	0xbd867857	-0.06565922
56	0xbd1418e9	-0.03615657
57	0x3dddd631	0.108318694
58	0xbd56cc0c	-0.052440688
59	0x3c97af4b	0.018516203
60	0xbc8e231a	-0.017350722
61	0xbdee7cf8	-0.1164493
62	0xbe0d2b4f	-0.13786052
63	0xbd355dc0	-0.04427886
64	0xbd1a936e	-0.037738256
65	0xbcd930a3	-0.02651245
66	0xbc09a3a6	-0.008400833
67	0xbc6760f0	-0.014122233
68	0x3e02b1af	0.12763093
69	0xbd055858	-0.032554954
70	0xbb3711cf	-0.0027934199
71	0xbbd0b258	-0.0063689165
72	0x3d0d0856	0.034431778
73	0xbdcad848	-0.099045336
74	0x3d378619	0.04480562
75	0xbda915a4	-0.08256081
76	0xbd2a879f	-0.041633245
77	0xbd6bac6b	-0.057537477
78	0xbd744138	-0.05963251
79	0xbd2f4e1b	-0.042799097
80	0x3d3a5873	0.045494508
81	0xbd6d7297	-0.05797061
82	0xbca07daa	-0.019591171
83	0xbd034ff7	-0.032058682
84	0x3d9c7634	0.07639733
85	0x3dfa2f3f	0.12216043
86	0x3dbb1863	0.09135511
87	0xbce22081	-0.02760339
88	0xbda3ef90	-0.08004677
89	0x3da83a60	0.08214259
90	0x3c83cf63	0.0160901
91	0xbc53851c	-0.012910154
92	0x3d9f9c0e	0.07793437
93	0xbbc88c9d	-0.006120278
94	0x3da393b4	0.079871565
95	0x3d9bdc60	0.076103926
96	0xbd54a9c9	-0.051919732
97	0xbcaba860	-0.02095431
98	0xbd18dc80	-0.03731966
99	0x3d078a42	0.033090837
100	0x3d0021ae	0.03128212
101	0x3d63b7ba	0.055595137
102	0x3b025b3a	0.00198908
103	0x3caff311	0.021478208
104	0xbd00be85	-0.031431694
105	0x3dc3580d	0.09538279
106	0xbcfa4689	-0.030551212
107	0xbd438e88	-0.04774335
108	0x3db2c815	0.08729569
109	0x3d8e518b	0.06949147
110	0xbd357070	-0.044296682
111	0x3d5e7d1c	0.054318532
112	0x3d66b1f9	0.05632207
113	0xbda086fe	-0.07838248
114	0x3ddc017a	0.10742469
115	0x3e13c188	0.14429295
116	0x3dc9c6b2	0.09852351
117	0x3da65238	0.08121151
118	0xbcbdfd5f	-0.023192106
119	0x3d143952	0.036187477
120	0x3d945709	0.07243163
121	0xba763bb2	-0.00093930506
122	0xbd8b6554	-0.06806436
123	0x3b460b8c	0.0030219285
124	0xbda3971e	-0.07987808
125	0xbde4cb10	-0.111715436
126	0xbdc0900d	-0.094024755
127	0x3df6bfae	0.12048279
128	0xbdc972d8	-0.09836358
129	0x3dbcc945	0.092180766
130	0x3d7e5eee	0.06210225
131	0xbc98031d	-0.018556172
132	0x3da02f3d	0.0782151
133	0x3dc2444d	0.094856836
134	0xbde622bb	-0.11237093
135	0x3d36568e	0.04451614
136	0x3d92ab28	0.07161552
137	0x3db3bf6f	0.087767474
138	0xbdbe9b2b	-0.0930694
139	0x3c8eb8ba	0.017422069
140	0x3e03b3c1	0.1286154
141	0xbcc7a9b5	-0.024372915
142	0xbd4d7a62	-0.05016554
143	0x3d053623	0.032522332
144	0xbdf214fc	-0.11820409
145	0x3cc8c0ab	0.024505934
146	0xbd95ce4d	-0.073147394
147	0x3d9d36d8	0.07676476
148	0x3d946c15	0.072471775
149	0xbb7401cc	-0.0037232516
150	0x3d17af65	0.037032504
151	0x3ca86b53	0.020558989
152	0xbdd17caa	-0.10228856
153	0xbd89e5fc	-0.06733319
154	0xbe0361dc	-0.12830299
155	0x3c7565c1	0.014977873
156	0xbd641e6b	-0.05569307
157	0x3da702b5	0.08154813
158	0xbda158f0	-0.078782916
159	0x3de81eac	0.11333975
160	0xbd851f65	-0.06500129
161	0x3b6ec2a0	0.0036431924
162	0x3b0bf8ed	0.0021358088
163	0x3d90d7db	0.07072421
164	0xbdaa1284	-0.08304313
165	0xbc4dc676	-0.012559524
166	0x3cad8d0e	0.021185424
167	0x3dcb7c5b	0.09935828
168	0x3daa391f	0.08311676
169	0x3cf4455d	0.029818231
170	0xbddede7a	-0.10882278
171	0xbdda3191	-0.10653985
172	0xbcf5b919	-0.029995488
173	0xbccd8a05	-0.025090227
174	0xbd73cda5	-0.05952229
175	0x3c127b5f	0.008940547
176	0x3d9450e7	0.072419934
177	0x3c0fe2fe	0.0087821465
178	0xbd481b6e	-0.048854284
179	0xbb02cbf4	-0.0019957991
180	0xbdab1fe0	-0.08355689
181	0x3db1fe1b	0.08691045
182	0xbdcf892c	-0.10133585
183	0xbdb78235	-0.08960382
184	0x3d847bf3	0.06468954
185	0x3e01458e	0.1262419
186	0xbd807116	-0.062715694
187	0xbd8a09cb	-0.06740149
188	0xbdf11c67	-0.117729954
189	0xbdbb02f1	-0.091314204
190	0xbd9a66ad	-0.07539115
191	0xbe0fc502	-0.14039996
192	0xbd3e3e76	-0.046446286
193	0xbd858762	-0.06519963
194	0x3ba1ce47	0.0049379203
195	0xbdc1ab1b	-0.09456464
196	0xbcb7e637	-0.022448642
197	0xbd2e298a	-0.042520083
198	0x3e1b10a4	0.15143067
199	0xbe0450be	-0.12921426
200	0xbdc3ea65	-0.095661916
201	0x3de47cee	0.11156641
202	0x3dacdc03	0.084404014
203	0xbd38601f	-0.045013543
204	0xbdad281e	-0.08454917
205	0x3df9495a	0.12172194
206	0x3c6694da	0.014073575
207	0x3dba6c23	0.09102657
208	0x3e0c9847	0.13729964
209	0xbd187ff9	-0.03723142
210	0xbd1a8bf6	-0.037731133
211	0x3e03e13e	0.12878892
212	0xbd8de0a9	-0.06927616
213	0xbd122b9a	-0.035686113
214	0xbd3e80ac	-0.04650943
215	0x3d5c3138	0.053757876
216	0xbc7696ef	-0.015050634
217	0xbdaf7404	-0.0856705
218	0x3d27668f	0.040869292
219	0x3d854bf4	0.065086275
220	0xbc86697a	-0.016407717
221	0x3bb81da9	0.00561877
222	0x3d5f03df	0.05444705
223	0x3c52e751	0.012872533
224	0xbd767cf3	-0.060177755
225	0x3c01c491	0.0079204
226	0xbd6a0466	-0.0571331
227	0x3cc5966a	0.024119575
228	0x3d8ca90d	0.068681814
229	0x3e17cc9e	0.14824149
230	0xbdb980ba	-0.09057756
231	0xbcdf0065	-0.027221868
232	0xbda57f72	-0.08080949
233	0xbdb54aba	-0.088521436
234	0xbd10760e	-0.035268836
235	0x3db3dc69	0.08782274
236	0x3d709ef9	0.05874536
237	0x3e1561fb	0.14588158
238	0x3c882b53	0.016622221
239	0x3c907b58	0.01763694
240	0x3bd989fa	0.0066387625
241	0x3b2f2612	0.0026725573
242	0xbd682268	-0.056673437
243	0x3d8e029c	0.069340914
244	0x3d85e979	0.06538672
245	0x3d84d9e0	0.06486869
246	0x3d3dfb52	0.046382256
247	0x3d476872	0.04868359
248	0xbe185e29	-0.14879669
249	0x3d9cd8a6	0.0765851
250	0xbd059aa1	-0.03261817
251	0x3d84b53d	0.06479881
252	0xbabf5984	-0.0014598821
253	0xbe1fbec3	-0.15600114
254	0x3d9e11ce	0.0771824
255	0x3d9eaf68	0.077483

rnn.bias_ih_l0 f4 [64]
0	0x3cedc994	0.029026784
1	0xbe07c765	-0.13259657
2	0xbd81e388	-0.06342226
3	0xbca72e4c	-0.020407818
4	0xbe467dd8	-0.19383943
5	0xbe1c1ad8	-0.15244615
6	0xbdc3c340	-0.09558725
7	0x3d6ac172	0.05731339
8	0x3df3acb6	0.11898176
9	0xbdfe9a58	-0.124317825
10	0xbe0b0860	-0.13577414
11	0x3b027fda	0.0019912631
12	0x3e315541	0.17317678
13	0x3cd4cb89	0.02597596
14	0x3d9292b5	0.071568884
15	0xbdfe9496	-0.12430684
16	0xbdb70185	-0.08935837
17	0x3dd35795	0.10319439
18	0xbd6d22f5	-0.057894666
19	0xbd47a854	-0.048744515
20	0x3dac7b5a	0.08421965
21	0xbe13f698	-0.14449537
22	0x3d42d994	0.04757078
23	0x3c05d789	0.008169063
24	0x3deca0ef	0.11554133
25	0x3e315730	0.17318416
26	0x3e118de7	0.14214288
27	0x3e3848a4	0.1799646
28	0x3e367816	0.17819247
29	0xbda79b7c	-0.08183953
30	0x3de8ed4c	0.11373386
31	0xbe1fc6a6	-0.15603122
32	0x3d4cd945	0.050011892
33	0xbc50e892	-0.012750762
34	0x3d9336d7	0.07188194
35	0xbe316b61	-0.17326118
36	0x3d83af2a	0.06429894
37	0xbe355350	-0.17707562
38	0xbe198a38	-0.14994133
39	0xbe0e5ca8	-0.13902533
40	0x3d51031d	0.05102836
41	0xbc199e77	-0.00937616
42	0x3df7194d	0.120653726
43	0x3e359554	0.17732745
44	0x3c400437	0.011719755
45	0xbda403b6	-0.0800852
46	0x3d8aeff5	0.067840494
47	0xbe0fb2ca	-0.14033046
48	0xbdfad2b0	-0.12247217
49	0x3e31d59f	0.17366646
50	0x3d1f3ea4	0.038878098
51	0x3b8fcaa4	0.0043881703
52	0xbdcbe38a	-0.09955509
53	0xbdf9390c	-0.12169084
54	0xbc630192	-0.013855355
55	0x3e09c11c	0.13452572
56	0x3da8fe8f	0.08251678
57	0xbd10f184	-0.035386577
58	0xbc9abdd4	-0.018889345
59	0x3d358fe6	0.044326685
60	0xbd246d3a	-0.04014323
61	0x3e037ecd	0.1284134
62	0x3d9169f7	0.07100289
63	0xbdeab6d4	-0.11460653

rnn.bias_hh_l0 f4 [64]
0	0xbe2c5d49	-0.1683246
1	0xbe10f82d	-0.14157172
2	0xbc5d557f	-0.013509153
3	0xbe0c171d	-0.13680692
4	0xbd49b90a	-0.049248733
5	0xbe13db62	-0.14439157
6	0xbdf3984b	-0.11894282
7	0x3df9b675	0.12193004
8	0x3e195d44	0.14976984
9	0xbde853dc	-0.1134412
10	0xbd6c0851	-0.05762512
11	0x3e230789	0.15920843
12	0xbcc47d21	-0.023985447
13	0xbc1c7be6	-0.009551024
14	0x3e24d6d3	0.16097574
15	0xbd7bb481	-0.06145144
16	0xbe01a78f	-0.12661575
17	0x3cb4645b	0.02202051
18	0xbe310763	-0.17287974
19	0xbdfa54ab	-0.122231804
20	0x3e10f7dc	0.14157051
21	0xbdd43c33	-0.103630446
22	0x3d9f7f19	0.07787914
23	0xbdecc4cf	-0.11560976
24	0x3e1c8e80	0.15288734
25	0x3e08a8d0	0.13345647
26	0x3dfd8ede	0.123807654
27	0xbcd14652	-0.025546227
28	0xbbbfc909	-0.0058528227
29	0x3d134cfb	0.035962086
30	0x3e219602	0.1577988
31	0xbdae31f6	-0.08505623
32	0x3e1e865e	0.15480945
33	0xbe414424	-0.1887365
34	0x3e18f79d	0.14938207
35	0x3d06eb03	0.03293897
36	0x3d6917c5	0.056907434
37	0xbdf1bb31	-0.11803282
38	0x3d3ab89e	0.04558622
39	0x3d49605c	0.04916416
40	0x3d905f24	0.07049397
41	0x3e066966	0.13126144
42	0x3dcc90da	0.09988566
43	0x3e1f24ec	0.15541428
44	0x3dede805	0.1161652
45	0xbdfa94a6	-0.12235384
46	0xbcd474dd	-0.025934631
47	0xbddf0a47	-0.10890632
48	0xbd02e4c4	-0.03195645
49	0x3e0df1ac	0.13861722
50	0xbe44cc56	-0.19218573
51	0xbd15b169	-0.036546145
52	0xbd6564ac	-0.05600421
53	0xbe449d2e	-0.19200584
54	0x3e4c65fe	0.19960782
55	0x3e00695d	0.12540193
56	0x3dff67ac	0.12470946
57	0xbc6f6c1a	-0.014613176
58	0xbdf284e4	-0.11841753
59	0x3d085a03	0.033288967
60	0xbe34df3e	-0.17663285
61	0x3d1ac989	0.037789855
62	0x3dbd31b0	0.09237993
63	0x3cd44f71	0.025916787

rnn.weight_ih_l0_reverse f4 [64, 3]
0	0xbc329277	-0.010899178
1	0xbc4e1ded	-0.012580377
2	0xbdb49072	-0.08816613
3	0x3cca80da	0.024719644
4	0xba94bc28	-0.0011347579
5	0xbc3ade00	-0.011405468
6	0x3d04dac3	0.03243519
7	0x3c934e3f	0.017981647
8	0xbd422a1c	-0.04740344
9	0xbcc0c7cb	-0.023532769
10	0x3d4e519a	0.05037079
11	0x3cd36f00	0.025809765
12	0xbd18ab3b	-0.037272673
13	0xbd78775b	-0.0606607
14	0xbc2c3f00	-0.010513067
15	0xbdd68b97	-0.104758434
16	0xbd9bad49	-0.07601411
17	0xbd9e7c82	-0.07738592
18	0xbd821b9c	-0.06352922
19	0x3cc5fff4	0.0241699
20	0xbdf5ee00	-0.120082855
21	0x3c3b7392	0.011441128
22	0x3d12ff90	0.035888255
23	0xbde9272a	-0.11384423
24	0xbcd1530d	-0.025552297
25	0xbd57077c	-0.052497372
26	0x3d355f80	0.04428053
27	0xbd8cc560	-0.06873584
28	0xbc2a803d	-0.010406551
29	0x3ceb5c20	0.028730452
30	0xbbbbc33a	-0.00573006
31	0x3c34a404	0.0110254325
32	0x3d545810	0.051841795
33	0xbc43d8c1	-0.011953534
34	0x3c9a75f8	0.01885508
35	0x3d16a548	0.03677872
36	0xbc211972	-0.009832727
37	0xbbede749	-0.0072602374
38	0x3d3cf98c	0.046136424
39	0x3c5090ef	0.012729867
40	0x3c1b197f	0.009466528
41	0x3d17e430	0.03708285
42	0xbd67a782	-0.056556232
43	0xbc817b58	-0.015805885
44	0x3dd6cb8a	0.10488041
45	0x3d8cbe25	0.06872205
46	0x3d83d683	0.06437399
47	0x3c856440	0.016283154
48	0x3d0e0f0e	0.034682326
49	0xbd3d7a60	-0.046259284
50	0x3ce06050	0.027389675
51	0x3dc79348	0.097448885
52	0x3d1718b8	0.036888808
53	0x3db5c62a	0.088756874
54	0x3cdaf5f7	0.026728613
55	0xbd45a4fb	-0.04825304
56	0x3d186d00	0.037213326
57	0xbdb9bee2	-0.09069611
58	0xbda63fda	-0.081176475
59	0xbd158820	-0.036506772
60	0x3d496133	0.049164962
61	0x3c149815	0.009069462
62	0x3d4b7370	0.049670637
63	0x3d9e52a3	0.077306055
64	0x3d58caa4	0.05292763
65	0xbdd719fa	-0.105030015
66	0xbda228f0	-0.079179645
67	0xbd721d83	-0.059110176
68	0xbdf2b082	-0.118500724
69	0x3d01f3f4	0.031726792
70	0x3d84a80d	0.06477366
71	0xbdda5f2c	-0.10662684
72	0xbd3d9e23	-0.04629339
73	0x3be36ef5	0.0069407173
74	0x3d4d2a5c	0.050089225
75	0x3d2674e4	0.04063882
76	0xbd6dea5c	-0.05808483
77	0xbd0c1d7c	-0.034207806
78	0x3dcfde7a	0.10149856
79	0xbbc6188e	-0.0060454076
80	0xbcd3d638	-0.025858983
81	0xbdc15abd	-0.09441135
82	0xbc4efee2	-0.012634011
83	0x3df02582	0.11725904
84	0xbca3d0c3	-0.019997006
85	0xbc9d4ec7	-0.019202603
86	0xbd941f5c	-0.07232544
87	0xbc519169	-0.012791016
88	0xbd3086d9	-0.04309735
89	0xbc0b3700	-0.008497
90	0x3b5ed0bf	0.0033998934
91	0xbc8da091	-0.017288478
92	0xbdfeb828	-0.12437469
93	0xb9bb9446	-0.00035777892
94	0x3d3afd4f	0.04565173
95	0xbd7e2f6c	-0.062056944
96	0x3ce586fe	0.02801847
97	0x3c1668bf	0.009180247
98	0x3d7c3524	0.061574116
99	0xbc735478	-0.014851682
100	0xbd26e11c	-0.040742025
101	0x3d319248	0.043352395
102	0x3ce3c4b6	0.02780376
103	0xbc065d04	-0.008200888
104	0xbc89bf38	-0.016814813
105	0x3cb1ebe1	0.021718921
106	0xbcab76ac	-0.02093061
107	0x3d8f4b1c	0.06996748
108	0xbc87494c	-0.016514443
109	0x3d455862	0.04817999
110	0x3d2a3e58	0.041563362
111	0xbd927f60	-0.07153201
112	0xbbac4925	-0.005257743
113	0xbdd14c36	-0.10219614
114	0x3b917b63	0.0044397577
115	0xbc8c2ead	-0.0171121
116	0x3d99042c	0.07471499
117	0x3d37567e	0.04476022
118	0x39cb8067	0.00038814844
119	0xbd41a75c	-0.047278747
120	0x3d87238c	0.06598577
121	0x3d8f43e1	0.06995369
122	0xbc9cb648	-0.019129887
123	0xbd1ad9d1	-0.037805382
124	0xbd644eca	-0.0557392
125	0xbdef2de2	-0.11678673
126	0xbd24552f	-0.0401203
127	0xbd98ba57	-0.074574165
128	0xbdc398a0	-0.09550595
129	0x3d7381a5	0.05944981
130	0xbcc4aa29	-0.02400692
131	0x3da8a852	0.082352296
132	0x3d9f6638	0.077831686
133	0x3d9d821c	0.07690832
134	0xbded6612	-0.11591734
135	0x3af8d427	0.0018984125
136	0xbcd2d1d0	-0.025734812
137	0x3d5ec5d8	0.054387897
138	0x3c5bd0ee	0.013416512
139	0xbbbb8726	-0.005722898
140	0x3d9e4a50	0.07729018
141	0x3c6b85f1	0.014375196
142	0xbd7145c2	-0.058904417
143	0x3bfee460	0.0077786893
144	0xbd572135	-0.052521903
145	0xbd8ab54b	-0.0677286
146	0x3d5e26c4	0.05423619
147	0x3d0c0e5d	0.034193385
148	0xbd19a3ec	-0.037509844
149	0xbc8cd5d8	-0.017191812
150	0x3d5f17ea	0.054466166
151	0x3d79c1d9	0.060975883
152	0xbde407ea	-0.11134322
153	0x3dbc6b17	0.09200113
154	0x3d8524e7	0.06501179
155	0x3cd3eb20	0.025868952
156	0x3c66238d	0.014046562
157	0x3d61a8a9	0.055092487
158	0xbd3e9a34	-0.04653378
159	0xbd648bb3	-0.05579729
160	0xbd053ff9	-0.032531712
161	0x3dc92424	0.098213464
162	0xbcffa73b	-0.031207671
163	0xbd250b2d	-0.04029386
164	0x3d498794	0.049201563
165	0xb9be0fb5	-0.00036251327
166	0xbcfd31a1	-0.030907454
167	0xbd1efae8	-0.0388135
168	0x3ce7cfeb	0.028297385
169	0xbcacdd7f	-0.021101711
170	0x3dde5122	0.108553186
171	0x3c617fa6	0.013763344
172	0x3ca53e0e	0.020171192
173	0xbd39b858	-0.04534182
174	0x3cee2300	0.029069424
175	0xbd050c27	-0.032482293
176	0xbd9c7662	-0.07639767
177	0xbd027ba9	-0.031856213
178	0xbd7085ca	-0.05872134
179	0xbd83dc86	-0.06438546
180	0xbd85370b	-0.06504639
181	0xbd87e2af	-0.06635033
182	0xbd61e500	-0.055150032
183	0xbcd7e1c2	-0.026352767
184	0xbd1a4d5d	-0.037671436
185	0x3b706e00	0.003668666
186	0x3b5b2cef	0.003344353
187	0xbcd908c7	-0.026493443
188	0xbb2570c0	-0.0025244206
189	0x3d943ac2	0.0723777
190	0x3cb3bd40	0.021940827
191	0x3c1f6ee0	0.0097310245

rnn.weight_hh_l0_reverse f4 [64, 64]
0	0x3ce9c642	0.02853692
1	0xbd54dd50	-0.051968873
2	0x3d26ceaa	0.040724434
3	0x3d930baf	0.07179963
4	0x3db47c62	0.08812787
5	0x3cb8aa19	0.022542046
6	0x3de53748	0.11192185
7	0xbdb41e6f	-0.08794867
8	0x3db5704e	0.08859311
9	0xbdd11b57	-0.10210293
10	0x3dab94c9	0.08377988
11	0xbd72f823	-0.059318673
12	0x3d91511d	0.07095549
13	0xbc4d45a2	-0.012528809
14	0xbc8758d3	-0.016521847
15	0x3cbc0835	0.022953132
16	0xbd97596f	-0.07390105
17	0xbcd82b58	-0.026387855
18	0xbdd7bf6c	-0.10534558
19	0xbdc2d814	-0.0951387
20	0xbdacc93b	-0.08436819
21	0xbb7813e4	-0.0037853653
22	0xbc96bc86	-0.018400442
23	0xbd018d52	-0.031628914
24	0xbd5e2ad1	-0.05424005
25	0xbc2f968a	-0.010717044
26	0x3dc88dfc	0.09792706
27	0x3c5abeb7	0.013351134
28	0xbd549037	-0.051895346
29	0xbd0b8c52	-0.034069367
30	0x3d7a18fd	0.061058987
31	0xbdb37485	-0.08762459
32	0xbe084cef	-0.13310598
33	0xbd616869	-0.055031214
34	0x3c50369d	0.012708333
35	0xbe063a2d	-0.1310813
36	0xbcdbfbe9	-0.026853519
37	0xbd483969	-0.048882876
38	0xbdf29bd8	-0.11846131
39	0xbdada18f	-0.084780805
40	0x3d6d8d09	0.05799583
41	0x3c0729c8	0.0082497075
42	0xbdf36862	-0.11885144
43	0x3d1bbec1	0.038023714
44	0x3daea58d	0.0852767
45	0x3ad1a597	0.0015994784
46	0xbc182af6	-0.009287586
47	0xbdc34cd6	-0.0953614
48	0xbd5ae79a	-0.05344353
49	0x3e08cb07	0.13358699
50	0x3cb5a8cf	0.02217522
51	0x3d852d3f	0.06502771
52	0xbd9d8392	-0.07691111
53	0x3dfcead0	0.123494744
54	0xbe0b715c	-0.13617462
55	0x3d84729f	0.06467175
56	0x3d28b846	0.04119136
57	0xbb9f1efe	-0.0048559895
58	0x3d25111b	0.040299516
59	0x3c3f2702	0.011667015
60	0x3d91b955	0.071154274
61	0xbd70e8df	-0.058815833
62	0x3d05d3a6	0.032672547
63	0x3d36c6f4	0.04462333
64	0x3c4edc05	0.012625699
65	0xbd2b93cd	-0.041889
66	0xbae90d4c	-0.0017780452
67	0x3b9ef188	0.00485057
68	0xbd523ac7	-0.051325586
69	0x3dbf5cd8	0.093438804
70	0xbc03d654	-0.008046705
71	0x3e0bc2ad	0.13648482
72	0x3cebe9d7	0.028798027
73	0x3cbb9461	0.022897901
74	0x3b8f80a8	0.0043793507
75	0xbdd820b9	-0.10553116
76	0x3ddf3b13	0.108999394
77	0xbd451c10	-0.048122466
78	0xbdd46b4a	-0.10372026
79	0x3c3ade51	0.011405543
80	0x3dfafb4d	0.12254963
81	0x3deebd54	0.11657205
82	0xbc37ffd6	-0.01123043
83	0x3d478f3f	0.048720594
84	0xbd924c4e	-0.0714346
85	0xbdd8b4ac	-0.105813354
86	0xbc5d1dfb	-0.013495917
87	0xbd9e96f2	-0.07743634
88	0xbd577c55	-0.052608807
89	0x3d0001c3	0.03125168
90	0xbd6aab77	-0.057292428
91	0x3d1dbebf	0.038511988
92	0xbdca9934	-0.098925024
93	0x3d362bc2	0.044475324
94	0xbd43f6fd	-0.04784297
95	0x3dcc7ed3	0.09985127
96	0xbd59f3b5	-0.053210933
97	0x3d931cd1	0.07183231
98	0x3dd87adb	0.10570308
99	0x3d84c029	0.06481964
100	0xbd3f0d0e	-0.04664331
101	0x3dd2324d	0.102635
102	0xbbbca777	-0.005757268
103	0xbda10038	-0.0786137
104	0x3df0ab29	0.11751396
105	0xbd83b2ab	-0.064305626
106	0xbd85a8ba	-0.06526323
107	0xbd75e90d	-0.060036708
108	0x3cae6cb1	0.021292062
109	0xbe0ccff7	-0.13751207
110	0x3dfdf25c	0.12399742
111	0xbdf548cc	-0.119767755
112	0x3c3858a5	0.011251603
113	0x3c460478	0.012086026
114	0x3dd2a0ae	0.102845535
115	0xbda2410c	-0.07922563
116	0xbe0586a2	-0.1303964
117	0x3daf1929	0.08549721
118	0xbda71b1f	-0.0815947
119	0x3d035271	0.032061044
120	0x3d4c1786	0.04982712
121	0x3dd2f3a0	0.10300374
122	0xbcf74709	-0.03018524
123	0xbdb49b27	-0.088186555
124	0x3bae2df5	0.005315537
125	0x3a724d56	0.00092430913
126	0x3c6182ce	0.013764096
127	0x3d345da7	0.044034626
128	0x3d79d9d2	0.060998745
129	0xbdc7fcf8	-0.09765047
130	0xbd977aa5	-0.073964395
131	0x3b8a433d	0.004219441
132	0x3cef1468	0.029184535
133	0xbd8465ab	-0.06464704
134	0xbd446d4d	-0.0479558
135	0x3c3bfbcd	0.011473608
136	0xbd0bdbc5	-0.034145135
137	0x3c2ec42f	0.010666891
138	0xbdbd9980	-0.092577934
139	0x3db183b4	0.086676985
140	0x3df3c98f	0.119036786
141	0x3d8631c1	0.065524586
142	0xbd91b2f1	-0.071142085
143	0xbd2653b8	-0.040607184
144	0x3d2b5d7e	0.041837208
145	0xbb93b984	-0.004508199
146	0x3c0af199	0.008480453
147	0x3c78d042	0.015186371
148	0x3d269a00	0.04067421
149	0xbd41ac90	-0.04728371
150	0x3d77fb9a	0.06054268
151	0x3d884784	0.066542655
152	0xbc1bdc47	-0.009512967
153	0xbd0d12f7	-0.034441914
154	0x3dea3e41	0.11437655
155	0xbc6c5d56	-0.01442655
156	0x3d83698d	0.064166166
157	0xbe00601d	-0.12536664
158	0x3d679d91	0.05654675
159	0xbdc241bc	-0.09485194
160	0xbd99d914	-0.075121075
161	0xbc24eb29	-0.010065832
162	0x3d789db5	0.060697276
163	0x3d9223f1	0.071357615
164	0xbdbb3f89	-0.09142978
165	0x3d543da7	0.05181661
166	0xbdba683b	-0.09101912
167	0x3c4806da	0.012208665
168	0xbcb23a1a	-0.02175622
169	0xbe049a8f	-0.12949584
170	0xbde74d63	-0.11294057
171	0x3d994206	0.07483296
172	0xbdbacc38	-0.09120983
173	0xbc07879b	-0.008272077
174	0x3d8d8277	0.0690965
175	0xbcb2c687	-0.02182318
176	0xbb17865c	-0.0023120856
177	0x3e023f35	0.12719424
178	0xbdb96e2c	-0.09054217
179	0xbccc56c1	-0.024943711
180	0x3d07fd63	0.033200633
181	0x3d7d562f	0.06184977
182	0xbdd39b51	-0.10332359
183	0x3cb8f301	0.02257681
184	0x3db2b67f	0.087262146
185	0x3b9c0d76	0.004762347
186	0x3e0d8e8a	0.13823906
187	0x3ddb0c53	0.1069571
188	0x3d47d0fc	0.048783287
189	0x3d180225	0.03711142
190	0xbdb3b4ec	-0.087747425
191	0x3e15667b	0.14589874
192	0x3cea011e	0.028564986
193	0x3d87bd1a	0.06627865
194	0xbda5b649	-0.08091409
195	0x3d332538	0.043736666
196	0x3d2ebc6d	0.042660166
197	0xbdf04996	-0.117327854
198	0x3dd9784a	0.106186464
199	0xbd8f763a	-0.07004972
200	0x3d4c066e	0.04981082
201	0xbd89cc16	-0.067283794
202	0x3df54196	0.119754
203	0xbd8e0e8c	-0.06936368
204	0xbbcd5292	-0.0062659467
205	0x3de08d2b	0.10964426
206	0x3cd64c2c	0.026159368
207	0x3c11e905	0.008905654
208	0xbd05b85c	-0.032646522
209	0x3d9955a9	0.074870415
210	0x3d68c34e	0.056826882
211	0x3da9472f	0.0826553
212	0x3d51d600	0.051229477
213	0x3d4fcf3c	0.050734743
214	0xbbc862b1	-0.0061152806
215	0xbd8883b8	-0.06665748
216	0x3e0b4b51	0.1360295
217	0x3d87e4e8	0.06635457
218	0x3dc7e44d	0.09760342
219	0x3d29f45b	0.0414928
220	0x3dcbe773	0.09956255
221	0x3d64df72	0.055877157
222	0xbd495c82	-0.049160488
223	0x3d8bd6b2	0.06828059
224	0xbda94334	-0.08264771
225	0xbd50a3ca	-0.05093745
226	0x3d030740	0.031989336
227	0x3da9b108	0.08285719
228	0x3dec7682	0.11546041
229	0xbbc9018f	-0.006134219
230	0x3d813447	0.06308799
231	0xbd9c9e4b	-0.076473795
232	0xbc4143ea	-0.011795977
233	0xbce7f5a7	-0.028315378
234	0x3d38dd6a	0.045133032
235	0xbcc5ade2	-0.024130765
236	0xbd92cc2c	-0.07167849
237	0xbddf6e78	-0.10909742
238	0x3cf47b3a	0.029843915
239	0xbdab358f	-0.08359825
240	0xbce72308	-0.028214946
241	0x3d8fc1a7	0.07019358
242	0xbd5b6e72	-0.053572126
243	0xbd8d7224	-0.06906536
244	0x3ce22e20	0.027609885
245	0x3de42cee	0.11141382
246	0x3942f55b	0.00018592684
247	0x3d9b0475	0.075692095
248	0xbd7ede9b	-0.062224012
249	0xbd3c401a	-0.04595957
250	0x3d8e684f	0.06953489
251	0x3cdcc941	0.026951434
252	0xbcfbf5c0	-0.030756831
253	0x3d540534	0.051762775
254	0x3c0bf269	0.008541682
255	0x3d25c10e	0.040467314

rnn.bias_ih_l0_reverse f4 [64]
0	0xbd6d221e	-0.057893865
1	0xbe0dd789	-0.13851751
2	0xbbefa31a	-0.0073131444
3	0xbc62f670	-0.013852701
4	0x3dd72fab	0.10507139
5	0xbb0028fd	-0.001955568
6	0x3db9c6e5	0.09071139
7	0xbd9da45f	-0.07697367
8	0xbe16577f	-0.14681815
9	0xbbb78a3f	-0.005601197
10	0x3d640c3d	0.055675734
11	0xbd902ab8	-0.07039398
12	0xbe157bd8	-0.14598024
13	0xbe1dd73d	-0.15414138
14	0x3e27e814	0.16397125
15	0xbc7dcf8d	-0.0154913785
16	0x3d32295b	0.04349647
17	0xbd1549a2	-0.036447175
18	0xbe2eb730	-0.17062068
19	0xbd5a939c	-0.053363428
20	0x3dcfa777	0.10139363
21	0xbe23daba	-0.16001406
22	0x3e396ff9	0.1810912
23	0x3e3b9db5	0.18321879
24	0xbdc94808	-0.09828192
25	0xbe22642a	-0.15858522
26	0xbdac3400	-0.08408356
27	0xbd3938c2	-0.045220144
28	0x3d99bd14	0.07506767
29	0x3d63d057	0.05561861
30	0xbc83131c	-0.016000323
31	0xbe089ae1	-0.13340332
32	0x3dfd6cd6	0.123742744
33	0x3ddbf21c	0.10739538
34	0xbdfd04dc	-0.123544425
35	0x3d5cf9ef	0.053949293
36	0xbcfeea2e	-0.031117525
37	0x3e1199b2	0.14218786
38	0x3df5e07e	0.12005709
39	0xbdeb7c06	-0.11498265
40	0xbda33f79	-0.07971091
41	0x3df0a576	0.11750309
42	0xbe024d48	-0.12724793
43	0xbcf792e7	-0.030221416
44	0xbd442d96	-0.047895037
45	0x3d403cce	0.046932988
46	0xbe08578d	-0.13314648
47	0xbdb7fb83	-0.08983519
48	0x3b9cfa9d	0.0047906176
49	0xbd09cdd7	-0.03364357
50	0x3dbb44f4	0.09144011
51	0xbe0b4f24	-0.13604409
52	0xbcbef00e	-0.023307826
53	0x3e213ca2	0.15745786
54	0x3e19b008	0.15008557
55	0xbd783900	-0.060601234
56	0x3e279c19	0.1636814
57	0xbe285a71	-0.1644075
58	0xbdaa8b4f	-0.08327352
59	0xbd3a55dd	-0.04549204
60	0xbcf79e13	-0.030226743
61	0xbca908b1	-0.020634027
62	0xbda174da	-0.07883616
63	0xbe25f1c5	-0.16205509

rnn.bias_hh_l0_reverse f4 [64]
0	0xbdf2c050	-0.11853087
1	0xbdfa088d	-0.12208662
2	0xbe430e79	-0.1904849
3	0xbdd7cf72	-0.10537614
4	0xbcacdc89	-0.021101253
5	0x3d85e53b	0.06537863
6	0x3ddcfd9a	0.10790558
7	0x3cf50126	0.029907774
8	0xbd60c396	-0.054874025
9	0x3e04232a	0.12904039
10	0xbe05ce3c	-0.13066953
11	0xbe02821e	-0.12744948
12	0xbde91192	-0.113803044
13	0xbe2bb4b6	-0.16768155
14	0xbcadc207	-0.021210684
15	0xbe3d075e	-0.18459842
16	0x3de10591	0.1098739
17	0xbe39adf6	-0.18132767
18	0x3cd39047	0.025825633
19	0xbdbf7ff2	-0.093505755
20	0x3e1db14c	0.15399665
21	0xbdbb22a4	-0.091374665
22	0x3d9eb38a	0.07749088
23	0x3da409e5	0.080097
24	0xbd9bb7fa	-0.0760345
25	0x3d121e3c	0.035673365
26	0xbe3ccce6	-0.18437538
27	0x3ce99600	0.028513908
28	0x3e19cc55	0.15019353
29	0x3e32f9a0	0.17478037
30	0x3dafe5e1	0.08588768
31	0xbd89c6ce	-0.06727372
32	0x3da2e41d	0.079536654
33	0x3c6e6971	0.014551506
34	0xbe29df93	-0.16589193
35	0xbdbd92b5	-0.09256498
36	0x3e27622e	0.16346046
37	0x3e09e0e7	0.134647
38	0x3e0432a7	0.12909947
39	0xbde1d5b2	-0.11027087
40	0xbe1bbd95	-0.15209039
41	0x3dc494c1	0.09598685
42	0xbd53562b	-0.051595848
43	0x3e272229	0.16321625
44	0xbe01e7e4	-0.12686116
45	0x3da2ec5e	0.0795524
46	0xbe281234	-0.16413194
47	0xbd419e88	-0.047270328
48	0x3e05cf67	0.13067399
49	0xbdeb8602	-0.11500169
50	0x3df7a5c6	0.12092166
51	0xbd278381	-0.040896896
52	0xbd113b05	-0.035456676
53	0x3c0236ab	0.007947604
54	0x3e2d551d	0.16927
55	0xbe45c04d	-0.19311638
56	0x3dfb2a80	0.122639656
57	0x3c970b01	0.018437864
58	0xbe0ce8c0	-0.13760662
59	0x3e18a5d2	0.14907005
60	0xbdf7ae14	-0.1209375
61	0xbe11fce2	-0.14256623
62	0xbe3c1ced	-0.1837041
63	0xbe11aa47	-0.14225112

fc.weight f4 [256, 128]
0	0x3d8386cc	0.06422195
1	0x3d1d32a5	0.038378377
2	0xbc52754d	-0.0128453495
3	0x3db6e24a	0.0892988
4	0x3d29e33f	0.041476484
5	0xbd166537	-0.03671762
6	0x3c9069ce	0.017628577
7	0x3bf7697a	0.0075504156
8	0xbd2ef5cd	-0.042714883
9	0x3da30bb1	0.07961214
10	0x3d12aa32	0.035806842
11	0x3ca02ba3	0.019552058
12	0x3d62176f	0.05519813
13	0x3dc0f5b7	0.094218664
14	0xbcd2b7eb	-0.025722465
15	0xbb57f425	-0.0032951918
16	0x3d5b1f54	0.053496674
17	0xbd73f0e7	-0.059555914
18	0x3d8708fd	0.06593511
19	0x3ba90514	0.005158076
20	0x3d5997a4	0.05312313
21	0xbc7813d3	-0.015141445
22	0xbcb4b2e9	-0.022057967
23	0x3d5518ce	0.05202561
24	0xbc751cc9	-0.014960476
25	0xbd86a4f7	-0.06574433
26	0x3b1da86c	0.0024056686
27	0x3d6f9c15	0.05849846
28	0x3d4ea592	0.05045087
29	0xbc75fa8b	-0.015013347
30	0x3da596b9	0.08085389
31	0xbd893cf0	-0.06701076
32	0x3daf3ef1	0.08556927
33	0xbd0d6917	-0.03452405
34	0xbc8b7b46	-0.017026555
35	0xbccfee25	-0.02538211
36	0xbd8a38d6	-0.06749122
37	0x3dad4f25	0.08462361
38	0xbd5e805c	-0.05432163
39	0xbd093b94	-0.033504084
40	0xbd8afe74	-0.06786814
41	0x3c215061	0.009845824
42	0x3da14162	0.07873799
43	0x3cb8de53	0.02256695
44	0xbda1c53f	-0.0789895
45	0xbd192e38	-0.037397593
46	0xbda37612	-0.079815045
47	0xbbd26567	-0.0064207795
48	0xbccca670	-0.024981707
49	0x3c18d903	0.009329083
50	0xbd117060	-0.03550756
51	0x3c786db9	0.015162879
52	0x3d3da585	0.04630043
53	0x3cadfdff	0.021239279
54	0x3d08238a	0.033237018
55	0x3c46295c	0.012094822
56	0x3d8af663	0.06785276
57	0xbcba7b80	-0.022763968
58	0x3da6508e	0.08120833
59	0xbd9c09f6	-0.076190874
60	0xbd84476d	-0.06458936
61	0x3d1f7ba5	0.038936276
62	0x3d997fbf	0.07495069
63	0xbd63be01	-0.055601124
64	0xbd16ab43	-0.03678442
65	0xbda74bd5	-0.08168761
66	0x3924a2a0	0.00015700841
67	0xbd91b8e3	-0.071153425
68	0xbdb3235c	-0.08746979
69	0x3d8e69f7	0.06953805
70	0x3db8f573	0.09031191
71	0xbd4e6135	-0.050385673
72	0x3d9934e6	0.07480793
73	0xbc203781	-0.009778858
74	0x3d1193c3	0.035541307
75	0xbd54a736	-0.051917277
76	0x3d9ec45d	0.07752297
77	0xbcaa5d88	-0.020796552
78	0x3dc70197	0.097171
79	0xbcf88496	-0.03033666
80	0x3ce22d7f	0.027609585
81	0x3cdc8d49	0.026922839
82	0xbdc3c59d	-0.09559176
83	0xbccacf74	-0.024757124
84	0x3da889f3	0.08229437
85	0x3cb5d6bc	0.02219712
86	0xbd5dc4af	-0.05414265
87	0x3c9f7fde	0.019470152
88	0x3db07a47	0.086170726
89	0x3d813d45	0.06310514
90	0xbd92cc22	-0.071678415
91	0xbbf6ef09	-0.0075358194
92	0x3da4b8fe	0.08043097
93	0xbd809981	-0.062792785
94	0x3d37490b	0.044747394
95	0xbd96d615	-0.07365052
96	0xbccbc790	-0.024875432
97	0x3b95029c	0.00454743
98	0x3d2f2e8b	0.042768996
99	0xbdb50b25	-0.08840016
100	0xbd2d3f3f	-0.042296644
101	0xbd4fcb19	-0.0507308
102	0x3cdf0459	0.027223753
103	0x3d34ac64	0.044109717
104	0x3da04e88	0.07827479
105	0x3ccea50d	0.025225187
106	0xbd617ccc	-0.055050656
107	0xbd403bd4	-0.046932057
108	0x3db9e48c	0.09076795
109	0x3d874a38	0.06605953
110	0x3d9275ac	0.071513504
111	0xbd1aebd2	-0.037822552
112	0x3d6c16b8	0.057638854
113	0x3d30ba8a	0.043146648
114	0x3d1a153e	0.037617914
115	0x3d15e27d	0.03659295
116	0xbc69118e	-0.014225377
117	0xbc81af46	-0.015830647
118	0xbd167887	-0.036736038
119	0xbb75413b	-0.0037422914
120	0x3cda4360	0.026643455
121	0x3b9d2f04	0.0047968645
122	0x3d019472	0.03163571
123	0xbc9dac48	-0.01924719
124	0x3ce1893d	0.02753126
125	0x3d83848d	0.064217664
126	0xbc099ca3	-0.0083991615
127	0xbda1cb40	-0.07900095
128	0x3cd75591	0.026285918
129	0xbc32419d	-0.010879901
130	0x3d82598a	0.063647345
131	0xbcd0172e	-0.025401678
132	0xbd6aaa1b	-0.05729113
133	0xbc46e7a8	-0.012140192
134	0xbd662d9f	-0.05619585
135	0xbd3e56f4	-0.046469644
136	0x3c18f95a	0.009336794
137	0x3d855e97	0.06512182
138	0xbd538681	-0.051641945
139	0x3d2d76d7	0.042349663
140	0xbd807d4c	-0.062738985
141	0xbc1044e0	-0.008805484
142	0xbd224df3	-0.03962512
143	0x3d91d762	0.07121159
144	0x3d1c3430	0.038135707
145	0x3cd70b50	0.026250511
146	0x3d6e1683	0.058126938
147	0xbd0e8b77	-0.034800973
148	0xbd007bad	-0.031367946
149	0xbca72cb0	-0.02040705
150	0x3d49cbe6	0.04926672
151	0xbcb1cb77	-0.021703465
152	0xbd510ac6	-0.051035665
153	0x3d67fa54	0.056635216
154	0x3d23e27c	0.040010914
155	0x3d575a52	0.05257637
156	0xbd8e0add	-0.06935666
157	0xbcd1cdb7	-0.025610788
158	0xbcb9faa5	-0.022702524
159	0xbd148d26	-0.036267422
160	0xbd97992f	-0.07402264
161	0xbdc3dbb5	-0.0956339
162	0x3dacaaae	0.08430992
163	0x3d8ef46d	0.06980214
164	0xbd4d6307	-0.050143268
165	0x3ba240e7	0.0049515846
166	0xbd997c12	-0.07494368
167	0xbc9929c5	-0.018696675
168	0xbd4cee99	-0.050032232
169	0x3c53e0d5	0.012932022
170	0xbd51ac28	-0.05118957
171	0x3d3c9d07	0.04604819
172	0xbd4db91f	-0.050225373
173	0xbd5a4345	-0.05328681
174	0xbcdcc16e	-0.026947703
175	0x3d82d22c	0.06387743
176	0x3d8e0cc9	0.06936032
177	0x3d197bbd	0.03747152
178	0xbdbc4b53	-0.091940545
179	0x3bfe202e	0.007755301
180	0x3c27adda	0.010234321
181	0xbd79e265	-0.061006922
182	0x3d8384e5	0.06421832
183	0xbbe5b7a3	-0.0070104166
184	0xbd416071	-0.047211114
185	0xbc1b9d76	-0.009497991
186	0xbdc59463	-0.09647443
187	0xbd16ed5f	-0.03684747
188	0xbd4de4cd	-0.05026703
189	0xbc3206ce	-0.01086588
190	0x3ceeed69	0.02916594
191	0xbd99c917	-0.07509058
192	0xbc78633f	-0.015160381
193	0x3d98ac00	0.074546814
194	0xbd139bb5	-0.036037166
195	0x3dae996d	0.085253574
196	0x3ccbebd0	0.024892718
197	0xbd47e39e	-0.048801057
198	0x3d332bb0	0.043742836
199	0x3bea35e1	0.007147536
200	0x3c75e352	0.015007811
201	0xbc304c1b	-0.010760332
202	0xbcb5b7a5	-0.022182295
203	0x3c2a8fc1	0.01041025
204	0x3db96bf4	0.090537935
205	0xbd7a77ab	-0.06114928
206	0x3d94b30b	0.07260712
207	0x3d75b63b	0.05998824
208	0x3c7675df	0.015042751
209	0xbce91cd7	-0.028456135
210	0x3d84c9df	0.06483816
211	0x3da37527	0.079813294
212	0xbc78944c	-0.0151720755
213	0x3da12c30	0.07869756
214	0xbd9ebe43	-0.07751133
215	0xbce50758	-0.027957603
216	0xbd3b816d	-0.045777727
217	0x3da0ebcc	0.07857475
218	0xbd8097fb	-0.06278988
219	0x3d0e9498	0.03480968
220	0x3bc0ab09	0.005879764
221	0x3d5a68c9	0.053322587
222	0x3c061871	0.008184538
223	0x3d67b577	0.056569543
224	0x3d019104	0.03163244
225	0xbd6d95be	-0.058004133
226	0x3aebbf8c	0.0017986163
227	0xbd8ec10c	-0.069704145
228	0xbd62632d	-0.055270363
229	0x3d08d7b9	0.033408854
230	0x3bf5562f	0.0074870805
231	0x3c625457	0.0138140535
232	0xbd6f6dba	-0.058454253
233	0x3d90d8a5	0.07072572
234	0x3d03323b	0.032030325
235	0x3d41bee5	0.04730119
236	0xbd7a3c85	-0.061092872
237	0xbd3de3ec	-0.04635994
238	0xbd0a4a08	-0.033762008
239	0xbd0e2fcd	-0.034713555
240	0xbcf1f0d6	-0.029533785
241	0x3cda1c83	0.026624924
242	0xbbd6d109	-0.0065556807
243	0xbcaf63e6	-0.02140994
244	0x3973b356	0.00023241094
245	0xbd2d36cb	-0.042288583
246	0x3d4dd319	0.050250147
247	0xbd965c32	-0.073418036
248	0x3d0e1d51	0.034695927
249	0x3d9a2f84	0.07528594
250	0xbd3bc56f	-0.045842584
251	0x3cd99716	0.026561301
252	0xbcbdfde0	-0.023192346
253	0x3da8b9cf	0.08238565
254	0x3c913858	0.017727062
255	0xbd09271a	-0.033484556

fc.bias f4 [256]
0	0x3dbcc6c1	0.09217597
1	0xbcf979a9	-0.03045352
2	0x3dace33a	0.084417775
3	0xbd7d1e55	-0.061796505
4	0x3db0067c	0.08594987
5	0xbd801bbe	-0.062552914
6	0xbc55c94f	-0.013048484
7	0xbd907882	-0.07054235
8	0xbcd830f5	-0.026390532
9	0x3d712109	0.058869395
10	0x3db70926	0.08937292
11	0xbb4ce8ca	-0.0031266683
12	0xbcf35926	-0.029705595
13	0x3a1ff241	0.00061014673
14	0xbcc74b1d	-0.024327809
15	0xbc318da6	-0.010836994
16	0x3d7aeeea	0.061263002
17	0xbbffd302	-0.0078071365
18	0x3c0d7059	0.008632743
19	0xbd5a8b8a	-0.05335573
20	0x3c915bbe	0.017743941
21	0x3d02e242	0.031954058
22	0x3c2db87f	0.010603069
23	0x3e17551c	0.1477856
24	0x3d84b38a	0.06479557
25	0xbbe9f388	-0.007139627
26	0x3c729e2e	0.014808221
27	0x3e0ef5a5	0.13960893
28	0x3d66b6ec	0.05632679
29	0x3e098251	0.13428618
30	0x3d804730	0.06263578
31	0x3e53c19c	0.20679325
32	0x3e7e2c69	0.24821629
33	0x3e085099	0.13311996
34	0x3ddba1d6	0.10724227
35	0x3e382736	0.17983708
36	0x3e70e6c5	0.23525532
37	0x3de75490	0.11295426
38	0x3e3f6d84	0.1869412
39	0x3e72e301	0.23719408
40	0x3e2c0525	0.16798837
41	0x3e754bc3	0.23954682
42	0x3dddc460	0.10828471
43	0x3de9ccb4	0.11415997
44	0x3deb1266	0.114781186
45	0x3e0fbcbb	0.14036839
46	0x3db42441	0.087959774
47	0x3e753df9	0.23949422
48	0x3e50c857	0.20388924
49	0x3e254b5e	0.16142032
50	0x3e268be9	0.16264309
51	0x3d4f588e	0.05062156
52	0x3e0f6d8e	0.14006636
53	0x3e37edf4	0.17961866
54	0x3e17e776	0.14834389
55	0x3e38a2d9	0.18030871
56	0x3da934a8	0.082619965
57	0x3be0949a	0.006853652
58	0x3e29ada0	0.16570139
59	0x3d60c688	0.054876834
60	0x3d3b9984	0.0458007
61	0x3cce89d3	0.025212204
62	0xbad15fda	-0.0015974
63	0x3e01a640	0.12661076
64	0x3ccd5583	0.02506519
65	0x3d8fb7ba	0.07017465
66	0x3db17507	0.08664899
67	0xbb3a7239	-0.002844943
68	0x3ca5b15f	0.020226179
69	0x3d8482ef	0.06470286
70	0x3d846a5f	0.06465601
71	0x3df688ad	0.120377876
72	0xbcca9ce6	-0.024733018
73	0x3db6035f	0.08887362
74	0x3dcd442b	0.10022768
75	0x3d9a4780	0.07533169
76	0x3cf5154f	0.029917387
77	0x3dac3691	0.08408845
78	0xbad2c596	-0.0016080614
79	0x3c68977b	0.014196272
80	0x3d959af8	0.073049486
81	0x3d962459	0.073311515
82	0x3dc8d3bf	0.09806012
83	0x3deddae5	0.116140164
84	0x3bdfb8e4	0.0068274606
85	0x3c69fc3f	0.014281332
86	0x3de11929	0.10991127
87	0x3dd47204	0.10373309
88	0x3d7c29b2	0.0615632
89	0xbd2b645b	-0.041843753
90	0x3d6c289a	0.05765591
91	0x3d885c1b	0.06658193
92	0x3de7a698	0.11311072
93	0x3d9a8550	0.075449586
94	0x3d35c6f3	0.044379186
95	0x3d9c651d	0.07636473
96	0xbcf8b1e4	-0.030358262
97	0x3dcf38df	0.10118269
98	0xbcf246cd	-0.029574776
99	0xbd53333e	-0.05156254
100	0xbd279ad1	-0.04091913
101	0xbd2aeffc	-0.041732773
102	0x3d47a357	0.048739757
103	0xbd3bf853	-0.045891117
104	0x3c7bd984	0.015371684
105	0xb980e472	-0.00024584268
106	0xb993d3fd	-0.00028195968
107	0x3da7ec84	0.08199409
108	0x3da9cfb3	0.082915686
109	0xbbbf28b7	-0.005833711
110	0x3d08806f	0.03332561
111	0xbd24ddaa	-0.040250458
112	0x3dd3002b	0.103027664
113	0xbcb4d093	-0.022072112
114	0x3c109cb3	0.0088264225
115	0xbd5b375d	-0.053519595
116	0x3daa06c3	0.08302071
117	0x3c16e263	0.009209248
118	0xbce38420	-0.027772963
119	0xbb9ca862	-0.004780815
120	0x3da2b8df	0.079454176
121	0x3dcfa798	0.10139388
122	0x3d457b46	0.048213266
123	0xbcd7f051	-0.026359709
124	0xbc8a8537	-0.016909225
125	0x3db0b466	0.08628158
126	0xbd3a29e4	-0.045450106
127	0x3d2190f6	0.039444886
128	0x3d7edcbc	0.062222227
129	0x3d34d7ba	0.044151045
130	0xbb1b1f9c	-0.0023669964
131	0x3c5a0d78	0.013308875
132	0x3d55de28	0.052213818
133	0x3d8af5f6	0.067851946
134	0x3d9eed06	0.077600524
135	0x3c65fec6	0.0140377935
136	0x3c31c939	0.010851198
137	0x3d3293c9	0.04359797
138	0xbd0d09a2	-0.034433015
139	0x3c403fb1	0.011733935
140	0x3d762dca	0.06010226
141	0xbd8694b1	-0.065713294
142	0xbd8b56bd	-0.068036534
143	0xbc15d029	-0.0091438675
144	0x3db54f6f	0.088530414
145	0x3da617f9	0.08110041
146	0xbc9712a5	-0.018441508
147	0x3b8ab4d0	0.0042329803
148	0x3c3bfe3a	0.011474187
149	0x3c4006fe	0.011720417
150	0x3d409785	0.0470195
151	0xbd479876	-0.048729382
152	0x3d9baef5	0.0760173
153	0x3dd341d9	0.10315294
154	0xbc9776c0	-0.018489242
155	0x3c45cedc	0.012073245
156	0xbd79a697	-0.060949888
157	0x3d9b7c8d	0.075921156
158	0x3d297b88	0.041377574
159	0x3d5e968a	0.054342784
160	0xbd8ba900	-0.068193436
161	0xbd63c875	-0.055611093
162	0xbc36b4d6	-0.011151513
163	0xbd5cf08f	-0.053940352
164	0xbcfbb0a0	-0.03072387
165	0xba8f1ed6	-0.0010919224
166	0x3db0b6e3	0.08628633
167	0x3b282927	0.0025659294
168	0xbb9db7c7	-0.0048131677
169	0x3d627a45	0.055292387
170	0x3d9e2ea9	0.077237435
171	0xbc73d086	-0.014881259
172	0x3d932946	0.07185607
173	0xbd5d683f	-0.054054495
174	0x3da6ea29	0.08150131
175	0xbd90cd69	-0.07070429
176	0x3d49ade7	0.04923811
177	0x3d488bb9	0.048961375
178	0x3cdccec5	0.026954064
179	0x3d8b6a03	0.068073295
180	0xbd291f02	-0.041289337
181	0xbd5d3b31	-0.054011527
182	0xbd9dce9b	-0.077054225
183	0x3d6e42dc	0.05816923
184	0x3d543933	0.051812362
185	0x3d7742d6	0.060366474
186	0xbd0942a4	-0.03351082
187	0x3d62947e	0.055317394
188	0xbdb13cbc	-0.08654162
189	0x39a50147	0.00031472204
190	0x3d8f594c	0.06999454
191	0x3a8594cb	0.0010191438
192	0xbd84dbf4	-0.06487265
193	0x3d8f8899	0.07008476
194	0xbd19b79b	-0.037528615
195	0x3d987787	0.07444673
196	0xbdc50656	-0.09620349
197	0xbd8c7a65	-0.068592824
198	0x3ca168fa	0.019703377
199	0x3c252072	0.010078536
200	0x3da2dd85	0.07952408
201	0xba5a1034	-0.00083184545
202	0xbd356c66	-0.04429283
203	0xbd9a96ae	-0.07548271
204	0x3d2c5758	0.042075485
205	0xbd024dee	-0.0318126
206	0xbd91ed74	-0.07125369
207	0x3b19f33b	0.0023490924
208	0x3d3ff87d	0.046867836
209	0x3db4dbd9	0.08830995
210	0xbd792007	-0.06082156
211	0x3ca09740	0.019603372
212	0x3d5dd53b	0.05415843
213	0xbba8e8c6	-0.005154702
214	0x3d2e146f	0.042499956
215	0x3d5d1196	0.05397185
216	0x3d981118	0.074251354
217	0x3d6d999d	0.058007825
218	0x3d6a8784	0.057258144
219	0xbd57c52b	-0.05267827
220	0x3d659f43	0.056060087
221	0xbca4dac5	-0.020123849
222	0xbda49d5a	-0.08037825
223	0xbd7ec14d	-0.062196065
224	0x3d84fafb	0.06493183
225	0xbba9b51f	-0.005179062
226	0xbbba1abc	-0.0056794565
227	0xbcd2f91a	-0.025753547
228	0xbc6cbf81	-0.014449955
229	0xbd39628f	-0.04526001
230	0x3abafc13	0.0014265798
231	0xbd7e3b67	-0.06206837
232	0xbd4bab97	-0.049724188
233	0xbd8fd24b	-0.07022532
234	0xbda3ccbe	-0.07998036
235	0x3d8e6373	0.06952562
236	0x3d8de648	0.06928688
237	0xbd33b9b2	-0.043878265
238	0x3da8d937	0.082445554
239	0xbb1e4322	-0.00241489
240	0x3d668193	0.056275915
241	0xbc6bdd85	-0.014396076
242	0xbd54272e	-0.051795177
243	0xbd9f301b	-0.07772847
244	0xbcdc2bd8	-0.026876375
245	0xbb0c134b	-0.0021373804
246	0x3c444e21	0.011981518
247	0xbcd4c2be	-0.025971767
248	0x3da5aa23	0.08089092
249	0x3bb9447e	0.005653917
250	0xbd72bf06	-0.059264205
251	0xbda3be65	-0.07995299
252	0x3d324904	0.043526664
253	0x3d9bde84	0.07610801
254	0xbc42306f	-0.011852368
255	0xbd470ede	-0.048598163

ln.weight f4 [128]
0	0x3fa217e7	1.2663544
1	0x3f9d4380	1.2286224
2	0x3f9e4102	1.2363589
3	0x3fa08ac6	1.254235
4	0x3fa30142	1.2734759
5	0x3f9dbd2f	1.2323359
6	0x3f9650a4	1.174336
7	0x3fa1705e	1.2612417
8	0x3f9b80a8	1.2148638
9	0x3fa0d99f	1.2566413
10	0x3fa1bc17	1.2635525
11	0x3fa0e6cc	1.2570434
12	0x3f9d4ac7	1.2288445
13	0x3fa17fa6	1.261708
14	0x3f9e081b	1.2346224
15	0x3f99b6b6	1.2008884
16	0x3f9df808	1.2341318
17	0x3fa42334	1.2823243
18	0x3f9d7a7f	1.2303008
19	0x3fa0957d	1.254562
20	0x3f9f88bd	1.2463604
21	0x3fa1fb6c	1.2654853
22	0x3f9c79ce	1.2224672
23	0x3f9ee342	1.2413104
24	0x3f9fe453	1.2491554
25	0x3f9f9098	1.2466002
26	0x3f9caa81	1.2239534
27	0x3fa0239c	1.2510867
28	0x3f9b84c6	1.2149894
29	0x3f9ba015	1.2158228
30	0x3f9e1b53	1.2352089
31	0x3f973544	1.181313
32	0x3fa105b4	1.2579865
33	0x3f9f8c1e	1.2464635
34	0x3fa12ca0	1.2591743
35	0x3f9e7c81	1.2381746
36	0x3fa14cd2	1.2601569
37	0x3fa027ca	1.2512143
38	0x3f9b51ff	1.2134398
39	0x3f9d9b77	1.2313069
40	0x3f9e9401	1.2388917
41	0x3f9faa9d	1.2473942
42	0x3f9cc66c	1.2248054
43	0x3f9f0cd1	1.2425786
44	0x3f9ed957	1.2410077
45	0x3fa106e9	1.2580234
46	0x3fa101b1	1.2578641
47	0x3f9e3db5	1.2362581
48	0x3fa3117a	1.2739708
49	0x3fa061a2	1.2529795
50	0x3f9f5ea0	1.2450752
51	0x3f92c066	1.1464965
52	0x3f9e94d2	1.2389166
53	0x3fa2837f	1.269638
54	0x3fa13073	1.259291
55	0x3f9f6bb5	1.2454745
56	0x3f9dba38	1.2322454
57	0x3fa17d50	1.2616367
58	0x3fa18f74	1.2621903
59	0x3f9e8b4a	1.2386258
60	0x3fa0365a	1.2516587
61	0x3f9f59bf	1.2449263
62	0x3f9f371e	1.2438695
63	0x3f9f12f3	1.2427658
64	0x3f9d956a	1.2311223
65	0x3f9e87bc	1.2385173
66	0x3fa0e200	1.256897
67	0x3f9c3a56	1.2205303
68	0x3f9e5927	1.2370957
69	0x3f9cb0a0	1.2241402
70	0x3fa0a91d	1.2551609
71	0x3f8b5337	1.088477
72	0x3f9bd06f	1.2172984
73	0x3f9ee113	1.2412437
74	0x3f9d67f4	1.2297349
75	0x3fa3ff33	1.2812256
76	0x3fa19a66	1.2625244
77	0x3f9bae6a	1.2162602
78	0x3f9fd36c	1.2486396
79	0x3fa0856d	1.2540718
80	0x3f9fc057	1.2480572
81	0x3fa0dc40	1.2567215
82	0x3f9f2fdf	1.2436484
83	0x3f9e89c0	1.2385788
84	0x3fa0ffef	1.2578105
85	0x3f9cf536	1.2262332
86	0x3f9f2351	1.2432653
87	0x3f9aa88d	1.2082688
88	0x3f9c0003	1.2187504
89	0x3fa4a789	1.2863628
90	0x3fa2f657	1.2731427
91	0x3fa04bb9	1.2523109
92	0x3fa12d62	1.2591975
93	0x3fa2b4a8	1.2711382
94	0x3f9f8cc8	1.2464838
95	0x3f9dd81c	1.2331576
96	0x3f9ddeb5	1.233359
97	0x3fa0619a	1.2529786
98	0x3f9de747	1.2336205
99	0x3fa13475	1.2594134
100	0x3f9eff1c	1.2421603
101	0x3f9d24da	1.2276871
102	0x3f9fd96e	1.2488229
103	0x3fa0f277	1.2573994
104	0x3f9ba9bb	1.2161173
105	0x3f9e29d9	1.2356521
106	0x3fa0555c	1.252605
107	0x3f9e1c18	1.2352324
108	0x3f9de179	1.2334434
109	0x3fa1ecbd	1.2650372
110	0x3fa029dc	1.2512774
111	0x3f9c8d27	1.2230576
112	0x3f9ea063	1.2392696
113	0x3f9c9065	1.2231566
114	0x3f9cc6ce	1.224817
115	0x3fa1a64b	1.2628874
116	0x3f9f47b8	1.2443762
117	0x3fa2e3df	1.2725791
118	0x3f9fa626	1.247258
119	0x3fa084ed	1.2540566
120	0x3f9e5925	1.2370955
121	0x3f9f8129	1.2461292
122	0x3f9efa18	1.2420073
123	0x3f9fc07f	1.248062
124	0x3fa2a4b6	1.2706516
125	0x3f9d831a	1.2305634
126	0x3fa02207	1.2510384
127	0x3f9995a5	1.1998793
