model.pth (torch, 122235 bytes, 8 tensors)

gru.weight_ih_l0 f4 [192, 3]
000000 b0 98 1d 3f 21 43 33 3f c4 54 53 3d b7 e4 75 3f
       0.6156111 0.70024306 0.05159451 0.96052116
000010 f9 18 11 3f 1e 04 cd bd 71 24 87 be fd 28 e2 be
       0.5667873 -0.10010551 -0.2639499 -0.44171897
000020 68 a3 b6 3c 88 1e 16 3f 6e 12 ac 3e 0c 7a 99 bd
       0.022294715 0.58640337 0.3360781 -0.07493982
000030 b5 a9 ed 3d 80 78 2c bd d0 96 d1 bc ab ed 3d bf
       0.11604635 -0.042107105 -0.025584608 -0.7419078
000040 d8 1c 14 bf 32 af b6 3d c5 92 0e bf 74 1d d7 be
       -0.5785651 0.089201346 -0.556927 -0.42014658
000050 52 e6 da 3d c7 e8 b9 3e aa 49 fd 3d d8 cc 7b bd
       0.10688461 0.36310408 0.12367566 -0.06147465
000060 18 1b ad 3e e6 06 bb 3e e4 75 34 bd 3a e8 27 3f
       0.33809733 0.365287 -0.04405774 0.65588725
000070 d4 3e 85 3e d8 07 88 bd bc b2 e0 3e b7 90 c7 3e
       0.26024497 -0.06642121 0.43886364 0.38977596
000080 fe 8f c5 bd 44 5e f1 3e 60 72 88 3e 7a 8e 93 bd
       -0.09646605 0.4714223 0.2664976 -0.072049096
000090 d4 23 56 3f b4 ca 23 3f c0 be 99 bc 38 c4 5e 3f
       0.8364842 0.63981175 -0.018767715 0.87018156
0000a0 ab 43 ce 3d a0 34 bf bc d1 80 04 3f 86 9b d4 3e
       0.100715004 -0.023340523 0.5175906 0.41524905
0000b0 46 ff 9e bd e0 e7 35 be 85 0d b8 be f0 af bf bc
       -0.07763533 -0.17764235 -0.35947815 -0.023399323
0000c0 e8 b3 fc 3d 51 44 8c 3e 7c b8 0b bd 65 a0 16 3f
       0.12339002 0.2739587 -0.034111485 0.5883849
0000d0 42 7f cc bb 78 c3 46 bd d1 5a ca 3e 00 dc d7 3e
       -0.0062407563 -0.048526257 0.39522412 0.42160034
0000e0 50 7b 6f bc 1c 60 0f bf 5a 45 46 bf 62 7e 8d bd
       -0.014616802 -0.56006026 -0.7744957 -0.06908871
0000f0 96 c6 af bc 52 94 94 be a4 5f c1 bd 21 bc c0 3e
       -0.021456998 -0.2901941 -0.0944207 0.3764353
000100 dd 69 fc 3e e0 84 60 3d 38 f1 90 3d a8 76 18 3e
       0.49299517 0.05481422 0.07077259 0.14889014
000110 0a c7 fd 3d f6 47 8d be b8 ca 2d 3f 02 71 c5 bd
       0.12391479 -0.27593964 0.6788745 -0.09640695
000120 d6 06 a3 3e b2 04 2a 3f ac d9 1f 3d f6 1e d0 3e
       0.31841153 0.66413414 0.039025947 0.4064862
000130 a2 88 d8 3e 00 89 e5 3d 3c b8 44 3e b1 65 44 3d
       0.42291743 0.11207771 0.19210905 0.047948543
000140 9a e4 d3 bd e2 b2 46 bd 67 a4 7f 3d 78 27 db bd
       -0.10346337 -0.04851044 0.062412646 -0.107008874
000150 c3 0e a3 3e 9e 09 13 3f 64 f3 ca bd ab 9f 88 3e
       0.318472 0.5743655 -0.09909704 0.26684317
000160 07 57 e5 3e 76 77 89 bd 26 60 d9 3e bd 40 93 3e
       0.4479296 -0.067122385 0.42456168 0.2876033
000170 40 f9 e1 3c 5f 8e 8e 3e 34 42 97 3e 58 7e 4d 3d
       0.027584672 0.27842996 0.29542696 0.05016932
000180 44 cd 29 3f b8 f4 8e 3f 26 1e b5 3d f3 f0 4a bd
       0.66328835 1.1168432 0.08843641 -0.049546193
000190 b6 7d c8 be 4e 12 9d bd 9d 3e 9d be a8 49 0b bf
       -0.3915841 -0.07669507 -0.30711833 -0.54409266
0001a0 10 dd b9 bc da f2 b8 3d 41 8c d0 3e 54 ff 7c 3d
       -0.022688419 0.09030695 0.40732005 0.061766937
0001b0 36 5b e3 3e 7b 48 38 3f 98 b1 35 bd 82 e5 34 3f
       0.44405526 0.71985596 -0.04435882 0.706627
0001c0 85 41 38 3f 90 6e 64 3c 8a 81 e4 3e 34 10 e9 3e
       0.71974975 0.013942376 0.4463008 0.45520175
0001d0 54 7c a7 bd fc af 08 3f 54 c1 27 3f e0 20 2f bd
       -0.081780106 0.5339353 0.6552937 -0.04275596
0001e0 6d 29 14 3f 0a 29 c3 3e 34 44 f9 3d 9e 4e 3e 3e
       0.5787571 0.38117248 0.12171212 0.18584678
0001f0 19 7a 48 3e 08 f4 8c bd 52 92 fc 3e d7 98 81 bd
       0.19577827 -0.06882483 0.49330384 -0.0632798
000200 3a c0 b4 3d 2a 2e 1f bd 54 bb dd 3c 16 2c a4 3d
       0.08825727 -0.038862385 0.027066864 0.08016221
000210 07 c8 8d 3e 83 1f 11 3f f0 e9 f2 bd 76 25 30 3f
       0.2769167 0.5668871 -0.11861026 0.6880716
000220 b9 1d 81 3e 40 e0 9b bd f9 de 0d 3f 93 51 01 3f
       0.2521799 -0.07611132 0.55418354 0.505151
000230 90 0f 7b 3c 59 e0 cb 3e f9 c8 14 3f 00 12 d6 bd
       0.015323535 0.398196 0.5811916 -0.10452652
000240 66 1b 0f 3e f5 fe e4 3e 84 2b 4f bd 56 ca 1f 3f
       0.13975295 0.44725767 -0.05057861 0.62418115
000250 91 31 17 3f 8c aa 4f 3d d4 af 5c 3f 20 0d 23 3e
       0.5906001 0.050699756 0.8620579 0.15922976
000260 c8 1e f2 3d 1d 0f 75 3e 19 c0 99 3e 38 a2 b2 bc
       0.11822277 0.23931547 0.3002937 -0.021805868
000270 c2 a4 c9 3e b8 5a b6 3e 80 f7 ed 3b 12 9d 17 3f
       0.39383513 0.35616088 0.0072621703 0.59224045
000280 26 08 09 3f 3a e3 c7 bd 28 ef 86 3e 43 48 bf 3e
       0.5352806 -0.09760137 0.26354337 0.3735982
000290 d8 70 da 3d e7 d5 7f be 6a 21 f1 be f6 35 c2 bd
       0.106660545 -0.24983941 -0.47095805 -0.094829485
0002a0 20 dd 9f 3e 7a 0a a2 3e 00 ad c8 3a c0 6f 16 3e
       0.31223392 0.31648618 0.0015310347 0.14691067
0002b0 96 28 b2 3d 4a 13 db 3d 74 87 04 3f 4c 58 c6 3e
       0.086991474 0.106970385 0.51769185 0.3873924
0002c0 f8 03 e5 bd 34 04 e9 3e c1 79 e6 3e c0 e6 56 bb
       -0.111823976 0.4551102 0.45014766 -0.0032791346
0002d0 f7 2e 02 bf 27 b7 ef be 86 23 e7 bd cb 4c 37 be
       -0.5085291 -0.46819422 -0.112860724 -0.17900388
0002e0 46 0d 87 be 04 96 6f bd 34 bc 05 3f 2f db 2e 3f
       -0.26377314 -0.058492675 0.522403 0.683032
0002f0 b8 56 cb 3d c9 72 36 3f 23 ac 2d 3e a0 20 90 3d
       0.0992865 0.712689 0.16960196 0.07037473
000300 67 7d bd 3e 10 61 cc 3e be 15 8c bd de b9 66 3d
       0.37009737 0.39917803 -0.068400845 0.0563296
000310 ac c0 9f 3f 24 86 e3 3d a3 b0 ab be 11 18 c7 be
       1.2480674 0.1110957 -0.335332 -0.3888555
000320 cc 9e 2a bd 5b ff 21 3f 2d 42 cd 3e bc 7d f8 3d
       -0.041655347 0.63280267 0.4008955 0.12133357
000330 d2 26 d1 bd 38 e5 98 be 1c 9d cd 3d 96 6b 15 bf
       -0.102124825 -0.2986238 0.10039732 -0.5836729
000340 97 c1 94 be dc 92 17 bd d8 02 02 bf ad b2 bf be
       -0.29053947 -0.03700529 -0.5078559 -0.37441006
000350 18 9d 3a bd a8 6e 97 3e a5 7f 2c 3e 28 2a 82 bc
       -0.045559973 0.29576612 0.16845568 -0.015889242
000360 be 45 1f 3f 4f db be 3e 5c df ed bd 75 8e 04 3f
       0.62215793 0.37276694 -0.11614868 0.5177987
000370 57 bf de 3e 00 e8 88 3a ac 66 84 bc 92 f3 11 3f
       0.43505356 0.0010445118 -0.016162239 0.57012284
000380 26 a9 db bd c9 d1 c1 3e 35 4d 08 be be d3 ae bd
       -0.10725622 0.37855366 -0.13310702 -0.0853648
000390 fb f6 80 3f 61 cc 2f 3e be a6 a3 bd 27 01 54 3f
       1.0075372 0.17167808 -0.07990788 0.8281426
0003a0 84 98 b7 3d 6a 5c c0 bd 22 96 97 3e f1 8f 32 3e
       0.08964637 -0.093926266 0.2960673 0.17437722
0003b0 40 9b 73 3c 22 45 10 3c a0 00 a8 be ba cf 87 bd
       0.014868557 0.008805545 -0.32812977 -0.066314176
0003c0 44 d5 43 3d 8c 70 a7 3d c6 ee e4 bd 65 fc 55 3f
       0.047810808 0.081757635 -0.11178355 0.8358825
0003d0 91 38 1f be 96 48 fb bd 44 2f be 3e 69 b0 1a 3f
       -0.15548922 -0.12269704 0.37145436 0.6042543
0003e0 76 84 d6 3d b8 f6 52 be d0 c7 27 bf 60 69 cb bd
       0.10474484 -0.20601928 -0.65539265 -0.09932208
0003f0 58 c9 52 be 8d ce b7 be 12 29 dd bd e7 c5 15 3f
       -0.20584619 -0.35899773 -0.10798849 0.585051

gru.weight_hh_l0 f4 [192, 64]
000000 7a 82 13 be 9c 57 b6 bd 01 fd fb bd d6 e0 61 3d
       -0.14405242 -0.08903429 -0.12304116 0.05514606
000010 0c c5 47 be 37 0a aa bd 62 90 52 3c c9 0a c2 bd
       -0.19508761 -0.083027296 0.012851806 -0.09474713
000020 9f 92 53 be a8 81 32 bd 42 b4 40 3d 44 17 3e bd
       -0.206614 -0.04358068 0.047046907 -0.046408907
000030 e5 f0 e1 bb 3b 98 e5 bd ec 1d e8 3d 57 1d b1 3c
       -0.006895172 -0.11210676 0.11333832 0.021620436
000040 98 95 2a be d5 cb 5f 3d 9a bb f7 3d 6a 28 20 3e
       -0.16658628 0.05463775 0.12096329 0.15640417
000050 1c 78 05 bd 5e 77 c8 3c bc 46 22 bc 07 b2 2c 3d
       -0.03258525 0.024470981 -0.00990456 0.042161968
000060 e6 1b 60 3e 74 dc f1 3d 36 3e 46 bd fd e8 e5 3b
       0.21885642 0.11809626 -0.048399173 0.0070162998
000070 55 b4 8b 3d 8d 9d 08 3e 7c 3c 10 3e 68 d7 96 3d
       0.06821505 0.13341351 0.14085573 0.07365304
000080 33 76 2f 3e fa 01 19 be 38 13 7b be 98 70 2f 3d
       0.17134933 -0.1494216 -0.2451905 0.042831987
000090 ba c5 01 3e 27 67 00 bd a4 ba 52 be 79 62 9f 3d
       0.12673083 -0.031348374 -0.2057901 0.07782454
0000a0 e1 ea a8 bd 1f 69 c7 bc 40 b4 c4 bc a2 37 8b be
       -0.082479246 -0.024342118 -0.024011731 -0.27190882
0000b0 bd ad 53 3e 86 1c 60 be d1 80 73 be 6a d7 c2 bd
       0.20671745 -0.21885881 -0.23779608 -0.09513743
0000c0 5e b4 1f 3d 6f 71 8b bc 57 e9 ae bd 12 84 38 be
       0.03899037 -0.017021863 -0.085406 -0.18019131
0000d0 10 d5 60 3c 39 d9 27 be 2d cf f9 3d b8 66 20 3d
       0.013722673 -0.16391458 0.12197719 0.03916046
0000e0 7a 13 39 3c ab 5f b4 bd de d8 40 3d 0d 20 bd 3d
       0.0112961475 -0.0880731 0.04708182 0.09234629
0000f0 2a a5 2b 3d 58 7e 50 be 17 7d 90 be cf c5 f8 bd
       0.04190556 -0.20360696 -0.28220436 -0.12147104
000100 88 f6 d5 be 77 3d 8a be eb b6 94 be 0d 80 37 3e
       -0.4178965 -0.2700002 -0.29045805 0.17919941
000110 2d 73 e3 be d5 a7 22 bd f6 0e 82 3e d0 8c a5 be
       -0.4442381 -0.03971084 0.2540204 -0.32333994
000120 64 0c 81 be c2 3b 2d 3e 8b ac 16 bc 9f 85 7c be
       -0.25204766 0.16917327 -0.009196411 -0.24660347
000130 f6 77 fb bd ea d5 49 3c a8 cf 7f 3e 3c 25 23 be
       -0.1227874 0.0123190675 0.24981558 -0.15932173
000140 43 63 a5 be 89 b9 82 3e e4 3c 5d 3e 64 23 4c 3e
       -0.32302293 0.25532177 0.21605259 0.19935375
000150 d1 be 3f be 4e f2 90 3e 80 dd b4 be 65 1d 1e ba
       -0.18725134 0.28309864 -0.3532524 -0.0006031602
000160 74 cf a1 3e e0 89 c8 3e 60 40 81 bd 80 47 90 3e
       0.31603587 0.3916769 -0.06311107 0.2817955
000170 fb 0b d6 3e 86 d6 0a 3f 3c bd ac 3e 17 46 b5 3e
       0.41806015 0.54233587 0.33738124 0.35405037
000180 e5 5b 89 3e 39 aa 1e 3e 75 33 94 be 8e f4 d9 3e
       0.26827922 0.15494622 -0.2894551 0.42569393
000190 4e 20 04 3f e4 ee d0 3d 4d 07 d7 be 64 5e 25 3e
       0.51611793 0.10201815 -0.41997758 0.16149288
0001a0 7a a4 fd bd a1 91 c8 3e 3e 03 9f be 04 33 f3 be
       -0.12384887 0.39173606 -0.3105716 -0.4749986
0001b0 f0 20 fe 3e b9 db 84 be 16 94 b4 be 01 d2 ae be
       0.49634504 -0.25948885 -0.3526923 -0.34144595
0001c0 d0 dc 8c 3e c0 cd 17 be 0c dd ab be 89 b1 f9 be
       0.27512217 -0.14824581 -0.33567083 -0.4876826
0001d0 c8 d8 38 3e 0e 32 9d be 8d 1c c7 3e e7 27 78 be
       0.18051445 -0.3070225 0.3888897 -0.24233972
0001e0 66 2b db 3e dc c3 89 be 9a 42 1a 3d 50 c6 b6 3e
       0.42806548 -0.2690724 0.037661172 0.35698175
0001f0 a6 1d 97 3d 2f 39 a5 be 32 90 00 bf b3 fd b7 bd
       0.07378702 -0.3227019 -0.50220025 -0.08983936
000200 b6 16 96 be d9 94 38 be 6a 3c c9 be cf e8 82 3e
       -0.29314202 -0.18025531 -0.39303905 0.25568244
000210 2c e0 52 bd b9 e6 b5 bd 02 97 07 3e ee e9 28 be
       -0.05148332 -0.088818975 0.13241199 -0.16495487
000220 5c 04 ad be d9 2e c4 3e 91 74 d9 3d 8f 05 1a be
       -0.33792388 0.38316992 0.106179364 -0.15041183
000230 2e 1f ba be d8 c8 ca 3d e5 d9 6f 3e a1 53 1b be
       -0.36351913 0.09901589 0.23422964 -0.1516862
000240 36 3f 8d be 97 f4 8e 3e fe 87 1d 3e 04 12 07 bd
       -0.2758729 0.27920982 0.15383908 -0.032976165
000250 d1 65 d6 be e0 d9 3e 3e 9f 32 71 be 40 c9 b9 bd
       -0.41874555 0.186378 -0.23554467 -0.090715885
000260 27 28 ba 3d 72 75 d7 3e 57 2b c7 3c 35 5e cc 3e
       0.0908969 0.4208179 0.024312658 0.39915624
000270 b3 b7 ff 3d c0 9d 76 3e c8 ae 81 3e 39 58 b1 3e
       0.1248621 0.24083614 0.2532866 0.3463762
000280 0f 4c 0b 3e e3 4c ea 3d d1 e3 5a be a1 eb ab 3e
       0.13603233 0.11440446 -0.21375968 0.33578208
000290 53 12 21 3e da b2 77 3e 58 03 a3 be 99 51 4b 3e
       0.15729646 0.2418932 -0.3183849 0.19855346
0002a0 a5 0d 84 be f3 33 aa 3e a0 89 66 be 42 91 4c be
       -0.2579166 0.3324276 -0.22513437 -0.19977286
0002b0 7f 9a 0d 3e a9 56 8c be 9b f5 09 be d9 fd d6 bd
       0.13828467 -0.27409866 -0.13472597 -0.10497636
0002c0 7d d7 3c 3e d7 f8 6e bd 44 2d 1f bd 43 49 67 be
       0.18441577 -0.05834278 -0.038861528 -0.22586541
0002d0 27 c1 4a 3e 1a 6a 91 be c7 69 04 3e bd 65 35 be
       0.19800244 -0.28401262 0.12930976 -0.17714591
0002e0 85 6f bd 3e 7e 5f 8b be 4d 1b b4 3e 75 be 91 3e
       0.36999145 -0.27221292 0.3517708 0.2846562
0002f0 e0 d9 88 bd ba 48 cf be da dc a4 bd 9d 86 95 be
       -0.06682181 -0.40485173 -0.080499366 -0.29204264
000300 dc c8 47 be 60 24 4b bc 75 96 82 be 44 52 3a 3e
       -0.19510216 -0.012398809 -0.25505415 0.18195444
000310 c1 8a ab be ba 73 b8 bb 69 d7 4f 3e 7c 72 5f be
       -0.33504298 -0.00562903 0.20297016 -0.21821016
000320 04 c1 ae bd ee 8f 58 3e b8 4a 39 3e 92 d0 12 be
       -0.085329086 0.21148655 0.18094909 -0.14337376
000330 e4 34 1a be 28 41 eb 3d e1 7d 87 3d 0f 7e bc bd
       -0.15059239 0.11487037 0.06615806 -0.09203731
000340 90 6b 01 bf 72 8e 87 3e c4 56 02 3d a5 a9 40 bd
       -0.5055475 0.26475865 0.031821027 -0.047036786
000350 06 77 a3 be 16 dc 2c 3e 2d d3 c8 be 96 9a 9f bc
       -0.31926745 0.16880831 -0.39223614 -0.019482892
000360 61 30 58 3e 3d 7e 57 3e e3 a0 8b 3c 3a ea 04 3e
       0.21112205 0.2104425 0.01704449 0.12979975
000370 17 9c 87 bd fa 92 10 3e af 66 35 3e d3 b0 1d 3e
       -0.06621569 0.14118567 0.17714952 0.15399484
000380 c4 5e df 3d 2c a1 0f 3d b5 c6 9e be e8 d3 c9 3d
       0.10906747 0.035065815 -0.31010976 0.09854871
000390 97 90 5a bd 50 08 66 3d 86 10 59 be a8 45 7e 3c
       -0.053360548 0.05616027 -0.2119771 0.015519537
0003a0 f0 28 00 be c3 ed 4e 3e b6 ba 98 be b5 c9 e2 be
       -0.12515616 0.20207886 -0.2982995 -0.44294515
0003b0 29 bb 02 3e 71 45 75 be 5f 58 0e be 90 af a3 bd
       0.12766708 -0.23952271 -0.13900898 -0.0799247
0003c0 07 29 01 be 33 36 e3 3c d3 c5 df bd 92 67 c6 be
       -0.12613307 0.027735805 -0.10926404 -0.38750893
0003d0 07 92 ca 3d 24 34 24 be 96 61 4b bd cf 30 e1 bd
       0.09891134 -0.16035515 -0.049653612 -0.109956376
0003e0 d7 2f 07 3e 21 4d 81 be 8c d2 3a 3e e6 0b 06 3e
       0.13201843 -0.25254157 0.1824438 0.13090476
0003f0 db d8 3c bd 49 54 8d be 73 58 3a be 6c 51 9d be
       -0.046105247 -0.27603367 -0.18197803 -0.30726182

gru.bias_ih_l0 f4 [192]
000000 48 a5 e7 be ca 8c 1e be 42 99 44 be 1c 71 8d be
       -0.45243287 -0.15483394 -0.19199088 -0.27625358
000010 6c 98 d1 b8 e2 33 7d be a8 8a de bd 50 d6 9b be
       -9.9942874e-05 -0.24726823 -0.1086629 -0.30436945
000020 ef 5b 87 be bc b9 ab be b7 5a bd be 6f 91 b2 be
       -0.26437327 -0.33540142 -0.36983272 -0.34876582
000030 28 49 59 be c2 b3 b3 bd 12 4c 62 be 61 9a 26 be
       -0.21219313 -0.087745205 -0.22099331 -0.16269828
000040 f8 94 b0 be 50 4b 84 be 47 7a f2 be 83 90 c6 bd
       -0.34488654 -0.2583871 -0.47358915 -0.09695532
000050 56 e3 33 be ba d6 e8 be e0 fd 0b bf 9b e2 85 be
       -0.1756719 -0.45476323 -0.5468426 -0.2614945
000060 af 32 ca be 16 b0 dc be f2 79 ad be ca 28 41 be
       -0.39491794 -0.43103093 -0.338821 -0.18863216
000070 b8 9b bf be f3 3b b9 be 07 73 a9 be c0 b5 eb be
       -0.3742349 -0.3617855 -0.3309557 -0.46037102
000080 64 a5 c3 be 3c b3 69 be 03 ef 70 be fa 9e c6 be
       -0.3821212 -0.22822279 -0.23528676 -0.38793164
000090 70 f3 80 be f5 0f 67 be 37 35 9d be 41 07 51 be
       -0.25185728 -0.22564681 -0.30704662 -0.20412923
0000a0 28 12 6c be 99 6e b8 be 1a 43 cd be b0 db 13 bf
       -0.23053801 -0.3602188 -0.40090257 -0.5775709
0000b0 04 a7 a2 be 1d 0b aa be 0c 5a b2 be f8 6c 2e be
       -0.31768048 -0.33211604 -0.34834325 -0.17033756
0000c0 57 5e 70 be c6 39 8f be 0b 17 3f be 2b da 93 be
       -0.23473488 -0.27973765 -0.18661134 -0.28877386
0000d0 64 a6 15 bf b0 f9 e4 be a9 9f f5 be 21 8e c3 bd
       -0.58457017 -0.44721746 -0.47973374 -0.09548593
0000e0 d8 bc d3 be 94 d5 a8 be aa 64 da bd e3 10 d3 be
       -0.41355014 -0.32975447 -0.106637314 -0.4122382
0000f0 79 84 25 be 1d e3 c7 be b6 b9 61 be c3 1e a8 be
       -0.16163816 -0.3904046 -0.220435 -0.3283597
000100 3a 91 52 3e f1 59 05 bf dc d2 5c 3e 2c a8 37 3e
       0.20563212 -0.52090365 0.21564811 0.17935246
000110 ba f7 9f 3d 5d 14 0d 3e 6a ec ba 3e 14 d7 09 3f
       0.07810922 0.13777299 0.36508495 0.5384381
000120 b8 5f 00 3e 54 3e 97 3e d3 71 3e be 77 6a 0a 3e
       0.12536514 0.2953974 -0.18598108 0.13517176
000130 8f 00 4c 3c 84 1f 63 be 16 b8 60 bd b5 b1 e6 bd
       0.012451305 -0.22179991 -0.054863058 -0.11264364
000140 82 d9 01 3f bf 7c bd 3d 23 5b b2 3e 4b 33 f8 3d
       0.50722516 0.09252309 0.34835157 0.12119158
000150 6e db e3 3e a2 b7 7b 3e 13 67 ee 3e 91 11 29 bf
       0.4450335 0.24581769 0.46563014 -0.6604243
000160 7d 18 6f 3e 9f a5 c2 3e 82 e8 8e be 45 76 3b 3f
       0.23349185 0.38016984 -0.27911764 0.7322734
000170 98 2d 67 3e 58 03 e6 3e c1 3c a3 3e 11 4c 88 3e
       0.22575986 0.44924426 0.3188229 0.26620534
000180 c8 5e a0 be 26 8a 6a bd 67 67 89 3e 61 57 0e 3f
       -0.31322312 -0.057260655 0.26836702 0.5560208
000190 8f 27 ac bd 65 fd 37 3e f5 59 f0 3e 56 8f 8b be
       -0.08405983 0.17967756 0.46943632 -0.27257794
0001a0 7c 2c 52 3e 90 34 b4 3e 76 79 e0 3e 4a b4 fc 3e
       0.20524782 0.35196352 0.43842667 0.493563
0001b0 ba 31 11 3e 91 c9 e2 3e 90 2e 33 3e 09 94 08 3e
       0.14179125 0.44294408 0.17498231 0.13337721
0001c0 b6 f2 22 3e 55 f4 a8 be ee 12 bc be 31 15 e5 3e
       0.159129 -0.3299891 -0.36733192 0.4474273
0001d0 7f f7 60 3e e5 00 b8 3e 9e 80 ce 3e ea e1 7a 3e
       0.21969412 0.35938182 0.40332502 0.24500242
0001e0 10 6c 59 3e 91 9d 09 3f 8c e8 30 be ef b4 a4 3e
       0.21232629 0.5375605 -0.1727621 0.3216929
0001f0 68 00 62 bd 2f 9f e8 3e 4b 5e c5 3e 26 35 0c be
       -0.05517617 0.45433947 0.38548502 -0.1369215
000200 e7 cd 07 3e bd a1 0c 3d 0d 96 f3 bb 25 fe d6 bd
       0.1326214 0.034333933 -0.007433659 -0.10497693
000210 ff 1e 6f 3d a0 2f 08 bc 4c 19 62 bd 86 69 06 3c
       0.05837917 -0.008312136 -0.055199906 0.00820387
000220 3f d2 2e 3c 0c f6 b4 bd 11 25 f7 bd 3e cb 86 3d
       0.010670244 -0.08835992 -0.12067617 0.06581734
000230 0b da 03 3e 4a 36 bf bc f4 99 f8 bd 2b 6e 3b bd
       0.12876146 -0.023341317 -0.12138739 -0.04575936
000240 07 04 ae 3d d3 eb 82 bd 6c a5 c9 bd 3e 06 da bd
       0.08496862 -0.06392636 -0.09846005 -0.10645722
000250 d3 17 9d 3d 06 ce ba bd 15 a6 ce 3c 00 45 31 3d
       0.0767056 -0.09121327 0.025225678 0.043278694
000260 e9 b2 85 bd 3f c7 df bd c2 9f d3 bb 85 4a 21 bd
       -0.06528265 -0.10926675 -0.0064582536 -0.039377708
000270 a5 41 b2 bd 49 3b 84 bd bb 3d d2 bd a2 b3 17 be
       -0.08703927 -0.0645662 -0.102656804 -0.14814618
000280 98 c9 16 be 91 e4 74 3d 5e 0f dd 3c 91 b8 04 bd
       -0.1472534 0.05978829 0.026984867 -0.03240258
000290 3e 61 b3 bd ca 7f 09 be 30 52 f8 3d 7f 7a 9b bd
       -0.08758782 -0.13427654 0.12125051 -0.07591724
0002a0 91 51 29 3d 0f f5 e5 bd 85 d8 dd 3c cd b5 ab 3c
       0.041337553 -0.11228382 0.027080784 0.020960713
0002b0 da d2 c1 bd 2f e7 64 3d 8c 50 d5 3d 30 39 37 3e
       -0.09464045 0.055884536 0.10415754 0.17892909
0002c0 e7 d9 cc bd 31 3b 87 3d 23 b2 0d 3e 4a fe c9 3d
       -0.10002499 0.06603087 0.13837485 0.09862955
0002d0 a8 87 96 bd a9 32 c8 3d e7 4b 53 bd 77 f6 92 3c
       -0.07350093 0.09775288 -0.051586058 0.01793979
0002e0 f3 bd de bd a1 dd 86 3d 3f 3c 68 bc 4c 3a 8f bd
       -0.10876074 0.06585241 -0.01417452 -0.06993541
0002f0 d5 5e 5f bc 12 99 1f 3d 02 6f d8 3d 1f 76 93 3d
       -0.01363345 0.03896434 0.10568048 0.07200264

gru.bias_hh_l0 f4 [192]
000000 0a e4 7a be 38 95 19 be 2e 2a b8 be 6e 30 b2 be
       -0.24501052 -0.14998329 -0.3596968 -0.34802574
000010 91 99 52 3d 30 ad 9b be cd 9a 3f bd 68 4f 7e be
       0.051415984 -0.3040557 -0.04677849 -0.24834979
000020 d1 e7 10 be e1 16 e2 be 99 50 42 be 9d e1 55 be
       -0.14150931 -0.4415808 -0.18976058 -0.20886846
000030 24 26 d4 be a6 66 30 be 3a 3c 8f be 33 35 99 be
       -0.4143535 -0.17226657 -0.27975637 -0.299234
000040 69 49 2e be 7f 41 36 be 1b fb eb be af 8a 4e be
       -0.17020191 -0.17798422 -0.46090016 -0.20170091
000050 8d 4b 84 be f1 d7 01 bf 2e 6b fb be 99 a3 47 be
       -0.2583889 -0.50720125 -0.4910521 -0.19496001
000060 c4 c5 bb be 8c 47 c2 be b5 a6 4d be 94 45 6c be
       -0.3667432 -0.3794521 -0.20083125 -0.23073417
000070 99 15 b0 be 24 22 d2 be b5 21 d3 be a9 a1 78 be
       -0.34391478 -0.41041672 -0.41236654 -0.24280418
000080 20 c8 bb be 53 95 80 be 32 ab 9c be 37 40 0f bf
       -0.3667612 -0.25113925 -0.30599362 -0.5595736
000090 16 9f 7e be fe 1a 61 be fe 98 78 be 20 47 8a be
       -0.24865374 -0.21982953 -0.24277112 -0.2700739
0000a0 9b f8 15 be b4 62 36 be c6 30 0b bf d5 4b 08 bf
       -0.14645617 -0.1781109 -0.543713 -0.5324071
0000b0 b7 ff db be 81 4f e0 be 8e cd b3 be 99 0f 83 be
       -0.42968532 -0.43810657 -0.35117763 -0.25597838
0000c0 53 b8 7c be de d2 b2 be a5 85 41 be e8 e0 80 be
       -0.24679689 -0.34926504 -0.18898638 -0.2517159
0000d0 d0 33 ec be ff c1 c4 be c0 c0 0f bf 55 54 38 be
       -0.4613328 -0.38429257 -0.5615349 -0.1800092
0000e0 57 47 73 be 60 0e c6 be 18 14 a4 be 53 14 c8 be
       -0.23757683 -0.38682842 -0.3204658 -0.39078006
0000f0 23 e4 37 be e9 8c a8 be 46 92 a8 be 91 68 a5 be
       -0.17958121 -0.32920006 -0.32924098 -0.3230634
000100 90 a7 61 3e 84 75 ab be 36 c4 fd 3d 8c 47 91 3e
       0.22036576 -0.33488095 0.1239094 0.28374898
000110 32 33 5f ba 69 a4 24 3e 99 da aa 3e c7 e9 27 3f
       -0.00085144036 0.16078342 0.33369902 0.6559109
000120 3c f1 bc 3d fa 7e c9 3e 6e 83 8c bd ed ee 4c 3e
       0.09225699 0.39354688 -0.06861006 0.20013018
000130 39 23 ac 3d 6a 62 99 be 59 bd 8f 3c 60 08 cc 3c
       0.08405156 -0.29957896 0.017546343 0.024906337
000140 14 20 0b 3f 58 98 e8 3a 10 48 a5 3e 21 df 10 3e
       0.5434582 0.0017745597 0.32281542 0.14147617
000150 93 3d ec 3e c1 d8 8a 3e b6 2a 0f 3f 19 be 21 bf
       0.46140727 0.27118495 0.55924547 -0.6318069
000160 46 56 6f 3e 0e 1a d9 3e 09 2a 8d bd c3 3a 6b 3f
       0.23372754 0.4240269 -0.06892783 0.9188654
000170 82 ca 8a 3e 99 f3 e7 3e 55 58 a7 3e 8c 0e 85 3e
       0.27107626 0.45303038 0.3268458 0.2598766
000180 36 dd c1 be 1e 98 20 3d d9 60 c0 3d 47 19 fa 3e
       -0.37864083 0.03920757 0.09393472 0.4884741
000190 7e ce fc bd 47 69 15 3b a3 cd 8b 3e da bb 94 be
       -0.12344073 0.0022798346 0.27305326 -0.2904957
0001a0 8e d0 40 3e 5f 8a 44 3e 8e 37 b7 3e 15 3b 19 3f
       0.18829557 0.1919341 0.35784572 0.5985578
0001b0 97 a0 aa 3d cf 2f af 3e 6d 29 3f 3e 26 3e bc 3d
       0.08331411 0.34216163 0.18668146 0.091915414
0001c0 54 37 4d 3e e4 33 ba be 50 11 dd be ba d4 fa 3e
       0.20040637 -0.36367714 -0.4317727 0.48990422
0001d0 8f 39 ad 3e 57 9a d0 3e 4c 02 f7 3e 4e 70 f2 3d
       0.33832976 0.40742752 0.4824394 0.11837827
0001e0 03 ac 64 3e 36 c1 e8 3e bf 3c 90 bd c1 7d 96 3e
       0.22331242 0.45459908 -0.070428364 0.29392818
0001f0 ba d7 95 bd b8 5c f9 3e 0a 80 33 3e be b0 90 3c
       -0.07316537 0.4870355 0.17529312 0.017662402
000200 33 05 f1 ba 24 4e 27 3e e1 2b 11 3d 82 0e f0 bd
       -0.001838839 0.16338402 0.035442237 -0.11721517
000210 13 0f 8c 3e 61 cd df bd 88 5c 59 3d 6b fe 30 3e
       0.2735525 -0.10927845 0.05306676 0.17284553
000220 39 cc 4f 3e 9a a5 0b be f8 7f 92 3b d6 68 0f 3e
       0.20292749 -0.1363739 0.0044708215 0.14004835
000230 8c a3 71 bd 2e e3 38 3e ed 69 11 be 77 1f 61 3d
       -0.05899386 0.18055412 -0.14200564 0.054961648
000240 76 00 b4 bd c8 d2 5a 3c cf 8c 6d bd 9d fd 17 be
       -0.087891504 0.013355918 -0.057995614 -0.1484284
000250 8d c6 83 bd f6 c3 07 be 19 13 aa 3d 66 ab 3b 3e
       -0.06434355 -0.13258347 0.08304424 0.18327102
000260 65 de d2 bd d3 49 22 be d4 54 f7 3d c0 4f fa bb
       -0.10296325 -0.15848474 0.120767266 -0.0076389015
000270 99 ec a1 bc 33 09 69 bd c8 3e 3b be 49 95 b9 3c
       -0.019766139 -0.05689354 -0.18285668 0.022654193
000280 17 89 6c 3d ce c7 68 bd 05 97 6a bc 5a b8 a0 bd
       0.057747927 -0.056831174 -0.014318232 -0.07847662
000290 bc 89 ae bd 1a 97 0c be 56 29 0f 3c ce fb ec bd
       -0.085223645 -0.13729516 0.008737883 -0.115714654
0002a0 6c 64 2d 3e cc a5 bd 3c a7 30 af 3d 7d b5 ce 3d
       0.16932839 0.023150347 0.085542016 0.1009321
0002b0 b2 8e a6 bd be 58 0e 3e ee fe 21 3e 58 7d dd 3c
       -0.08132686 0.1390104 0.15819904 0.027037308
0002c0 58 12 8d 3d 64 e0 ef 3d 13 61 47 3e 4f 41 30 3d
       0.068882644 0.11712721 0.19470625 0.043031033
0002d0 26 55 0c be 85 4c 08 3e 21 78 88 bd 07 43 0d bd
       -0.13704357 0.1331044 -0.06663538 -0.03448775
0002e0 8c 40 94 bc 73 fa bb bc 67 ed 9b bd fe 0e 0b be
       -0.018097185 -0.022946572 -0.0761364 -0.13579938
0002f0 71 21 ea bd 02 e9 46 3d b8 11 ab 3d 1d 98 4f bd
       -0.1143216 0.048562057 0.08352989 -0.050682176

fc.weight f4 [256, 64]
000000 5a 70 94 bb 14 ac 2f bd c7 54 0e 3d 0b b4 90 bc
       -0.004529995 -0.042888716 0.03474882 -0.017663976
000010 85 43 aa bc df a8 05 bd 42 20 da bc dc 02 eb bb
       -0.020784149 -0.03263175 -0.02662671 -0.0071719717
000020 87 a7 9b bc ee dd a9 3c 46 b6 ce bb 5c 9e 84 3d
       -0.019000782 0.020735707 -0.00630835 0.06475517
000030 a7 30 86 3c ec 02 c2 3b 0c 48 49 3d 09 0c 0a bd
       0.016380621 0.0059207585 0.049140975 -0.033702884
000040 b6 3f 95 bc c8 3b b7 3c f4 c1 04 3b 3b c9 03 3c
       -0.018218856 0.022367373 0.0020257207 0.008043583
000050 4e 21 a2 bc f0 44 de 3c 98 ba 9a 3d 46 60 87 bc
       -0.019791272 0.027132481 0.07555121 -0.016525399
000060 71 55 e8 bb 48 fb d3 bd e8 8d cb 3c b1 ac 08 bd
       -0.0070902635 -0.103506625 0.02484794 -0.033367816
000070 d8 a8 b9 3c 76 d5 84 3b 57 f3 60 3c 1d 1f f9 3c
       0.022663519 0.004053767 0.013729892 0.030410344
000080 6a 26 79 3b a4 01 01 bd a6 e0 f0 bc 34 df 89 bd
       0.0038017281 -0.031495705 -0.029403996 -0.06732026
000090 24 cb 6d 3c 2e d4 54 3c 92 4d 5d 3c c2 9f 17 bd
       0.0145137645 0.012990041 0.013507264 -0.03701759
0000a0 d0 c3 88 3d c6 28 8c 3d ce d5 60 3d 95 bb 19 bd
       0.06677973 0.068437144 0.0548914 -0.037532408
0000b0 fd 01 c3 bc e1 cd c4 bd 9e 40 5a bd 9d de 1e bd
       -0.023804659 -0.09609581 -0.05328428 -0.03878652
0000c0 b8 29 38 3c b2 b4 de bb 71 98 20 3d 42 8a 3c bc
       0.011240415 -0.006796443 0.03920788 -0.011507573
0000d0 3f a5 c4 bc 38 3d 57 3d 11 f8 e5 bb 0a 09 de bc
       -0.024004577 0.052548617 -0.007018097 -0.02710392
0000e0 20 8b 96 bc a8 f2 e2 bc 84 56 ff 3a 9b 9e a0 3c
       -0.018376887 -0.027703598 0.001948074 0.019606879
0000f0 44 bb e8 3c 85 a6 2f bc c9 7b fc 3c de 1e 1a 3d
       0.028409608 -0.010720854 0.030820744 0.037627093
000100 34 5a 6c 3d ad 6d bd bc 95 47 69 bc 51 cf ba bc
       0.057703212 -0.023123587 -0.014238258 -0.022803934
000110 ae fb da 3c 8f 74 02 3c 09 bd e0 bb 8c de 3c 3d
       0.026731338 0.00796236 -0.0068584722 0.046110675
000120 17 d6 3c 3d 9e 2b 01 bd af 29 86 bc 9a 55 6c 3d
       0.04610261 -0.031535737 -0.016377298 0.057698824
000130 bf a8 bb bb 9e f2 c0 bc e6 57 9b 3c a7 dc c6 3c
       -0.005726903 -0.023553189 0.018962812 0.024275137
000140 49 bb 33 3d 4e 9b f2 3c 4f 21 1e bd 47 12 8f 3c
       0.04387978 0.02961507 -0.038605984 0.01746477
000150 8b 9f 8a 3c b8 22 a5 3d 05 c6 8e bd 9f bb 2b bc
       0.01692178 0.08063263 -0.06971363 -0.010481744
000160 72 3f e1 bc 66 f1 8b bc 33 b5 d7 3c 5e a0 ae 3c
       -0.027496073 -0.017082881 0.02633152 0.021316703
000170 f5 e6 91 3d a9 2e 7c bd d0 fa 8a 3d a3 8e a9 3c
       0.0712413 -0.061567936 0.0678612 0.020697897
000180 e0 75 28 bc bf 05 22 3d e3 58 9c bc f2 ca b7 3c
       -0.01028201 0.03955626 -0.019085353 0.022435639
000190 ab 8a d9 3c 6b 7a 6a bc 51 0a 92 3c 3a 8e d3 3c
       0.02655538 -0.014311413 0.017827185 0.025824655
0001a0 62 f9 cc bc e1 23 74 3c ef ad 2b 3d 62 f8 0c 3c
       -0.025021259 0.014901132 0.041913923 0.008604141
0001b0 c9 5e d9 3b 32 fb 25 bc 95 86 cb bc 1f 8e 19 bd
       0.0066336137 -0.01013069 -0.024844447 -0.037489053
0001c0 34 a0 47 3d ee 6d 4a 3d 0d 22 90 3c 17 5f 28 3d
       0.048736766 0.049421243 0.017594362 0.04110631
0001d0 20 a6 49 bc 7f 7a 37 bd 79 6f 60 3d f8 65 e3 3c
       -0.012307674 -0.044794556 0.05479381 0.027758583
0001e0 3e c3 b5 3c 8a a7 43 3d 3e af ef bc 98 21 b5 bc
       0.022187825 0.0477672 -0.029258367 -0.022110745
0001f0 99 57 9e bc 55 83 4c 3d 4c fe e5 3c e2 1a 52 bd
       -0.01932888 0.049929935 0.02807536 -0.05129517
000200 2e 43 ef 3c 7a 6e 0c bd d2 fc ea 3c b2 5e 6a bd
       0.029206838 -0.034285046 0.028685007 -0.057219215
000210 dd 11 8c bc 57 c3 98 bb bd 01 06 bd 90 c5 63 3b
       -0.017098362 -0.004661958 -0.0327165 0.0034755208
000220 0a 8b c4 bc 2e 74 e1 3c 3d 20 82 3c 1b 61 32 3d
       -0.02399208 0.02752122 0.015884513 0.04354964
000230 a1 ac 9a bb c6 2d 19 bc 62 eb 15 3d 3f ba ac 3c
       -0.004720286 -0.009349292 0.03660143 0.021084903
000240 17 fe 62 bc 9f 13 48 bd 85 2d 72 bd 9a 8d 2b 3c
       -0.013854525 -0.048846837 -0.059125442 0.010470772
000250 6f ee f9 bc f5 8d c0 3c 5a b3 23 3d ae 95 48 bc
       -0.030509202 0.02350519 0.039965965 -0.012242718
000260 c5 d7 09 3d d7 5d 12 bd 1c a0 b6 3c aa da c7 bc
       0.03365304 -0.035734024 0.022293143 -0.02439626
000270 17 32 4d 3d 2c c6 6e bd 3a 3c e0 bb 16 b1 2d bd
       0.050096598 -0.05829446 -0.006843117 -0.04240521
000280 94 97 b2 bc cf b2 de bb e7 23 01 bd 07 28 a1 3c
       -0.021800794 -0.006796218 -0.03152838 0.019672407
000290 70 a3 99 3c 99 ff f8 bc 29 e8 dd bd 8a a3 72 bc
       0.01875469 -0.030395316 -0.10835297 -0.014809499
0002a0 60 d3 36 bd fd e3 c9 3c 83 63 91 3c 30 e7 3f bc
       -0.044635177 0.024644846 0.017747646 -0.011712834
0002b0 24 06 cc bd ef d1 0c 3c 0f 2c 26 bc 9f 49 3a 3d
       -0.09962109 0.008594974 -0.01014234 0.045480367
0002c0 a4 66 54 bd 1e 17 93 3c c2 32 04 bc 8e 57 68 bc
       -0.0518557 0.01795536 -0.008068742 -0.014181031
0002d0 fd 99 4f 3d 1f 83 a3 bc 48 4b 0a 3d 33 90 f8 bc
       0.050683964 -0.019959984 0.0337632 -0.030342197
0002e0 e7 65 57 bc 43 92 a7 bc 7b 64 67 bd 1e 13 d0 bc
       -0.013146854 -0.020455485 -0.05649231 -0.02539974
0002f0 29 41 19 bd d4 27 ff 3c cc 44 17 bd 1d 2f 44 bd
       -0.037415657 0.031146921 -0.036930844 -0.047896493
000300 90 45 42 3d dc a4 db 3c a1 0a 48 3d 0a 8f 7e 3c
       0.04742962 0.02681201 0.04883826 0.015537033
000310 f8 00 22 bd fd 25 68 bc a5 00 e9 bc be b8 29 bc
       -0.039551705 -0.014169213 -0.02844269 -0.010358987
000320 a1 14 b8 3c c4 f1 eb bc e0 55 c2 bc c3 20 38 3d
       0.022470774 -0.028801806 -0.023722589 0.04495312
000330 11 ee 55 3c 14 d7 21 3c ee 1a 8a bc 5e da 80 bc
       0.013057248 0.009877939 -0.016858544 -0.015729126
000340 3d 5e 8b bc 39 8d bf bb cc 2e c1 3d 20 f2 1e bc
       -0.01701271 -0.0058456925 0.09432754 -0.009701282
000350 e8 9a bf bc a5 67 9b 3d 6b d2 36 3d ef 39 6c bc
       -0.023389295 0.07588128 0.044634264 -0.014418109
000360 df 3e 8a 3d d7 e0 08 bd 7a d7 a3 3c 19 eb 25 bd
       0.06750273 -0.03341755 0.020000208 -0.04050741
000370 31 25 87 3b d8 3d 16 3d 3c f1 90 bd 05 cd 33 3b
       0.0041243066 0.036680073 -0.07077262 0.0027435434
000380 94 30 39 3b ea 51 95 3c 2d 3e d6 bb 55 7b 19 bc
       0.0028257715 0.018227536 -0.0065381736 -0.009367784
000390 f2 c6 07 bd 5b 54 1d 3b 58 c7 7f bc 7b e6 02 3d
       -0.033148713 0.0024006579 -0.015611492 0.031958085
0003a0 06 51 81 bd 89 45 ce bc e3 97 32 3d 5d 77 2d 3d
       -0.06314282 -0.025179641 0.04360188 0.04235016
0003b0 1a 95 e6 3c ab 75 13 bd a6 ad 4c bd b6 e3 dd 3b
       0.028147269 -0.03600089 -0.04997029 0.00677153
0003c0 1b 0a d7 3b 92 ff 52 bc 4c 5f 27 bc dc 69 2e 3d
       0.006562484 -0.0128783155 -0.010215592 0.042581424
0003d0 83 24 1e 3d 02 9a 28 3c 21 aa 27 bc 4a 52 1c 3c
       0.03860904 0.010290625 -0.010233433 0.009541104
0003e0 34 24 fd bc 37 b1 8e 3c 1f f4 9a bc 01 c6 e3 bc
       -0.030901052 0.017418487 -0.018915234 -0.027804377
0003f0 87 c2 e8 bb 2e 97 0c 3c 78 2f 1d 3d 38 1e 31 bc
       -0.0071032676 0.008580966 0.038375348 -0.010810427

fc.bias f4 [256]
000000 47 66 09 3e c6 c9 f5 3d e4 08 68 3d 1b 70 a4 3d
       0.13417922 0.12001376 0.056649104 0.08029195
000010 7a dd 49 3c bb c6 db 3d 87 ce f2 3d 5a 2e 22 3d
       0.0123208705 0.10731264 0.11855798 0.039594986
000020 4f 38 66 3d 83 51 13 3e c4 82 85 bb 40 3b 42 3e
       0.056206044 0.14386563 -0.0040744264 0.18967915
000030 06 65 d4 bd fc b8 e2 bc 8d 9e d4 bc 7c ff f9 3d
       -0.10370831 -0.027676098 -0.02595451 0.12206933
000040 70 03 1d 3d 71 b7 02 bd 3c 87 8e 3c 07 82 3e bd
       0.038333356 -0.031913225 0.01739847 -0.046510722
000050 96 d4 d8 3c db e2 76 bc c3 2a ea bb 1d b3 18 be
       0.026468556 -0.015068735 -0.007146211 -0.14912076
000060 1b 67 c9 bb 46 33 ae 3c f1 4a 40 3d ef 13 92 bd
       -0.0061463243 0.021264683 0.04694647 -0.07132708
000070 c1 a6 3e 3b d4 0b 45 be 48 c8 4b bd b9 15 cb 3d
       0.0029091092 -0.19242793 -0.04975155 0.09916253
000080 77 53 a2 3c cb 65 5e bd 52 13 95 bd 47 87 1f be
       0.01981519 -0.054296296 -0.07279076 -0.15578948
000090 cb e2 5b be 04 33 2a be 48 c0 e4 bd 6c 3c 23 be
       -0.21473233 -0.16621023 -0.11169487 -0.15941018
0000a0 86 33 53 be ea 11 35 be 4e dd 1b be 11 96 31 be
       -0.20625123 -0.17682615 -0.1522114 -0.17342402
0000b0 15 fe 4c be 53 cf a1 bd cb 5a 80 bc 4b a1 cb bd
       -0.200188 -0.07900872 -0.015668293 -0.099428736
0000c0 16 a8 cd be c6 ec 74 be c6 e6 bf be f3 19 b3 be
       -0.40167302 -0.23918447 -0.37480754 -0.34980735
0000d0 74 8a 71 be 5e 92 d1 be 2d 4a ba be e1 59 f1 be
       -0.23587972 -0.40931982 -0.36384717 -0.47138885
0000e0 8c dd b9 be eb 2c fc be 7a e0 ef be 15 20 b2 be
       -0.3630184 -0.4925302 -0.4685095 -0.34790102
0000f0 1f 8b de be f3 03 0a bf 8c a4 92 be b2 ac ef be
       -0.43465516 -0.53912276 -0.28641164 -0.46811444
000100 a4 df 8d be d1 e7 81 be 20 74 21 be 12 3d bc bd
       -0.27709687 -0.25372174 -0.15766954 -0.09191336
000110 81 04 d0 bd ee 96 23 3d 63 90 39 3e 0c cb 77 3e
       -0.10157109 0.03993886 0.18121485 0.2419855
000120 d2 1d 25 3e 87 85 3e 3e 96 dd 1f 3e 8c 68 b7 3e
       0.16124657 0.18605624 0.15611872 0.3582195
000130 0b 73 d1 3e 90 4c f3 3e f7 09 12 3f 4e d5 21 3f
       0.40908083 0.4751935 0.57046455 0.632161
000140 7d b3 40 3f d5 1d 3f 3f e8 a6 69 3f e8 f1 83 3f
       0.7527388 0.74654895 0.91270304 1.0308199
000150 7f d0 7f 3f a6 cf 78 3f 9e d0 82 3f 65 05 80 3f
       0.99927515 0.97191846 1.0219915 1.0001646
000160 e4 17 74 3f a8 71 8a 3f 95 67 7e 3f d4 81 85 3f
       0.95348954 1.0815935 0.99376804 1.0430245
000170 0c fa 85 3f 50 a0 8c 3f fd cd 88 3f 9a ef 89 3f
       1.0466933 1.0986423 1.0687863 1.0776246
000180 c9 be 99 3f 66 31 8a 3f 62 26 81 3f 6d b4 88 3f
       1.2011348 1.0796325 1.0089839 1.0680062
000190 62 81 92 3f f3 58 80 3f 06 92 8a 3f ce c8 83 3f
       1.1445735 1.0027145 1.0825813 1.0295656
0001a0 1c ad 8b 3f 49 be 8a 3f 54 de 82 3f 51 35 6d 3f
       1.0912204 1.083932 1.0224099 0.9265948
0001b0 65 38 79 3f 5a 91 70 3f 5c 5f 5f 3f b2 b2 58 3f
       0.97351676 0.9397179 0.8725488 0.8464767
0001c0 67 fb 5b 3f bc 3c 73 3f b4 d8 62 3f 6d c8 4d 3f
       0.85930485 0.9501455 0.8861191 0.8038395
0001d0 5b 44 69 3f c6 d5 38 3f 68 a4 52 3f f4 5e 45 3f
       0.9111993 0.7220119 0.82282114 0.7709801
0001e0 54 97 5a 3f 0c ef 4c 3f eb 47 55 3f b5 26 64 3f
       0.8538716 0.80052257 0.83312863 0.8912156
0001f0 dc e0 3b 3f 82 0f 4b 3f f1 ff 1c 3f a9 8e 4e 3f
       0.73389983 0.7932054 0.61328036 0.8068643
000200 07 27 2e 3f b5 6c 28 3f e5 db 3b 3f ac 13 0f 3f
       0.680283 0.65790874 0.7338241 0.5588939
000210 62 0b 4d 3f 15 43 1c 3f 65 4f 10 3f c6 8a 29 3f
       0.80095494 0.6103986 0.56371146 0.66227376
000220 1d 23 0b 3f 46 eb 36 3f 06 aa 10 3f 42 f9 14 3f
       0.54350454 0.7145275 0.56509435 0.5819284
000230 8b 42 2f 3f 3c df 16 3f 51 c6 2b 3f b1 42 34 3f
       0.6846091 0.5893438 0.6709948 0.70414263
000240 0e c4 24 3f 53 95 28 3f c6 fd 29 3f bd d4 12 3f
       0.64361656 0.6585285 0.6640285 0.5735586
000250 dc 0b 22 3f b2 4d d8 3e 2e b4 07 3f e7 09 23 3f
       0.63299346 0.42246777 0.5300931 0.63686985
000260 24 ff 2f 3f ab 46 13 3f 4b f6 1d 3f ff bb ff 3e
       0.6874869 0.57529706 0.6170394 0.49948117
000270 e3 e9 f9 3e 6d ae ee 3e 4d a1 17 3f 52 da 09 3f
       0.48811254 0.4661745 0.592305 0.53848755
000280 eb c5 23 3f 5c de 17 3f 60 ed 0d 3f 1a 66 2b 3f
       0.63973874 0.5932367 0.5544033 0.6695267
000290 35 f7 ff 3e bc b3 df 3e df 06 01 3f 30 bd c3 3e
       0.49993291 0.43691814 0.5040111 0.38230276
0002a0 d7 74 06 3f 32 a8 bb 3e 61 ca f8 3e 41 6f d8 3e
       0.52522033 0.3665176 0.48591903 0.4227238
0002b0 5d 97 e2 3e e5 28 c3 3e ab d6 ba 3e 98 8c 05 3f
       0.44256106 0.38117138 0.36491904 0.52167654
0002c0 4f c0 0b 3f bf 42 fa 3e 81 a2 e4 3e 97 31 d7 3e
       0.54590315 0.48879048 0.4465523 0.42030022
0002d0 6b d3 01 3f 65 49 e8 3e d0 7d cf 3e 3f 1c cf 3e
       0.50713223 0.45368496 0.40525675 0.40451238
0002e0 2a 66 f5 3e 4f ca 8f 3e 6c 9c d9 3e 8d f3 ab 3e
       0.47929507 0.28084037 0.42502153 0.33584252
0002f0 ea 6f c4 3e 58 27 c2 3e 8d 32 ae 3e ed 99 9d 3e
       0.38366634 0.37920642 0.34022942 0.307815
000300 33 0c b2 3e 2b 5c 89 3e e9 32 bf 3e 18 65 c5 3e
       0.34774932 0.2682813 0.3734353 0.3855369
000310 bd 0a 9e 3e 2e ce a6 3e 6c 21 af 3e 1c 1d d4 3e
       0.30867568 0.32579178 0.34205186 0.4142846
000320 6f aa be 3e 19 80 af 3e 49 e7 d6 3e ee 91 ab 3e
       0.37239406 0.34277418 0.41973332 0.33509773
000330 93 af 01 3f d4 ce d4 3e c6 79 bb 3e 17 fe df 3e
       0.5065853 0.41564047 0.36616343 0.43748543
000340 bd 6f df 3e b3 74 a8 3e 2c ed ec 3e 03 f4 75 3e
       0.43639937 0.32901534 0.46274698 0.24018864
000350 d7 3e cc 3e 3a 89 c2 3e 47 70 b4 3e 6f 33 d2 3e
       0.39891693 0.3799532 0.3524191 0.41054866
000360 ff 33 a2 3e 2f fb 9a 3e 4b 7e c5 3e 96 87 8c 3e
       0.31680295 0.30269763 0.38572916 0.27447194
000370 7f 30 a1 3e 60 3f d6 3e 23 e0 e6 3e 91 11 a7 3e
       0.31482312 0.41845226 0.45092878 0.3263059
000380 23 d1 58 3e 11 1a a8 3e 75 b5 b0 3e 34 f0 cc 3e
       0.2117353 0.32832387 0.3451344 0.4002701
000390 8b 9c ad 3e 70 28 a9 3e d7 b7 05 3f 18 9d c9 3e
       0.33908495 0.33038664 0.5223364 0.39377666
0003a0 9d 90 ae 3e 29 cc ee 3e 07 ba dc 3e 8d 51 bf 3e
       0.34094706 0.46640137 0.43110678 0.37366906
0003b0 08 e0 b5 3e 2b cd e9 3e ff 54 e8 3e 00 2c bb 3e
       0.35522485 0.45664343 0.45377347 0.36557007
0003c0 01 2b ca 3e 04 50 9a 3e f0 4b 8f 3e 6c 8e cc 3e
       0.39485934 0.30139172 0.27987623 0.3995241
0003d0 42 e6 9a 3e f2 55 ac 3e 2c 7b a4 3e 86 2f bc 3e
       0.30253798 0.3365932 0.32125223 0.36755008
0003e0 16 6c 96 3e b9 5a 90 3e ea 81 c1 3e 8a 69 ad 3e
       0.29379338 0.28194216 0.3779443 0.33869582
0003f0 53 10 ce 3e 70 1c a3 3e 4e 2f 2f 3e 29 e3 94 3e
       0.4024683 0.31857634 0.17107889 0.2907956

ln.weight f4 [64]
000000 2e 79 b7 3f 15 89 b1 3f f6 b6 ea 3f f8 b9 cb 3f
       1.4333856 1.3869959 1.8337085 1.5916128
000010 ed 24 89 3f b6 20 c0 3f dc 11 0b 40 75 20 b4 3f
       1.0714394 1.5009983 2.172965 1.4072405
000020 75 81 bc 3f 93 ad c6 3f 96 9f c5 3f 10 56 a1 3f
       1.4727007 1.5521721 1.5439327 1.2604389
000030 ee 87 c5 3f 68 0a ac 3f e0 ca a5 3f 45 59 ad 3f
       1.5432107 1.3440676 1.2952538 1.3542868
000040 3e 22 bf 3f 18 4d bf 3f c8 b1 c4 3f 93 b9 b7 3f
       1.4932325 1.4945402 1.5366755 1.4353508
000050 0d 88 eb 3f 4d 41 be 3f b0 f6 c5 3f 82 d9 9e 3f
       1.8400894 1.4863678 1.5465908 1.2410128
000060 dc 71 b6 3f 3f a1 d3 3f cc 9c 9f 3f 2c de f7 3f
       1.4253497 1.6533583 1.2469726 1.9364676
000070 9f 0c b5 3f ff f6 d3 3f 38 b5 db 3f cb af c4 3f
       1.4144477 1.6559752 1.7164679 1.5366148
000080 33 f6 b9 3f f1 d9 ac 3f e9 46 07 40 16 19 dd 3f
       1.4528259 1.350401 2.113703 1.7273281
000090 2e 17 ae 3f 9b b3 eb 3f 28 43 be 3f c4 a2 af 3f
       1.3600824 1.8414186 1.4864244 1.3721547
0000a0 8d 24 be 3f 47 51 bd 3f b6 1a b3 3f cc d1 c3 3f
       1.4854904 1.4790429 1.3992527 1.52984
0000b0 89 f2 bd 3f 3c 36 b7 3f 3f 5f c2 3f 82 64 af 3f
       1.4839641 1.4313426 1.5185317 1.3702548
0000c0 36 f2 b0 3f cc de b0 3f 44 fb 97 3f dc 4f be 3f
       1.3823917 1.3817992 1.1873555 1.4868121
0000d0 42 44 c7 3f 58 d0 c1 3f ae 9d c1 3f bb d0 f5 3f
       1.5567706 1.5141706 1.5126245 1.9204324
0000e0 8f 84 bb 3f 7f 86 bc 3f 6f e2 b4 3f 22 c9 cc 3f
       1.4649829 1.4728545 1.4131602 1.5998881
0000f0 6e bf b3 3f 9f 57 eb 3f ed 3a b1 3f ed 94 b8 3f
       1.4042795 1.8386115 1.3846108 1.4420449

ln.bias f4 [64]
000000 58 ef b5 3e 3f 3b a8 3e f0 0a 65 3e e7 9f 5a be
       0.35534167 0.328577 0.22367454 -0.2135006
000010 21 32 10 3f 9d 8a fa 3d c7 f6 64 bd 3b 45 a8 3e
       0.5632649 0.1223347 -0.055899408 0.3286532
000020 19 58 08 3e d9 bb 61 be c4 48 c8 3d 48 52 07 3f
       0.13314857 -0.22044314 0.09779504 0.52859926
000030 f2 bd 8d 3e 73 fe fe be 9d 14 e4 be b9 61 05 3f
       0.2768398 -0.49803504 -0.44546977 0.5210224
000040 a2 dd 9a 3e 80 8e 0f bf 4e 0c 4b be a3 2a 3b bf
       0.30247217 -0.5607681 -0.19828913 -0.73111933
000050 e4 fd 43 3e 00 3f a6 be 7c f5 94 3e 58 33 80 be
       0.1913982 -0.3246994 0.2909354 -0.25039172
000060 58 f0 9a be 70 01 50 be 5d 07 0a be eb a6 5e be
       -0.30261493 -0.20313048 -0.13479371 -0.21743362
000070 d4 e5 86 be 55 73 39 be 3d 3f 0e be c5 ec 0d be
       -0.2634722 -0.18110402 -0.13891311 -0.13859852
000080 99 cb 92 be eb 50 f2 be 63 a3 91 3d cc d0 8a be
       -0.28670958 -0.4732736 0.07111242 -0.27112424
000090 8a c1 a7 be 4b 25 24 3e 49 00 8d 3e 83 e6 1b be
       -0.32764846 0.16029851 0.2753928 -0.15224652
0000a0 c4 6f 45 3e d7 98 22 be f3 18 db 3e 24 52 bd 3e
       0.19280916 -0.15878616 0.42792472 0.3697673
0000b0 c8 35 72 be 3f 5d af 3e ed 61 21 3e e7 5c d3 3e
       -0.23653328 0.3425083 0.15760012 0.41281816
0000c0 3f 62 65 be 53 4a 56 3e da 0b 98 bc 4f e2 4e 3e
       -0.22400759 0.2092679 -0.018560339 0.20203517
0000d0 00 37 87 be 41 e7 65 3e 7e 1b 63 be e9 72 3e 3e
       -0.2640915 0.22451498 -0.22178456 0.18598522
0000e0 bd c0 85 be 26 3c 94 3e 28 60 cf be 4d 2a e8 bd
       -0.2612361 0.2895214 -0.4050305 -0.11336193
0000f0 af 03 02 3f 4b 09 10 3e 20 ed b4 3e f8 d7 d0 3e
       0.5078687 0.14066045 0.35337162 0.4078977
