model.pth (torch, 171429 bytes, 12 tensors)

rnn.weight_ih_l0 f4 [64, 3]
0	0xbd4b5b49	-0.049647603
1	0xbc88310c	-0.01662495
2	0x3bd0fc80	0.0063777566
3	0xbd0536a8	-0.032522827
4	0xbd2f15e4	-0.042745486
5	0xbd24a5b4	-0.04019709
6	0xbd2efe91	-0.042723242
7	0xbca53f90	-0.02017191
8	0x3de3c8ac	0.111222595
9	0xbbcea064	-0.006305741
10	0xbcf0fdc6	-0.029417884
11	0x3dacf336	0.08444826
12	0xbce4c005	-0.027923593
13	0x3cf493e7	0.029855682
14	0x3d2a6e7c	0.041609272
15	0xbddf2309	-0.10895354
16	0xbd59bf46	-0.05316093
17	0x3c3292b0	0.010899231
18	0x3d890424	0.06690243
19	0x3bacb8aa	0.005271037
20	0x3d90854a	0.07056673
21	0x3c7da6e4	0.015481684
22	0x3d396ec7	0.04527166
23	0xbda51428	-0.08060485
24	0xbd87ca23	-0.066303514
25	0x3cf0d0d8	0.02939646
26	0xbd44ada4	-0.04801716
27	0xbd94b6fe	-0.072614655
28	0xbd283329	-0.041064415
29	0x3d26d2a4	0.040728226
30	0xbc729863	-0.01480684
31	0x3c60ce1f	0.013721018
32	0xbd95e7b6	-0.07319586
33	0x3d24a111	0.040192667
34	0x3d7e284c	0.06205015
35	0xbd6860f8	-0.0567331
36	0xbd56530e	-0.0523253
37	0x3c9ae6ff	0.018908976
38	0xbdd3d7a8	-0.103438675
39	0x3a878b25	0.0010341151
40	0xbd4a9bd4	-0.049465016
41	0x3c81ec38	0.015859708
42	0xbd21663a	-0.03940413
43	0xbd2c8275	-0.0421166
44	0x3c85a548	0.016314164
45	0xbcc7bd4c	-0.024382256
46	0x3cb9a404	0.022661217
47	0x3db4e274	0.08832255
48	0x3cb71bcd	0.022352124
49	0xbbd8d49e	-0.006617143
50	0xbd18ff34	-0.037352756
51	0xbdc41807	-0.09574895
52	0xbcb89a5f	-0.022534547
53	0x3d9276bc	0.07151553
54	0x3d93ce02	0.07217027
55	0x3d5137bf	0.051078554
56	0x3c66e070	0.014091596
57	0x3dcfe584	0.101511985
58	0x3d7df313	0.06199939
59	0x3de99e66	0.11407165
60	0xbd3e3195	-0.046434004
61	0x3c8e715d	0.01738804
62	0x3d9c305c	0.07626411
63	0x3cf91a47	0.030408038
64	0xbd2caad5	-0.042155106
65	0xbde3f8ac	-0.11131415
66	0xbd96c984	-0.07362655
67	0xbd9c5eeb	-0.07635292
68	0x3dd7bbe8	0.10533887
69	0x3ccc04ca	0.024904627
70	0xbd692715	-0.056922037
71	0xbcfe22f8	-0.031022534
72	0xbd5aacc1	-0.053387407
73	0x3d31ea01	0.043436054
74	0x3d09d42c	0.03364961
75	0xbbc6826f	-0.0060580294
76	0x3cd84544	0.026400216
77	0x3d9871d0	0.07443583
78	0xbc87d130	-0.01657924
79	0x3d25826a	0.040407576
80	0xbd85742a	-0.06516297
81	0x3caec9ea	0.021336515
82	0xbca1bb43	-0.019742614
83	0xbde1c38a	-0.11023624
84	0x3da1ba7f	0.078968994
85	0xbd128967	-0.03577557
86	0xbdc7b6b2	-0.09751643
87	0xbcc47dbd	-0.023985738
88	0x3c99b68b	0.018763801
89	0x3ccf1e00	0.02528286
90	0x3bfd076e	0.007721833
91	0x3d0495d4	0.03236945
92	0x3d86e45c	0.06586525
93	0x3d48fd41	0.049069647
94	0x3d60eebf	0.054915186
95	0x3d6734f4	0.056446984
96	0x3bb2fc10	0.005462177
97	0x3d2c7500	0.042103767
98	0xbd1f1964	-0.038842574
99	0xbb30cecc	-0.002697873
100	0xbcf6a954	-0.030110039
101	0xbdb11570	-0.08646667
102	0x3a2ddcb3	0.0006632313
103	0xbd4a65b7	-0.04941341
104	0xbda75734	-0.081709296
105	0xbd35750c	-0.044301078
106	0x3d170f0b	0.03687958
107	0x3dbd9d24	0.09258488
108	0xbd720c25	-0.059093613
109	0xbd2812c3	-0.041033518
110	0xbd3b0f40	-0.04566884
111	0x3db871f1	0.090061076
112	0x3d5c4a84	0.053782
113	0x3d88e3de	0.06684087
114	0x3c7634e3	0.015027258
115	0x3d352aa8	0.044230133
116	0xbd0a99ec	-0.033838198
117	0xbcfdc2fc	-0.030976765
118	0xbd202562	-0.03909815
119	0xbc8bd8c8	-0.017071143
120	0xbd65e457	-0.056125965
121	0xbce3576d	-0.027751649
122	0x3b9fab20	0.0048726946
123	0x3d979d77	0.07403081
124	0x3d1f4c54	0.03889115
125	0xbda1bca0	-0.078973055
126	0x3d5a9035	0.053360183
127	0x3cd991f6	0.026558857
128	0xbd51d5b4	-0.051229194
129	0x3d6f5316	0.058428846
130	0x3befa3bd	0.0073132203
131	0x3cc64fc8	0.024207965
132	0xbd32b3b2	-0.043628402
133	0x3c01b5c0	0.007916868
134	0x3d20706c	0.039169714
135	0xbbc8997d	-0.006121813
136	0x3b44263e	0.002993002
137	0xbd8e82ec	-0.06958565
138	0xbda6b708	-0.08140379
139	0xbd2a0a26	-0.041513585
140	0x3dc6d318	0.09708232
141	0x3d175a00	0.036951065
142	0xbc228550	-0.0099194795
143	0x3bd5a5e0	0.006520018
144	0x3c308853	0.01077469
145	0x3cb15dd9	0.021651195
146	0xbdd6f798	-0.104964435
147	0xbae4a79f	-0.0017444975
148	0x3c2e1acf	0.010626509
149	0xbcf6a3b0	-0.03010735
150	0x3c15a1cc	0.009132814
151	0x3d4ee1dc	0.050508365
152	0x3d8dac90	0.06917679
153	0xbda1ed03	-0.079065345
154	0x3c222c6b	0.009898285
155	0x3d8a5ca0	0.06755948
156	0x3c1c7841	0.009550155
157	0x3c35ac7e	0.011088489
158	0x3da97640	0.082745075
159	0xbd00509b	-0.03132687
160	0x3c0f158e	0.008733166
161	0xbce4d5f8	-0.02793406
162	0x3dc183a7	0.09448939
163	0x3d0f1579	0.034932587
164	0x3d788bf0	0.06068033
165	0xbd8a75a0	-0.067607164
166	0xbd076f77	-0.033065286
167	0xbc013d50	-0.007888153
168	0xbddc1fb2	-0.10748233
169	0xbd8029a1	-0.0625794
170	0x3ce85ca0	0.02836448
171	0xbd3be306	-0.045870803
172	0x3be2723d	0.006910591
173	0x3c82f270	0.015984744
174	0xbda0e1c4	-0.078555614
175	0xbc04efcc	-0.008113813
176	0xbae1ab00	-0.00172171
177	0xbd13ef85	-0.036117096
178	0x3cc7a6bd	0.0243715
179	0x3dfc992c	0.12333903
180	0x3d863c70	0.06554496
181	0x3c67451d	0.014115599
182	0x3db0fa4e	0.08641492
183	0xbd4a45e6	-0.049383067
184	0x3c238cd8	0.00998231
185	0x3db3f0f6	0.08786194
186	0x3d4e02b3	0.050295543
187	0xbd14c452	-0.03632004
188	0xbca263a0	-0.019822896
189	0x3d38a6c4	0.045080915
190	0x3d830687	0.06397729
191	0xbd932360	-0.071844816

rnn.weight_hh_l0 f4 [64, 64]
0	0xbd532b0c	-0.051554725
1	0x3d68e9cd	0.056863595
2	0x3e12efa0	0.14349222
3	0x3e016d9a	0.12639466
4	0x3d51f320	0.051257253
5	0xbd792ddf	-0.06083476
6	0xbdf940bf	-0.121705525
7	0xbdaa6226	-0.083195016
8	0x3da52a81	0.080647476
9	0x3e089819	0.1333927
10	0xbdfe09cc	-0.12404212
11	0xbd81e5b7	-0.06342643
12	0xbc87cdd5	-0.01657764
13	0x3e002a5d	0.1251616
14	0xbd57c297	-0.05267581
15	0xbcd99c70	-0.026563853
16	0xbdf2947d	-0.11844728
17	0xbdecdb2e	-0.11565243
18	0xbd31def2	-0.043425508
19	0x3d2d8b7f	0.042369362
20	0x3d6d3de0	0.057920337
21	0xbda9404f	-0.08264219
22	0xbdd0af0f	-0.1018964
23	0xbc88e23d	-0.016709441
24	0x3deb5510	0.11490834
25	0x3df068c2	0.11738731
26	0x3e276c9f	0.1635003
27	0x3dd096cd	0.10185013
28	0xbd549697	-0.051901426
29	0x3db29a57	0.08720844
30	0x3cc710ea	0.024300057
31	0x3d2cfa64	0.04223098
32	0x3cea746d	0.02861997
33	0xbc9ee1b1	-0.019394727
34	0xbdcdd62f	-0.10050618
35	0xbd6af18b	-0.05735926
36	0xbcf97671	-0.030451985
37	0xbda416f0	-0.080121875
38	0x3d73bcb6	0.05950614
39	0x3d124c7d	0.035717476
40	0x3d3787f4	0.04480739
41	0x3df767d3	0.1208035
42	0xbd2c9df5	-0.042142827
43	0x3d9c2fca	0.076263025
44	0xbd1e74e4	-0.038685694
45	0xbb55c2ec	-0.0032617403
46	0xbd76f294	-0.060289934
47	0x3d22fd38	0.03979227
48	0xba202e1b	-0.0006110386
49	0x3db81739	0.08988804
50	0xbdd7e890	-0.10542405
51	0xbd8225fe	-0.06354903
52	0x3d873ee9	0.06603796
53	0x3d1bf8a3	0.038078915
54	0xbd42cfbd	-0.047561396
55	0xbdd68279	-0.104741044
56	0xbca6a667	-0.020343019
57	0x3dff318d	0.12460623
58	0x3c2d56ae	0.010579748
59	0x3dee7905	0.116441764
60	0x3c85d7dd	0.016338283
61	0xbdb2254d	-0.08698521
62	0x3dd7f668	0.10545045
63	0x3db36731	0.087599166
64	0x3a3dfff4	0.0007247918
65	0x3df6a335	0.12042848
66	0xbcb7013c	-0.022339456
67	0x3d69b080	0.05705309
68	0x3badc707	0.005303267
69	0xbd983781	-0.074324615
70	0xbd183118	-0.037156194
71	0x3ccd5646	0.025065552
72	0xbcc6156a	-0.024180133
73	0xbe130b66	-0.14359817
74	0x3e162454	0.14662296
75	0x3cf7e189	0.03025891
76	0xbd602333	-0.05472107
77	0xbd7ffcdd	-0.06249701
78	0xbdb9882c	-0.09059176
79	0xbd9444ac	-0.072396606
80	0xbd7c5953	-0.061608624
81	0x3dadb8fb	0.08482548
82	0x3dbe3ff4	0.09289542
83	0xbd4989e0	-0.049203753
84	0xbdd1fdbd	-0.10253475
85	0xbe15e8f1	-0.14639641
86	0x3c76d8b2	0.015066313
87	0xbd77b728	-0.060477406
88	0xbdc3d873	-0.09562769
89	0xbe1134fb	-0.14180367
90	0x3d72d5ca	0.059285916
91	0xbdc998bc	-0.09843585
92	0xbe0b77ff	-0.13619994
93	0xbd829661	-0.06376339
94	0xbdb252ce	-0.087072
95	0xbd10fd6d	-0.035397936
96	0xbdd1d147	-0.102449946
97	0x3d0ba965	0.034097094
98	0x3e0aba7b	0.13547699
99	0xbd4027b4	-0.046912864
100	0xbc69f444	-0.014279429
101	0xbcfc905f	-0.03083056
102	0x3dc25408	0.09488684
103	0x3d91fdd9	0.07128496
104	0x3c2d497e	0.010576604
105	0xbdbe741f	-0.09299492
106	0xbd3e128b	-0.046404403
107	0x3d0bfe47	0.034178045
108	0x3b281e29	0.0025652742
109	0xbc6a1547	-0.0142872995
110	0xbdb11b8a	-0.08647831
111	0xbccfc0d7	-0.025360508
112	0xbd9ca34f	-0.07648336
113	0xbd5bb4d1	-0.053639237
114	0xbdf784ac	-0.12085852
115	0x3d572cfe	0.052533142
116	0xbc1e1dfe	-0.009650705
117	0xbdcfda75	-0.10149089
118	0x3d798400	0.0609169
119	0x3e0f60ff	0.14001845
120	0x3d386a9d	0.04502355
121	0xbc5ab3de	-0.013348548
122	0xbe071096	-0.13189921
123	0xbce5840b	-0.028017065
124	0xbd894261	-0.06702114
125	0xbcd10a8c	-0.025517724
126	0xbbdebd77	-0.0067974883
127	0x3e0a5df7	0.13512407
128	0xba86f953	-0.0010297693
129	0x3cd4a900	0.025959492
130	0xbc600ba5	-0.013674651
131	0xbdaff71d	-0.08592055
132	0xbd6de45b	-0.058079105
133	0x3cac1699	0.02100687
134	0xbcb8c368	-0.022554114
135	0x3cbb32e3	0.022851413
136	0x3cbbe07e	0.022934195
137	0x3ddc6a35	0.10762445
138	0x3cd4590b	0.025921365
139	0x3d097f43	0.03356863
140	0xbd528262	-0.051393874
141	0xbc76ed7a	-0.015071267
142	0x3d854e0e	0.065090284
143	0x3ce4a653	0.02791134
144	0x3d857fa0	0.06518483
145	0xbe142662	-0.14467767
146	0xbc3d244f	-0.011544301
147	0x3b0f180e	0.0021834406
148	0xbdd196d6	-0.10233848
149	0x3db6855f	0.08912157
150	0xbe12110e	-0.14264318
151	0x3bfa2e19	0.00763489
152	0x3d27fabb	0.0410106
153	0xbc9091e2	-0.017647687
154	0xbd7a6143	-0.061127912
155	0xbcb3ef3d	-0.021964664
156	0xbdc738a6	-0.09727602
157	0x3cc38cc2	0.02387083
158	0x3ccae775	0.02476857
159	0x3cd61202	0.026131634
160	0xbce3eff2	-0.027824376
161	0x3c0bcdcf	0.008532955
162	0xbe1a8fc0	-0.15093899
163	0x3d8f306a	0.06991656
164	0xbce9a837	-0.028522594
165	0x3d187450	0.0372203
166	0x3dd39217	0.10330599
167	0xbd29e25e	-0.041475646
168	0x3d88afbc	0.06674144
169	0x3ddbcddf	0.10732626
170	0xbdc397cb	-0.095504366
171	0xbcb7e71c	-0.022449069
172	0x3c9d65af	0.019213526
173	0xbcc8f414	-0.024530448
174	0xbdb1ff99	-0.086913295
175	0x3d1f632e	0.038912944
176	0x3a53533c	0.0008061414
177	0x3d25ae30	0.04044932
178	0x3da29aba	0.07939668
179	0x3d8fbf9c	0.070189685
180	0xbccf74c1	-0.025324227
181	0xbd945aeb	-0.07243904
182	0xbcebe84a	-0.028797287
183	0x3d7cd224	0.061723843
184	0x3da1a606	0.078929946
185	0xbd2ccb87	-0.042186286
186	0x3d95706a	0.07296832
187	0x3dc6e7d6	0.09712188
188	0x3e04e461	0.12977745
189	0x3d183b06	0.037165664
190	0x3da26855	0.07930056
191	0xbd106fdd	-0.03526293
192	0x3d05b45f	0.03264272
193	0x3d043ecc	0.03228645
194	0xbda794b3	-0.08182659
195	0x3c8fff08	0.017577663
196	0xbd9160bf	-0.07098531
197	0x3d4f6983	0.050637733
198	0x3d518754	0.05115445
199	0x3de1bd46	0.11022429
200	0x3dfbaca7	0.1228879
201	0x3d8322be	0.06403111
202	0xbd519709	-0.05116943
203	0xbd78e352	-0.060763665
204	0x3c8562ef	0.016282527
205	0x3c2bd326	0.010487353
206	0xbcee0c5b	-0.029058626
207	0xbdf090e3	-0.11746385
208	0xbd3295da	-0.04359994
209	0xbdd9e5bc	-0.106395215
210	0xbdf1c915	-0.118059315
211	0xbe033512	-0.12813213
212	0xbda751ed	-0.08169923
213	0xbcca50dc	-0.02469676
214	0x3d99d4ee	0.07511316
215	0x3d89ba3c	0.067249745
216	0x3dc02da7	0.093837075
217	0x3d9a1f1b	0.07525464
218	0x3d40a786	0.047034763
219	0x3c429e47	0.011878557
220	0xbd6c5e82	-0.057707317
221	0xbd02eccf	-0.03196412
222	0xbcd4a3c1	-0.02595699
223	0xbadf54eb	-0.0017038857
224	0xbde0dc41	-0.1097951
225	0xbd7049ee	-0.058664255
226	0xbe0b2cca	-0.13591304
227	0x3d69fa9d	0.05712377
228	0xbe015bbe	-0.12632653
229	0x3cb2cf4b	0.02182736
230	0x3d52d41a	0.051471807
231	0xbde149b2	-0.110003844
232	0x3b54cf9b	0.0032472375
233	0x3c332da0	0.010936171
234	0xbc3f792f	-0.011686607
235	0xbcb0e0f3	-0.02159164
236	0xbdca1c8b	-0.098687254
237	0xbdb4bff3	-0.08825674
238	0xbd84761f	-0.06467842
239	0xbdec8ab5	-0.11549894
240	0xbd2e47f5	-0.042549092
241	0x3db54b37	0.08852237
242	0x3cba6925	0.022755215
243	0xbdbd1984	-0.09233382
244	0xbd990826	-0.07472257
245	0x3cff4de8	0.031165078
246	0xbd6eabec	-0.058269426
247	0xbd65ef77	-0.056136575
248	0xbc81e406	-0.0158558
249	0x3cbe422f	0.023224918
250	0x3d84dd1d	0.064874865
251	0x3c48b3a1	0.012249858
252	0x3e12d4c9	0.14338984
253	0xbd6f0f69	-0.058364306
254	0x3d1449ff	0.03620338
255	0xbdce456d	-0.10071836

rnn.bias_ih_l0 f4 [64]
0	0xbe0356f7	-0.12826143
1	0x3dfc1b13	0.123098515
2	0xbe4aa93f	-0.19791125
3	0xbd5253e5	-0.05134954
4	0xbd04b1e0	-0.032396197
5	0x3da69912	0.081346646
6	0xbc7fd058	-0.015613638
7	0xbe3587e3	-0.17727618
8	0xbca65e02	-0.020308498
9	0x3cb04c02	0.021520618
10	0x3dd97966	0.10618858
11	0x3e0219fd	0.12705226
12	0x3e2803c9	0.16407694
13	0xbd93209e	-0.071839556
14	0xbd38104c	-0.044937417
15	0x3d96a6ac	0.07356009
16	0x3d4f7448	0.050648004
17	0x3ca747c8	0.02041997
18	0xbd897f0c	-0.067136854
19	0x3d0bd333	0.034136962
20	0x3d6a51b2	0.057206817
21	0xbe3208fe	-0.17386243
22	0x3dad3c4f	0.084587686
23	0xbe2504ed	-0.1611516
24	0xbb97cd21	-0.0046326076
25	0xbe149fdb	-0.14514105
26	0xbd9fb0bd	-0.07797382
27	0xbd46f80d	-0.048576403
28	0xbe0f70bb	-0.14007847
29	0x3dae18ce	0.08500825
30	0x3e2dfcd3	0.16990976
31	0xbde71236	-0.1128277
32	0xbc74669e	-0.014917044
33	0xbdca7338	-0.098852575
34	0x3e266deb	0.16252868
35	0xbd204a0c	-0.039133117
36	0x3e11ad7d	0.14226337
37	0xbe1003bb	-0.14063923
38	0xbe17edb4	-0.1483677
39	0xbbc34b95	-0.005959938
40	0x3db19358	0.08670682
41	0x3c9e0561	0.019289674
42	0x3e026075	0.12732108
43	0xbd08f0a3	-0.033432614
44	0x3cade570	0.021227568
45	0x39946761	0.00028305783
46	0x3e165e01	0.14684297
47	0x3e138ed8	0.1440996
48	0xbe10cdab	-0.14140956
49	0xbd646201	-0.055757526
50	0xbd3d22a9	-0.046175633
51	0x3dc66e62	0.096890226
52	0x3d075dec	0.033048555
53	0x3d87c92c	0.06630167
54	0xbe2b97c3	-0.16757111
55	0x3cc1c040	0.023651242
56	0xbd8abac9	-0.06773908
57	0x3e2bdcf4	0.16783506
58	0xbd802c2f	-0.06258427
59	0xbe1483be	-0.1450338
60	0xbe08b34a	-0.13349643
61	0x3e238828	0.15969908
62	0x3e18b816	0.14913973
63	0xbd26e84c	-0.04074888

rnn.bias_hh_l0 f4 [64]
0	0xbe2c9367	-0.16853105
1	0x3df13a8b	0.11778744
2	0xbe193962	-0.14963296
3	0xbdfafd1f	-0.1225531
4	0xbe3c46c3	-0.18386368
5	0xbc8d0300	-0.017213345
6	0xbd4a3012	-0.04936225
7	0xbe32479f	-0.17410134
8	0x3d026a8d	0.031839896
9	0xbd54694a	-0.051858224
10	0x3dc0e8b5	0.09419385
11	0xbd16097a	-0.03663013
12	0x3db946a2	0.09046675
13	0xbdea5a8a	-0.1144305
14	0x3e1e97ac	0.15487546
15	0x3e12ca2a	0.14334932
16	0x3e118ecd	0.1421463
17	0x3ddb3dc0	0.10705137
18	0x3ccc152f	0.024912445
19	0xbe031061	-0.12799217
20	0x3cc09bcd	0.023511792
21	0xbd86f075	-0.06588832
22	0x3dad3a38	0.0845837
23	0x3d0da078	0.034576863
24	0x3dd2d7ca	0.10295065
25	0xbe078061	-0.13232566
26	0x3d16e683	0.036840927
27	0x3dbc0402	0.09180452
28	0xbd9d1cc7	-0.076715045
29	0x3dd37a03	0.10326006
30	0xbb98d4a2	-0.0046640197
31	0xbd9ef777	-0.07762044
32	0x3de534b2	0.111916915
33	0xbdc753e3	-0.09732797
34	0x3dddf05b	0.1083686
35	0xbd3a0b71	-0.045421068
36	0x3c6835fa	0.014173025
37	0xbe166d87	-0.14690219
38	0x3d1af8a9	0.037834797
39	0xbe3ec481	-0.18629648
40	0x3e27a12d	0.16370077
41	0xbe2cba95	-0.1686805
42	0x3d4b3cec	0.049618647
43	0x3d72c881	0.059273247
44	0x3e105319	0.14094199
45	0x3c7157d3	0.014730412
46	0x3dd2a0a5	0.10284547
47	0x3da77f07	0.081785254
48	0xbdc71c0a	-0.09722145
49	0xbb0de45c	-0.0021651005
50	0xbe0479de	-0.12937114
51	0x3dd8bb73	0.10582628
52	0x3ce124db	0.027483394
53	0x3d8aeeb6	0.06783812
54	0x3d4af2de	0.049548022
55	0x3d891d30	0.0669502
56	0x3e1f34ec	0.15547532
57	0xbcc9115f	-0.024544416
58	0xbe0a2186	-0.1348935
59	0xbd9455d3	-0.07242932
60	0xbe0dc97c	-0.13846391
61	0x3d40701b	0.046981912
62	0xbccd7288	-0.025079027
63	0x3e35a000	0.17736816

rnn.weight_ih_l0_reverse f4 [64, 3]
0	0xbb82f66b	-0.0039966605
1	0xbb2e4ec3	-0.0026597239
2	0x3dca18a2	0.098679796
3	0xbd1faf74	-0.038985685
4	0xbd5df421	-0.054187898
5	0xbdb44afe	-0.08803366
6	0x3d8c708b	0.06857403
7	0x3c8b3d39	0.016996967
8	0xbcc0f720	-0.023555338
9	0xbdcf8448	-0.101326525
10	0xbd6b3532	-0.057423778
11	0x3bd79c00	0.006579876
12	0x3cb28baa	0.021795113
13	0x3d00d4f8	0.031453103
14	0xbde0c582	-0.109751716
15	0xbda79d88	-0.081843436
16	0xbd95ca08	-0.07313925
17	0x3b4d0f80	0.0031289756
18	0xbd93b093	-0.07211413
19	0xbc940705	-0.018069753
20	0x3d4f5aa0	0.050623536
21	0xbd8ac07d	-0.067749955
22	0xba3f9193	-0.0007307764
23	0x3b8b14e0	0.004244432
24	0x3d4c994e	0.04995089
25	0x3ccd3108	0.025047794
26	0x3daef20c	0.085422605
27	0x3c8140e4	0.015778013
28	0xbdaaaab2	-0.08333339
29	0x3d28c4f4	0.041203454
30	0xbcf125c0	-0.029436946
31	0x3c25de28	0.010123767
32	0x3dd79c12	0.10527815
33	0xbb371bf5	-0.0027940248
34	0x3c2f9e97	0.010718963
35	0xbcb103b0	-0.021608204
36	0x3d063b0a	0.032771148
37	0x3bdfeaef	0.006833426
38	0x3da5cb88	0.08095461
39	0xbd43feca	-0.047850408
40	0x3d4f1950	0.05056125
41	0xbd3d546c	-0.04622309
42	0xbca350f1	-0.019936057
43	0xbb3f2667	-0.0029167177
44	0x3df11706	0.117719695
45	0xbd854f36	-0.06509249
46	0x3d3fdc1e	0.04684078
47	0xbd925114	-0.07144371
48	0xbd21a80b	-0.0394669
49	0xbc8ff80a	-0.017574329
50	0xbcdf85e0	-0.027285516
51	0x3d51760b	0.051137965
52	0x3d3c3a2f	0.045953926
53	0x3cfda6b8	0.030963287
54	0xba5ffe81	-0.0008544699
55	0x3d3b1b79	0.045680497
56	0xbd411b2c	-0.047145054
57	0x3c77a2b3	0.015114474
58	0x3c1a8503	0.0094311265
59	0x3d84733a	0.0646729
60	0x3d2fd301	0.04292584
61	0x3d87872f	0.06617581
62	0xbde609d0	-0.1123234
63	0xbd82f68a	-0.0639468
64	0x3c93bb1b	0.018033555
65	0x3c8d9658	0.017283604
66	0x3c1d5af6	0.009604206
67	0x3ba59224	0.0050528217
68	0xbd4f9fe4	-0.050689593
69	0xbd6c42d8	-0.057680935
70	0x3d9e8051	0.07739318
71	0xbd8ea7c2	-0.06965591
72	0xbdb163f2	-0.08661641
73	0xbd40bcec	-0.04705517
74	0xbdfa5554	-0.12223306
75	0x3b72efc1	0.0037069174
76	0xbd2d8e5d	-0.042372096
77	0x3d2ee54c	0.042699143
78	0xbdefd6e4	-0.11710909
79	0xbd6a2e4d	-0.057173062
80	0xbd4b3e7c	-0.049620137
81	0xbd57982c	-0.052635357
82	0xbc33fa9d	-0.010985044
83	0xbde63bea	-0.112418965
84	0x3d5dc5a5	0.054143567
85	0x3ac7125e	0.0015187969
86	0xbda690c4	-0.081330806
87	0xbdd26475	-0.10273067
88	0xbd310c25	-0.043224473
89	0xbdd5a2e0	-0.104314566
90	0xbda1efd6	-0.07907073
91	0xbd4610f6	-0.04835602
92	0x3d86cd42	0.065821186
93	0x3d08427b	0.033266526
94	0x3d074dc3	0.033033144
95	0x3dcac2f8	0.099004686
96	0xbd94d14c	-0.07266483
97	0xbc3cdbf4	-0.01152705
98	0x3c0571c0	0.008144796
99	0xbd6e4761	-0.05817354
100	0x3d7e3abf	0.062067743
101	0xbd9eddaa	-0.07757123
102	0xbc839971	-0.016064378
103	0x3b26fc54	0.002547999
104	0xbbd360e0	-0.0064507574
105	0x3b470f3d	0.0030374073
106	0x3db2c260	0.0872848
107	0xbd44065c	-0.047857627
108	0xbd5184cd	-0.05115204
109	0xbc836c23	-0.016042775
110	0x3d2d2574	0.042272046
111	0xbcf4bf68	-0.029876426
112	0x3c1d987d	0.009618876
113	0xbd85c03c	-0.065308064
114	0xbd7ce017	-0.061737146
115	0xbd25ba22	-0.040460713
116	0x3d726ba0	0.05918467
117	0xbd01333e	-0.03154301
118	0x3cb7ec8f	0.022451667
119	0xbde2af40	-0.110685825
120	0x3ca9e496	0.020738881
121	0xbbff1db6	-0.0077855242
122	0xbdf61554	-0.12015787
123	0x3cf8573f	0.03031504
124	0x3d54cafc	0.051951393
125	0x3c472700	0.012155294
126	0xbc8a9594	-0.016917028
127	0xbcc30bd3	-0.02380935
128	0xbc98a238	-0.01863204
129	0xbafd1335	-0.0019308092
130	0x3cf31389	0.029672401
131	0x3c837e88	0.016051546
132	0x3d42543a	0.047443606
133	0xbd11babb	-0.03557847
134	0x3d56d2f8	0.05244729
135	0x3d62b256	0.055345856
136	0x3d78dbe3	0.060756575
137	0xbc084500	-0.008317232
138	0x3d966233	0.07342949
139	0x3cd5b19e	0.026085671
140	0xbca91140	-0.020638108
141	0xbd849325	-0.06473378
142	0xbc62ffa9	-0.013854899
143	0xbdd4c296	-0.10388677
144	0x3ce5d4e6	0.02805562
145	0xbd084c6e	-0.033276014
146	0xbd6afce8	-0.057370096
147	0xbd2cc8ab	-0.04218356
148	0xbd015429	-0.031574402
149	0x3de3a9ca	0.11116369
150	0xbc8367f4	-0.01604078
151	0xbd5c7a55	-0.053827602
152	0xbd13b560	-0.036061645
153	0xbd909d9d	-0.07061312
154	0x3d9f2720	0.077711344
155	0xbc3f7520	-0.01168564
156	0x3d38aeff	0.045088764
157	0x3c9a929e	0.01886874
158	0xbd5fc220	-0.05462849
159	0x3ccf0da2	0.025275055
160	0x3d686eee	0.056746416
161	0xbdfd87d0	-0.1237942
162	0xbae30d83	-0.0017322752
163	0x3d72de54	0.05929406
164	0xbd360398	-0.04443702
165	0x3c74756c	0.014920574
166	0xbc84c884	-0.016208895
167	0xbd8e0076	-0.06933682
168	0xbd808dc5	-0.062770404
169	0xbc40b924	-0.011762891
170	0xbded93a6	-0.11600427
171	0xbd5927a1	-0.05301631
172	0xbcbfd5a6	-0.023417305
173	0xbdc4ddb6	-0.096126005
174	0x3d87ef7a	0.066374734
175	0x3d006803	0.031349193
176	0xb8cd6800	-9.794533e-05
177	0x3da032ea	0.07822211
178	0xbcd3b113	-0.025841272
179	0x3dc49dc6	0.096004054
180	0xbd313e93	-0.043272566
181	0xbcf18999	-0.029484557
182	0x3d939764	0.0720661
183	0x3d8b749d	0.068093516
184	0x3d6db062	0.05802954
185	0x3d9e9ba6	0.07744531
186	0x3d3f9e4d	0.046781827
187	0xb6b3eec3	-5.3624112e-06
188	0xbc785b90	-0.015158549
189	0x3d6d1db8	0.05788967
190	0x3d4aa86d	0.04947703
191	0xbda574de	-0.08078931

rnn.weight_hh_l0_reverse f4 [64, 64]
0	0x3e02ddd6	0.12779936
1	0xbdad4fb4	-0.08462468
2	0x3d0f2a26	0.034952305
3	0xbd855316	-0.06509988
4	0x3be9ad1e	0.007131233
5	0xbded7efc	-0.11596486
6	0x3da66752	0.081251755
7	0xbcb68ebb	-0.022284856
8	0x3c8fb2c9	0.017541306
9	0x3dd3d221	0.10342813
10	0xbd03fe18	-0.032224745
11	0x3d8c41c4	0.06848481
12	0xbda4db02	-0.08049585
13	0xbc30992d	-0.010778707
14	0x3caf16a3	0.021373099
15	0x3d817d86	0.0632277
16	0x3c89ea64	0.016835399
17	0x3c9edf93	0.019393718
18	0x3d8eaa14	0.069660336
19	0x3d2bd04c	0.041946694
20	0x3d8dbfc8	0.06921345
21	0xbdbd16fa	-0.09232898
22	0x3db4dbd4	0.088309914
23	0x3db99df3	0.090633295
24	0xbdb11dff	-0.086482994
25	0x3d7914a2	0.060810693
26	0x3d1ec14e	0.03875857
27	0x3d70bdf2	0.058774896
28	0x3db1116c	0.08645901
29	0xbdbaaa17	-0.09114473
30	0x3e08c11e	0.13354918
31	0xbdd552c1	-0.10416175
32	0x3d4b7130	0.04966849
33	0xbd7651e3	-0.060136687
34	0x3cdfdcc4	0.027326949
35	0x3dd1f435	0.10251657
36	0xbdd82816	-0.10554521
37	0x3dc3462a	0.09534867
38	0x3dcf2caa	0.10115941
39	0xbdf74159	-0.12073011
40	0xbdade676	-0.084912226
41	0x3d5c919c	0.0538498
42	0x3c3c3305	0.011486773
43	0xbd1ccdb6	-0.03828212
44	0x3d6c8082	0.057739742
45	0x39d0025e	0.00039674615
46	0xbdb06c0f	-0.086143605
47	0xbab357bc	-0.0013682763
48	0xbdda981b	-0.10673543
49	0x3dd41240	0.103550434
50	0x3d3f057c	0.04663609
51	0xbdc9f46e	-0.098610744
52	0xbdc7377e	-0.09727381
53	0xbd562dc6	-0.052289747
54	0x3bbb965a	0.0057247104
55	0xbdf4b522	-0.11948611
56	0xbba84f8d	-0.0051364363
57	0x3cb25e8b	0.021773597
58	0x3e0eacf6	0.13933167
59	0xbce36310	-0.027757198
60	0x3d86d42c	0.06583437
61	0xbdf04bf1	-0.11733235
62	0xbe06c9f0	-0.1316297
63	0xbda35444	-0.07975057
64	0x3dd7eb43	0.105429195
65	0x3cba51af	0.022744028
66	0x3d536773	0.05161233
67	0xbde89899	-0.11357231
68	0x3de47d83	0.11156752
69	0x3e08ca31	0.1335838
70	0xbdc449e6	-0.095844075
71	0xbdaac850	-0.08338988
72	0xbd676620	-0.05649388
73	0x3db8c529	0.0902198
74	0xbdafc556	-0.08582561
75	0xbb7fc47c	-0.0039027026
76	0xbc244878	-0.0100270435
77	0xbc7bb2ce	-0.015362455
78	0x3d453dfe	0.048154823
79	0x3d8e3d4a	0.06945284
80	0xbca5239f	-0.020158587
81	0xbdb91f0b	-0.09039124
82	0xbd64be90	-0.055845797
83	0xbc9d96b0	-0.019236892
84	0x3bdb1083	0.006685318
85	0x3de4871d	0.11158583
86	0x3c6beb02	0.014399292
87	0x3d9a534b	0.07535418
88	0xb92b5592	-0.00016339708
89	0xbdc03db1	-0.09386767
90	0xbd985e3c	-0.07439849
91	0xbd98a0d0	-0.074525476
92	0xbc2ced46	-0.010554617
93	0x3dc14c04	0.09438327
94	0xbdbbc3c3	-0.09168198
95	0x3d616045	0.05502345
96	0xbc6acf9e	-0.014331726
97	0x3ddb5db1	0.107112296
98	0x3d7fa4cf	0.062413033
99	0xbd2a7623	-0.04161657
100	0xbdbf1e4b	-0.0933195
101	0xbdb25325	-0.08707265
102	0xbd7c928d	-0.0616632
103	0xbbf01504	-0.007326724
104	0x3c00affc	0.007854458
105	0xbe029a75	-0.12754233
106	0xba8a04a8	-0.0010529952
107	0x3c739ab4	0.014868427
108	0xbda49590	-0.08036339
109	0x3c932e19	0.017966317
110	0x3d1fa617	0.038976755
111	0xbd47c299	-0.048769567
112	0x3c952850	0.018207699
113	0xbd917258	-0.071018875
114	0xbd82cb2d	-0.06386409
115	0xbde9fa23	-0.11424663
116	0x3dcc4ee0	0.09975982
117	0x3d407ef6	0.04699608
118	0xbd9b8ae0	-0.07594848
119	0x3cfc11c2	0.030770186
120	0xbd91284f	-0.070877664
121	0xbd8a3d01	-0.06749917
122	0xbde95081	-0.11392308
123	0x3dcaca59	0.09901876
124	0x3ca81752	0.020518932
125	0x3c6248bb	0.013811286
126	0x3d93ffeb	0.07226547
127	0x3d7cb4e6	0.061695956
128	0xbcac76a7	-0.021052672
129	0xbded080c	-0.115738004
130	0x3e00998a	0.1255857
131	0xbd6fe4a0	-0.058567643
132	0x3cf1690c	0.029469036
133	0x3855e8a3	5.0999817e-05
134	0x3d0c38b6	0.03423377
135	0x3cd7791f	0.026302872
136	0x3da3b7da	0.07994051
137	0xbd9a53cb	-0.075355135
138	0x3dc476f4	0.09593001
139	0xbde5b71c	-0.11216566
140	0xbd9c9f48	-0.07647568
141	0x3da50b29	0.08058769
142	0x3c883baa	0.016630013
143	0xbdfd9c66	-0.12383346
144	0x3d87607d	0.066102006
145	0xbd90f828	-0.07078582
146	0xbdbe3372	-0.09287156
147	0xbccd185d	-0.025036031
148	0x39a0bb26	0.00030657015
149	0x3de397b5	0.1111292
150	0x3d3f8a44	0.04676272
151	0xbdf8fd01	-0.12157632
152	0xbd306441	-0.04306436
153	0xbdda14ab	-0.10648473
154	0x3d8c02c2	0.068364635
155	0x3d907572	0.07053651
156	0xbdc66d10	-0.09688771
157	0x3dc4f852	0.09617676
158	0xbd50e089	-0.050995383
159	0xbd9b21e1	-0.07574821
160	0xbdb93395	-0.090430416
161	0x3c6051da	0.01369139
162	0xbdaced9f	-0.0844376
163	0x3d119c2a	0.03554932
164	0x3ccfdc52	0.025373612
165	0x3cc4b443	0.024011737
166	0xbcb8f6ed	-0.02257868
167	0x3dc89fe3	0.09796121
168	0x3de1731e	0.11008285
169	0x3c6fe3da	0.014641726
170	0xbdc27f00	-0.094968796
171	0x3cfc2801	0.030780794
172	0x3c81e3a0	0.01585561
173	0xbd2359ed	-0.03988068
174	0x3d233908	0.03984931
175	0x3dc89c21	0.09795404
176	0xbd3e2cf9	-0.046429608
177	0xbe1ac207	-0.15113078
178	0x3d290ba2	0.04127086
179	0xbd162124	-0.0366527
180	0xbd2ec590	-0.04266888
181	0x3c39b04c	0.011333536
182	0x3d48fbf0	0.04906839
183	0x3de44a42	0.11146976
184	0x3c2b50c5	0.010456269
185	0x3d980768	0.07423288
186	0xbde15de8	-0.11004239
187	0xbde246ea	-0.11048682
188	0xbd01a29e	-0.031649224
189	0x3c4aa75c	0.012369003
190	0xbd8d28a2	-0.06892516
191	0x3be8e0d4	0.0071068797
192	0x3c231f88	0.009956248
193	0x3c3e84ee	0.011628373
194	0x3d715a83	0.05892421
195	0xbd10bcab	-0.035336178
196	0xbe0a5061	-0.13507225
197	0xbd9f069a	-0.07764931
198	0xbd67ed26	-0.056622647
199	0x3d9d0c47	0.07668357
200	0x3ac2b50a	0.0014854979
201	0xbd2bb22b	-0.04191796
202	0xbd601ca1	-0.054714803
203	0x3dbf0618	0.09327334
204	0x3d01eb64	0.031718627
205	0x3d6067b1	0.054786388
206	0x3c9c67d6	0.019092482
207	0x3d966b8b	0.07344731
208	0xbbc030f7	-0.005865212
209	0xbdcd760d	-0.10032282
210	0xbde578b6	-0.112046644
211	0xbd721606	-0.059103034
212	0x3d225811	0.039634768
213	0xbdf14036	-0.117798254
214	0x3dae819f	0.08520817
215	0x3d8ba7b4	0.06819096
216	0x3da0f4a7	0.07859164
217	0xbdc6b200	-0.097019196
218	0xbd04fad0	-0.032465756
219	0x3daac501	0.08338357
220	0x3e0c8466	0.13722381
221	0x3d89bb4f	0.067251794
222	0x3e0d6cc3	0.1381102
223	0x3ca56628	0.020190313
224	0xbde455f8	-0.1114921
225	0xbdf6809f	-0.12036251
226	0xbd87f68d	-0.06638823
227	0xbdda7cad	-0.10668311
228	0xbdb78b8b	-0.089621626
229	0x3dfca4fd	0.123361565
230	0xbdd0f9b6	-0.102038786
231	0xbc96098d	-0.018315101
232	0x3e0bbcdf	0.13646267
233	0xbda37b84	-0.07982543
234	0xbdb9d82e	-0.09074436
235	0x3c903dd2	0.017607603
236	0xbdebb605	-0.11509327
237	0x3d85a702	0.06525995
238	0xbde70e67	-0.11282044
239	0xbdfd6b6e	-0.12374006
240	0xbb7b0b27	-0.0038306208
241	0xbbb595d3	-0.005541542
242	0xbdba1640	-0.09086275
243	0x3d693354	0.056933716
244	0xbe05a554	-0.13051349
245	0xbe070655	-0.13186009
246	0x3d868fda	0.06570406
247	0xbd75651b	-0.059910875
248	0xbddb14ea	-0.106973484
249	0x3d5d9a95	0.0541025
250	0xbd6cd4dd	-0.05782019
251	0xbd8ed6a1	-0.06974531
252	0xbd5617e8	-0.052268893
253	0xbd59e782	-0.0531993
254	0xbdf14280	-0.11780262
255	0x3dcb3c6e	0.099236354

rnn.bias_ih_l0_reverse f4 [64]
0	0x3e3e5e0d	0.18590565
1	0xbd5369c8	-0.051614553
2	0xbdc5ead2	-0.09663929
3	0x3d352698	0.04422626
4	0xbda53036	-0.08065836
5	0xbd3ce72f	-0.04611891
6	0x3e091697	0.13387524
7	0xbe3dd8da	-0.18539754
8	0x3d9cdd4a	0.07659395
9	0xbd1e1eaf	-0.03860348
10	0xbce1029c	-0.027467065
11	0xbc6fbadb	-0.014631952
12	0x3de55d5b	0.11199447
13	0xbe14ea38	-0.14542472
14	0xbdcfb224	-0.101413995
15	0xbe01cdde	-0.12676188
16	0x3e01483b	0.1262521
17	0x3db949f7	0.09047311
18	0xbd3436b3	-0.043997478
19	0xbe32c86f	-0.17459272
20	0xbe13b798	-0.14425504
21	0xbddf934a	-0.10916765
22	0x3d9cbb83	0.076529525
23	0x3d073c56	0.033016525
24	0x3d8935de	0.066997275
25	0x3e3b8961	0.18314125
26	0xbbbe778e	-0.005812592
27	0x3e309bb7	0.172469
28	0x3e15c13f	0.14624499
29	0xbe04d932	-0.12973478
30	0x3d891796	0.06693952
31	0x3e08173d	0.13290115
32	0xbda99bc0	-0.0828166
33	0x3d0d0b21	0.03443444
34	0x3d61c02e	0.055114917
35	0xbca2bc32	-0.01986513
36	0x3e0bcfce	0.1365349
37	0x3d9ee375	0.07758228
38	0x3e1d8ea4	0.15386444
39	0x3c242dd1	0.010020689
40	0x3d48bd0f	0.049008425
41	0xbdede6a2	-0.11616255
42	0x3e1e1c0f	0.15440391
43	0xbd9a1ec3	-0.075253986
44	0x3df3bfaf	0.11901795
45	0xbe097110	-0.13422036
46	0xbd84b4c3	-0.0647979
47	0xbe15cf37	-0.14629827
48	0x3d84be84	0.064816505
49	0x3d96f7db	0.073714934
50	0x3d81fcff	0.06347083
51	0xbd8b1fac	-0.0679315
52	0x3dd2554a	0.10270174
53	0xbdbf7f74	-0.09350482
54	0x3c31c492	0.010850089
55	0xbd89bb6b	-0.067252
56	0xbe296de8	-0.16545832
57	0xbe400740	-0.18752766
58	0x3e065529	0.13118424
59	0xbca6197d	-0.020275826
60	0x3e1f5395	0.15559228
61	0xbccaac47	-0.024740351
62	0xbdf07b82	-0.11742307
63	0xbcf9ba03	-0.030484205

rnn.bias_hh_l0_reverse f4 [64]
0	0x3c9878bf	0.018612264
1	0xbe169f72	-0.14709261
2	0xbdf367d2	-0.118850365
3	0x3e1ed946	0.1551257
4	0xbe25784e	-0.16159174
5	0x3df44e64	0.11929014
6	0x3cb7d97f	0.022442577
7	0xbe0dc5fc	-0.13845056
8	0x3d9ff476	0.07810299
9	0xbbf3ad74	-0.0074364487
10	0xbe098b98	-0.13432157
11	0x3de744b3	0.112924
12	0x3a87bf70	0.0010356735
13	0xbe189681	-0.14901163
14	0xbe037bb4	-0.12840158
15	0xbda4cdd5	-0.08047072
16	0x3e16e6f1	0.14736535
17	0x3de133f8	0.109962404
18	0xbca1b08c	-0.019737504
19	0x3c015378	0.007893436
20	0xbd44acbc	-0.048016295
21	0xbe3ef535	-0.18648227
22	0x3e0167fe	0.12637326
23	0xbd971bd4	-0.07378355
24	0x3d6f2921	0.058388833
25	0x3dbed2f9	0.093175836
26	0x3e2b79ec	0.16745728
27	0x3e0f3ffa	0.13989249
28	0x3d9e1f9f	0.07720875
29	0xbda2dedb	-0.079526626
30	0x3e21e14f	0.15808605
31	0x3d53de07	0.051725414
32	0xbe06cde2	-0.13164476
33	0x3cbac509	0.022799032
34	0xbdf0b3b1	-0.117530234
35	0xbcf7fe86	-0.030272733
36	0x3b1c0b1e	0.0023810337
37	0x3de24529	0.110483475
38	0x3d8d14fd	0.06888769
39	0x3dce0d36	0.100611135
40	0xbdfdcdb5	-0.12392751
41	0xbbb98dc6	-0.0056626527
42	0x3d829320	0.06375718
43	0xbe03c7bd	-0.12869163
44	0xbd439b1e	-0.047755353
45	0xbb702553	-0.003664334
46	0x3d64f89d	0.05590116
47	0xbdfec0aa	-0.124390915
48	0xbd438825	-0.04773726
49	0xbd35e5ef	-0.044408735
50	0xbde0ed50	-0.10982764
51	0xbda6f10b	-0.08151444
52	0x3c96e0b7	0.0184177
53	0xbe3e0648	-0.18557084
54	0xbd09dea1	-0.03365958
55	0x3d863138	0.065523565
56	0x3c9ef1c1	0.019402387
57	0xbe133c6e	-0.14378521
58	0x3e1c6d29	0.15276016
59	0xbe1a0270	-0.15039992
60	0x3cd04b94	0.025426663
61	0xbdf85891	-0.12126268
62	0xbdb75dd7	-0.089534454
63	0xbd5e1712	-0.05422122

fc.weight f4 [256, 128]
0	0x3d11fe44	0.035642877
1	0x3d2bf802	0.041984566
2	0x3d53cf80	0.05171156
3	0x3d49fee2	0.04931534
4	0xbc11525c	-0.008869734
5	0xbce08a71	-0.027409764
6	0x3d8019fc	0.06254956
7	0x3c82ebce	0.015981581
8	0x3d704fdc	0.05866991
9	0x3da4fd9e	0.08056186
10	0xbd8c4df3	-0.06850805
11	0x3d974f12	0.07388128
12	0x3d5bb55b	0.05363975
13	0xbd6b8054	-0.05749543
14	0xbd67c064	-0.056579962
15	0x3cf2a51b	0.029619744
16	0x3d4c520c	0.049882933
17	0x3d0a338a	0.033740558
18	0x3d65acfa	0.056073166
19	0x3d638fbd	0.055557
20	0xbd0c6e92	-0.034285136
21	0xbd8fbfb3	-0.070189856
22	0x3ddcbabc	0.10777804
23	0x3d8a4134	0.06750718
24	0x3cfc02cf	0.030763058
25	0xbd045fb0	-0.032317817
26	0xbdbe86cb	-0.093030535
27	0xbc7bbce7	-0.015364862
28	0x3c8b9a13	0.017041242
29	0x3d338233	0.04382534
30	0xbd2c0690	-0.041998446
31	0x3d8a55d4	0.06754652
32	0x3d1373c4	0.035999075
33	0xbd72c1e3	-0.059266936
34	0xbd87ba62	-0.066273466
35	0xbda32b48	-0.079672396
36	0xbbae6a47	-0.005322728
37	0x3d7f4686	0.062323116
38	0xbdafc047	-0.08581596
39	0xbd9e8831	-0.0774082
40	0x3c4f2ccd	0.012644959
41	0xbc00f9c9	-0.007872053
42	0xbd9d4cff	-0.076807015
43	0x3d6fdbed	0.058559347
44	0x3da3b94a	0.079943255
45	0x3d6d07a3	0.05786861
46	0xbcdb6f21	-0.026786389
47	0xbd2f3cc3	-0.042782556
48	0xbb9287c4	-0.004471751
49	0x3d208f2c	0.03919904
50	0xbd8410f9	-0.0644855
51	0x3d210b2b	0.03931729
52	0xbd8ff367	-0.07028847
53	0xbd78dc70	-0.0607571
54	0x3c582de1	0.013194532
55	0xbd953681	-0.072857864
56	0x3cc6f4b1	0.0242866
57	0x3d0210cc	0.0317543
58	0xbd279afe	-0.040919296
59	0x3c9c7fdb	0.019103935
60	0xbc2a1de8	-0.010383107
61	0x3ba964fe	0.00516951
62	0x3d968452	0.07349457
63	0x3da5045f	0.08057474
64	0xbd6a9ddd	-0.057279456
65	0xbd1c6f54	-0.03819211
66	0x3ca328af	0.01991686
67	0xbd428924	-0.04749407
68	0xbd89a1b3	-0.06720295
69	0xbcdfe726	-0.0273319
70	0x3da8226e	0.08209692
71	0x3c5d98d0	0.013525203
72	0xbd32f05d	-0.04368626
73	0x3becfb75	0.0072321245
74	0x3d83343d	0.06406448
75	0xbda313eb	-0.079627834
76	0x3d1eddcc	0.03878574
77	0xbd767627	-0.060171273
78	0x3d46945d	0.048481334
79	0xbd30f798	-0.043204874
80	0xbd8d5ad6	-0.06902091
81	0xbda38d8e	-0.07985984
82	0x3c31bf04	0.010848764
83	0x3c9e7761	0.019344034
84	0xbc3f945c	-0.0116930865
85	0x3c3947f7	0.011308662
86	0xbb20ed68	-0.0024555568
87	0x3d680e13	0.056654047
88	0x3dae8d13	0.085230015
89	0xbd871181	-0.065951355
90	0x3d8c1ba5	0.0684121
91	0x3b8b37e2	0.004248605
92	0x3dc8ef7a	0.098113015
93	0x3cf9291e	0.030415114
94	0x3dab5f39	0.08367772
95	0x3d97d631	0.07413901
96	0x3c4d097b	0.012514467
97	0x3cd63b34	0.026151277
98	0xbd02f720	-0.031973958
99	0xb9dc18b6	-0.0004198008
100	0xbcb81f8b	-0.022475978
101	0x3bcf3696	0.006323646
102	0xbd1bb38a	-0.03801302
103	0x3d483a64	0.04888381
104	0x3da49bde	0.08037542
105	0xbcb22c04	-0.021749504
106	0x3b7e92dc	0.003884486
107	0xbd0d8829	-0.03455368
108	0xbcc9e021	-0.024643006
109	0xbce65566	-0.028116893
110	0x3cb743bc	0.022371165
111	0xbc4c321f	-0.012463122
112	0x3c858d92	0.016302858
113	0xbcb12ae9	-0.021626906
114	0xbd338550	-0.04382831
115	0xbd713062	-0.058884032
116	0x3db924da	0.09040232
117	0x3d2cf866	0.04222908
118	0x3d376999	0.04477844
119	0xbd1b2b82	-0.03788329
120	0x3d779327	0.06044307
121	0x3d1c84b3	0.03821249
122	0xbc3b7632	-0.011441754
123	0x3c586953	0.013208705
124	0xbc87f854	-0.016597904
125	0xbd891f26	-0.06695394
126	0x3ce0e4da	0.027452875
127	0xbdc15fcf	-0.09442102
128	0x3d8acd6c	0.06777462
129	0xbdbceea7	-0.09225207
130	0x3c74433b	0.014908607
131	0x3cc416e7	0.023936702
132	0xbda07a63	-0.078358434
133	0xbbe0fcf1	-0.0068660905
134	0xbd3cda56	-0.04610666
135	0xbc2fcd85	-0.010730152
136	0x3d153519	0.03642759
137	0x3d8d8dff	0.06911849
138	0x3d4c649d	0.04990064
139	0xbd833a67	-0.06407624
140	0x3c247afb	0.010039086
141	0xbd6d7684	-0.057974353
142	0x3d8469b6	0.06465475
143	0x3d060b4d	0.03272562
144	0x3c21b339	0.00986939
145	0xbca826b2	-0.020526264
146	0xbdb126f8	-0.08650011
147	0x3bf4111f	0.00744833
148	0x3d0e78c1	0.03478313
149	0xbd478d57	-0.048718777
150	0x3a3acd4a	0.00071259274
151	0xbd93a298	-0.07208747
152	0xbd7e35cb	-0.06206302
153	0x3d5ec79e	0.05438959
154	0xbda78ff5	-0.081817545
155	0x3c7832cd	0.015148831
156	0x3cc2e2d7	0.023789806
157	0xbd39f525	-0.045399804
158	0xbd47d564	-0.04878749
159	0xbd421e9e	-0.04739248
160	0x3da8fb1a	0.08251019
161	0x3d14fdf8	0.036375016
162	0xbd2a088b	-0.041512053
163	0x3d09ce25	0.03364386
164	0xbd4db9d0	-0.050226033
165	0x3ce820bf	0.028335927
166	0xbc930b73	-0.017949795
167	0x3d94324a	0.072361544
168	0x3d70c636	0.05878278
169	0x3c5f3729	0.013623991
170	0x3c727a47	0.014799661
171	0x3c899fa5	0.016799757
172	0xbcb36677	-0.021899445
173	0x3d95029e	0.0727589
174	0x3d12801f	0.035766717
175	0x3c34f48a	0.011044631
176	0x3d6f00a7	0.05835023
177	0x3da99912	0.08281149
178	0x3c3ae4e0	0.011407107
179	0xbd1bf8d1	-0.038079087
180	0x3c7ad264	0.01530895
181	0xbd825446	-0.0636373
182	0xbcf7e5aa	-0.03026088
183	0xbb9e7efe	-0.004836916
184	0x3cb95d58	0.022627518
185	0x3cb16873	0.02165625
186	0xbd311852	-0.043236084
187	0x3b91b50c	0.0044466313
188	0xbdac022c	-0.08398852
189	0xbd8e7502	-0.06955911
190	0xbd717b60	-0.05895555
191	0x3d144b1d	0.036204446
192	0xbc5c0f9d	-0.013431457
193	0xbd903643	-0.070415996
194	0xbd75edff	-0.060041424
195	0x3cb6afd6	0.022300642
196	0x3bdd30e3	0.0067502125
197	0x3d369f04	0.044585243
198	0xbd970324	-0.07373646
199	0x3c3cc483	0.011521461
200	0x3d94cde5	0.07265834
201	0x3da26704	0.07929805
202	0xbc163e2f	-0.009170099
203	0xbc6139a1	-0.01374665
204	0x3d857d42	0.06518032
205	0xbd84f2f1	-0.0649165
206	0x3da04d4b	0.078272425
207	0xbcc9e24a	-0.024644036
208	0x3d97ac44	0.07405904
209	0x3d47db13	0.04879291
210	0x3c8b7651	0.017024191
211	0xbca19f45	-0.019729266
212	0xbb83544a	-0.004007851
213	0xbb9bbae2	-0.004752503
214	0xbd73b152	-0.059495278
215	0xbd0b509b	-0.03401242
216	0xbd191a2e	-0.037378483
217	0xbc9396c1	-0.018016221
218	0xbd7c75d3	-0.061635803
219	0xbc8b5bc1	-0.017011525
220	0xbd6ca428	-0.05777374
221	0x3c8604fd	0.0163598
222	0x3d8d8f84	0.06912139
223	0x3d8cdb72	0.06877793
224	0x3cde322b	0.027123531
225	0x3d84c237	0.06482356
226	0x3d877d54	0.06615701
227	0xbd07b94d	-0.0331357
228	0xbd9ef629	-0.07761795
229	0xbd254a0f	-0.04035383
230	0xbb9cfb04	-0.0047906656
231	0xbdc5638a	-0.09638126
232	0xbcd3e0bf	-0.025864003
233	0x3d0c9d2c	0.03432958
234	0xbd452a8c	-0.04813628
235	0xbc290aea	-0.0103175435
236	0x3ba4d8b2	0.005030715
237	0x3d779f39	0.06045458
238	0xbd6b2a72	-0.057413526
239	0x3d9540db	0.07287761
240	0x3d806e85	0.0627108
241	0x3c77b575	0.015118946
242	0xbd565f6d	-0.0523371
243	0x3d82bc69	0.06383593
244	0x3cd6c7b1	0.026218267
245	0xbda21625	-0.0791438
246	0x3d2040b7	0.039124217
247	0xbd873ad0	-0.066030145
248	0xbd80f199	-0.06296081
249	0xbcb1a7c2	-0.021686438
250	0x3c643acd	0.013930035
251	0x3d2fe787	0.04294541
252	0x3b9f1717	0.0048550474
253	0xbd0e894a	-0.034798898
254	0xbd93d9c2	-0.072192684
255	0x3c627411	0.013821618

fc.bias f4 [256]
0	0xbae9edf0	-0.00178474
1	0x3da283dc	0.079353064
2	0x3d138cd0	0.03602296
3	0x3d937632	0.07200278
4	0x3c4a935b	0.012364234
5	0xbc8334ca	-0.016016383
6	0x3d481d09	0.048855815
7	0x3dc4e744	0.09614423
8	0x3d468045	0.04846217
9	0x3d8220cc	0.06353912
10	0xbd03f090	-0.03221184
11	0xbce6fd2b	-0.028196892
12	0xbd7d32cf	-0.061816033
13	0x3d64ae6a	0.055830397
14	0x3d438e54	0.047743157
15	0xbd2c73f0	-0.042102754
16	0x3d6db446	0.05803325
17	0xbd5dc9ad	-0.05414741
18	0xbc6db0be	-0.014507471
19	0x3d0ae1b2	0.033906646
20	0x3dfcd838	0.12345928
21	0x3d92ea9c	0.071736544
22	0xbca868a9	-0.020557718
23	0x3dd962f1	0.10614575
24	0x3df2d740	0.11857462
25	0x3e0c1ea4	0.13683563
26	0x3e161e96	0.14660105
27	0x3d83e559	0.06440229
28	0x3d9b2a30	0.07576406
29	0x3df5e5b6	0.120067045
30	0x3e65fbd4	0.22459346
31	0x3e08baed	0.13352557
32	0x3e7eff93	0.24902181
33	0x3e6978b8	0.22799957
34	0x3e4ac381	0.19801141
35	0x3e225e14	0.158562
36	0x3e1dc93c	0.15408796
37	0x3e4c4229	0.19947113
38	0x3e430945	0.19046505
39	0x3e3d1fe7	0.18469201
40	0x3de32edf	0.11092924
41	0x3e1456da	0.14486256
42	0x3e885f17	0.26635048
43	0x3e539ade	0.20664546
44	0x3e380fde	0.17974803
45	0x3ddd33a8	0.10800868
46	0x3e6229da	0.22086278
47	0x3e3a85f1	0.18215157
48	0x3e1b3206	0.15155801
49	0x3e4b3115	0.19842942
50	0x3e170101	0.14746477
51	0x3e313e6a	0.17308965
52	0x3e4a9a16	0.19785342
53	0x3e1f208c	0.1553976
54	0x3d95d16b	0.07315334
55	0x3d82ef5f	0.06393313
56	0x3e295103	0.1653481
57	0x3d2598e0	0.040428996
58	0x3d86c2bd	0.06580112
59	0x3dec82b9	0.11548371
60	0x3d8a9e0c	0.06768426
61	0x3de85516	0.11344354
62	0x3b5660f8	0.0032711606
63	0x3e056c60	0.13029623
64	0x3dc2f205	0.09518818
65	0x3de243e6	0.11048107
66	0x3e0cc1d0	0.13745809
67	0x3e16ac81	0.14714243
68	0x3df54a22	0.1197703
69	0x3d4c36cc	0.049856946
70	0x3d7fb846	0.062431596
71	0x3c25e12e	0.010124488
72	0x3d2ca677	0.04215094
73	0x3d83f7ff	0.06443786
74	0x3b9a6762	0.004712031
75	0x3d061ebf	0.032744166
76	0x3dcea2dd	0.100896575
77	0x3cd0802e	0.025451746
78	0x3dad9cbe	0.08477162
79	0xbd0cbaf8	-0.034357995
80	0xbc0fdc51	-0.008780555
81	0xbc86a98a	-0.016438264
82	0x3d6f941f	0.05849087
83	0x3e07c7c4	0.13259798
84	0xbd00a0db	-0.031403404
85	0x3cad97e4	0.021190591
86	0x3d7b76cf	0.0613926
87	0x3bfc28aa	0.007695277
88	0x3dca2e71	0.09872139
89	0x3df096f9	0.11747546
90	0x3c807c37	0.01568423
91	0x3daa3fa7	0.08312922
92	0x3dd78622	0.10523631
93	0xbd1b273f	-0.037879225
94	0x3a8a488a	0.0010550183
95	0x3d9fc7e8	0.07801801
96	0xbd2d5241	-0.04231477
97	0x3d9135fb	0.07090374
98	0xbd04d1b6	-0.03242656
99	0x3c614133	0.013748455
100	0x3da92ae9	0.082601376
101	0x3c161edf	0.009162634
102	0x3ccc5035	0.02494059
103	0xbc8e879a	-0.017398644
104	0x3c780c3b	0.015139635
105	0xbd8a0288	-0.06738764
106	0x3d5a51e0	0.05330074
107	0x3c76b472	0.01505767
108	0x3dba66a1	0.09101606
109	0xbc2523f6	-0.010079375
110	0x3cee88b1	0.029117914
111	0xbd8595d3	-0.06522717
112	0x3cd0baf2	0.025479767
113	0x3d6c8176	0.05774065
114	0xbc01fdc3	-0.007934037
115	0x3dd9d1d3	0.10635724
116	0x3cbed7f3	0.023296332
117	0x3ca6c5b8	0.020357952
118	0xbc26d0ea	-0.010181645
119	0x3c4da96b	0.012552599
120	0x3ce837a0	0.028346837
121	0x3c9c3a43	0.01907075
122	0x3d3aa9e5	0.04557218
123	0x3db128be	0.08650349
124	0x3d2b17de	0.04177081
125	0x3d258a18	0.0404149
126	0xbce31b0e	-0.027722862
127	0xbcccc99c	-0.024998479
128	0xbd4c1a7b	-0.04982994
129	0x3d6d30f6	0.05790802
130	0x3c87e37d	0.016587967
131	0x3d97e6f2	0.07417096
132	0xbd9870db	-0.074434005
133	0xbd14365c	-0.036184654
134	0xbd900a3e	-0.070332035
135	0xbcdffde9	-0.027342753
136	0x3dbd6bba	0.09249063
137	0xbd826dd5	-0.06368605
138	0xbb8eee9b	-0.00436194
139	0xbd5fa1e1	-0.05459774
140	0x3dc5a70f	0.096510045
141	0xbcd56e5f	-0.026053606
142	0xbbe57fda	-0.0070037665
143	0xbd38bf68	-0.045104414
144	0x3dadbb0b	0.08482941
145	0xbd2e8f63	-0.042617213
146	0x3ce0e212	0.027451549
147	0xbcfa7167	-0.030571653
148	0x3c00f9b4	0.007872034
149	0x3d3b65fa	0.04575155
150	0x3d9ee8e6	0.077592656
151	0x3cb03a54	0.021512188
152	0xbd2e2b5c	-0.04252182
153	0x3d1842b9	0.037173007
154	0x3cab59b5	0.0209168
155	0x3d7c7132	0.06163139
156	0x3c6e6df3	0.014552581
157	0x3d3f9f53	0.046782803
158	0xbd90bfcd	-0.07067833
159	0x3cd02c1a	0.025411654
160	0x3d8c865c	0.068615645
161	0x3a2a3e20	0.00064942427
162	0x3d62883e	0.055305712
163	0x3d4a9010	0.049453795
164	0xbc26610d	-0.010154975
165	0x3d886bd8	0.066611946
166	0xbb5bca12	-0.0033537191
167	0x3d7cf4a7	0.061756756
168	0x3d88e4f5	0.06684295
169	0xbd8dd8d4	-0.06926122
170	0xbd8e7575	-0.06955997
171	0xbd7b917c	-0.06141804
172	0x3d860e72	0.06545724
173	0xbc8b9a03	-0.017041212
174	0x3d83de37	0.064388685
175	0xbd456969	-0.04819623
176	0xbb2e0022	-0.0026550372
177	0xbda0f6ec	-0.078595966
178	0x3d69129b	0.05690251
179	0x3d4b05f2	0.049566217
180	0x3d879379	0.06619925
181	0xbcf2457b	-0.029574146
182	0x3be8af00	0.0071009398
183	0x3d55cd23	0.052197587
184	0x3c644469	0.013932326
185	0xbc27e022	-0.0102463085
186	0x3c9af963	0.018917745
187	0xbdb65a01	-0.08903886
188	0x3d8538d3	0.06504979
189	0x3d9fa2d6	0.0779473
190	0x3d369f8f	0.04458576
191	0x3d23886e	0.03992503
192	0x3d350578	0.04419467
193	0x3d6f94eb	0.05849163
194	0x3b9eed9c	0.0048501026
195	0x3d6b802d	0.057495285
196	0xbca15dbf	-0.019698022
197	0x3c64ccc8	0.013964839
198	0xbcd98dca	-0.026556868
199	0x3d99e93c	0.07515189
200	0x3d26f082	0.04075671
201	0x3b6b7608	0.0035928506
202	0xbd8de918	-0.06929225
203	0x3d90db83	0.070731185
204	0xbd5e5526	-0.054280423
205	0xbd3a27ed	-0.045448232
206	0xbbdce737	-0.00674143
207	0x3d87f99c	0.06639406
208	0x3db2e080	0.08734226
209	0xbd83af6b	-0.06429943
210	0xbd5a9dbc	-0.053373083
211	0x3daf7c81	0.08568669
212	0x3d423ab8	0.04741928
213	0xbd93c202	-0.072147384
214	0xbcd9a5ee	-0.02656838
215	0x3d44452b	0.047917526
216	0xbdbc0bc7	-0.09181934
217	0xbd51d67a	-0.05122993
218	0x3d31e883	0.04343463
219	0x3c49b773	0.012311804
220	0x3d38cdff	0.04511833
221	0x3d1027f2	0.035194345
222	0xbd3a4eb9	-0.045485232
223	0xbda9678d	-0.08271704
224	0x3b553ee7	0.0032538713
225	0x3da04121	0.07824922
226	0x3cbc06b3	0.022952413
227	0x3dac2aa1	0.08406568
228	0x3d50af2c	0.050948307
229	0xbc67e3d3	-0.014153439
230	0xbcc70ab8	-0.024297103
231	0xbdb7e523	-0.08979251
232	0x3cd8221c	0.026383452
233	0x3d90c89e	0.07069515
234	0xbdb9252d	-0.09040294
235	0x3d530ac5	0.051523943
236	0x3dbaa682	0.0911379
237	0x3d53d8b8	0.05172035
238	0x3cf2b4de	0.02962726
239	0xbcadd6a6	-0.021220516
240	0x3d37ad43	0.04484297
241	0xbc0a991a	-0.008459354
242	0x3d568ee3	0.05238236
243	0xbb3f97e4	-0.002923482
244	0x3c7d3d13	0.015456456
245	0xbd95d519	-0.07316036
246	0x3be23911	0.0069037755
247	0xbd4ac9d7	-0.049508896
248	0x3db0f52e	0.08640514
249	0xbc70238e	-0.014656914
250	0x3d8c9f97	0.06866377
251	0xba63fb0a	-0.00086967705
252	0xbb90aeb7	-0.004415359
253	0x3c8a9672	0.016917441
254	0x3d8cea72	0.068806544
255	0xbd6c98a2	-0.05776275

ln.weight f4 [128]
0	0x3f9c795f	1.222454
1	0x3fa0d688	1.256547
2	0x3fa12f81	1.2592622
3	0x3f9dc85b	1.2326769
4	0x3f9f7f17	1.246066
5	0x3fa29b1b	1.2703584
6	0x3fa11a66	1.2586181
7	0x3f9e4dfd	1.236755
8	0x3f9dc5b6	1.2325962
9	0x3f9e46d4	1.2365365
10	0x3fa01e46	1.2509239
11	0x3fa1483e	1.2600172
12	0x3f9d72a3	1.2300609
13	0x3f9fc08b	1.2480634
14	0x3fa09d46	1.2547996
15	0x3f9facae	1.2474573
16	0x3fa1e2f5	1.2647387
17	0x3f9b8b63	1.2151912
18	0x3fa03883	1.2517246
19	0x3f9e53f3	1.2369369
20	0x3fa12993	1.2590812
21	0x3fa22de2	1.2670252
22	0x3f9edc95	1.2411066
23	0x3fa002d0	1.2500858
24	0x3f9dc967	1.2327088
25	0x3f9bba90	1.2166309
26	0x3fa24949	1.2678615
27	0x3f9f29c8	1.2434626
28	0x3fa13c22	1.2596476
29	0x3f9c568e	1.2213914
30	0x3f9d0f9b	1.2270387
31	0x3f9fed1d	1.2494236
32	0x3f9cae05	1.2240607
33	0x3f9f130a	1.2427685
34	0x3f9d1af1	1.2273847
35	0x3fa16582	1.2609103
36	0x3f9d1c07	1.2274178
37	0x3f9d4d56	1.2289226
38	0x3f9e2f5d	1.2358204
39	0x3fa07f05	1.2538763
40	0x3f937296	1.1519344
41	0x3fa085bd	1.2540814
42	0x3f9c606f	1.2216929
43	0x3f9e0f97	1.2348508
44	0x3f9e15d1	1.2350408
45	0x3f9dce3a	1.232856
46	0x3f9dee8e	1.2338426
47	0x3fa03316	1.251559
48	0x3f9de929	1.233678
49	0x3f9d5db5	1.2294222
50	0x3f9ce819	1.225833
51	0x3f9d496c	1.2288032
52	0x3fa1611e	1.2607763
53	0x3f9e6f75	1.2377764
54	0x3f9ee577	1.2413777
55	0x3f9e4852	1.236582
56	0x3fa156b6	1.2604587
57	0x3f9f4ef0	1.2445965
58	0x3f9c40dc	1.2207294
59	0x3fa2164c	1.2663054
60	0x3f9c8197	1.2227048
61	0x3f9ce9c8	1.2258844
62	0x3fa2dd98	1.2723875
63	0x3f9e0f83	1.2348484
64	0x3f9f345d	1.2437855
65	0x3f9d32fa	1.2281182
66	0x3fa1a781	1.2629243
67	0x3f9d96c4	1.2311635
68	0x3f9d58b5	1.2292696
69	0x3fa18d87	1.2621316
70	0x3fa26447	1.2686852
71	0x3fa07349	1.2535182
72	0x3f9b5030	1.2133846
73	0x3f9f7a54	1.2459207
74	0x3f9d3ddd	1.2284504
75	0x3f9fa9fc	1.247375
76	0x3f9fc244	1.248116
77	0x3fa08b19	1.2542449
78	0x3f9ffacc	1.2498412
79	0x3f9f2588	1.2433329
80	0x3f9c9376	1.2232502
81	0x3fa17647	1.261422
82	0x3f9cef0e	1.2260454
83	0x3fa29fb1	1.2704984
84	0x3f9de3f2	1.2335188
85	0x3fa03a34	1.2517762
86	0x3f9c8456	1.2227886
87	0x3fa4256a	1.2823918
88	0x3fa0732a	1.2535145
89	0x3f9e633a	1.2374032
90	0x3fa051b6	1.2524936
91	0x3fa13744	1.2594991
92	0x3f9c32cf	1.2203006
93	0x3f9a6875	1.2063128
94	0x3f9f48c0	1.2444077
95	0x3f9feeee	1.249479
96	0x3f9d3943	1.22831
97	0x3f9fe3fc	1.249145
98	0x3f9f4c8e	1.2445238
99	0x3fa0f59e	1.2574956
100	0x3f9ce05b	1.2255968
101	0x3f9e4077	1.2363423
102	0x3f9aceb1	1.2094327
103	0x3f9ebfe2	1.2402308
104	0x3fa39324	1.2779279
105	0x3f9c3cbf	1.2206038
106	0x3fa3766d	1.2770516
107	0x3fa368ab	1.2766317
108	0x3fa0aa93	1.2552055
109	0x3f9c03dd	1.2188679
110	0x3f9cf567	1.2262391
111	0x3f9af367	1.210553
112	0x3fa09655	1.2545878
113	0x3f9833fe	1.1890867
114	0x3fa1ea78	1.2649679
115	0x3fa085c3	1.2540821
116	0x3f9dc9e7	1.2327241
117	0x3f9e4a71	1.2366468
118	0x3fa149aa	1.2600605
119	0x3fa26163	1.268597
120	0x3f9f3903	1.2439274
121	0x3fa23cf2	1.2674849
122	0x3f9811fa	1.1880486
123	0x3f9d52b5	1.2290865
124	0x3f9e749c	1.2379336
125	0x3f9cc568	1.2247744
126	0x3f9fc3ba	1.2481606
127	0x3f9d6e7c	1.2299342
