model.pth (torch, 339793 bytes, 14 tensors)

fc1.weight f4 [64, 3]
00000000: 5df0 c9bc 3a04 18be 380b ba3d d5ff d9be
00000010: 3542 c9bc 7e9c b13e a9d3 e53e 72a1 5e3e
00000020: 9c55 89be ef19 513d a6e3 18bf 98f4 82bd
00000030: 9aed f13e 5ad4 043f 48cb 103e 843f bcbe
00000040: bc22 aebe 2ec4 8b3e 4cb4 123f 7be8 e4be
00000050: 5036 14bd 6885 d9be a01c 00bf da57 13bf
00000060: ccaf 2dbc d39f 143f 480c be3d 235c 973d
00000070: 40f8 1bbf 300d 023f 15a0 af3d d5d9 873e
00000080: 4692 d13e 448b 9c3e 9db5 a83e 348f f5be
00000090: 93eb abbe 62d0 33bd e0bf d43c 3eb4 833e
000000a0: 10f0 8b3e 1a33 23be c5b0 a5be 8e0a 323f
000000b0: 5894 37be 18ea b03e 8fa5 073f 9cdc 093f
000000c0: 189e 93be 840d e1be 2efa c83e fbab 883e
000000d0: e57a a5be e460 b8be 7d60 45bd f751 59be
000000e0: f0c9 26bd 4dad 4f3d 901a 133f 18e0 113e
000000f0: eb7c 02bf c63e e6be a298 29be 65cd 89be
00000100: 30f8 3bbe a082 c43d d853 953e 9609 04bf
00000110: f885 c5be 00fa b6be af91 203f e8f2 f33e
00000120: 99e5 143f 5a84 c43e 20c9 28be b004 993e
00000130: 5004 04bf e821 b6bd e82f 2b3e 5cb5 c23e
00000140: f247 03bf 505c 8a3d b88c f1be c900 ffbe
00000150: 9dbe 8a3d d1a3 ad3e 1300 b4be 4fba c73c
00000160: f24f fcbe 00a9 b2bb 56b9 61bd c801 0c3f
00000170: 0075 8e3c 8461 45be 0019 b83d f8b1 1f3e
00000180: 5084 583e c7a0 e6be aaf1 fbbe 5347 74be
00000190: 9cf6 0dbf 0b5a cfbe abe5 563d 97e0 d4be
000001a0: e038 303d 5ee9 07bf bd2c eebe 6c4c d3bd
000001b0: 0c7b cabe 8412 863e 8093 95bd 5148 91be
000001c0: 8fbe 1f3f 4060 dcbd cf8f 0f3d 8667 90be
000001d0: b84e 0e3e 7cd1 a8be ad2b b6be eef1 a23e
000001e0: 459d 9e3e a110 103d dc17 033e e8ab a7be
000001f0: 027d cf3e b8ec 05bf 3ae2 f5be bb53 94bb
00000200: 7e19 943e 30f2 b13e a7f1 9dbe 6ee7 be3e
00000210: df04 4cbd e7b3 783e 80c8 2b3e bd3b 653e
00000220: d55a 063e 7caa ecbe 9264 b8bd 3197 1bbf
00000230: 4cb2 273e 92d7 c63b b12a 4bbe 3e4c 9c3e
00000240: 8ce0 b63e fce1 a33e acd2 9bbe 5d1c 953e
00000250: cf1e 91be 384f 103f 5bdc fd3c 90f4 b83d
00000260: 1cb0 193e fb06 193f d739 9a3e 6d2f 10bf
00000270: 2e3f c7be 9f11 d7be 30de 41bd 8298 d4be
00000280: b3fb f6be 6c60 ce3e 7fb8 073e edde 593e
00000290: e45c ca3e 0c02 2fbe 4900 833e a440 2a3e
000002a0: 7825 573e 3f1c 60be 8877 86bd 18b0 89be
000002b0: 29a4 0dbe d8d6 f23e 8b49 513d 96bf efbd
000002c0: 18dd 053e ceee 2c3d dd8c b7bd d092 f0bd
000002d0: 5db1 d13e d9e2 8dbd 9010 55bd cc8f bcbe
000002e0: 9344 ba3d 1e13 c33e b4a5 c8bd 3a71 0dbe
000002f0: 50f4 563e 7a49 5abe 3cb0 f2be 6851 c8be
-0.024650747 -0.14845362 0.09084171 -0.42577997 -0.024567703 0.34689707 0.44888046 0.21741274
-0.26823127 0.051050123 -0.59722364 -0.06394309 0.47251588 0.5188652 0.14140046 -0.3676721
-0.34010875 0.2729811 0.5730636 -0.4470862 -0.03618461 -0.42484593 -0.5004368 -0.57555926
-0.010600995 0.5805637 0.09279686 0.073906206 -0.60925674 0.5080137 0.08575455 0.2653338
0.4093191 0.30575 0.3295106 -0.47960818 -0.33578166 -0.0438999 0.0259704 0.2572345
0.2733159 -0.15937462 -0.32361427 0.69547355 -0.17927682 0.345536 0.52987 0.5385225
-0.28831553 -0.43955624 0.39253372 0.2669371 -0.32320324 -0.36011422 -0.04818772 -0.21222673
-0.040719926 0.050702382 0.57462406 0.14245641 -0.5097186 -0.44969767 -0.16562131 -0.26914516
-0.18356395 0.09595227 0.2916553 -0.51577127 -0.38578773 -0.3573761 0.62722296 0.4764626
0.5816284 0.38382226 -0.16482973 0.2988639 -0.5156908 -0.08893186 0.16717494 0.3802899
-0.51281655 0.067558885 -0.47177672 -0.49805287 0.06774638 0.33914044 -0.35156307 0.024380831
-0.49279743 -0.0054522753 -0.05510839 0.5469022 0.017389774 -0.1927548 0.08989143 0.15595233
0.21144223 -0.45044538 -0.49207813 -0.23855333 -0.5545442 -0.40498385 0.052465122 -0.41577598
0.04302299 -0.53090465 -0.46518508 -0.10317311 -0.39547002 0.26186 -0.07303524 -0.28375486
0.62400144 -0.10760546 0.035049256 -0.28203982 0.13897216 -0.32972324 -0.35580197 0.31825203
0.30979362 0.03517211 0.1280207 -0.32748342 0.4052506 -0.5231433 -0.4802416 -0.004526583
0.289257 0.34755087 -0.3084843 0.37285942 -0.049809333 0.24287377 0.16775703 0.2238607
0.13120587 -0.4622382 -0.09003557 -0.60777575 0.16376609 0.0060681785 -0.19840504 0.30526918
0.3571819 0.3200835 -0.30434167 0.29123202 -0.28343818 0.5637088 0.030988863 0.090310216
0.15008587 0.59776276 0.30122253 -0.56322366 -0.3891539 -0.4200563 -0.047331035 -0.41522604
-0.48238906 0.4030794 0.13253973 0.21276446 0.39523995 -0.17090625 0.25586155 0.16626221
0.21010387 -0.21885775 -0.065657675 -0.2689216 -0.13832153 0.47429538 0.051095527 -0.11706464
0.13072622 0.04221993 -0.089624144 -0.11746752 0.4095563 -0.069280334 -0.05201775 -0.36828458
0.09095111 0.38100523 -0.0979723 -0.13812724 0.20991635 -0.21317092 -0.4740008 -0.39124608

fc1.bias f4 [64]
00000000: 75f5 973e 1787 2e3e 34e3 de3e 0af9 6abe
00000010: e46f ef3d 3aa1 2e3e 1df9 2ebe b28b 1bbf
00000020: 261d cfbe 42b8 b13e 81a9 1bbf dc7e 303d
00000030: 14a7 153e 3983 14bf 52d3 40be 7d28 f93e
00000040: 05ee 75be cb86 803e 454e e93e f637 e03e
00000050: f14b f73e dee1 afbe 0e65 263f 80b9 f33d
00000060: 7587 debd e872 e1bd 7bc2 d1be 8ea9 0bbf
00000070: fc22 6f3e 74ee a43e 619e c0bd 3c1e 0ebf
00000080: 51fd 813e 7e9b f83d d80f 733e e25c 033f
00000090: 31d4 453d cbc8 56be 7768 2b3e 41e8 5c3e
000000a0: d402 e83d 0280 a3be 9bd3 903e 6984 033f
000000b0: 611a fe3e 6fe3 17bf 11d4 e6bd b855 bf3e
000000c0: 9660 bfbe 6a07 973e 7d4f 6bbe ce45 903c
000000d0: d10f cabd 2fff f63d 2337 15bf 759d 2f3e
000000e0: 4b0e 023f 1821 b7bb 378a 3b3e 3988 77be
000000f0: c598 d33e e457 92be 6fd1 efbe 06f0 9f3e
0.29679456 0.1704372 0.43532717 -0.22946563 0.11691263 0.1705369 -0.17087217 -0.60760033
-0.40451926 0.3471089 -0.6080552 0.043089733 0.14614516 -0.5801273 -0.18830612 0.48663703
-0.24016578 0.2510284 0.45567527 0.43792695 0.48300126 -0.3435201 0.6499795 0.11900616
-0.1086568 -0.11008245 -0.4096869 -0.54555595 0.23353189 0.32213175 -0.094052084 -0.55514884
0.25388578 0.12139033 0.23736513 0.513136 0.048298065 -0.20975034 0.16739069 0.21572973
0.113286644 -0.319336 0.28286442 0.51373917 0.496295 -0.5933141 -0.11270917 0.37370086
-0.37378377 0.29497844 -0.22979541 0.01761141 -0.09866298 0.12060391 -0.58287257 0.17149909
0.5080306 -0.005588662 0.18314444 -0.24173059 0.4132749 -0.2858268 -0.46839473 0.3123781

bn1.weight f4 [64]
00000000: 18ac 483f 59e1 663f a649 3f3f e070 5c3f
00000010: 6a49 4a3f 2fa5 4a3f 36dc 5e3f 64f0 783f
00000020: 6b30 863f 2519 713f 17c8 833f 2b30 493f
00000030: 6eb6 523f bab0 3a3f 917f 5b3f b164 5a3f
00000040: 4a6b 833f e44d 223f e2eb 493f b643 583f
00000050: 7272 403f 3c5c 913f 0c4a 5b3f 5370 803f
00000060: 5e8f 313f de32 6b3f 710a 7f3f 8d94 5c3f
00000070: 88f3 3e3f 2da9 6e3f ef3b 7d3f 0000 803f
00000080: fc93 623f 6230 683f 6c0f 6e3f 5ec1 253f
00000090: 692e 913f 3b26 5e3f 4ff9 673f 6102 403f
000000a0: 0455 4d3f 34d2 6d3f f75e 603f 4c09 453f
000000b0: 723e 4c3f 4856 573f cd72 753f a855 443f
000000c0: fdf2 5c3f 0455 323f d646 a13f 342e 533f
000000d0: 144e 533f 646b 443f d8a8 5f3f 4944 583f
000000e0: b944 253f 2415 483f dae2 4e3f fcfb 7d3f
000000f0: c479 443f 493b 7f3f 0000 803f e5f3 7c3f
0.78387594 0.90187603 0.74721754 0.86109734 0.7901827 0.791583 0.87054765 0.97241807
1.0483526 0.9417899 1.0295438 0.78589123 0.82309616 0.72925913 0.85741526 0.8530989
1.0267117 0.634001 0.78875554 0.8447832 0.7517463 1.1356273 0.8565986 1.0034279
0.69359386 0.9187449 0.9962531 0.8616417 0.7459035 0.9322689 0.98919576 1.0
0.88507056 0.90698826 0.9299228 0.6474818 1.1342288 0.86777085 0.9061479 0.7500363
0.8020785 0.9289887 0.87644905 0.7696731 0.79782784 0.8411603 0.958783 0.766932
0.8630827 0.69660974 1.2599742 0.82492375 0.8254101 0.76726365 0.8736701 0.84479195
0.6455799 0.7815726 0.808149 0.9921262 0.767483 0.99699837 1.0 0.98809654

bn1.bias f4 [64]
00000000: c69f c43d fb70 92be ae54 24bf 2693 f1be
00000010: d46e 1abf b88a 11bf 3e9b 06bf c746 99be
00000020: 264c c2be 466d 443e 2ce7 cabd c154 89be
00000030: 0eb9 bbbe ca88 38bf d7b3 b4be 716e cebe
00000040: 826f 8cbc 6073 9bbe 7d14 c83d 87c0 c4be
00000050: 0971 f63e 3278 ec3e 2860 503e 3b4a 91be
00000060: 2369 20bf 7db9 a63d d9df 01bf 9bd2 19bf
00000070: cb40 febe c697 d03e 1c0a debe 557d 38bf
00000080: 2820 ddbe c63c 6abe 31ef f23e f78c da3e
00000090: af1d 92be 2889 dfbe 4622 f53d b471 27bc
000000a0: 6ad7 febe 4340 943d 77c3 d8be 76ff 523e
000000b0: a5da ddbb 5198 48bf 2adf e1be bd13 a4bd
000000c0: 3d41 14bf 619b 11be 6c97 2bbf 7ad5 07bf
000000d0: 8dde a1be a272 90bb 9852 41bf 606f 69be
000000e0: ab2b 8cbe 662c 69be 5844 5a3e e09d 443f
000000f0: 1cc8 9e3c b90b babe 8fd3 2e3f ee0b a2be
0.09600787 -0.28601822 -0.6419171 -0.47182578 -0.6032536 -0.56852293 -0.5258063 -0.2993681
-0.37948722 0.1918231 -0.09907374 -0.26822475 -0.36664623 -0.72083724 -0.35293457 -0.40318635
-0.017143015 -0.30361462 0.09769533 -0.38428137 0.48133114 0.46185452 0.2034918 -0.28376946
-0.62660426 0.08140848 -0.5073219 -0.60086983 -0.49658808 0.40740794 -0.43367088 -0.7206624
-0.43188596 -0.22874746 0.47448114 0.42685673 -0.28538272 -0.4365933 0.11969428 -0.01021998
-0.49773723 0.072388195 -0.42336628 0.20605263 -0.006770449 -0.78357416 -0.44115573 -0.08011577
-0.57912046 -0.14219429 -0.67027926 -0.53060114 -0.31615105 -0.0044081965 -0.75516653 -0.22796392
-0.27377066 -0.22770843 0.21315134 0.768034 0.019382529 -0.3633707 0.6829156 -0.31649727

bn1.running_mean f4 [64]
00000000: b694 9a3e 4aae 8f3e dd60 f53e 44fb 293e
00000010: 5ad3 ab3e fcaf 9d3e e312 613e fe67 963d
00000020: 3b0c b93d 8c12 f83e 0400 0000 7004 4a3e
00000030: af54 6b3e 7a68 f23b 71d6 6f3e 8e19 0e3f
00000040: b1ce 003e ce9f a93e 8b30 ed3e 998c 013f
00000050: 8a64 183f 0f50 e73c 503c 343f 539c b73e
00000060: 8dd8 603e c47c 4f3e 09d2 003d 6a2e d83c
00000070: 157e 903e 9d28 d73e aa12 403e 0000 0000
00000080: 31a3 bb3e 4cbc aa3e f97a a93e 7c95 203f
00000090: e118 613e bd52 453e ac69 6a3e 29bf a93e
000000a0: 6fb4 453e 691d bb3d f1cf bf3e d6db 0c3f
000000b0: cab6 fa3e d151 d934 f050 643e c773 c23e
000000c0: 3d2f 623d 6a86 b73e 0400 0000 7126 8b3e
000000d0: c349 4a3e 9afa ab3e 0400 0000 ee84 663e
000000e0: 8f12 043f 0070 003e 9227 423e 0400 0000
000000f0: d126 e23e f1e3 5e3d 0000 0000 7fe4 d53e
0.30191582 0.2806266 0.47925463 0.16599756 0.33559686 0.30798328 0.21979861 0.07344054
0.09035536 0.4845165 6e-45 0.19728255 0.22981523 0.0073977085 0.23421647 0.55507743
0.12578847 0.33129734 0.46326098 0.5060516 0.5952841 0.028236417 0.7040453 0.35861453
0.21957608 0.20262438 0.031450305 0.02638932 0.28221193 0.42023173 0.1875712 0.0
0.36647943 0.33346784 0.33101633 0.62728095 0.21982147 0.19269843 0.22891873 0.33153656
0.19307111 0.09136469 0.37463334 0.55022943 0.48967582 4.047893e-07 0.222965 0.37978956
0.05522083 0.35844737 6e-45 0.27177766 0.197547 0.3358963 6e-45 0.22511646
0.5159082 0.12542725 0.18960407 6e-45 0.4417024 0.0544166 0.0 0.4177589

bn1.running_var f4 [64]
00000000: 2b6c bf3c ed74 c33d 1971 2d3e 3c59 843d
00000010: 7ad3 3b3e 37b6 043e fad8 fe3d e016 0a3d
00000020: 633c f63c 4311 673e 0400 0000 4615 8e3d
00000030: 35e3 7d3d f39e 9a3a 0a08 143e 330f 853e
00000040: 5c3d 533d 029f d53d b466 473d f97a 6a3e
00000050: 9030 9f3e a496 be3b 2b81 913e 094b 613e
00000060: 6dbc f73d f2c5 b83d 2572 f83b d990 933b
00000070: 4657 9c3d 6ec5 203e 0989 9e3d 0400 0000
00000080: 1f79 0f3e a50d 253e 4694 d73d 1b3e ad3e
00000090: 795b b43d 0b44 d73d 8008 4a3d 557f 083e
000000a0: 4f71 353d ace6 1d3d ef90 123e bdf9 303e
000000b0: dcdf 823d 06e1 d62e 82b8 c83d d84c 273d
000000c0: afa0 a13c 0474 d93d 0400 0000 3f10 103e
000000d0: 5176 c53d 468f 3a3e 0400 0000 c48a 6d3d
000000e0: 5bd9 b43d 01d5 013d 4407 793c 0400 0000
000000f0: 8877 0a3e efa5 383c 0400 0000 caf1 303e
0.023367008 0.09543786 0.16937675 0.064623326 0.1834239 0.12960134 0.12443729 0.03371322
0.030058092 0.22565179 6e-45 0.06937651 0.06198426 0.0011796638 0.14456192 0.2598816
0.05157219 0.10430719 0.04868193 0.22898473 0.31091738 0.0058162976 0.2841886 0.2200128
0.12096486 0.0902213 0.0075819665 0.004503351 0.076338336 0.15700313 0.07740981 6e-45
0.14011048 0.16118486 0.10526328 0.33836445 0.088065095 0.10511025 0.049324512 0.13329823
0.044297513 0.038550064 0.143131 0.17282768 0.06390354 9.7715655e-11 0.09800817 0.04084477
0.01972994 0.10617831 6e-45 0.14068697 0.09641708 0.18218717 6e-45 0.057993665
0.0883052 0.031697277 0.015199486 6e-45 0.1352216 0.01127003 6e-45 0.17279735

fc2.weight f4 [256, 64]
00000000: 0d5f 923d 7a68 4f3d f97e a2bd 6cc3 843d
00000010: 8016 483d b02a 773d f1bb 493d e1a4 a1bd
00000020: 0076 543d 764c dd3d 27b1 e2be 534f 513d
00000030: 8ef8 e5bd 2060 723d fde2 98bd 7968 b1bd
00000040: 8158 873e add1 dabd 5956 05bd 8854 ee3d
00000050: 16f6 333e 6e6a 163e 310b d13d 5f87 a33d
00000060: 2ecb 00be f07a 25bd dbbb 2cbd 6625 013e
00000070: 6b39 183d 6564 dbba a2a8 c9bd 7c02 d7be
00000080: d354 6fbd c2fb fcbd f716 b03d e932 333d
00000090: f12c 04be 4518 e3bc 38c3 7c3d 8d37 b4bd
000000a0: b630 a93d 76b3 8a3d 02ac 5dbd 3aae ac3d
000000b0: a8ea c63c bc3c c83b f67b 19be 02c5 b4bb
000000c0: 4a8b 3e3e 8921 073d c86c 4bbe e8fb 20be
000000d0: 6ab2 023e a207 0abe e892 15be 0841 5d3d
000000e0: 6243 71bd b5f3 233d ae44 a4bd e56a 013f
000000f0: 6f23 4abe 88f7 953d 12fd f43e a24d ca3c
00000100: c8d1 313d a03d d0bd 3a92 bfbd 9cf7 e8bd
00000110: fae0 a03c 0787 22bd 492e 42bc 97da 2abe
00000120: e867 083e 8ae0 8cbd c01a 81be efc4 f1bb
00000130: 17e5 bd3c d11f 533e 2766 06bd d20e 6e3d
00000140: a11a 23bd 8b5b bcbd f690 0bbd b479 d4bc
00000150: bc4c 82bd c4ad f6bd b065 6dbd dc9c 9c3c
00000160: 002f 10be cc36 7ebd 825d 34be d177 cf3d
00000170: 44df 5f3c a7b2 7bbd 9644 01bd 9263 c8be
00000180: 1a59 05bd 170b 40be bad7 1cbd 896e a2bd
00000190: 8eef 5fbd 8543 343d 4ec7 8dbd 06fb 5ebe
000001a0: 679a a53d a0a5 923d d36a 253d e20e 193d
000001b0: a66c ffbc 124e 14bd 1fc1 98be bb21 febd
000001c0: 0d89 143e e4ea 57be 5c6d 59be 8200 9f3d
000001d0: 969e d63d 154c 88bd 75e5 bd3d 5cb7 ea3d
000001e0: c8a3 713c af5b 4f3c c234 54bd e066 843e
000001f0: 50f7 74bd 9507 473e 4633 503e 52dd 8ebe
00000200: a185 083e d43c 8d3d 60e4 f13d c07c 413e
00000210: f4b2 d03d 7583 fb3d d56c 083e 898b bb3d
00000220: dc76 98bd 7523 a4bc 1ccc 623d f3c2 c93d
00000230: 687b 623d 1331 bb3b 49e4 d5bd 88c5 8f3a
00000240: 64eb a6bd c3da 1d3e 71bf aa3c 6573 443c
00000250: ca5c b3bc 882b e2bd 28e9 8b3d 175e c53d
00000260: 7f05 f93c 0b1d 023e 0ce3 8b3d 1be0 0b3e
00000270: 9a29 d73c 6cda 1fbe 0bdf d93d 74f1 bc3e
00000280: 4f32 e5bc 4c1d d6bc cbbb 773d 8c6c d6bd
00000290: fbf8 c93d f561 8b3d 1878 9fbd 6616 5b3d
000002a0: d237 893d dde3 b23d 2de3 703d da6c debd
000002b0: 3ca8 233d aba8 073e 8e77 6d3d d3dc f6bb
000002c0: d216 093e c728 abbd ab50 213e 0269 c63d
000002d0: d3bc b03d 74c7 8abd 7f55 323e 5b09 d7bb
000002e0: e9b5 e83d d6f2 623b a7dd afba f2ad bbbe
000002f0: 352f 73bd 4e01 ffbc 630c 94be 1b79 0d3e
00000300: 3cdd 38bd 1534 073e 67da 3abe bef4 8ebc
00000310: 3dbf 82bd b771 d23d 59e0 7b3e f2d6 7a3e
00000320: cc5a 2fbe 0ecc 8cbd 685f c1bd ba0c 3fbd
00000330: 0cf5 983c 37fe 4e3d fa16 f9bd 419d 26bd
00000340: 4a33 bc3e c97e c9bd a15e 40bd ac1b 3cbd
00000350: 785c 543c 8ab2 80be 219b b3bd ebde b73d
00000360: 1bc3 863b 8e31 5abd 5191 0bbd ed46 4cbd
00000370: a9bc 893c 0774 ae3d e6ff c53d 5f75 5c3e
00000380: 3f7d 033d fda1 263e 051b 91bc 7c91 b03c
00000390: e74f 063e 6a0f d8b9 7700 1cbd 02aa d63d
000003a0: 7d5a 12be 83fb 7b3c c17b 54bd 12bf e43d
000003b0: 75df 14bd 9af8 a03b 5c02 113e 75f6 f6bc
000003c0: 4490 afbc 7bcc d33b 0b55 883d f5e5 df3d
000003d0: 9283 283e b370 8c3d abdb 813c 8dcb f53d
000003e0: 2180 d43d 1fad 8d3d 3c81 ad3d 72ed c1bd
000003f0: 10a6 9e3d 69fa 74bc 47b9 65bc 25a3 993c
0.07147036 0.050636746 -0.07934374 0.06482586 0.048849583 0.060343444 0.0492515 -0.07892776
0.051870346 0.108055994 -0.44275782 0.05110104 -0.11229049 0.059173703 -0.074651696 -0.08662505
0.2643471 -0.10684524 -0.03255305 0.11637217 0.17574343 0.14689037 0.10207213 0.07984804
-0.12577507 -0.040400445 -0.04217134 0.12611923 0.037164133 -0.0016738294 -0.09846617 -0.41994083
-0.058430504 -0.123527065 0.0859813 0.043749724 -0.12907769 -0.027721534 0.061709613 -0.08799658
0.08261244 0.06772511 -0.054119118 0.084316686 0.024281815 0.0061107557 -0.14988694 -0.005516649
0.18607822 0.032990966 -0.19865716 -0.15721095 0.12763372 -0.13479474 -0.14606822 0.054017097
-0.058902152 0.04002734 -0.08020912 0.50553733 -0.1974008 0.073226035 0.47849327 0.024695221
0.043412954 -0.10168004 -0.093540624 -0.11375353 0.019638527 -0.039679553 -0.011851856 -0.16684948
0.13320887 -0.06878765 -0.2521572 -0.0073782126 0.023180528 0.20617606 -0.032812264 0.058119603
-0.039820317 -0.09197148 -0.034073792 -0.025936939 -0.06362292 -0.12044862 -0.057958305 0.019117765
-0.14080429 -0.062063977 -0.17613795 0.10130275 0.0136640705 -0.061449673 -0.03155955 -0.39138466
-0.032555677 -0.1875423 -0.03829167 -0.07931239 -0.054671817 0.044009704 -0.0692278 -0.21775445
0.080860905 0.07160497 0.04038508 0.03736771 -0.031179737 -0.036207266 -0.2983484 -0.12408777
0.14505406 -0.21085697 -0.21233124 0.07763769 0.104794666 -0.066551365 0.09272281 0.11460754
0.014748521 0.012656136 -0.051808126 0.25859737 -0.059806168 0.19436486 0.2033206 -0.2790323
0.13332225 0.06896368 0.11811137 0.18895245 0.101903826 0.12280933 0.13322766 0.091574736
-0.074445456 -0.020036438 0.055370435 0.09851637 0.05529347 0.005712637 -0.104439326 0.0010968903
-0.08150366 0.15415482 0.02084324 0.011990403 -0.021894831 -0.11043459 0.068315804 0.09637087
0.030398129 0.12706392 0.06830415 0.13659708 0.026264954 -0.15610665 0.10638245 0.36902964
-0.02797809 -0.026137017 0.060481828 -0.104699224 0.098619424 0.06805793 -0.07786578 0.053488158
0.067001 0.08734868 0.0588104 -0.108606055 0.039955363 0.13247935 0.057975344 -0.0075336485
0.13387612 -0.08357387 0.15753429 0.096879974 0.08629765 -0.06776324 0.17415427 -0.0065623946
0.113628216 0.0034629605 -0.0013417498 -0.36656147 -0.059371192 -0.031128552 -0.289157 0.1381573
-0.04513286 0.13203461 -0.18247376 -0.017450687 -0.06384132 0.10275596 0.245973 0.24496058
-0.1712448 -0.06874858 -0.094420254 -0.046642996 0.018671535 0.050535407 -0.121625856 -0.040677313
0.3675788 -0.098386355 -0.046965245 -0.045924827 0.012961499 -0.25136214 -0.08769823 0.08978065
0.004112614 -0.053269915 -0.03407413 -0.049872328 0.016813593 0.08518224 0.096679494 0.21529149
0.032101866 0.16272731 -0.01771308 0.021553747 0.13116418 -0.00041210215 -0.03808638 0.10481645
-0.14292331 0.015379789 -0.051875833 0.11169256 -0.036345918 0.004912448 0.14161056 -0.030146817
-0.021431096 0.006463585 0.06656846 0.10932533 0.1645644 0.06857433 0.015851816 0.12001715
0.10376001 0.06917786 0.08471915 -0.09469117 0.07746518 -0.014952281 -0.014021224 0.018754551

fc2.bias f4 [256]
00000000: 3234 a43e d30b 673e c1ba 59be be71 a63c
00000010: 2d17 94be 29e6 6ebc 227d 16be f4ce 70be
00000020: 2e5e 75be 7f02 b43e 4019 8dbe ada0 b3be
00000030: 18b4 b63e 84f9 413e a437 54be 24b7 60be
00000040: 0946 5cbe dfa1 19be 657c 6ebe 5bcd a83e
00000050: d30b 673c 40bf 88be b521 87be a251 8c3e
00000060: 3819 9d3e fdd5 3b3e b833 acbd 63cf 33be
00000070: ea2f 8a3e 5486 84be f0a9 6dbe eb6e 5cbe
00000080: e4ca 55be c87e 0abe cbee 8ebe ea87 b33e
00000090: f4e4 ae3e e976 29be bd13 03be 0ee6 cb3e
000000a0: 1ccf 8dbe bff7 a1be 76ff bf3e f7cb 77be
000000b0: fb16 7e3e 6dd5 43be bd5d da3e 71a1 693d
000000c0: f181 9abe 4d38 fdbd 0291 7cbe f9d6 54be
000000d0: 4d94 613e cfb7 5abe 6631 d63e 2950 3cbe
000000e0: f20c 08be 6208 1fbe f36b 353d a8e6 66be
000000f0: 3f5d afbd c099 91be 190a 45be 8b8d f0bd
00000100: 7100 42bd 7d24 99be 3d65 90bc 6be7 03be
00000110: d2b3 8fbe 7ead f53c bedc 993e 1498 e53e
00000120: df50 3abe efdc 53be 1596 7bbe ce0c bb3d
00000130: 5a55 9ebe a8a4 5fbe cba6 593e 8508 8d3e
00000140: a2c4 71be c1c6 433e 1e18 95be e985 fbbd
00000150: 7404 9bbe a5aa c43b 3c86 073e 42e6 a33d
00000160: 3faa 0cbe 8f2e c43d 49e2 13be 7cd2 7cbd
00000170: 3a1a 44be e3ff da3e 99f8 ac3e 52b3 80be
00000180: 59c0 223c 2fcb 8f3d d4d1 03bc 7d96 54be
00000190: 0e67 26be e234 8ebe e4e8 8a3e 831f 713e
000001a0: 4a18 8c3d 29e8 4cbe 730d b73e c05a 58be
000001b0: 68fa 77be eeb4 f7bd a85c 4a3e ca0b 1cbe
000001c0: 713e c4bd bb7e b73e 0466 07be 443c 1bbe
000001d0: c0af abbe 6cb1 4e3e 1afa e33e ce02 84be
000001e0: 5b43 99bd efe2 a3be ba01 3cbe f067 2cbe
000001f0: 814c 073e 49f4 18be 33a4 59be 8946 463b
00000200: fd57 c53b 0ecd 80be 313e 0fbe ec82 5bbe
00000210: a721 b73e f5c0 b23e bead b23d 582f 7fbe
00000220: c033 7fbe 16ad 4cbe 8468 a33e c947 36be
00000230: 0580 863d f45a 4ebe c7ca fabd 26c8 7bbe
00000240: 7606 edbb bcd5 70be 0fdc cf3d 4b2c 65be
00000250: 03d0 39be 9740 81be 4a4a dd3e 694b 4a3e
00000260: 16c0 99be 723b 6abe b46b f4bd 9644 8d3e
00000270: adad 8cbe e70c 30bd 4c78 33be 738d 18be
00000280: 0eba 91be 5858 843e df71 7abd ed81 acbd
00000290: 5a44 92bd 6a6b b7be 764d 9e3e 6910 a2be
000002a0: 970c b53d 8b34 8bbe a1d1 29be 2b45 2ebe
000002b0: e01a dbbd 2444 83be 6a89 cf3d 4b2c 28be
000002c0: 489d 3b3c eb16 a73e 67db 53be ebb4 29be
000002d0: 50bc 943c 1cd9 7fbd 358d 8cbe e731 9abe
000002e0: 3abb b73e d9ed 32be 7ccf a23e 0112 5ebe
000002f0: e2cc 35be 1abc 87be 9c5c 45be 6dfa 79be
00000300: 9566 82be 4b52 94be f758 9b3b 40b1 4dbe
00000310: add7 e0bd 295a 6e3e 375b 8abe 5356 5dbe
00000320: 3be4 8b3e eba7 cf3b 9c1d b03e 1803 d3bd
00000330: 72d9 113e 3437 33be 3324 25be a936 2abe
00000340: bc37 1bbe 4784 573e 1e83 953d 4468 c93c
00000350: 5ece 90be 28e9 2abe 70b1 07be 77c7 be3e
00000360: 8d1f b43d bbfe ab3e b852 10be a746 6cbe
00000370: 2cf5 17be 2700 d5bd f60f 83be 980c 803e
00000380: ba18 5dbe 3f78 b53d 6aa4 10be d9f1 0f3e
00000390: 7ed1 2bbd a6a9 903d 192b 93ba 03b6 e6bd
000003a0: c195 d83d 6680 253e e43b 83be 59f4 0fbe
000003b0: a96e 87be 4799 17be b70b 4bbe 9ef1 95be
000003c0: b61b 7bbe df02 26be cd97 1b3e 0c7b 57be
000003d0: 332e 5ebe 8ced 0cbe 265d 54be 43ac 833e
000003e0: 6c68 98be 8a6a 863d e47b 9bbe 19dd 9fbe
000003f0: 80be 22be fa77 27be c411 94be 0cd3 bbbe
0.32071072 0.22563104 -0.21262647 0.020317908 -0.28923932 -0.014581242 -0.14696172 -0.23516446
-0.23961708 0.35158154 -0.27558327 -0.35083523 0.35684276 0.18942839 -0.2072435 -0.21944863
-0.21511091 -0.15003155 -0.2328964 0.32969174 0.01410194 -0.26708412 -0.26392904 0.2740603
0.30683303 0.18343349 -0.08408302 -0.1755958 0.2698968 -0.25883734 -0.23209357 -0.21526687
-0.20878178 -0.13524926 -0.2791656 0.35064632 0.34159052 -0.16549267 -0.12800498 0.39823955
-0.27697074 -0.31634328 0.3749959 -0.241989 0.24813454 -0.19124384 0.42649642 0.05703873
-0.30177262 -0.12364254 -0.24664691 -0.2078513 0.22029229 -0.2135918 0.41834563 -0.18389954
-0.13286188 -0.15530542 0.0442924 -0.22548926 -0.08562707 -0.28437614 -0.19242133 -0.11745747
-0.047363702 -0.2991065 -0.0176264 -0.12881248 -0.2806688 0.029989954 0.30051225 0.4484259
-0.18194912 -0.20689748 -0.2456897 0.09133302 -0.30924493 -0.21840155 0.21255033 0.27545562
-0.23610166 0.19118787 -0.29119962 -0.12281401 -0.30276835 0.0060017877 0.132348 0.080029026
-0.13736819 0.09579193 -0.1444179 -0.06172417 -0.1915063 0.4277335 0.33783415 -0.2513681
0.009933555 0.07021176 -0.008045632 -0.20760532 -0.1625025 -0.2777472 0.27130806 0.23547177
0.0684057 -0.20010437 0.35752448 -0.21128368 -0.24216616 -0.120950565 0.19761908 -0.15238872
-0.09582222 0.35838875 -0.1322251 -0.15159708 -0.33532524 0.20184869 0.4452675 -0.2578339
-0.0748355 -0.32009074 -0.18360034 -0.16836524 0.13212778 -0.14936937 -0.21254043 0.0030254445
0.006022452 -0.25156444 -0.13988568 -0.21436661 0.35767862 0.3491284 0.08724545 -0.24920404
-0.24922085 -0.19987902 0.31915677 -0.17800821 0.065673865 -0.20151883 -0.12245708 -0.2458807
-0.007233436 -0.23519033 0.10149395 -0.22380178 -0.18145756 -0.2524459 0.4322074 0.19755329
-0.30029362 -0.22874239 -0.11934605 0.2759139 -0.27476254 -0.042981055 -0.17526358 -0.14897709
-0.2846226 0.2584865 -0.061143752 -0.08423219 -0.07141943 -0.35824138 0.30918473 -0.31653145
0.08840292 -0.27188525 -0.16583873 -0.17018573 -0.106984854 -0.25637925 0.101336315 -0.16423146
0.011451073 0.32634673 -0.20689164 -0.16572921 0.0181562 -0.06246291 -0.27451482 -0.30116197
0.3588503 -0.17473544 0.31798923 -0.21686555 -0.17753938 -0.26510698 -0.19273609 -0.24411936
-0.2546889 -0.28969035 0.00474083 -0.20087147 -0.10978637 0.23276581 -0.27022716 -0.21614961
0.27322564 0.006337156 0.3439759 -0.103033245 0.14243105 -0.17501527 -0.1612709 -0.16622414
-0.1515798 0.21046554 0.07300399 0.02458585 -0.28282446 -0.16690505 -0.13251281 0.37261555
0.0879508 0.3359278 -0.14094055 -0.23073827 -0.1483962 -0.1040042 -0.25598115 0.25009608
-0.21591464 0.08860826 -0.14125219 0.14057101 -0.041947834 0.07063608 -0.0011228054 -0.11265185
0.10575438 0.16162261 -0.2563163 -0.14058055 -0.26451614 -0.14804564 -0.19828688 -0.29285902
-0.2452229 -0.16212033 0.15194626 -0.21043032 -0.21697311 -0.13762492 -0.20738658 0.25717363
-0.29767168 0.065632895 -0.3036796 -0.31223372 -0.15892982 -0.16354361 -0.28919804 -0.36684453

bn2.weight f4 [256]
00000000: 7fd5 a23f c9d6 a23f 1c1a 9a3f b2ce a03f
00000010: e6b5 b43f ce5d ae3f 1b71 bf3f 61d0 a23f
00000020: 7351 a13f 53f4 a83f 22b8 963f 39ce a13f
00000030: 1dbd 963f 81aa aa3f b5c7 b43f 4a14 a23f
00000040: 227e a73f 04f7 b43f ab78 ae3f 9cfe a03f
00000050: b41a b83f 605a a83f 6d7b a03f 0c5f a43f
00000060: f644 9f3f d276 9e3f 81fd 893f 60a6 a83f
00000070: b3fe ae3f 19af ac3f 966c a23f 0613 b53f
00000080: 2e2e af3f 9d8b a43f a865 c53f ad74 a23f
00000090: 4369 9e3f 7221 a93f 07df b53f cb7e 9a3f
000000a0: 9e23 a43f d2f6 a43f 7626 a83f b6e3 9f3f
000000b0: 328e a73f da64 973f c58d 9c3f 8f64 be3f
000000c0: 5fd9 a33f 5a82 a13f cfa2 b13f d011 9e3f
000000d0: 56a9 9e3f e966 8c3f c812 9e3f cb6b ae3f
000000e0: 87da ac3f 54b0 a73f 9c60 a33f 957f 9a3f
000000f0: 6e7b af3f 37d7 af3f 2cb0 963f d3ce 9c3f
00000100: c886 9d3f cb9a c03f 0444 af3f 3e71 9c3f
00000110: 46b6 a63f be74 bb3f 3674 973f 2324 9e3f
00000120: ad74 ad3f 07ac 9a3f 82c8 a33f 51be a93f
00000130: e30e c23f 04a6 a43f 9528 9e3f 649d 9f3f
00000140: ca8e 913f a704 a63f 62e9 a23f 3c44 9d3f
00000150: 0343 cd3f c2c6 b63f 479f b43f 039e a03f
00000160: f3b1 973f c520 ad3f 913b a33f 2757 a83f
00000170: c890 b23f 1e7d 9a3f 54a8 993f 1934 993f
00000180: 40d3 a93f f5c3 a53f dc7a 9d3f 0ead a13f
00000190: a102 b93f 278a ad3f 3ee2 9d3f c8ff a63f
000001a0: bc72 a73f 313d 9d3f 7356 973f a1a9 b03f
000001b0: 7fc8 9b3f 2604 a43f 891b a03f 732d b13f
000001c0: 25f4 b63f 8081 a73f afcd a23f 6647 973f
000001d0: 9ef4 993f 0417 9d3f a818 8e3f e7eb a23f
000001e0: 2dd0 9b3f 5514 9f3f 1446 b83f 8610 ac3f
000001f0: 3f3b a43f cc57 ad3f 1b31 a03f b6c4 a33f
00000200: e15c b83f 5b4c a33f a70d ac3f fd6f a83f
00000210: ecba a23f c30f 9d3f faf8 a03f c39c a53f
00000220: 5918 a83f 938b aa3f c3b4 b33f 8a29 a43f
00000230: 460e a23f da51 ac3f f93a a13f 6a84 993f
00000240: faf4 b73f 52e8 b33f d541 9b3f e69a 9a3f
00000250: fda0 b63f 6e9d a33f 95bd a13f 327a 9f3f
00000260: a893 b23f 32ce a13f 5284 ab3f 0c90 9e3f
00000270: bdfb a23f 8476 8b3f b214 ac3f 976e ae3f
00000280: b970 b93f d202 ab3f 3882 ac3f e268 a53f
00000290: 9e00 9c3f 2b66 ad3f 24a0 a43f 5eef 9c3f
000002a0: ec96 a83f 0004 a43f 6595 ab3f d382 b23f
000002b0: 631a a63f e5aa a53f 2a91 a13f 509d a13f
000002c0: 7d01 b33f 85b2 a53f 95fe aa3f 9783 a93f
000002d0: ab97 d33f 5734 983f 9a4a a83f e799 ab3f
000002e0: 1895 a63f 726a 9b3f 2c54 993f 4202 b63f
000002f0: 380e 993f 68ff a93f 0097 a33f 9bd0 9e3f
00000300: 4022 a83f ad52 af3f ac46 b93f 614c a83f
00000310: 31e1 9b3f 51ec a63f 91c5 ad3f 626b a13f
00000320: c148 8c3f 0f1f a83f 6ee0 b73f 7ee1 873f
00000330: ce60 a03f 0a8a ad3f 10a1 b53f b1ab 9e3f
00000340: d418 c93f 12f6 973f 4225 a73f 1490 a33f
00000350: 27df 973f 13a7 b83f 84f7 c23f 5021 9b3f
00000360: 4f2d 9c3f 4e17 9f3f aafa b23f a4d6 b83f
00000370: bc6b 953f b6c9 b03f 433c 8d3f 9b0f a63f
00000380: 7e0f c03f fcbf a63f 16ad 9c3f 54c0 e33f
00000390: 05f0 a13f 960f ab3f 6c83 ca3f c6ca bb3f
000003a0: 5844 a33f c44d ac3f 2742 bf3f 4ea0 9c3f
000003b0: 7585 973f 6e37 a73f 4491 a43f 4aff 9d3f
000003c0: 07b9 a73f 1c16 9b3f 6a0f 9f3f 77cc 9f3f
000003d0: 6484 a83f d66a ac3f dcc3 a13f eacf 9a3f
000003e0: d47d a13f 8281 a73f b651 a53f 3eac a53f
000003f0: 21f5 af3f da4c a63f 90d2 9b3f 00b8 9d3f
1.2721404 1.2721797 1.2039218 1.2563078 1.4118011 1.3622377 1.4956392 1.2719842
1.2602981 1.3199562 1.1774943 1.2641059 1.1776463 1.3333284 1.4123446 1.2662442
1.3085368 1.4137883 1.3630575 1.2577701 1.4383149 1.315258 1.2537667 1.2841506
1.244292 1.2380011 1.0780488 1.3175774 1.3671478 1.3490936 1.2689388 1.414643
1.3685968 1.2855107 1.5421648 1.2691857 1.2375873 1.3213332 1.4208688 1.2069944
1.282337 1.2887824 1.3136737 1.2491367 1.309027 1.1827652 1.2230765 1.4874438
1.2800711 1.2617905 1.387781 1.2349186 1.2395427 1.0968906 1.2349482 1.3626646
1.3504189 1.3100686 1.2763858 1.2070185 1.3709543 1.3737553 1.1772513 1.2250618
1.2306757 1.5047239 1.3692632 1.2222059 1.3024375 1.4645002 1.183234 1.2354778
1.3551232 1.2083749 1.2795565 1.3261205 1.5160793 1.2863164 1.2356135 1.2469907
1.1371701 1.297017 1.2727473 1.2286448 1.6036075 1.4279406 1.4111108 1.2548221
1.1851181 1.3525625 1.2752553 1.3151597 1.3950434 1.2069433 1.2004495 1.1969024
1.3267593 1.2950426 1.2303119 1.2630937 1.4453927 1.3557786 1.2334669 1.3046808
1.3081889 1.2284299 1.1823257 1.3801767 1.2170562 1.2813766 1.2508403 1.3841995
1.4293257 1.3086395 1.271902 1.1818664 1.2027776 1.2272649 1.1101274 1.2728242
1.2172905 1.242808 1.4396386 1.3442543 1.283058 1.3542418 1.2514986 1.2794406
1.4403344 1.2757677 1.3441666 1.3159176 1.2713294 1.2270435 1.2575982 1.2938465
1.313243 1.3323845 1.4039539 1.2825177 1.2660606 1.3462479 1.2596122 1.1993535
1.4371636 1.4055274 1.2129465 1.2078521 1.426788 1.2782419 1.2635981 1.2459166
1.3951311 1.2641051 1.3399756 1.238771 1.2733074 1.0895543 1.3443816 1.3627499
1.4487525 1.3360236 1.347724 1.2922633 1.2187688 1.3546804 1.2861371 1.2260549
1.3171058 1.2813721 1.3404967 1.3946174 1.2976803 1.2942778 1.2622426 1.2626133
1.3984829 1.2945105 1.3358942 1.3243283 1.653066 1.1890973 1.3147767 1.3406342
1.301425 1.214186 1.1978812 1.4219439 1.1957464 1.3281069 1.2780457 1.2407411
1.3135452 1.3697106 1.4474692 1.3148309 1.2178098 1.3040868 1.3575917 1.2610896
1.0959703 1.3134478 1.4365366 1.061569 1.2529542 1.3557751 1.4189777 1.2396146
1.5710702 1.187197 1.3058245 1.2778344 1.1864976 1.4425987 1.5231786 1.2119541
1.2201327 1.2428987 1.3982747 1.4440503 1.1673503 1.3811557 1.1034015 1.2973512
1.5004728 1.3027339 1.2240322 1.7793069 1.2651373 1.3364131 1.5821357 1.4671257
1.2755232 1.3461232 1.4942063 1.2236421 1.1837603 1.3063791 1.2856832 1.2343533
1.3103341 1.2116122 1.2426579 1.2484273 1.3165402 1.3470104 1.2637897 1.20947
1.2616525 1.3086398 1.2915561 1.2943189 1.3746682 1.2992203 1.2173634 1.2321777

bn2.bias f4 [256]
00000000: 8fcb 093f f7cd 3f3f 53e4 39bf 62c7 4bbf
00000010: 9d25 d5bc 8a7c c13e 6a91 a23e 6339 60bf
00000020: 7b18 58bf 7262 163f 3cde 2bbf cec0 3dbf
00000030: b32f 063f ace6 633f c22e 24bf e510 39bf
00000040: 64f6 30bf a1d7 1ebf ef11 03bf 51fc 073f
00000050: 902e 933f b58d 0ebf 2071 35bf dfd2 393f
00000060: 3d44 113f 2510 463f 1ea2 44bf 9692 40bf
00000070: ccf3 0f3f 2c3b 42bf 038f 2bbf baa4 bfbe
00000080: d0d6 40bf c25b 50bf 9356 7c3e f2c4 ff3e
00000090: aa67 e73e 8773 30bf 0091 563f 2198 0f3f
000000a0: ecc4 2fbf dd33 4dbf eb4c 113f 4d76 3dbf
000000b0: 9e60 d43e 7a2e dabd 0f1d 143f 23a9 873f
000000c0: 2463 30bf cb84 f0be a626 f33e c768 36bf
000000d0: bd8e 9c3e db33 3bbf 30c0 f53e 4645 3cbe
000000e0: ad46 773f 6e40 27bf 67d6 203f 8793 85bf
000000f0: 09ab 833e 1de0 37bf 52be 3fbf e84c 2dbf
00000100: aea2 24bf e576 33bf 506d 34bf e652 3cbf
00000110: 7c50 32bf ca71 56bf b239 1f3f be60 313f
00000120: 8fb1 38bf ccd8 3bbf 9f53 35bf 74fe 4b3f
00000130: 3a99 0cbf 8d45 3cbf e649 043f f9f3 783e
00000140: 5f51 3cbf 1f7e 333f 6e1e 3dbf cb09 2bbf
00000150: 8e62 19bf c055 9b3e 44f9 883f 2d67 0c3f
00000160: d00e 20bf 48a9 7b3f e500 28bf f9a9 12bf
00000170: 0427 26bf bd19 e63e b0ff 0f3f 329b 46bf
00000180: 21b3 40bf 5b39 143f b06a 4cbf b9a8 2cbf
00000190: c211 ec3c 19e3 27bf 506b e23e 60a5 1c3f
000001a0: eecb 043f 487e 30bf 6c83 193f 3754 88be
000001b0: 7f5d 3cbf 3050 38bf d2e6 983e 94d7 d53e
000001c0: 845f 37bf 8d8f 0f3f d72d 80bf 4393 3dbf
000001d0: 0d02 43bf c7be 383f 9717 203f 242d 92bf
000001e0: da27 4bbf 89bf 3cbf 08a1 023f 7591 8dbe
000001f0: a711 d63e 8763 1dbf cebe 48bf 633f 133f
00000200: 9165 e03e 56e0 46bf 9c2e 873e 84c2 43bf
00000210: 420a 253f 15c6 213f 294f d53e 65cf 58bf
00000220: 593b 46bf 01ed ddbe ac35 0d3f 293a afbe
00000230: 71c6 093f 118a 5dbf a710 35bf 2afa 46bf
00000240: 6ff8 963f 09d2 2e3e 33ec 213f 1df6 35bf
00000250: 2227 0dbf 97f5 37bf b6b9 0a3f 12c0 2b3f
00000260: 95e6 7abe d29b 11bf d7f6 61bf ca98 d93e
00000270: 28e4 3fbf 9b7a 4bbf 9da2 b33c 70a5 59bf
00000280: bdc8 ffbe 03ee f13e 4638 103f 4b6e 4ebc
00000290: 0e11 4dbf 97ae 32bf 32bb d13e b872 42bf
000002a0: 5079 103f f004 13bf 317c 2abf 4e48 8b3e
000002b0: be4c 9e3d ffb4 34bf e3d4 013f 69e2 8bbf
000002c0: 35f0 6ebc d78b c93e a80e 32bf ea18 32bf
000002d0: d24a 8e3f 23ac 4dbf ae6a 4abf 3f67 40bf
000002e0: fbe3 583f a028 08bf f145 203f c331 58bf
000002f0: 82fc 3ebf f83f 27bf 93e9 3ebf d567 36bf
00000300: 403e 33bf 1fc5 36bf 5e1a c43d ea5d 33bf
00000310: 9183 43bf b636 d9bc 4b13 4abf 7dae 47bf
00000320: f350 f53e b8b8 bd3e 32c5 edbc 2dc7 7cbf
00000330: 8bda 0e3f b530 2ebf aedb 0b3f 4aaf 38bf
00000340: 448c 48bf 2459 1c3f 90b2 753e 879e f63e
00000350: b3d0 4bbf 33ee 0ebe 252f d4be 554e 1e3f
00000360: e681 373f 6f4a 073f ae1f 26bf a8dc b1be
00000370: 59d5 29bf df64 46bf 2564 31bf b431 5a3f
00000380: e987 86bf 2903 fe3e 171e 14bf f5f5 a1bd
00000390: 255e 4ebf 78bf b13e b88c 11bf 78ed 36bf
000003a0: 69d1 da3e 8de6 3a3f 7718 4cbf 1b5b 45bf
000003b0: 9afc 3fbf d0a2 40bf 678a ee3e 4859 42bf
000003c0: bf43 2fbf af60 45bf 3d42 263f 1a05 bebe
000003d0: 572e 31bf a4f7 85bf 2bdc 55bf bd38 ec3e
000003e0: 22e5 53be cf83 e43e 5632 3cbf 3364 3fbf
000003f0: 382f fdbe f75f 42bf 98e2 1cbf d1a1 2dbf
0.5382623 0.7492365 -0.7261402 -0.7960111 -0.026018912 0.37790328 0.31751567 -0.87587565
-0.84412354 0.58743966 -0.6713598 -0.7412232 0.52416533 0.8902385 -0.64133847 -0.72291404
-0.6912596 -0.62047774 -0.5119924 0.5311938 1.1498585 -0.5568498 -0.7087574 0.7258739
0.5674475 0.77368385 -0.7680987 -0.7522367 0.5623138 -0.7587154 -0.67015094 -0.37430364
-0.7532778 -0.8139001 0.246424 0.49954945 0.45196277 -0.6892628 0.83815 0.56091505
-0.68659854 -0.8015726 0.5675799 -0.7400864 0.41479963 -0.10653396 0.5785684 1.0598491
-0.68901277 -0.46976313 0.47490424 -0.7125363 0.3057765 -0.73126 0.4799819 -0.183858
0.9659222 -0.65332687 0.6282715 -1.0435647 0.25716427 -0.71826345 -0.7489978 -0.67695475
-0.6431073 -0.70103294 -0.704793 -0.7356399 -0.6965406 -0.8376738 0.6219741 0.6928824
-0.7214593 -0.7337768 -0.7083072 0.7968514 -0.54921305 -0.73543626 0.5167526 0.24311818
-0.7356166 0.7011432 -0.73874557 -0.6681182 -0.5991601 0.3033886 1.070107 0.54844934
-0.625226 0.9830518 -0.65626365 -0.5729061 -0.64903283 0.44941512 0.56249523 -0.7758056
-0.7527333 0.5790002 -0.7985029 -0.6744495 0.028817061 -0.655809 0.44222498 0.6118984
0.5187367 -0.6894269 0.5996616 -0.2662675 -0.73580164 -0.71997356 0.29863602 0.41766036
-0.7163012 0.56078416 -1.0013989 -0.7405283 -0.76175004 0.72166103 0.62535995 -1.1420026
-0.79357684 -0.7372976 0.51026964 -0.27650037 0.41810343 -0.6147999 -0.78416145 0.57518595
0.4382749 -0.7768606 0.26402748 -0.7646868 0.6446878 0.63192874 0.41661957 -0.8469146
-0.7743431 -0.43344882 0.5516002 -0.3422406 0.5381842 -0.865388 -0.70728534 -0.7772547
1.1794566 0.1707231 0.63251036 -0.71078664 -0.55137837 -0.71859115 0.5418962 0.6708995
-0.24502023 -0.5687839 -0.8826727 0.4249938 -0.74957514 -0.79483956 0.021928126 -0.8501806
-0.4995784 0.472519 0.56335866 -0.012599538 -0.8010415 -0.6979765 0.4096313 -0.75956297
0.5643511 -0.5742941 -0.6659575 0.27203602 0.07729481 -0.7058868 0.50715464 -1.092847
-0.014583637 0.39364502 -0.69553614 -0.69569266 1.1116583 -0.80340785 -0.7906903 -0.7515754
0.8472287 -0.5318699 0.6260672 -0.8445093 -0.74604046 -0.65331984 -0.74575156 -0.71252185
-0.7001686 -0.7139453 0.09575342 -0.70065176 -0.7637263 -0.026515346 -0.7893569 -0.78000623
0.47913322 0.37054992 -0.029024694 -0.9874142 0.5580222 -0.6804307 0.5463208 -0.7214247
-0.7833903 0.6107352 0.23993897 0.48167822 -0.79615325 -0.13958053 -0.41442218 0.61838275
0.71682584 0.5284795 -0.6489209 -0.3473866 -0.6634117 -0.7749767 -0.69293433 0.8523209
-1.0510226 0.49611786 -0.57858413 -0.07908241 -0.80612403 0.34716392 -0.56855345 -0.714561
0.42737892 0.7300804 -0.7972483 -0.7709214 -0.74994814 -0.7524843 0.46589968 -0.7591748
-0.6846275 -0.7710065 0.6494482 -0.37113267 -0.69211334 -1.0466199 -0.83539075 0.46137038
-0.20692876 0.44631812 -0.73514307 -0.74762267 -0.49450088 -0.7592768 -0.61283255 -0.6782504

bn2.running_mean f4 [256]
00000000: bb80 f33f 7492 af3f 0400 0000 1dc3 8d3e
00000010: 0400 0000 3bb8 2c3e 5fe8 fd3e 9167 9c3e
00000020: ad2f 023e 18e3 0740 0400 0000 0400 0000
00000030: 68c4 cd3f b4c3 5d3f 96aa f93d 0400 0000
00000040: c0c6 9b3d 1318 cf3d 4069 d53d 3ab1 ed3f
00000050: a6d4 973f 13f1 c83d 0400 0000 e7bf 3c3f
00000060: ccf7 d63f cfe0 7a3f e2de 133e 0400 0000
00000070: 8236 153f 0400 0000 0400 0000 d87c 593e
00000080: 0400 0000 0400 0000 6fe6 ed3d 0741 e23f
00000090: f5b2 0440 0400 0000 3a23 713e 1d77 0440
000000a0: 9f01 3020 0400 0000 24a9 0440 0400 0000
000000b0: d875 ee3f 0dcf 083e f32b e23f 721f 093f
000000c0: 0400 0000 68b6 113e db40 0731 122a 753d
000000d0: 5944 773f 6ff1 613d e869 0a40 5b4f b33e
000000e0: 5864 4b3f ac65 333d 2fa8 723f 0400 0000
000000f0: e947 e03d 16a1 5c3d de8f 8f3e 8a07 f13d
00000100: 1b11 ca3d 800a 103e 008d b93d 8407 353e
00000110: 0400 0000 09e2 2c3e 88b3 b93f ce65 b63f
00000120: 76f2 223e f946 163e 0400 0000 09a5 593f
00000130: 0400 0000 0400 0000 2f44 813f 6c65 f93f
00000140: 0400 0000 589a d73f 0400 0000 85c7 2f3e
00000150: cf6a 5d3d f3ef a53e 778e 9b3f 7c0f e03f
00000160: ad85 b03d 3430 933f 8fcd 0300 e402 b53e
00000170: 8385 1b3e e867 0240 ce17 993f 0400 0000
00000180: 6950 293e 5414 353f 40e7 c93f b419 5d3e
00000190: d65a 4b3e 0400 0000 08b8 f23f 8797 bd3f
000001a0: 248a 923f 0400 0000 1e9e c83f 0400 0000
000001b0: e427 6f3e 1f4f 6f3e dab6 b73f ddf9 ce3d
000001c0: 95a1 af25 46a5 0d40 e960 e13e 5279 253f
000001d0: febb bc3d c558 c23f cf25 0040 83fd 9d3b
000001e0: 6282 f03e 0400 0000 237f 033e 0400 0000
000001f0: 892e d63f 289f 0f3e 0400 0000 1d52 a23f
00000200: 985f 573e 0400 0000 3c02 5d3e 0400 0000
00000210: aea2 ae3f 39b0 ec3f 90a5 ce3f 0400 0000
00000220: 0400 0000 82cc 583d 5c92 1040 0400 0000
00000230: 221c ab3f 61b8 ac39 0af8 383d 0400 0000
00000240: 944d 0c3f 7a94 493e 0751 833f 0400 0000
00000250: 0400 0000 1534 663e 1999 c83f 8d5e 903f
00000260: 0400 0000 0400 0000 7dba 063e fdb5 b93f
00000270: 0400 0000 c405 293f 1595 333e b87c 383e
00000280: 0400 0000 9bb8 0340 211f 333e 87fe 9d3d
00000290: d2c6 7b3f 0400 0000 c232 cf3f 0400 0000
000002a0: 6b68 4f3f 9011 d53d 3a44 2a3d 9148 f63c
000002b0: 991f a83d 0400 0000 c5f6 cb3f 8ab2 b33e
000002c0: 12a7 4d3e 98dd f73f 0400 0000 0400 0000
000002d0: ae65 703e 1c06 843e 0400 0000 efe8 3c17
000002e0: b29e 983f 205e a43c dc25 b13f d8d9 763e
000002f0: 5db1 c83e b395 4028 a010 723e 3d00 0000
00000300: 0400 0000 0400 0000 e759 5e3f 0400 0000
00000310: 58ea 093f 81cc c93f 0400 0000 0400 0000
00000320: fdb0 0140 6951 333f 3067 0940 3863 253e
00000330: eb3c bf3f 0400 0000 b212 1a3d cd6e f83d
00000340: 6d5d 173e f262 ba3f d579 133f 67d8 d33f
00000350: b7c7 3528 a2cf 433e 164a 1c3e 11d9 fb3f
00000360: 6e29 a33f 9959 1440 67f0 5c3e da4e a03d
00000370: 702e 443d d7d4 ce3e 0400 0000 46a7 673f
00000380: 6b5b c23d 7643 5e3f b083 8b3e 24fe 783e
00000390: 582f 743d ea44 113f 68b3 e73e f065 e23d
000003a0: 9000 aa3f 9614 b93e 148f dd3d b63e b03f
000003b0: b8be 4a3e 0400 0000 504d bd3d 0400 0000
000003c0: 0400 0000 623b 0000 174b a03f f753 e33d
000003d0: 1065 063d 6c90 e43d 0400 0000 f6c2 1940
000003e0: 4c70 173d 5d76 903f a93b 5a3d 0400 0000
000003f0: 9488 043e 18ee 343e 0400 0000 0400 0000
1.902366 1.3716569 6e-45 0.27687922 6e-45 0.16867153 0.49591348 0.30547765
0.127135 2.1232357 6e-45 6e-45 1.6075563 0.86626744 0.1219074 6e-45
0.07606268 0.10112014 0.104204655 1.856971 1.186177 0.09811606 6e-45 0.7373032
1.6794372 0.9799928 0.14440492 6e-45 0.582863 6e-45 6e-45 0.2123903
6e-45 6e-45 0.11616217 1.7676095 2.0734227 6e-45 0.23548594 2.06977
1.4908316e-19 6e-45 2.0728235 6e-45 1.8629713 0.13360234 1.7669662 0.53563607
6e-45 0.14229739 1.9681952e-09 0.059854575 0.96588665 0.05516189 2.162714 0.3502148
0.7944999 0.043798134 0.9478788 6e-45 0.10951216 0.05386456 0.2803945 0.11769016
0.09866544 0.14066505 0.09060097 0.17678648 6e-45 0.168831 1.4507914 1.4249818
0.15912804 0.14675511 6e-45 0.8501745 6e-45 6e-45 1.0098933 1.9484076
6e-45 1.6843977 6e-45 0.17165954 0.05405694 0.3240963 1.2152852 1.7504725
0.08619247 1.1499085 3.49247e-40 0.35353768 0.1518765 2.037592 1.196039 6e-45
0.1653458 0.70734143 1.5773697 0.21591836 0.1985887 6e-45 1.8962412 1.4811867
1.1448407 6e-45 1.5673254 6e-45 0.23355061 0.23370026 1.4352677 0.101062514
3.0467153e-16 2.2132125 0.4401925 0.64638245 0.09215544 1.518334 2.0023077 0.0048214807
0.46974474 6e-45 0.12841468 6e-45 1.6732951 0.14025557 6e-45 1.2681309
0.2103256 6e-45 0.21582884 6e-45 1.3643396 1.8491279 1.6144276 6e-45
6e-45 0.05292941 2.258933 6e-45 1.336796 0.0003294377 0.045158423 6e-45
0.54805875 0.19685546 1.0259103 6e-45 6e-45 0.22480805 1.5671722 1.1278855
6e-45 6e-45 0.13157077 1.4508663 6e-45 0.6602442 0.17537339 0.18016326
6e-45 2.0581424 0.17492343 0.07714563 0.9835025 6e-45 1.6187365 6e-45
0.81018704 0.104037404 0.041568972 0.0300639 0.08209152 6e-45 1.5934683 0.35097152
0.20083264 1.93645 6e-45 6e-45 0.23476288 0.2578591 6e-45 6.104008e-25
1.192343 0.020064414 1.3839679 0.24106538 0.39197817 1.0690602e-14 0.23639154 8.5e-44
6e-45 6e-45 0.8685593 6e-45 0.53873205 1.5765535 6e-45 6e-45
2.0264275 0.700461 2.146923 0.1615113 1.4940466 6e-45 0.037615485 0.121305086
0.14781733 1.4561446 0.57607776 1.6550416 1.0090825e-14 0.19122174 0.15262637 1.9675618
1.2747018 2.3179686 0.21576081 0.0782754 0.04789585 0.4039676 6e-45 0.90489614
0.09490093 0.8682169 0.27248907 0.24315697 0.059615463 0.5674578 0.45254064 0.11054599
1.3281422 0.36148518 0.108183056 1.3769138 0.19799316 6e-45 0.09243262 6e-45
6e-45 2.1303e-41 1.2522916 0.110999994 0.032811224 0.11160359 6e-45 2.4025245
0.03697233 1.1286122 0.053279553 6e-45 0.12942725 0.1766895 6e-45 6e-45

bn2.running_var f4 [256]
00000000: 3969 923e 41e6 c43f 0400 0000 cc89 bc3e
00000010: 0400 0000 ccfe b43d 2033 803f 6308 ea3e
00000020: d154 523e 3762 ab3d 0400 0000 0400 0000
00000030: 4a58 df3e 63a1 5b3f 7863 0d3e 0400 0000
00000040: 14f4 2c3d 8498 bc3d c367 ee3d f268 263e
00000050: adfd c43f dfd1 f23d 0400 0000 683d 343f
00000060: f3c0 f23f e078 503f 128f 2b3e 0400 0000
00000070: d7d5 a53e 0400 0000 0400 0000 b75f 933e
00000080: 0400 0000 0400 0000 f424 0a3e 6962 113f
00000090: d531 b43f 0400 0000 b1ed bb3d a893 0a3d
000000a0: 3fcb 501e 0400 0000 6f18 723d 0400 0000
000000b0: d1f5 4a3e 46e2 493e 7c49 2e3f 11b5 6f3e
000000c0: 0400 0000 378e 193e 06f6 592f 59a6 3b3d
000000d0: 2ce8 5f3f 73fd 8a3d e07a d83f 8d2e 1d3f
000000e0: 006b 043f 2053 1e3d 400f 703f 0400 0000
000000f0: 8735 363e 976e 6a3d ddd0 ae3e 4ba8 b43d
00000100: d819 f03c aab0 1e3e df40 e83c 06a1 b43e
00000110: 0400 0000 7e7c fc3c e6af ed3e ff26 983f
00000120: bb22 8b3e 9bb3 1e3e 0400 0000 93fd 203f
00000130: 0400 0000 0400 0000 26eb c63e d68b ae3f
00000140: 0400 0000 6a61 833d 0400 0000 32af 9b3e
00000150: dcdf 863d da91 e33e 866c 163f 3607 2c40
00000160: f372 8a3d 2a9d a13f ab12 0000 d639 b83e
00000170: 91fd 0c3e 57f0 6e3f 6b99 dd3f 0400 0000
00000180: 5bae cb3d ff0c f93e 5eee 5340 3060 873e
00000190: b2da 613e 0400 0000 ba20 aa3f dc8f dd3d
000001a0: dcd4 c83f 0400 0000 3b8a 693e 0400 0000
000001b0: b312 9d3e f41e 873e e66b bb3f 1426 f93d
000001c0: 683b b824 cd48 5d3e db5f 523f ced3 713f
000001d0: efed ba3d c4f2 843f 4915 c03e 3589 193b
000001e0: b616 8b3f 0400 0000 545b 133e 0400 0000
000001f0: a9d9 2540 32cc 143e 0400 0000 f8c4 f53f
00000200: 1785 de3e 0400 0000 9780 023f 0400 0000
00000210: 602c fd3d eeb8 d43d 186d 2040 0400 0000
00000220: 0400 0000 a4ab 8a3c d626 fc3c 0400 0000
00000230: 1b0d ea3f f99b 6b39 35da 293c 0400 0000
00000240: 2a0e c73e 709d a03e 9c80 4d3f 0400 0000
00000250: 0400 0000 4bc3 653e 7bb5 d03f dd25 753f
00000260: 0400 0000 0400 0000 87f2 343e 6355 043d
00000270: 0400 0000 79f4 133f b582 9a3e cb35 783e
00000280: 0400 0000 8f3e af3c afa7 9d3e 6b23 ff3d
00000290: 3307 c43f 0400 0000 d675 643f 0400 0000
000002a0: 05a1 533f ccd6 e53d fcd4 753c c7a8 d03c
000002b0: 1598 e43d 0400 0000 0c62 1e40 4083 023f
000002c0: a726 fe3c f227 cd3c 0400 0000 0400 0000
000002d0: a9fd 513d 0ab6 c03e 0400 0000 4989 d815
000002e0: 364a 923f 1759 dc3b 63af 0e40 c513 a53e
000002f0: 531d 333f 2f18 c725 93be a93e 0400 0000
00000300: 0400 0000 0400 0000 19ec 103e 0400 0000
00000310: e183 b23f aa65 2a3e 0400 0000 0400 0000
00000320: 72a6 853f d014 003f 1e89 103d 7609 853e
00000330: bd86 0e40 0400 0000 9282 d73b 08d1 473e
00000340: c3b0 953d 8f5a e13f 896e 953e 12b0 2840
00000350: 1b6d b125 5758 363e 1f8d fe3d 8e0e 963d
00000360: 3784 bb3f 49cb 153e 732a 403e db27 cb3d
00000370: 8a9e 2f3d 1b3f 5a3f 0400 0000 6b2a 153f
00000380: ca23 843d ece8 ec3e 4728 b43e e46c 6c3d
00000390: 00a6 773d 314a 0b3e 39aa c13d f3af 013e
000003a0: 8814 f13e a81e 963e d16e ed3d ee0f 3840
000003b0: b2df 993e 0400 0000 b96b ff3d 0400 0000
000003c0: 0400 0000 2307 0000 3401 b53f 3e0e f23d
000003d0: 8216 173d fb14 763d 0400 0000 9f59 a13f
000003e0: d52b 2d3d 6a56 683f c2de eb3c 0400 0000
000003f0: 1610 f13d daf3 383e 0400 0000 0400 0000
0.28595904 1.5382768 6e-45 0.3682388 6e-45 0.08837661 1.0015602 0.45709524
0.20540167 0.08368342 6e-45 6e-45 0.43622047 0.8579313 0.13807476 6e-45
0.04222496 0.092087775 0.11640885 0.16250971 1.5389916 0.11856436 6e-45 0.704062
1.8965133 0.8143444 0.16753796 6e-45 0.3238971 6e-45 6e-45 0.28783962
6e-45 6e-45 0.13490659 0.56790787 1.4077708 6e-45 0.091761954 0.033832222
1.1053459e-20 6e-45 0.059105333 6e-45 0.19820334 0.19715223 0.6808088 0.23408915
6e-45 0.14995657 1.982344e-10 0.04581294 0.8746364 0.06786623 1.6912498 0.61399156
0.5172577 0.038653493 0.9377327 6e-45 0.17793857 0.057234373 0.34143725 0.08821162
0.029309198 0.1549708 0.028351245 0.352791 6e-45 0.030821081 0.46423262 1.1886901
0.27174935 0.15498202 6e-45 0.62886924 6e-45 6e-45 0.3885128 1.3636425
6e-45 0.06415065 6e-45 0.304071 0.065856665 0.44447213 0.58759344 2.6879401
0.06760206 1.2626088 6.697e-42 0.35981625 0.13768603 0.9333548 1.7312444 6e-45
0.09945365 0.48642728 3.3114238 0.26440573 0.22056082 6e-45 1.3291237 0.108184546
1.568996 6e-45 0.22806637 6e-45 0.3067833 0.26390803 1.4642303 0.12165466
7.989792e-17 0.21609803 0.82177514 0.94463813 0.091274135 1.0386586 0.3751624 0.002342773
1.0866306 6e-45 0.14390308 6e-45 2.59141 0.1453102 6e-45 1.9200735
0.43460914 6e-45 0.5097746 6e-45 0.123619795 0.10386835 2.5066586 6e-45
6e-45 0.016927548 0.030780237 6e-45 1.828525 0.00022469451 0.010366966 6e-45
0.38877994 0.31370115 0.8027437 6e-45 6e-45 0.2243778 1.6305383 0.957609
6e-45 6e-45 0.17670642 0.032307994 6e-45 0.5779491 0.30177847 0.2423927
6e-45 0.021392135 0.30791995 0.12457927 1.5314697 6e-45 0.89242303 6e-45
0.8266757 0.1122261 0.015004393 0.025471104 0.1116182 6e-45 2.4747343 0.5098152
0.03102429 0.025043461 6e-45 6e-45 0.0512673 0.37638885 6e-45 8.74583e-26
1.1428897 0.0067244875 2.2294548 0.32241645 0.6996662 3.4537385e-16 0.3315321 6e-45
6e-45 6e-45 0.14152564 6e-45 1.3946496 0.16640344 6e-45 6e-45
1.044142 0.5003176 0.035287015 0.2598378 2.2269738 6e-45 0.0065768445 0.19513333
0.07309105 1.7605761 0.29185894 2.6357465 3.0778538e-16 0.17807136 0.124292605 0.07326995
1.4649724 0.14628328 0.18766193 0.09919711 0.042875804 0.8525254 6e-45 0.5826785
0.06452139 0.46271455 0.3518698 0.057721034 0.060461044 0.1360252 0.094562955 0.12664776
0.47085977 0.29320264 0.11593402 2.8759723 0.30053478 6e-45 0.12471718 6e-45
6e-45 2.56e-42 1.4140992 0.11819123 0.0368867 0.060078602 6e-45 1.2605475
0.04227813 0.9075686 0.028792743 6e-45 0.11770646 0.18061772 6e-45 6e-45
