model.pth (torch, 122235 bytes, 8 tensors)

gru.weight_ih_l0 f4 [192, 3]
0	0x3d757851	0.059929196
1	0x3e5b725e	0.21430346
2	0xbbae0560	-0.0053106993
3	0x3e265b2c	0.16245717
4	0x3ba6b9b6	0.0050880564
5	0x3d23b81c	0.039970502
6	0xbea7d186	-0.3277704
7	0x3cbf7ff3	0.02337644
8	0x3d0392c0	0.032122374
9	0x3e2d085b	0.16897719
10	0xbc99e3bf	-0.018785356
11	0x3cd3cb28	0.025853708
12	0xbdfc1ff2	-0.123107806
13	0x3e92a2f6	0.28639954
14	0x3d86fdce	0.06591378
15	0xbdd63ff3	-0.10461416
16	0xbe12b6f0	-0.14327598
17	0x3da78b50	0.081808686
18	0x3ce94b49	0.028478282
19	0x3dc80d32	0.09768142
20	0xbd2e9b68	-0.042628676
21	0x3c2b0414	0.010437984
22	0xbd70eb5a	-0.0588182
23	0xbda881a8	-0.08227855
24	0xbd960916	-0.07325952
25	0x3d5a3769	0.0532755
26	0x3dc5e098	0.096619785
27	0xbd429dc5	-0.047513742
28	0xbda52df3	-0.08065405
29	0x3d23c0ec	0.039978907
30	0x3c5e64e1	0.013573856
31	0x3e3a8686	0.18215379
32	0xbdecbf26	-0.11559896
33	0xbd7de932	-0.06198997
34	0xbd8e6ccd	-0.06954346
35	0x3d738cbc	0.059460387
36	0xbe6fc406	-0.23414621
37	0xbe24fa6f	-0.16111158
38	0x3dea7eea	0.11449988
39	0xbdd5a810	-0.10432446
40	0xbd880325	-0.06641225
41	0x3db186c2	0.08668281
42	0xbd9efa34	-0.07762566
43	0xbe12c380	-0.1433239
44	0xbdfbe6de	-0.12299894
45	0xbe1db34e	-0.1540043
46	0x3d31b924	0.043389454
47	0x3aecbc80	0.0018061548
48	0x3c821c0f	0.01588252
49	0xbe364a73	-0.17801838
50	0x3d456f48	0.04820183
51	0xbe0778b4	-0.13229638
52	0xbe0371db	-0.12836401
53	0xbc6a01b0	-0.014282629
54	0x3cab9844	0.02094663
55	0xbbb9032a	-0.005646129
56	0x3db35348	0.08756119
57	0x3d1259de	0.035730235
58	0x3c9721e6	0.018448781
59	0x3de55566	0.11197929
60	0x3e741f41	0.23840047
61	0x3e1a476a	0.15066305
62	0x3dcb5170	0.09927642
63	0x3c871d22	0.016493384
64	0x3c998e9f	0.018744765
65	0xbdbe469e	-0.09290813
66	0xbe439746	-0.19100675
67	0x3d9d7fe8	0.07690412
68	0xbd97e120	-0.07415986
69	0x3e338976	0.17532906
70	0x3e38b55e	0.18037936
71	0x3db9703e	0.090546116
72	0xbcb3b1b8	-0.021935329
73	0x3d22e4d3	0.039769005
74	0x3d707e94	0.058714464
75	0x3b9781db	0.0046236343
76	0x3e8700b2	0.26367718
77	0xbdc32f5a	-0.09530516
78	0x3e81436a	0.25246745
79	0x3cfdacb5	0.030966142
80	0x3dd0ce36	0.101955816
81	0xbd9e02fa	-0.077154115
82	0x3e8a35b6	0.26994103
83	0x3df9b3f8	0.121925294
84	0x3c57b891	0.013166563
85	0x3dfbd2dd	0.12296078
86	0xbdca89ee	-0.09889589
87	0x3d4ce434	0.05002232
88	0x3e0732e0	0.13203001
89	0xbc914ab8	-0.017735824
90	0xbda6e9ad	-0.08150039
91	0x3cff9ce5	0.031202743
92	0xbda782b6	-0.08179228
93	0x3cf3c61e	0.029757556
94	0xbe2c1b69	-0.16807331
95	0xbc0b1f30	-0.008491322
96	0x3d1e5600	0.038656235
97	0xbd1e4fda	-0.03865037
98	0xbd9f7c78	-0.077874124
99	0x3eea8140	0.45801735
100	0x3e9d1339	0.30678728
101	0xbc9e8528	-0.019350603
102	0xbca6dad6	-0.020368021
103	0xbcbd9bcd	-0.02314558
104	0x3da5b3d6	0.080909416
105	0x3d56b206	0.05241587
106	0x3e792145	0.24329098
107	0x3d96fdaa	0.07372601
108	0xbd5ff654	-0.054678276
109	0xbe546741	-0.20742513
110	0xbd4348f4	-0.047676995
111	0xbdc53212	-0.09628691
112	0xbd5169d9	-0.051126335
113	0x3aa5df00	0.001265496
114	0x3e20a3ed	0.15687533
115	0xbc0aaaac	-0.008463543
116	0xbdd5b732	-0.10435332
117	0x3d4c99b8	0.049951285
118	0x3d5ccbbd	0.053905237
119	0x3dda1a8c	0.10649595
120	0xbc8a5816	-0.016887706
121	0x3e53d05f	0.20684956
122	0x3d7c7784	0.061637416
123	0x3e856a7e	0.2605781
124	0x3d7d7d0d	0.061886836
125	0xbdb96a5c	-0.090534896
126	0x3dc8d5f5	0.09806434
127	0x3d6ce30a	0.05783371
128	0xbd2be0c4	-0.0419624
129	0xbc59a494	-0.013283867
130	0xbe16eaea	-0.1473805
131	0x3d472cd4	0.048626736
132	0xbb06b4d0	-0.002055455
133	0x3d67469c	0.056463823
134	0x3dca6520	0.09882569
135	0x3bb23dfa	0.005439517
136	0x3d831c94	0.06401935
137	0x3702c000	7.793307e-06
138	0xbdbf1b4c	-0.09331378
139	0xbd1e5106	-0.03865149
140	0x3d9eda90	0.07756531
141	0x3e450c62	0.19243005
142	0x3dbcd5c8	0.09220463
143	0xbdf479ee	-0.11937319
144	0xbc94f499	-0.01818304
145	0xbc0e001e	-0.00866702
146	0x3dd738f4	0.1050891
147	0xbe155aff	-0.14585494
148	0x3e065762	0.13119271
149	0x3c819660	0.015818775
150	0xbdbe4e5a	-0.09292288
151	0xbc034a6a	-0.008013347
152	0x3dd359ee	0.10319887
153	0x3dcb79fa	0.099353746
154	0x3c85a26e	0.016312804
155	0x3db6ac46	0.08919577
156	0xbe120ec8	-0.14263451
157	0x3e23edda	0.16008702
158	0x3dcea6cc	0.10090408
159	0xbe5f3eda	-0.2180132
160	0xbe602b3b	-0.21891491
161	0x3d4088fc	0.04700564
162	0x3cef6181	0.029221298
163	0xbd00ec78	-0.031475514
164	0x3db95738	0.09049839
165	0xbd4b9604	-0.049703613
166	0xbdbf73d3	-0.093482636
167	0x3daac9ee	0.08339296
168	0x3e5fcbde	0.21855113
169	0x3eb9367d	0.36174384
170	0xbcb018a0	-0.021496117
171	0x3dafbad7	0.08580559
172	0x3e166234	0.14685899
173	0x3d44c6b0	0.048041046
174	0x3c5fc99d	0.013658908
175	0x3c2e7117	0.01064708
176	0x3dc0a038	0.09405559
177	0xbd645bb7	-0.05575153
178	0x3aa663f4	0.0012694583
179	0x3cfb9a90	0.03071335
180	0xbd9a7fac	-0.07543883
181	0x3d59a296	0.05313357
182	0xbcf7ff70	-0.03027317
183	0x3eb90ab1	0.3614097
184	0x3e8af90e	0.2714314
185	0x3c653460	0.013989538
186	0xbeaddb10	-0.33956194
187	0xbe82e20f	-0.25563094
188	0x3ca22840	0.019794583
189	0xbdb0b4df	-0.086282484
190	0xbdaa2bbe	-0.083091244
191	0x3d6bb304	0.05754377
192	0x3df1672a	0.11787255
193	0xbddca340	-0.10773325
194	0xbab3d480	-0.0013719946
195	0x3e02cd69	0.1277367
196	0x3de01916	0.10942285
197	0xbd3e7d98	-0.046506494
198	0xbd1d5136	-0.038407527
199	0x3e0cf3a5	0.13764818
200	0x3ce63d70	0.028105468
201	0xbe5913d4	-0.2119897
202	0xbd947408	-0.07248694
203	0x3d9acfb4	0.075591475
204	0x3d801e10	0.06255734
205	0xbd5d54da	-0.054036
206	0xbdbb35ee	-0.09141146
207	0xbcf9d14c	-0.030495308
208	0xbc6df19b	-0.014522935
209	0xbc5f0240	-0.013611376
210	0x3db72cee	0.089441165
211	0xbe029e2e	-0.12755653
212	0x3c8cec60	0.017202556
213	0x3d1d9a64	0.038477316
214	0xbdce18e2	-0.1006334
215	0xbde504f4	-0.11182585
216	0x3ba60c20	0.0050673634
217	0xbbc296e9	-0.0059384
218	0x3de5f5c8	0.1122852
219	0xbde44c18	-0.11147326
220	0x3a504fca	0.000794646
221	0x3dbcf220	0.09225869
222	0x3d144ca1	0.03620589
223	0xbd092f7a	-0.033492543
224	0xbd1d5e94	-0.038420275
225	0x3d4e2ca0	0.050335526
226	0x3d7a6064	0.06112708
227	0xbdb9e46c	-0.09076771
228	0x3e62c755	0.22146352
229	0xbcfc266c	-0.03078004
230	0x3df69252	0.12039627
231	0xbc7ba38a	-0.015358815
232	0xbe2480da	-0.16064778
233	0x3df0fe3a	0.1176724
234	0x3d9a1720	0.07523942
235	0x3e14a106	0.1451455
236	0x3df0b6fc	0.117536515
237	0xbc74bfe2	-0.014938327
238	0xbda3d6b9	-0.079999395
239	0xbd6bad98	-0.0575386
240	0x3da2e147	0.079531245
241	0xbe037edd	-0.12841363
242	0xbd68e090	-0.056854784
243	0x3dc63cb9	0.09679551
244	0x3ddbbbfa	0.10729213
245	0x3d95f63c	0.07322356
246	0x3c80d2a6	0.015725445
247	0xbe3d3d7a	-0.18480483
248	0xbd535680	-0.051596165
249	0x3da70f89	0.0815726
250	0xbdf2a97e	-0.11848734
251	0xbdeb99ac	-0.1150392
252	0x3d4b859a	0.04968796
253	0xbcada938	-0.021198854
254	0x3d335f48	0.04379204
255	0xbcfb64bd	-0.030687684

gru.weight_hh_l0 f4 [192, 64]
0	0xbe493ba6	-0.1965166
1	0xbe0fe944	-0.14053828
2	0x3d545604	0.051839843
3	0xbe9b2883	-0.30304345
4	0x3e7de63c	0.24794859
5	0xbe4632ad	-0.19355269
6	0x3e661e58	0.22472513
7	0x3e4a2e3d	0.19744201
8	0xbe98d258	-0.2984798
9	0x3e95352a	0.29142123
10	0x3e1263d5	0.14295895
11	0xbe94c7df	-0.2905874
12	0xbe175f2a	-0.14782396
13	0x3e783a4c	0.24240988
14	0xbebef6c9	-0.37297657
15	0x3e3c733d	0.18403335
16	0xbe98fec3	-0.29881868
17	0x3e831abe	0.2560634
18	0xbe30e463	-0.17274623
19	0x3e27e024	0.16394097
20	0x3e51e006	0.20495614
21	0xbe48ec70	-0.19621444
22	0x3e349bb0	0.17637515
23	0xbd3d7abe	-0.046259634
24	0x3e96e058	0.29468036
25	0x3e5e0a42	0.216836
26	0xbdf54110	-0.119753
27	0x3e5cdeea	0.2156941
28	0x3ea4c845	0.32184044
29	0x3dcbcd35	0.099512495
30	0x3dec40b8	0.115357816
31	0xbe76fe43	-0.2412043
32	0xbea8acd9	-0.32944372
33	0xbd8581f9	-0.06518931
34	0x3e879386	0.2647974
35	0x3e0de340	0.1385622
36	0xbe64bdca	-0.22338024
37	0xbe36ab82	-0.17838863
38	0xbd0f2d82	-0.03495551
39	0x3eb059a8	0.34443402
40	0x3e49abac	0.19694394
41	0xbd756486	-0.05991032
42	0xbe28d69a	-0.16488114
43	0xbe4aadff	-0.19792937
44	0xbe1a7aa8	-0.15085852
45	0x3e2562e2	0.16151002
46	0xbe23e78b	-0.16006295
47	0x3e88236d	0.26589528
48	0xbe98a5eb	-0.29814085
49	0xbe75f0b4	-0.24017602
50	0xbe7fc678	-0.24978054
51	0xbcff4fe4	-0.031166025
52	0x3eb80855	0.35943857
53	0x3e6eb2f6	0.23310456
54	0xbe3409b0	-0.1758182
55	0xbeacfd80	-0.33787155
56	0x3e6f8197	0.23389278
57	0x3dd0d168	0.10196191
58	0x3e5bb7bf	0.21456812
59	0xbe921368	-0.2853043
60	0x3e9e60fe	0.30933374
61	0x3e64db8d	0.22349377
62	0x3e5b821f	0.21436356
63	0xbe83075f	-0.2559156
64	0xbe2a4ad8	-0.16630113
65	0xbe39aded	-0.18132754
66	0x3e490030	0.19628978
67	0xbe024bbb	-0.12724201
68	0x3e1bc0ba	0.15210238
69	0xbe7b10cf	-0.2451813
70	0x3ea7161f	0.32634065
71	0x3e53a4a6	0.20668277
72	0xbe8767f3	-0.26446494
73	0x3e9e1583	0.30875787
74	0x3ec078fb	0.375923
75	0xbe3e7690	-0.18599916
76	0xbdf611dc	-0.12015125
77	0x3e7ec3fe	0.24879453
78	0xbe6b79cf	-0.22995685
79	0x3e7173ee	0.2357938
80	0xbeae2e84	-0.34019864
81	0x3e111693	0.14168768
82	0xbe4434ed	-0.19160815
83	0x3e998e21	0.29991248
84	0x3e18adcb	0.14910047
85	0xbdce9b5b	-0.100882255
86	0x3e568aff	0.2095146
87	0x3e37eee1	0.17962219
88	0x3e8f2d54	0.2796427
89	0x3e7e567d	0.2483768
90	0xbe5a636d	-0.2132699
91	0x3e0d0b98	0.13773954
92	0x3e8f3e01	0.27976993
93	0x3e9e89b7	0.30964443
94	0x3e85d0aa	0.2613576
95	0xbe9ff86e	-0.31244224
96	0xbe83f639	-0.2577379
97	0xbde0c47f	-0.10974979
98	0x3e09313a	0.13397685
99	0x3e8bb5b1	0.27287057
100	0xbe63fa60	-0.22263479
101	0xbdeb28e8	-0.114824116
102	0x3b8f2574	0.0043684784
103	0x3ea99ab4	0.33125842
104	0x3e8f6996	0.28010243
105	0xbdbd944a	-0.092567995
106	0xbe19f5f6	-0.15035233
107	0xbe8874ad	-0.26651517
108	0xbe2fd8b5	-0.17172511
109	0x3e5d78ef	0.21628164
110	0xbe82ba02	-0.25532538
111	0x3e18facb	0.1493942
112	0xbdfd1c0e	-0.12358867
113	0xbe0f24c4	-0.13978869
114	0xbe1723de	-0.14759776
115	0xbeab9b1d	-0.3351678
116	0x3ecaba42	0.39595228
117	0x3e48c683	0.19606976
118	0xbea0b1fc	-0.3138579
119	0xbe819f8f	-0.25317046
120	0x3da6e36e	0.081488475
121	0x3e26e26b	0.16297309
122	0x3ea310eb	0.31848845
123	0xbe8675d4	-0.2626177
124	0x3e99de24	0.30052292
125	0x3c76098d	0.0150169255
126	0x3e8ec730	0.27886343
127	0xbdb783ac	-0.08960661
128	0x3f0b9a07	0.545319
129	0x3ecc08e3	0.3985053
130	0xbdee8194	-0.11645809
131	0x3edcb3c9	0.43105915
132	0xbea71d6a	-0.3263963
133	0x3f06bf8e	0.5263604
134	0xbf0c5908	-0.5482335
135	0xbea11f4e	-0.31469196
136	0x3ed26342	0.41091353
137	0xbec1f3b7	-0.37881252
138	0xbeb2145a	-0.34781152
139	0x3f06ad51	0.5260821
140	0x3ed73346	0.42031306
141	0xbef91e40	-0.4865589
142	0x3f03dfbc	0.51513267
143	0xbeb3d1cc	-0.35121
144	0x3ed09893	0.40741405
145	0xbf065975	-0.5248025
146	0x3f0b0535	0.5430482
147	0xbec26be5	-0.37972942
148	0xbe92a194	-0.286389
149	0x3eed0010	0.4628911
150	0xbf01d2ba	-0.5071217
151	0xbdd156d6	-0.10221641
152	0xbed34b65	-0.4126846
153	0xbef5196a	-0.47870952
154	0x3ecae9b3	0.39631423
155	0xbeff755c	-0.49894226
156	0xbee4bf01	-0.44676974
157	0xbed0a035	-0.40747228
158	0xbee0fe9a	-0.43944246
159	0x3f02b19b	0.51052254
160	0x3f0a2533	0.5396301
161	0x3f00342b	0.500796
162	0xbeb45427	-0.35220453
163	0xbeb48aad	-0.3526205
164	0x3e9fa5a6	0.31181067
165	0x3f092ee9	0.53587204
166	0x3ea272fe	0.31728357
167	0xbec4eb82	-0.38460928
168	0xbf0eed33	-0.5583069
169	0x3e7ce380	0.2469616
170	0x3f15d41f	0.58526796
171	0x3ebc20c1	0.3674374
172	0x3f0f49f3	0.5597221
173	0xbeca511e	-0.39515013
174	0x3f1486a8	0.5801797
175	0xbee9efed	-0.4569086
176	0x3f0a0ea2	0.5392858
177	0x3f009235	0.50223094
178	0x3f02236e	0.5083531
179	0x3ee4d89e	0.44696516
180	0xbeeeb55d	-0.46622744
181	0xbeb72c00	-0.35775757
182	0x3eb42c59	0.35190085
183	0x3f028ecf	0.5099916
184	0xbefd8651	-0.49516538
185	0xbed5fed0	-0.4179597
186	0xbf05e788	-0.52306414
187	0x3f0e94d9	0.55695873
188	0xbf00dad3	-0.503339
189	0xbed39b2d	-0.41329327
190	0xbed81a41	-0.4220753
191	0x3f10b6e3	0.56529063
192	0xbe42360e	-0.18965933
193	0xbe8ce731	-0.27520135
194	0x3e3f0a13	0.18656187
195	0xbe75bba1	-0.23997356
196	0x3e344b5e	0.17606875
197	0xbe951144	-0.29114735
198	0x3ec003d9	0.37502936
199	0x3e1fa988	0.15592015
200	0xbdb986a3	-0.09058883
201	0x3ebde336	0.3708741
202	0x3eb391a4	0.35072052
203	0xbe73c4de	-0.23805568
204	0xbeb13293	-0.34608898
205	0x3e043ec6	0.12914571
206	0xbe35900b	-0.1773073
207	0x3e4d3fa8	0.20043814
208	0xbea076b7	-0.31340572
209	0x3eb3b10a	0.35096008
210	0xbe4f49d4	-0.20243007
211	0x3e9e1c27	0.30880854
212	0x3e2d6249	0.16932024
213	0xbe98f86c	-0.2987703
214	0x3e8d2d59	0.2757366
215	0x3e676c95	0.22600015
216	0x3ec3881a	0.38189775
217	0x3e312c3e	0.17302033
218	0xbe0e33ae	-0.13886902
219	0x3eae8e7c	0.34093082
220	0x3eba5c5a	0.36398584
221	0x3ea55b37	0.32296154
222	0x3e876edc	0.26451766
223	0xbdf55e27	-0.11980849
224	0xbe7caa6b	-0.24674384
225	0xbe0c5971	-0.13705994
226	0x3ea59814	0.3234259
227	0x3ecae31b	0.39626393
228	0xbe01ef50	-0.12688947
229	0xbe1eb1bc	-0.15497488
230	0xbe13c289	-0.14429678
231	0x3e27fb83	0.16404538
232	0x3eb651d6	0.3560931
233	0xbd9f5012	-0.07778944
234	0xbe412348	-0.18861115
235	0xbe8d051e	-0.27542967
236	0xbe720f2f	-0.23638605
237	0x3e82a01e	0.25512785
238	0xbe60b624	-0.21944481
239	0x3e353ffa	0.17700186
240	0xbe8d1ee0	-0.27562618
241	0xbe204ca3	-0.15654235
242	0xbe84f71f	-0.25969788
243	0xbdf338fc	-0.11876103
244	0x3e872103	0.26392373
245	0x3e523710	0.20528817
246	0xbeb31f8c	-0.34985006
247	0xbea4f08a	-0.32214767
248	0x3ea7bbed	0.32760563
249	0x3e912079	0.28345087
250	0x3e874769	0.2642167
251	0xbe7da5e9	-0.24770321
252	0x3e9e3b3f	0.30904576
253	0x3df53cf2	0.11974515
254	0x3e637a95	0.2221473
255	0xbdf08e17	-0.117458515

gru.bias_ih_l0 f4 [192]
0	0x3e8ca85e	0.27472204
1	0xbf9f4bc9	-1.2445003
2	0xbf6123ba	-0.8794514
3	0x3e62e101	0.22156145
4	0x3edc4219	0.43019179
5	0x3e6d1e2f	0.23156045
6	0x3f2e0826	0.67981184
7	0x3f19d18c	0.6008537
8	0x3f050feb	0.51977414
9	0x3f084db5	0.5324357
10	0x3ef3b2d8	0.47597384
11	0x3e8ef885	0.2792398
12	0x3f1894c9	0.5960203
13	0x3f0386df	0.5137767
14	0x3e19968b	0.14998834
15	0x3f2796f4	0.6546471
16	0x3e18414d	0.1486866
17	0x3ea00ddb	0.3126057
18	0x3ece2512	0.40262657
19	0x3e9e438f	0.30910918
20	0x3e664374	0.22486669
21	0x3e248942	0.16067985
22	0x3f310a37	0.6915621
23	0xbede6aa4	-0.43440735
24	0x3ebc298c	0.36750448
25	0x3ee0b647	0.43889067
26	0x3eca4af6	0.39510316
27	0x3f1eb037	0.6198763
28	0x3f318622	0.69345295
29	0x3ede13d7	0.43374512
30	0x3ed59770	0.417171
31	0x3f35e68b	0.71054906
32	0x3f258aa3	0.6466467
33	0xbeddedba	-0.43345433
34	0x3f080d59	0.53145367
35	0x3eb90962	0.3613997
36	0x3e7d30a9	0.24725594
37	0x3f184bc5	0.59490615
38	0xc044b765	-3.0736935
39	0x3ed25a7a	0.41084653
40	0x3e47a634	0.19496995
41	0xbe996446	-0.29959315
42	0x3ed8ed94	0.42368758
43	0x3cd08e4f	0.025458483
44	0x3eb7e246	0.3591482
45	0x3f10201e	0.56299007
46	0x3f072628	0.52792597
47	0x3e84b6f9	0.25920847
48	0x3f101cdd	0.5629404
49	0x3f267868	0.65027475
50	0x3ddef533	0.10886612
51	0x3efe9173	0.49720344
52	0x3f14295e	0.5787562
53	0x3f07f636	0.53110063
54	0x3ef0dcf6	0.4704358
55	0x3f08a757	0.5338034
56	0xbf4ba2d9	-0.7954536
57	0x3f35a40e	0.7095345
58	0x3f229b7a	0.6351849
59	0x3ea238c3	0.3168393
60	0x3ef2e8bd	0.4744319
61	0xbf0780b2	-0.5293075
62	0x3f3a19b7	0.7269549
63	0x3ef9cd23	0.4878932
64	0xbebd4ab0	-0.36971045
65	0x3f1e2460	0.61774254
66	0x3de89e83	0.11358359
67	0x3d421c90	0.04739052
68	0xbe8af86e	-0.27142662
69	0xbe8bc663	-0.27299795
70	0xbf0c73a9	-0.54863983
71	0xbe33e0a3	-0.17566161
72	0xbed9857b	-0.4248465
73	0xbeafcbc5	-0.3433515
74	0xbedf3ee0	-0.43602657
75	0xbebdab12	-0.3704458
76	0xbea5dce8	-0.323951
77	0xbee35b5c	-0.4440564
78	0xbdb9fd4f	-0.09081518
79	0xbef52dd5	-0.4788653
80	0xbe0b2dfe	-0.13591763
81	0xbec8520d	-0.391251
82	0xbf0fe914	-0.56215024
83	0xbea7a7a4	-0.32745087
84	0xbec41dbb	-0.38303933
85	0x3e47376c	0.19454736
86	0xbf08774f	-0.5330705
87	0xbaf3d950	-0.0018604193
88	0xbf09b493	-0.5379116
89	0xbed3f9a3	-0.41401395
90	0x3d628340	0.05530095
91	0xbf02c32f	-0.51079077
92	0xbf10f199	-0.5661865
93	0xbe92f48c	-0.287022
94	0xbf0f8c01	-0.56073004
95	0xbec05347	-0.37563536
96	0xbf0c6ef4	-0.548568
97	0x3da7bd68	0.08190423
98	0xbee09909	-0.43866757
99	0xbf169dde	-0.58834636
100	0xbe78a8e7	-0.24283181
101	0xbe5c3f08	-0.2150842
102	0x3f85c20b	1.0449842
103	0xbec774ad	-0.38956204
104	0xbec922ec	-0.39284456
105	0xbe153ea3	-0.14574675
106	0xbe56cdfe	-0.20977017
107	0x3ece080d	0.40240517
108	0xbe2cf84d	-0.16891594
109	0xbe9d33b8	-0.3070352
110	0xbe81f37e	-0.25381082
111	0xbe8f75b7	-0.28019497
112	0xbeb89dcb	-0.36057886
113	0xbf0e0204	-0.55471826
114	0x3e3ca347	0.1842166
115	0xbe98efc0	-0.29870415
116	0xbe901271	-0.2813907
117	0xbf17ff67	-0.5937409
118	0xbe63d904	-0.22250754
119	0xbe87c5bd	-0.2651805
120	0x3e101aaf	0.14072679
121	0xbea5a066	-0.32348937
122	0xbf01ce09	-0.5070501
123	0xbe5fab0d	-0.21842594
124	0xbd359be9	-0.04433814
125	0x3e97cd7d	0.29648963
126	0xbf08ff24	-0.53514314
127	0xbe908fba	-0.28234655
128	0xbf12c959	-0.5733848
129	0xbe0991ba	-0.13434497
130	0xbec92b74	-0.39290965
131	0xbe8a3d6a	-0.2699998
132	0x3f1057c4	0.5638392
133	0xbf05427b	-0.52054566
134	0x3f28a038	0.65869474
135	0x3f1b1027	0.6057152
136	0xbf002a84	-0.50064874
137	0x3f032634	0.5123017
138	0x3f00ba77	0.5028452
139	0xbf073d88	-0.52828264
140	0xbf0502a1	-0.51957136
141	0x3f0821dd	0.5317667
142	0xbea766d0	-0.32695627
143	0x3ef6bc58	0.4819057
144	0xbeba7c89	-0.36423138
145	0x3ef92393	0.48659953
146	0xbf0e41aa	-0.55568945
147	0x3f17a2cd	0.5923279
148	0x3f0a383d	0.5399206
149	0xbeba7d2f	-0.36423633
150	0x3f24441d	0.6416643
151	0xbf016fcc	-0.50561213
152	0x3f1e5a0c	0.6185615
153	0x3f2a57ed	0.66540414
154	0xbf27cbd4	-0.6554539
155	0x3f26f64f	0.6521959
156	0x3f32b141	0.6980172
157	0x3f0cf2da	0.5505806
158	0x3f2dfe65	0.679663
159	0xbf0965da	-0.5367104
160	0xbf187e78	-0.59567976
161	0x3c5494c3	0.012974921
162	0x3f15cc6e	0.5851506
163	0x3f2d5229	0.6770349
164	0xbecb124d	-0.396624
165	0xbf014148	-0.50490236
166	0x3cac59e8	0.021038964
167	0x3effbf1e	0.49950498
168	0x3eefb353	0.468165
169	0x3f416666	0.7554687
170	0xbedecf67	-0.4351761
171	0xbe7950c5	-0.24347217
172	0xbf0ee91a	-0.55824435
173	0x3f32a956	0.69789636
174	0xbf19e30a	-0.6011206
175	0x3ef47079	0.4774206
176	0xbf0998c0	-0.53748703
177	0xbf2f3a0e	-0.6844796
178	0xbeda1159	-0.4259136
179	0xbec91956	-0.39277142
180	0x3f20fe61	0.6288815
181	0x3f3b7283	0.73221606
182	0xbf0ad3a5	-0.54229194
183	0xbee0fdb2	-0.43943554
184	0x3c7ccf7b	0.015430327
185	0x3f1f91eb	0.6233203
186	0x3f3352a9	0.70048004
187	0xbed30440	-0.4121418
188	0x3ee7dbfc	0.45285022
189	0xbe8fbb1d	-0.28072444
190	0x3f5c9539	0.86165196
191	0xbf0a26bf	-0.5396537

gru.bias_hh_l0 f4 [192]
0	0x3eabe3d4	0.33572257
1	0xbf904f21	-1.1274148
2	0xbf69f8ae	-0.9139508
3	0x3d2f2f70	0.04276985
4	0x3edfe7bf	0.43731496
5	0x3ebc9955	0.36835733
6	0x3f267e10	0.65036106
7	0x3ef6b57c	0.48185337
8	0x3f01f738	0.5076785
9	0x3f0409b4	0.51577306
10	0x3ef95f9c	0.48705757
11	0x3e8d87f7	0.27642795
12	0x3f1c752d	0.61116296
13	0x3f0628ad	0.52405816
14	0x3e5d6a21	0.21622516
15	0x3ef3acab	0.47592673
16	0x3d53ffbd	0.051757563
17	0x3e94ecf3	0.29087028
18	0x3ec14578	0.37748313
19	0x3e71139d	0.23542638
20	0x3e03107b	0.12799256
21	0x3e324e94	0.17412788
22	0x3f123a75	0.5712045
23	0xbeacc93a	-0.33747274
24	0x3f1433c0	0.57891464
25	0x3ef14805	0.4712526
26	0x3ebd0b9e	0.36922926
27	0x3f279f21	0.65477186
28	0x3ef916bb	0.48650154
29	0x3edd9cc9	0.4328368
30	0x3eda9f02	0.42699438
31	0x3f3361c9	0.70071083
32	0x3f390213	0.7226879
33	0xbeb58a80	-0.3545723
34	0x3f29f77c	0.66393256
35	0x3ebdd5ca	0.3707717
36	0x3ea1b001	0.31579593
37	0x3efdb3b3	0.49551162
38	0xc042336f	-3.0343893
39	0x3f07fe4e	0.53122413
40	0x3ed1be00	0.4096527
41	0xbeafd1b0	-0.34339666
42	0x3f0a4b10	0.54020786
43	0xbc1b87cd	-0.009492827
44	0x3ed5126f	0.41615626
45	0x3f2b8564	0.6700041
46	0x3ed33280	0.41249466
47	0x3e71c5b6	0.23610577
48	0x3f360c03	0.7111208
49	0x3f14ad12	0.58076584
50	0x3e9b612b	0.3034757
51	0x3edf8bd9	0.43661383
52	0x3f12f1de	0.5740031
53	0x3f1dfc60	0.6171322
54	0x3efff136	0.49988717
55	0x3eeb57ca	0.45965415
56	0xbf1c619f	-0.6108646
57	0x3f1ed12e	0.6203793
58	0x3f0e4f5e	0.55589855
59	0x3efb294d	0.49054947
60	0x3ed728ab	0.42023215
61	0xbef9fb69	-0.48824623
62	0x3f2e4d89	0.6808706
63	0x3ebdb155	0.37049356
64	0xbebed3f2	-0.37271076
65	0x3f151ba8	0.58245325
66	0x3c8425ae	0.016131248
67	0xbd650710	-0.05591494
68	0xbee527db	-0.4475697
69	0xbed9faac	-0.4257406
70	0xbed553b6	-0.4166543
71	0xbe9e61c8	-0.30933976
72	0xbea7e123	-0.32788953
73	0xbedf0f6d	-0.43566456
74	0xbf124a6f	-0.57144827
75	0xbf0b0c09	-0.5431524
76	0xbee33aa2	-0.4438067
77	0xbed5d95d	-0.41767398
78	0xbe6788b7	-0.22610746
79	0xbf166d73	-0.58760756
80	0xbded1cad	-0.11577735
81	0xbeaeba9d	-0.3412675
82	0xbec67e2c	-0.38768137
83	0xbed79586	-0.42106265
84	0xbeb5932e	-0.35463852
85	0x3e4ab450	0.19795346
86	0xbf010a90	-0.5040674
87	0x3d875318	0.06607646
88	0xbf07587b	-0.52869385
89	0xbec61d5d	-0.38694277
90	0x3e67c9c3	0.2263556
91	0xbed5c2dc	-0.41750228
92	0xbefdb110	-0.4954915
93	0xbe9cdc3d	-0.30636778
94	0xbf02c64e	-0.5108384
95	0xbeace0c7	-0.33765242
96	0xbee2b370	-0.44277525
97	0x3c3228c6	0.010873979
98	0xbf19c671	-0.6006842
99	0xbf18bae4	-0.5966017
100	0xbe6b4681	-0.22976114
101	0xbe8e1a5c	-0.27754486
102	0x3f82e93d	1.0227429
103	0xbeec33a2	-0.46133143
104	0xbf04c0fd	-0.51856977
105	0xbd9ffca6	-0.07811861
106	0xbe7c3a05	-0.24631508
107	0x3f1ba7ce	0.60802925
108	0xbea04a69	-0.3130677
109	0xbe962dd8	-0.2933185
110	0xbefc573c	-0.49285305
111	0xbdcb9f9b	-0.09942552
112	0xbeb70a7c	-0.35750186
113	0xbf1119ea	-0.56680167
114	0x3e808d2f	0.25107715
115	0xbe4dd50b	-0.201008
116	0xbef2da7d	-0.47432318
117	0xbee06951	-0.4383035
118	0xbea91404	-0.33023083
119	0xbe8b23dc	-0.27175796
120	0x3e7e8893	0.24856786
121	0xbf06d9e3	-0.5267622
122	0xbf147132	-0.5798522
123	0xbee593dc	-0.4483937
124	0xbd831270	-0.06400001
125	0x3ed522c6	0.41628093
126	0xbf0d0492	-0.550851
127	0xbef069c5	-0.46955696
128	0xbea22e61	-0.3167601
129	0x3bfa7082	0.0076428065
130	0xbdf9d3e0	-0.12198615
131	0xbe56372e	-0.20919487
132	0x3f115f7a	0.5678631
133	0xbecd9382	-0.40151602
134	0x3f28ea49	0.6598249
135	0x3f0a0f73	0.53929824
136	0xbf07a0ac	-0.5297954
137	0x3ed07791	0.40716222
138	0x3f2c769b	0.6736848
139	0xbe9e5a1c	-0.30928123
140	0xbf2457db	-0.64196557
141	0x3f2202a4	0.6328528
142	0xbe84b373	-0.2591816
143	0x3f170f66	0.5900787
144	0xbe9a58f6	-0.30145997
145	0x3eaf87e6	0.3428337
146	0xbf01173c	-0.5042608
147	0x3ebca5ee	0.36845344
148	0x3e8ef883	0.27923974
149	0xbe4a41a3	-0.19751601
150	0x3f373c41	0.71576315
151	0xbe3b5560	-0.18294287
152	0x3ef4eb53	0.47835788
153	0x3f0f20f9	0.5590969
154	0xbf064b65	-0.5245879
155	0x3f32e1a7	0.6987557
156	0x3f160e9f	0.5861606
157	0x3eee8b5d	0.465907
158	0x3f0964d5	0.5366948
159	0xbf1f527b	-0.6223523
160	0xbf406466	-0.75153196
161	0x3e62e851	0.22158934
162	0x3f12a694	0.5728543
163	0x3f007672	0.50180733
164	0xbec77e00	-0.38963318
165	0xbf0337b5	-0.5125688
166	0x3b710bad	0.003678064
167	0x3efff5cd	0.4999222
168	0x3eaf3250	0.34218073
169	0x3e714c02	0.23564151
170	0xbf031efd	-0.5121916
171	0xbe3bd80f	-0.18344139
172	0xbf043e52	-0.51657593
173	0x3f3708d0	0.7149782
174	0xbf0d8f78	-0.5529704
175	0x3ed711b9	0.4200571
176	0xbf1a52f3	-0.6028282
177	0xbf411dda	-0.75436175
178	0xbe8f8254	-0.2802912
179	0xbee934e3	-0.45548162
180	0x3f35127c	0.7073133
181	0x3f105251	0.56375605
182	0xbef5369b	-0.47893223
183	0xbee35f74	-0.44408762
184	0xbe1816f4	-0.14852506
185	0x3f240e4c	0.64084315
186	0x3f207855	0.6268361
187	0xbf01ac90	-0.50653934
188	0x3efe5fcf	0.4968247
189	0xbdbb4bb3	-0.09145298
190	0x3f3716d7	0.71519226
191	0xbf019463	-0.50617045

fc.weight f4 [256, 64]
0	0x3ca384f9	0.019960867
1	0xbca0c690	-0.019625932
2	0xba8daac3	-0.0010808337
3	0x3c20a007	0.0098037785
4	0x3c105be9	0.008810976
5	0x3bd1d072	0.0064030224
6	0x3bcb17bd	0.006197898
7	0xbd9073fd	-0.07053373
8	0xbd1990dd	-0.037491668
9	0x3d3bf0b1	0.045883838
10	0xbcd0be02	-0.025481228
11	0xbd2462f5	-0.040133435
12	0x3ce73c15	0.028226892
13	0xba801e33	-0.0009774625
14	0xbd620325	-0.05517878
15	0x3d73b634	0.059499934
16	0x3b4ccf7d	0.0031251602
17	0x3bde236b	0.0067791245
18	0x3cfa8b8c	0.03058412
19	0xbda7aa17	-0.08186739
20	0x3c711b96	0.01471605
21	0x3c6f9f2a	0.01462535
22	0x3cc8768b	0.024470588
23	0x3bcbee3d	0.0062234686
24	0xbd2b307d	-0.04179429
25	0xbc90cfe7	-0.01767726
26	0x3a5fd9c4	0.00085392245
27	0xbce012a6	-0.027352642
28	0x3d2bd4e3	0.04195107
29	0x3bea90f3	0.0071583926
30	0xbd2e2b02	-0.042521484
31	0xbd3c5fc7	-0.045989778
32	0xbd5704a6	-0.052494667
33	0x39e0e005	0.00042891517
34	0x3c52436a	0.012833456
35	0x3db0ccf2	0.0863284
36	0xbd5f93b6	-0.054584228
37	0xba46c99f	-0.00075831445
38	0x3c5a247f	0.013314365
39	0x3cf60a80	0.030034304
40	0xbcb21d44	-0.02174247
41	0x3a9124ec	0.0011073626
42	0x3d2c2825	0.042030472
43	0x3ab4c5ab	0.001379182
44	0xbc8bfd5e	-0.017088588
45	0x3d210504	0.039311424
46	0x3d325f28	0.04354778
47	0x3cc889d6	0.024479788
48	0x3d4c76d7	0.049918022
49	0xbd383808	-0.04497531
50	0xbc8b5ac3	-0.017011052
51	0xbd3655b9	-0.044515345
52	0x3b85b4b5	0.00408038
53	0x3d1b78cf	0.03795701
54	0x3d795a92	0.06087739
55	0x3d957d9a	0.07299347
56	0x39e12d34	0.00042949023
57	0xbd3631d8	-0.04448113
58	0x3adef3a1	0.0017009863
59	0xbd0d13a3	-0.034442555
60	0x388878c8	6.5074826e-05
61	0xb9cafb5c	-0.0003871572
62	0xbd51e153	-0.051240277
63	0x3d54fe9d	0.05200063
64	0x3b528dae	0.0032127905
65	0x3b128035	0.002235425
66	0xbb9861f3	-0.0046503483
67	0xbd42652a	-0.04745976
68	0xbd3ae23d	-0.045625914
69	0x3bc95f50	0.0061453953
70	0xbcbf2415	-0.023332635
71	0x3d837434	0.06418648
72	0xbcb567f1	-0.02214429
73	0xbb752c4f	-0.0037410443
74	0x3c9313d0	0.017953783
75	0xbc30d8d2	-0.0107938815
76	0xbc2db20f	-0.0106015345
77	0xbca4b9e4	-0.02010817
78	0xbc88db02	-0.016705994
79	0xba61515a	-0.0008595191
80	0xbbd855f0	-0.0066020414
81	0xbbc80e83	-0.0061052456
82	0x3c90dd2b	0.017683586
83	0xbd431f78	-0.047637433
84	0xbd344ecc	-0.04402046
85	0x3b7d16d0	0.0038618334
86	0x3d63e826	0.055641316
87	0xbba207a4	-0.0049447585
88	0x3bb49410	0.0055108145
89	0xbcb6eab6	-0.022328716
90	0xbc866696	-0.016406339
91	0xbcd322eb	-0.025773486
92	0xbd1d6779	-0.038428757
93	0xbd683009	-0.056686435
94	0x3c942cb7	0.018087728
95	0x3cb49205	0.022042284
96	0x3d07fd32	0.03320045
97	0xbb91d08c	-0.0044499096
98	0x3d937cd0	0.072015405
99	0x3cdcb92c	0.026943766
100	0x3cc7b795	0.02437953
101	0xbb3268ef	-0.002722319
102	0xbca6a121	-0.020340504
103	0xbd6aceb4	-0.057326034
104	0x3bb7ca2d	0.005608818
105	0xbbe8b26d	-0.007101348
106	0xbd4577ef	-0.04821008
107	0xbb902b3b	-0.0043996847
108	0xbb2e37c9	-0.0026583544
109	0xbbd2baea	-0.0064309733
110	0x3dbd901b	0.092560016
111	0x3c1a2b76	0.009409776
112	0xbd13fa5e	-0.03612744
113	0xbd0794bc	-0.03310083
114	0xbcb61d37	-0.022230728
115	0xbd2e76bf	-0.042593714
116	0x3a0f558f	0.00054677663
117	0xbd519b4b	-0.05117349
118	0x3c6ec05a	0.014572227
119	0xbcf13896	-0.029445928
120	0xbc10fd6e	-0.008849485
121	0x3c9a4b9b	0.01883488
122	0x3cec8629	0.028872566
123	0xbcff5bdf	-0.031171737
124	0xbb73b2b1	-0.0037185366
125	0x396065fb	0.00021400295
126	0x3d15c1cd	0.036561776
127	0x3bb43edf	0.005500659
128	0xbc63ebae	-0.013911171
129	0xbd12b989	-0.03582147
130	0xbca56283	-0.020188576
131	0xbc2ed685	-0.010671263
132	0xbda3d69a	-0.079999164
133	0x3d053a1c	0.03252612
134	0x3cb6202e	0.022232141
135	0x3d9483e6	0.0725172
136	0xbc60d8a1	-0.013723523
137	0xbbf9a8f6	-0.0076190187
138	0xbd9dba24	-0.07701519
139	0xbd77cf52	-0.06050045
140	0x3d3f06d7	0.046637382
141	0xbd5f3a4c	-0.054498956
142	0x3d080020	0.033203244
143	0x3d241b2c	0.040064976
144	0xbc121f69	-0.008918622
145	0x3d0b1948	0.033959657
146	0xbc821d1f	-0.015883027
147	0x3c4dfb2e	0.012572093
148	0x3cbb4b52	0.022863064
149	0x3d2ba026	0.041900776
150	0x3be1110e	0.006868488
151	0xbc415485	-0.011799936
152	0xbd2e1201	-0.04249764
153	0xbd0972df	-0.033556815
154	0xbb630be6	-0.0034644543
155	0xbcc7166d	-0.024302686
156	0x3ca27e98	0.019835755
157	0x3b82305b	0.0039730496
158	0x3ba4a7c5	0.0050248825
159	0x3d89878e	0.06715308
160	0xba5ef318	-0.0008504852
161	0xbc69640f	-0.014245047
162	0xbc9696d7	-0.018382473
163	0xbd9b6b48	-0.07588822
164	0x3cf05560	0.029337585
165	0xbc4739f4	-0.012159813
166	0xbd4ff767	-0.05077305
167	0xbdab7e6b	-0.08373722
168	0xbbc623fb	-0.0060467697
169	0xbcb7f105	-0.022453794
170	0xbd3fd046	-0.046829484
171	0xbbff80e8	-0.0077973492
172	0x3c19c8ac	0.009386223
173	0x3d1f3143	0.03886534
174	0xbda0369d	-0.07822917
175	0xbd5d7816	-0.0540696
176	0xbd90c615	-0.07069031
177	0xbcae7ccb	-0.02129974
178	0xbd88e518	-0.06684321
179	0xbda0bb40	-0.07848215
180	0xbc2993f5	-0.010350217
181	0xbd24ac08	-0.040203124
182	0x3d306e30	0.043073833
183	0xbd87aee2	-0.06625153
184	0xbc9c50e4	-0.01908154
185	0xbd6e2b72	-0.0581469
186	0x3d8b7cd6	0.0681092
187	0xbdbd6ade	-0.09248899
188	0xbbe00c4f	-0.006837405
189	0xbc28795b	-0.01028284
190	0x3c239e04	0.009986404
191	0xbd8a98a7	-0.067673974
192	0xbd66f6d6	-0.056387745
193	0xbcc2cecd	-0.02378025
194	0x3c553f0b	0.013015519
195	0x3cb9909c	0.022651963
196	0x3d3d39fb	0.046197873
197	0xbcaef50c	-0.021357082
198	0xbc1f2480	-0.009713292
199	0x3d9aa36c	0.075507015
200	0x3d539918	0.051659673
201	0x3bb6c03a	0.0055771144
202	0xbd66cd00	-0.056347847
203	0x3caeb7bc	0.021327846
204	0xbd136d92	-0.035993166
205	0x3d660d60	0.0561651
206	0xbba9b414	-0.0051789377
207	0xbdb04cb8	-0.08608383
208	0xbbc94004	-0.0061416645
209	0xbd383797	-0.04497489
210	0xbc309da9	-0.010779777
211	0x3cef4d2c	0.029211603
212	0xbc252e36	-0.010081818
213	0x3d166b27	0.036723282
214	0x3dcaa355	0.09894434
215	0xbcbb1200	-0.022835732
216	0xbc139088	-0.009006627
217	0x3cf58cfa	0.02997445
218	0xbb0c2336	-0.0021383292
219	0x3c5de373	0.013542998
220	0x3cf16788	0.029468313
221	0x3cd1a1c3	0.02558983
222	0xbd4b7ebf	-0.04968142
223	0xbd8c0491	-0.068368085
224	0x3dc5a37e	0.09650324
225	0xbba952b4	-0.0051673297
226	0x3d1de751	0.03855068
227	0x3d00565a	0.03133235
228	0x3b3d4ef0	0.0028886162
229	0x3c296dc4	0.010341112
230	0xbbfdf1d8	-0.0077497773
231	0xbdaa3511	-0.08310903
232	0x3d6c909f	0.05775511
233	0xbc8f60fc	-0.0175023
234	0x3cc685fe	0.024233814
235	0x3c93e1d2	0.018052015
236	0x3a91e70a	0.0011131477
237	0xbcdc4c51	-0.02689186
238	0xbd322d37	-0.04350015
239	0x3a9e7b56	0.00120912
240	0xbca798c4	-0.020458587
241	0x3cb6317f	0.022240398
242	0xbc30f5f6	-0.010800829
243	0xbcf32850	-0.029682308
244	0x3c47fa76	0.012205711
245	0x3da29cbc	0.07940051
246	0x3d2bfeca	0.041991033
247	0xbca26fa0	-0.019828618
248	0xbca6cd0e	-0.02036145
249	0xbce5b170	-0.02803871
250	0x3d182698	0.03714618
251	0x3d3e0a78	0.046396703
252	0x3bafa156	0.005359809
253	0x3bd5e58a	0.0065276073
254	0xbc93f987	-0.01806332
255	0xbc6b9708	-0.01437927

fc.bias f4 [256]
0	0x3c4a1ab9	0.012335473
1	0x3c7b2e56	0.015330872
2	0xbd4a1708	-0.04933837
3	0x3c8eac15	0.01741604
4	0xbd1ed086	-0.038773082
5	0x3d6859db	0.056726318
6	0xbd1284ae	-0.035771064
7	0x3e1e6bc7	0.15470801
8	0x3d7f6d5a	0.062360145
9	0x3e14396d	0.14475031
10	0x3e9ac53d	0.30228606
11	0x3e23e9dd	0.1600718
12	0x3e9b9688	0.30388284
13	0x3f0be267	0.5464234
14	0x3f243a05	0.6415103
15	0x3f013427	0.50470203
16	0x3eef527f	0.46742627
17	0x3f1a9bf0	0.6039419
18	0x3f072c9c	0.52802444
19	0x3eb0b360	0.34511852
20	0x3ebc3917	0.36762306
21	0x3df8805a	0.12133856
22	0x3d861a1e	0.0654795
23	0x3e1d3d16	0.15355334
24	0x3e85b4ce	0.26114506
25	0x3e6282f9	0.22120275
26	0x3c8f125c	0.01746481
27	0x3d6d074c	0.057868287
28	0x3dc5de72	0.09661569
29	0x3e279b09	0.16367735
30	0x3cf40643	0.029788142
31	0x3d3dfb90	0.046382487
32	0x3d8445c9	0.06458623
33	0x3e136409	0.14393629
34	0xbd5cc4db	-0.053898674
35	0x3da8505a	0.08218451
36	0x3d8f3640	0.06992769
37	0x3d74470e	0.059638076
38	0xbd867d10	-0.065668225
39	0x3d3d2a93	0.04618318
40	0x3bed4d5b	0.0072418875
41	0xbd67ebbc	-0.0566213
42	0xbdc08ec6	-0.09402232
43	0x3da364fc	0.079782456
44	0x3d02c5d0	0.03192693
45	0xbddb78bc	-0.10716388
46	0xbd9bfbdf	-0.076164
47	0xbd97f44f	-0.07419645
48	0xbce818fe	-0.02833223
49	0x3dba8394	0.09107128
50	0xbdc71dcf	-0.097224824
51	0xbd1b8ea1	-0.03797782
52	0xbdfcfee7	-0.12353306
53	0xbd907279	-0.07053084
54	0x39b25280	0.00034012273
55	0xbd270290	-0.04077393
56	0x3d4a3b44	0.049372926
57	0xbdffff1d	-0.12499831
58	0x3d6c8bad	0.057750393
59	0xbd9f633a	-0.07782598
60	0x3ccbdc18	0.024885222
61	0x3cfe3bd7	0.031034393
62	0xbde5a2dc	-0.112127036
63	0x3c810c0f	0.01575282
64	0xbdc8ff0f	-0.098142736
65	0x3d7847dd	0.06061541
66	0x3d968f01	0.073514946
67	0x3cb6b214	0.022301711
68	0xbcf08564	-0.02936048
69	0x3d9500fc	0.072755784
70	0xbd864f3f	-0.06558084
71	0x3c707e5a	0.014678562
72	0x3d47f679	0.04881904
73	0xbdcfade2	-0.101405874
74	0xbd9b5a04	-0.075855285
75	0x3d8348d7	0.064103775
76	0x3de10104	0.10986522
77	0x3d8763d5	0.06610838
78	0x3dae6438	0.08515209
79	0xbbfc094b	-0.0076915375
80	0xbd456916	-0.04819592
81	0x3db51729	0.08842308
82	0xbca2d227	-0.0198756
83	0x3b9ce95c	0.004788561
84	0xbd92df18	-0.07171458
85	0x3d1d05ed	0.03833573
86	0xbd2ce163	-0.042207133
87	0x3ded618e	0.11590873
88	0xbd842509	-0.064523764
89	0x3d3724f2	0.04471297
90	0x3a0a97f8	0.00052869273
91	0x3d7bfc07	0.06151965
92	0x3dabcdd5	0.08388869
93	0x3d517eb3	0.05114622
94	0x3dd7281f	0.10505699
95	0x3d9986e5	0.07496432
96	0xbc6ff9c5	-0.014646952
97	0x38a011b0	7.632689e-05
98	0x3d85df98	0.06536788
99	0x3d83d367	0.06436806
100	0x3d9f48ea	0.07777579
101	0xbd3bbbe6	-0.04583349
102	0xbdbf3595	-0.09336392
103	0x3de8935d	0.11356232
104	0xbd4655e9	-0.048421774
105	0x3e0d7c34	0.13816911
106	0x3dc73df7	0.09728616
107	0x3dd01353	0.10159936
108	0x3db39ffc	0.08770749
109	0x3dd23a32	0.10265006
110	0xbc2be1bf	-0.010490834
111	0x3dcce436	0.10004465
112	0x3d1ae16a	0.037812628
113	0x3d9cb9ba	0.07652612
114	0x3dc92f90	0.09823525
115	0xbda412c9	-0.080113955
116	0xbd3322b8	-0.043734282
117	0xbd5b0f80	-0.05348158
118	0x3dfa2df1	0.12215794
119	0x3d5c1cd3	0.053738426
120	0xbdc4ad10	-0.096033216
121	0x3d4783b6	0.048709594
122	0xbd7c73eb	-0.061633985
123	0xbd668bac	-0.056285545
124	0xbc60f758	-0.013730846
125	0xbd7de25d	-0.061983455
126	0xbce8eaba	-0.028432239
127	0x3de67c46	0.11254172
128	0x3ddd8226	0.108158395
129	0xbd375b61	-0.04476488
130	0x3d197f7c	0.037475094
131	0xbdbf9e7f	-0.093564026
132	0x3d9267df	0.07148718
133	0x3dbf3048	0.09335381
134	0xbcb19760	-0.021678627
135	0x3dd256ef	0.102704875
136	0xbcf066b9	-0.029345857
137	0x3d4bde1c	0.049772367
138	0xbdad75ae	-0.08469711
139	0xbc594e58	-0.0132633075
140	0x3c4a491c	0.012346532
141	0x3da59eec	0.080869526
142	0xbd00b98d	-0.031426955
143	0xbd36d7d3	-0.04463942
144	0xbd4372a8	-0.047716767
145	0x3dad05f8	0.08448404
146	0x3d768e4d	0.060194302
147	0xbdafd245	-0.085850276
148	0x3c9468c7	0.018116368
149	0xbdcea51d	-0.100900866
150	0xbdc54c84	-0.09633735
151	0xbc8418e1	-0.016125144
152	0xbd1d8318	-0.0384551
153	0xbc839bcc	-0.0160655
154	0xbd3484b7	-0.04407188
155	0xbc842178	-0.01612924
156	0xbd544b78	-0.051829785
157	0x3b2fbc09	0.0026814959
158	0xbd509c69	-0.050930414
159	0x3d7f7ce8	0.06237498
160	0x3df70246	0.120609805
161	0x3d9cfc5a	0.0766532
162	0x3d497458	0.04918322
163	0x3dc84a98	0.09779853
164	0xbd30a807	-0.043128993
165	0xbdae6a76	-0.085163996
166	0x3d4614c7	0.04835966
167	0x3cd18552	0.025576267
168	0xbce8c6fc	-0.028415196
169	0xbda5a61f	-0.08088326
170	0x3dc58511	0.09644521
171	0xbbeb6cd9	-0.0071846065
172	0xbdf7d873	-0.12101831
173	0xbdcaf7f1	-0.09910572
174	0x3e052e1c	0.1300587
175	0xbda1a79d	-0.07893298
176	0x3d4cba3e	0.049982302
177	0x3cf14e3d	0.029456252
178	0x3df99ad1	0.12187732
179	0xbd42e17b	-0.047578316
180	0xbd68d6c8	-0.056845456
181	0xbd71699f	-0.05893862
182	0xbc597223	-0.013271841
183	0x3d1c904b	0.038223546
184	0x3d06f0f2	0.032944627
185	0x3d7e9ac8	0.06215933
186	0xbda1fbd6	-0.07909362
187	0xbce980ac	-0.028503738
188	0xbc0dcc9a	-0.008654738
189	0xbd0dc1d5	-0.03460868
190	0xbbd90bf8	-0.0066237412
191	0xbc3158a6	-0.010824358
192	0xbd8166d6	-0.063184425
193	0x3d08e3d0	0.033420384
194	0x3dcd6800	0.10029602
195	0xbda486e0	-0.08033538
196	0x3c4356fe	0.011922596
197	0xbd8fe38c	-0.07025823
198	0x3d8cece8	0.06881124
199	0xbd593aa5	-0.053034443
200	0xbd0c8bac	-0.03431289
201	0x3d236ba0	0.03989756
202	0x3dd5033d	0.10401008
203	0x3d59a240	0.05313325
204	0xbc670534	-0.014100362
205	0xbd941353	-0.07230248
206	0x3da28d10	0.07937062
207	0xbc365242	-0.01112801
208	0xba99b355	-0.0011726419
209	0xbd6b7e82	-0.057493694
210	0x3da3fb62	0.08006932
211	0x3dc46cb9	0.0959105
212	0xbd8526ef	-0.065015666
213	0xbc969b34	-0.018384553
214	0x3d4e325b	0.05034099
215	0x3ba1a365	0.004932808
216	0xbdc79ff0	-0.097473025
217	0x3d0b3506	0.033986114
218	0xbd16a9b9	-0.036782954
219	0x3b77d418	0.0037815627
220	0xbda73087	-0.08163553
221	0x3cb32694	0.021868981
222	0xbc668696	-0.014070174
223	0xbd6b93f2	-0.05751414
224	0x3d6bddbf	0.05758452
225	0x3c190536	0.009339621
226	0xbd1fae65	-0.038984675
227	0xbd03c424	-0.032169476
228	0xbcdac614	-0.02670578
229	0x3ca465ba	0.020068038
230	0xbcb2e14e	-0.02183595
231	0x3c96fb35	0.018430332
232	0x3d887d90	0.06664574
233	0xbd75db24	-0.060023442
234	0x3cdc5359	0.026895212
235	0x3d81dabd	0.06340549
236	0x3d81bf8c	0.06335363
237	0xbd20e387	-0.039279487
238	0xbccadd7d	-0.024763817
239	0x3d8daca4	0.06917694
240	0x3d4b8642	0.049688585
241	0xbbcb1662	-0.0061977366
242	0x3d0a7c9b	0.03381024
243	0xbd81820d	-0.06323633
244	0xbca42408	-0.020036712
245	0xbd28bc63	-0.041195285
246	0xbd8c43fc	-0.068489045
247	0x3d9847a0	0.074355364
248	0x3d16686e	0.036720686
249	0xbc6919c6	-0.014227336
250	0x3da46223	0.080265306
251	0x3ce54619	0.027987527
252	0x3d1b2c04	0.037883773
253	0xbcc8c4df	-0.024507938
254	0xbd072964	-0.032998458
255	0x3db617ca	0.08891256

ln.weight f4 [64]
0	0x3fb961e5	1.4483
1	0x3f56e4ce	0.8394288
2	0x3fc67725	1.550511
3	0x3fac762a	1.3473561
4	0x3fb3b4d7	1.4039563
5	0x3fc67f84	1.5507665
6	0x3fc33c5a	1.5252793
7	0x3fb997a1	1.4499398
8	0x3fbe68a2	1.4875681
9	0x3fbd5f59	1.4794723
10	0x3fc02d03	1.5013736
11	0x3fceaf70	1.6147289
12	0x3fc9443f	1.5723952
13	0x3fb5e77b	1.4211267
14	0x3fbe6a4d	1.487619
15	0x3fbf7925	1.4958845
16	0x3fb184c9	1.3868648
17	0x3fc0ac92	1.5052664
18	0x3fc6b536	1.5524051
19	0x3fbdbb80	1.4822845
20	0x3fbb241d	1.4620396
21	0x3f992438	1.1964178
22	0x3fcf28d3	1.6184334
23	0x3fa56fdd	1.2924763
24	0x3fcb8980	1.5901337
25	0x3fc452b5	1.533774
26	0x3fa2b10d	1.2710282
27	0x3fba5067	1.4555787
28	0x3fc335c5	1.5250784
29	0x3fbd924c	1.4810271
30	0x3fcae894	1.5852227
31	0x3fc657a8	1.54955
32	0x3fd157db	1.6354936
33	0x3fcbe5ee	1.5929544
34	0x3fc2bbd2	1.5213568
35	0x3fbefcf3	1.4920944
36	0x3fbbf876	1.4685199
37	0x3fb2a68a	1.3957074
38	0x3f86d2c8	1.0533075
39	0x3fc839a4	1.564259
40	0x3fb4e6bb	1.4132913
41	0x3fc3a790	1.5285511
42	0x3fc7c3bd	1.560661
43	0x3f8ba98e	1.0911119
44	0x3fc6bcd0	1.5526371
45	0x3fb4ab37	1.4114751
46	0x3fcd2f82	1.6030123
47	0x3fb0dc45	1.3817221
48	0x3fc16f52	1.5112097
49	0x3fcbfa20	1.5935707
50	0x3f9743de	1.1817586
51	0x3fb521cf	1.4150943
52	0x3fb6f305	1.4292914
53	0x3fca2250	1.5791721
54	0x3fc097e9	1.5046359
55	0x3fc6f069	1.5542117
56	0x3f93739c	1.1519656
57	0x3fbf00b4	1.492209
58	0x3fc3d4ee	1.5299356
59	0x3fb96d81	1.4486543
60	0x3fb8356a	1.4391301
61	0x3fcc9993	1.5984367
62	0x3fcc0850	1.5940037
63	0x3fc11da6	1.5087173

ln.bias f4 [64]
0	0xbef0e087	-0.470463
1	0xbea9b6ab	-0.33147177
2	0x3f1c602f	0.61084265
3	0xbed690f0	-0.41907454
4	0x3ee3fe3b	0.445299
5	0xbf123046	-0.5710491
6	0x3f09365e	0.5359858
7	0x3eebb9ac	0.46040094
8	0xbf04ebf6	-0.5192255
9	0x3f0051d4	0.5012486
10	0x3f04029b	0.51566476
11	0xbf12d7cd	-0.57360536
12	0xbf1cd9ae	-0.6126965
13	0x3ef1ab31	0.4720092
14	0xbf0746f2	-0.5284263
15	0x3f04ac6a	0.51825583
16	0xbee182ae	-0.44045013
17	0x3f0b6e37	0.5446505
18	0xbf0f9abf	-0.560955
19	0x3f012add	0.5045603
20	0x3ef0ae90	0.4700818
21	0xbee1467a	-0.43999082
22	0x3f13f979	0.5780254
23	0x3f1adc47	0.60492367
24	0x3f10e064	0.5659239
25	0x3f05208c	0.5200279
26	0xbed79f9e	-0.42113966
27	0x3f01b01e	0.5065936
28	0x3f0534f8	0.5203395
29	0x3ef9d1bd	0.4879283
30	0x3f0c9e41	0.54928976
31	0xbf0f4fe1	-0.5598126
32	0xbf17e207	-0.59329265
33	0xbef7ebf0	-0.48422194
34	0x3f08a5d5	0.5337804
35	0x3f063915	0.5243085
36	0xbef91c59	-0.4865444
37	0xbeedb70f	-0.46428725
38	0xbed5ea50	-0.4178033
39	0x3f0db9be	0.55361545
40	0x3eecec51	0.46274045
41	0xbf1ec24d	-0.6201523
42	0xbf06df3f	-0.52684397
43	0xbed2770f	-0.4110646
44	0xbf0825ff	-0.5318298
45	0x3ee20500	0.4414444
46	0xbf0fb878	-0.5614085
47	0x3edf31d2	0.43592697
48	0xbf09f8a4	-0.5389502
49	0xbf0d8796	-0.5528501
50	0xbed6b230	-0.4193282
51	0xbee8ec35	-0.45492712
52	0x3efcc525	0.4936916
53	0x3f0e8853	0.55676764
54	0xbf01ac20	-0.50653267
55	0xbf0d55c9	-0.5520902
56	0x3ee00dbb	0.43760476
57	0x3f014790	0.5049982
58	0x3f0e5e08	0.5561223
59	0xbef284da	-0.47366983
60	0x3ef04dab	0.46934256
61	0x3eec325f	0.4613218
62	0x3f154f28	0.5832391
63	0xbf032542	-0.51228726
