model.pth (torch, 122235 bytes, 8 tensors)

gru.weight_ih_l0 f4 [192, 3]
-0.036617786 -0.06746651 0.080234334 0.10348814 0.0747288 -0.08312231 0.031785093 0.07333552
0.0929701 0.15161204 0.00045332944 0.1131763 0.089125276 -0.026656158 0.10968889 -0.11059677
0.1702537 -0.12301889 -0.018179426 0.0043638255 0.048142225 0.22698897 0.07496491 0.039135486
-0.0014738075 -0.054011658 -0.06729855 -0.13288067 0.017361376 0.05927202 0.1202431 0.12265901
-0.06032306 0.20290233 -0.056071907 -0.04025939 0.1205351 -0.06352216 -0.054138243 0.04830896
0.058760334 0.119908035 0.13535409 0.060380124 -0.060791954 -0.090255745 -0.07769242 0.03209561
-0.108976305 0.010099811 0.111148596 0.022591585 0.07353552 0.118386194 0.104452655 0.07729006
0.046977654 -0.22169074 -0.043943267 0.10743877 0.020610165 0.07578533 0.064965606 -0.047050823
-0.074997984 0.10183725 -0.0058892956 -0.05718278 0.025722042 0.06124111 0.020293703 0.05478333
0.15132514 -0.09949633 -0.10601221 -0.086315826 -0.2221713 0.08790566 0.03825331 -0.012667588
0.09427562 -0.10106287 -0.20496605 -0.020362869 -0.092270255 -0.060026478 0.091709524 0.03219762
0.1153715 0.059409976 0.08857733 0.08302536 0.041490793 -0.16999392 -0.13779482 -0.08331166
-0.03252504 -0.10785176 -0.0676807 -0.08714822 0.15606685 -0.006653443 -0.09458315 -0.09783646
0.10249506 -0.009427049 -0.0041860086 -0.025809199 0.07384077 0.067306176 0.0609888 0.15863624
0.04001812 -0.113653615 -0.17231333 -0.029612225 -0.07110371 -0.030547036 -0.23202725 -0.109535724
-0.23002103 -0.10047063 -0.038441047 0.14055417 0.13640271 0.08299476 0.06801217 0.05097664
0.052725166 0.067248896 -0.13320954 0.086334154 -0.119862914 -0.07901121 0.027421668 -0.09574642
-0.13029201 -0.06057264 0.086674444 -0.029508915 0.030389905 0.017633602 0.06243226 0.10659951
-0.02151319 -0.03826286 -0.10570365 -0.008729906 0.060575627 -0.012577772 -0.17078312 0.08891971
-0.06602685 -0.06304645 0.04904045 -0.07680395 -0.103199355 0.06383871 0.031481564 0.1375047
-0.1347455 0.023994237 0.04284352 0.13901018 -0.12487361 -0.011255156 0.060799792 0.0754997
-0.006991339 -0.07460297 -0.0132344365 -0.04117341 -0.05991785 0.026356518 0.027197015 0.033636417
-0.04608664 0.06923629 0.02402464 0.011044055 0.1613157 0.15709299 0.030275822 -0.07879462
-0.056037575 0.028823212 -0.07411933 -0.2116342 -0.109688774 -0.1236012 -0.049567 -0.10788566
-0.033799633 -0.06626057 0.054366082 -0.10090976 -0.019395009 0.083766535 0.05273629 -0.029961508
0.027545169 0.016792934 -0.06580767 -0.07893011 0.10436483 0.07228626 -0.061083257 0.14077227
0.048135642 0.085033014 0.053666193 0.04950357 0.074704096 -0.12034758 0.018814277 -0.00771223
-0.018608218 0.067592874 0.089587316 -0.010102961 -0.007167321 0.032355577 -0.052660927 -0.04543672
0.022658035 -0.08652242 0.00578225 -0.08936882 -0.019287802 0.014458466 -0.044846356 -0.13409926
0.14218037 -0.0077220947 -0.059269823 0.048834175 0.074793786 0.11441779 0.04278668 0.034246415
0.06766117 0.009504411 -0.08454034 -0.035139665 -0.08203702 -0.08104418 -0.056508668 -0.07699352
0.019798845 0.004146905 0.07712545 0.057921022 -0.040735763 -0.11023908 -0.08782956 -0.06298343
00000000: 88fc 15bd e22b 8abd e651 a43d 97f1 d33d
00000010: 6a0b 993d 083c aabd 1631 023d ef30 963d
00000020: 1c67 be3d 3040 1b3e d9ac ed39 fac8 e73d
00000030: 5087 b63d 045e dabc 92a4 e03d 8f80 e2bd
00000040: fc56 2e3e 54f1 fbbd 05ed 94bc 6cfe 8e3b
00000050: c830 453d cc6f 683e 3487 993d 884c 203d
00000060: c62c c1ba 543b 5dbd d2d3 89bd df11 08be
00000070: 7239 8e3c 38c7 723d 0442 f63d a634 fb3d
00000080: 5015 77bd a1c5 4f3e a8ab 65bd 08e7 24bd
00000090: 1bdb f63d e817 82bd 10c0 5dbd 9edf 453d
000000a0: adae 703d 5892 f53d 439a 0a3e 2651 773d
000000b0: fc00 79bd 01d8 b8bd 341d 9fbd b076 033d
000000c0: f82e dfbd ad79 253c e0a1 e33d fd11 b93c
000000d0: ca99 963d 7674 f23d 46eb d53d 404a 9e3d
000000e0: a46b 403d e602 63be dbfd 33bd dc08 dc3d
000000f0: a6d6 a83c 5735 9b3d b00c 853d 5db8 40bd
00000100: 8b98 99bd 0c90 d03d fefa c0bb 7e38 6abd
00000110: 08b7 d23c f5d7 7a3d fb3e a63c 7c64 603d
00000120: faf4 1a3e bbc4 cbbd ee1c d9bd 5ac6 b0bd
00000130: e080 63be e207 b43d 81af 1c3d b78b 4fbc
00000140: 9413 c13d 0dfa cebd 9fe2 51be 08d0 a6bc
00000150: 30f8 bcbd 53de 75bd 34d2 bb3d a7e1 033d
00000160: e547 ec3d e057 733d 0868 b53d 3309 aa3d
00000170: 40f2 293d e312 2ebe 161a 0dbe 4e9f aabd
00000180: fa38 05bd 62e1 dcbd 2e9c 8abd c47a b2bd
00000190: fdcf 1f3e 2005 dabb d0b4 c1bd 7b5e c8bd
000001a0: eee8 d13d e973 1abc c92a 89bb d06d d3bc
000001b0: d439 973d d2d7 893d 64cf 793d 8a71 223e
000001c0: 0aea 233d 3ac3 e8bd e872 30be 5695 f2bc
000001d0: d29e 91bd c73d fabc 8d98 6dbe 4454 e0bd
000001e0: a28a 6bbe 8cc3 cdbd 5c74 1dbd 6fed 0f3e
000001f0: 27ad 0b3e 28f9 a93d f749 8b3d e2cc 503d
00000200: 58f6 573d cab9 893d 1568 08be f6cf b03d
00000210: b07a f5bd a1d0 a1bd 68a3 e03c b316 c4bd
00000220: 456b 05be 041b 78bd 5f82 b13d aebc f1bc
00000230: 40f4 f83c 5874 903c f8b8 7f3d d850 da3d
00000240: 6e3c b0bc 84b9 1cbd 287b d8bd e107 0fbc
00000250: 261e 783d 0013 4ebc c5e1 2ebe 891b b63d
00000260: 1639 87bd 7f1e 81bd a4de 483d 644b 9dbd
00000270: 2f5a d3bd dfbd 823d d0f2 003d 08ce 0c3e
00000280: b9fa 09be 908f c43c b07c 2f3d af58 0e3e
00000290: bcbd ffbd 8c67 38bc 3409 793d 969f 9a3d
000002a0: 9a17 e5bb 71c9 98bd 40d5 58bc 73a5 28bd
000002b0: 6b6c 75bd a0e9 d73c 46cc de3c 57c6 093d
000002c0: 58c5 3cbd c2cb 8d3d 52cf c43c 20f2 343c
000002d0: f12f 253e fcdc 203e 0005 f83c 135f a1bd
000002e0: a887 65bd a81e ec3c e0cb 97bd a3b6 58be
000002f0: 82a4 e0bd a022 fdbd c406 4bbd 28f3 dcbd
00000300: 7c71 0abd 9fb3 87bd f8ae 5e3d c7a9 cebd
00000310: 48e2 9ebc ca8d ab3d 0202 583d d671 f5bc
00000320: 68a6 e13c 5691 893c 2cc6 86bd 1ca6 a1bd
00000330: 3abd d53d d20a 943d 7032 7abd 9b26 103e
00000340: e129 453d ca25 ae3d 15d1 5b3d 41c4 4a3d
00000350: 76fe 983d cb78 f6bd 6620 9a3c e0b6 fcbb
00000360: 4370 98bc 226e 8a3d 8e79 b73d e486 25bc
00000370: d9db eabb 4887 043d fcb2 57bd db1b 3abd
00000380: 589d b93c ab32 b1bd 0779 bd3b 0007 b7bd
00000390: 7401 9ebc 34e3 6c3c d0b0 37bd 5151 09be
000003a0: bb97 113e a009 fdbb eac4 72bd 5806 483d
000003b0: 7c2d 993d e053 ea3d 1641 2f3d f845 0c3d
000003c0: f191 8a3d 64b8 1b3c 7c23 adbd 9cee 0fbd
000003d0: 0603 a8bd 7efa a5bd a275 67bd c7ae 9dbd
000003e0: 3031 a23c c3e2 873b f3f3 9d3d 983e 6d3d
000003f0: 8bda 26bd 07c5 e1bd fcdf b3bd 75fd 80bd

gru.weight_hh_l0 f4 [192, 64]
0.081319906 0.040859334 -0.006482577 -0.023867723 0.0016206509 0.052673258 -0.050067704 -0.09098034
-0.015521056 -0.04872732 0.0217517 -0.11062136 0.12503159 -0.053471185 0.012881372 -0.022600738
0.03987074 0.08513719 0.027615657 0.032368153 0.028445743 -0.10486311 0.053469192 -0.080454744
0.11933249 0.11891732 0.03719367 0.12158456 -0.028915111 -0.16956748 -0.15646863 0.0016218701
-0.16779146 0.048297223 0.05605893 0.028516999 0.14421603 0.08382377 0.08827181 -0.028454512
0.096383825 -0.086524546 -0.05187502 -0.13642134 -0.029853141 -0.046666 -0.14433593 -0.12468888
-0.008462588 -0.07600964 0.121237606 -0.009073341 0.064681254 0.042809863 -0.031128481 -0.04167467
0.12955254 -0.14604531 -0.049575914 0.08456947 -0.044723406 -0.09717032 0.078717135 0.023701234
-0.07201424 0.0024971564 -0.09231446 0.114435375 0.09390797 -0.05901258 -0.1141378 0.06611017
-0.13036199 0.06922314 -0.039060056 0.059713133 0.030550685 0.016294189 -0.012391809 -0.016216753
-0.10190083 0.08795094 0.053890787 0.042244077 0.106143065 -0.010000433 -0.03937024 -0.0867935
-0.10357352 -0.021694748 0.10686865 -0.10098354 -0.009344016 0.05443143 0.04867552 -0.053409114
0.07165419 -0.030418351 0.050723337 0.06425664 -0.08556079 -0.006763283 0.054488406 0.09152208
0.05004259 -0.095614195 -0.12648548 0.019099677 0.09786772 0.037387002 -0.019363305 -0.0645298
-0.07498935 0.023017697 0.0017875332 -0.047307573 0.02129135 -0.081485316 -0.01059487 -0.089076675
-0.08401254 -0.08089815 -0.02052834 -0.021882078 -0.010481494 -0.00441894 0.07241232 -0.0727414
-0.050506327 -0.03204672 0.025054779 -0.029111203 0.08031432 0.11915797 0.071742915 -0.02392673
-0.035540503 0.015624265 0.029635545 -0.07717894 -0.014449097 -0.05895954 -0.09244216 -0.08697973
0.0230228 -0.05721815 -0.029118095 0.09878886 -0.02008957 -0.036537595 0.094107166 -0.1232301
0.034728706 -0.030319007 0.051097784 -0.09728043 -0.04550477 -0.1473563 0.08390831 -0.09285911
-0.0007789168 -0.116556875 -0.07865946 0.104070924 0.022521887 -0.036172077 0.013041387 -0.06740439
-0.06648999 -0.0056359814 0.021038214 0.09475174 0.100273825 0.041306708 -0.09385073 0.020346256
-0.033115786 -0.046331353 0.022762474 0.064458355 -0.05274251 -0.056940343 -0.080551736 0.0145301735
0.028066535 -0.070784606 -0.09348073 0.026739612 -0.12790303 -0.012019809 -0.023398833 -0.05598213
0.03347805 -0.03640686 -0.0833164 0.037567377 0.11277545 -0.05458947 -0.046408687 -0.07700397
0.054750826 -0.12626562 -0.018208807 -0.13639274 -0.08445417 -0.08106996 0.09516647 0.05338553
0.02853812 0.033808976 -0.0026830626 0.088329956 0.022686448 -0.08708416 0.111839235 -0.082473375
-0.037126184 -0.027162842 0.10373172 0.055999763 0.043975208 0.09713308 -0.027080342 -0.009639371
0.05193626 0.09258464 0.015191199 -0.08008823 0.02693497 -0.1289221 0.1438644 -0.04531334
0.05884152 0.0460788 -0.016844973 -0.11930727 -0.055097193 -0.06744685 -0.009798704 0.04434986
0.04079539 -0.0050593754 0.105422765 0.07331194 0.02893358 0.022193082 0.048797954 0.020158725
-0.011090175 -0.043078087 -0.010457224 0.09746992 0.0037550626 0.024462113 -0.0074690157 0.074574545
00000000: 0d8b a63d 1e5c 273d cc6b d4bb 3e86 c3bc
00000010: 056c d43a eabf 573d cb13 4dbd e753 babd
00000020: 074c 7ebc 4c96 47bd 9f30 b23c 748d e2bd
00000030: 4808 003e 9a04 5bbd 640c 533c 2f25 b9bc
00000040: 804f 233d 685c ae3d 3b3a e23c 7894 043d
00000050: 0c07 e93c 78c2 d6bd 8302 5b3d 75c5 a4bd
00000060: 9864 f43d ed8a f33d 6458 183d 5301 f93d
00000070: 62df ecbc 19a3 2dbe 5039 20be ee94 d43a
00000080: 86d1 2bbe 4fd3 453d 0c9e 653d 7b9c e93c
00000090: 5ead 133e ccab ab3d dac7 b43d 7019 e9bc
000000a0: e264 c53d c833 b1bd e77a 54bd 09b2 0bbe
000000b0: 938e f4bc d924 3fbd cccc 13be e25c ffbd
000000c0: aba6 0abc f1aa 9bbd 6c4b f83d 5aa8 14bc
000000d0: 9b77 843d 6559 2f3d 2801 ffbc 0fb3 2abd
000000e0: 6ca9 043e e78c 15be 1d10 4bbd c232 ad3d
000000f0: e42f 37bd 3c01 c7bd 7336 a13d 1729 c23c
00000100: 347c 93bd 55a7 233b 5d0f bdbd 185d ea3d
00000110: d252 c03d 2db7 71bd 14c1 e9bd c564 873d
00000120: 9d7d 05be ddc4 8d3d 70fd 1fbd c295 743d
00000130: 6e45 fa3c 647b 853c 0407 4bbc ffd8 84bc
00000140: 62b1 d0bd 9f1f b43d 96bc 5c3d 2008 2d3d
00000150: 8961 d93d dbd8 23bc b042 21bd cac0 b1bd
00000160: 5b1e d4bd 2fb9 b1bc f3dd da3d 75d0 cebd
00000170: a517 19bc 7ef3 5e3d fb5f 473d 84c3 5abd
00000180: 6fbf 923d e82f f9bc 46c3 4f3d fc98 833d
00000190: 7f3a afbd 889e ddbb 3c2f 5f3d ee6f bb3d
000001a0: 75f9 4c3d 60d1 c3bd 6985 01be ed76 9c3c
000001b0: df6e c83d 1d23 193d cb9f 9ebc 3328 84bd
000001c0: 0494 99bd 9c8f bc3c a94b ea3a 96c5 41bd
000001d0: 326b ae3c c6e1 a6bd 1b96 2dbc d56d b6bd
000001e0: c40e acbd eead a5bd 0d2b a8bc 0b42 b3bc
000001f0: 92ba 2bbc c1cc 90bb e94c 943d 71f9 94bd
00000200: b9df 4ebd 6c43 03bd ae3f cd3c 9e7a eebc
00000210: d67b a43d 1809 f43d f3ed 923d fd01 c4bc
00000220: eb92 11bd ebfc 7f3c 3ec6 f23c fe0f 9ebd
00000230: e8bb 6cbc 8f7f 71bd 5152 bdbd 6e22 b2bd
00000240: 509a bc3c 945d 6abd 1289 eebc d051 ca3d
00000250: e292 a4bc 72a8 15bd 42bb c03d 1060 fcbd
00000260: b03f 0e3d 915f f8bc e94b 513d f63a c7bd
00000270: 3663 3abd 92e4 16be 1fd8 ab3d eb2c bebd
00000280: 3930 4cba 5fb5 eebd 3618 a1bd 2323 d53d
00000290: d27f b83c 2c29 14bd 8bab 553c 500b 8abd
000002a0: e72b 88bd 0aae b8bb 5558 ac3c 330d c23d
000002b0: 5d5c cd3d 3931 293d d034 c0bd 31ad a63c
000002c0: 6ba4 07bd f2c5 3dbd 5e78 ba3c be02 843d
000002d0: 8808 58bd 473a 69bd 4ff8 a4bd f70f 6e3c
000002e0: caeb e53c 85f7 90bd d372 bfbd 080d db3c
000002f0: 03f9 02be bcee 44bc e9ae bfbc 854d 65bd
00000300: 4820 093d 5c1f 15bd caa1 aabd 40e0 193d
00000310: d1f6 e63d 3599 5fbd 0917 3ebd 42b4 9dbd
00000320: 6742 603d c64b 01be a32a 95bc 8aaa 0bbe
00000330: 4ff6 acbd 0208 a6bd a3e6 c23d c9aa 5a3d
00000340: c7c8 e93c 487b 0a3d 52d6 2fbb 56e6 b43d
00000350: eed8 b93c 2e59 b2bd f80b e53d cde7 a8bd
00000360: a011 18bd 9c84 debc 4c71 d43d 0260 653d
00000370: 591f 343d b5ed c63d 98d7 ddbc 74ee 1dbc
00000380: 1ebb 543d 049d bd3d 82e4 783c 4c05 a4bd
00000390: baa6 dc3c 2804 04be 3051 133e 7b9a 39bd
000003a0: ce03 713d 20bd 3c3d 78fe 89bc 5f57 f4bd
000003b0: 98ad 61bd 9321 8abd be8a 20bc 33a8 353d
000003c0: 1119 273d 1ec9 a5bb e4e7 d73d 9224 963d
000003d0: 1d06 ed3c 44ce b53c 5de0 473d e923 a53c
000003e0: 91b3 35bc a672 30bd c754 2bbc 4f9e c73d
000003f0: 7f17 763b c564 c83c a5be f4bb 8aba 983d

gru.bias_ih_l0 f4 [192]
0.021119175 0.09486326 -0.024789935 0.018627904 0.073791824 0.0065521337 0.12013146 0.012172695
-0.05940205 0.15212949 -0.07108671 0.14764896 0.022815926 -0.09059767 0.13707909 0.047370892
-0.0765669 0.061872385 -0.014604301 0.042572476 -0.095231384 0.056429166 -0.053522427 0.10877532
0.17387937 -0.018864179 -0.08848347 -0.103620365 0.08525836 0.01663939 -0.081328824 0.063598394
0.078677356 -0.06193972 0.1970409 0.12785564 -0.03303718 0.07457767 0.020779483 -0.042360812
0.029247817 -0.10026438 -0.020189943 -0.011099171 0.07566136 0.023414437 -0.1034817 0.15060158
0.11153842 0.029775998 0.04188964 -0.034525957 0.10377117 0.10898191 0.064903915 -0.08300314
0.08298042 0.007667771 0.031720888 -0.013404 0.0930489 0.12669683 -0.0917878 -0.032119635
0.0729656 -0.07281772 -0.15284528 -0.025094582 -0.0009395297 0.04993735 -0.1337087 0.0014747643
0.026610857 0.086669266 -0.038328636 -0.082618676 0.0648414 0.041153103 -0.18712363 0.08993733
0.023514029 0.018616302 -0.0028316388 -0.11579851 0.09562786 -0.06448549 0.14497307 0.07655303
0.0464403 -0.09982203 -0.11558174 0.028802466 0.07047572 -0.03402288 -0.143231 -0.08188597
-0.026689697 0.09826764 -0.038186897 -0.03844528 -0.07014567 0.057501998 0.009641814 -0.026038224
-0.15528269 0.11427184 0.067623235 -0.0602766 0.018054774 0.060936444 -0.102672845 0.019036762
-0.028015068 -0.096616045 -0.14874099 -0.024265237 0.13232172 0.10608632 0.13006458 0.07634205
-0.15358843 0.06584077 -0.048849862 -0.009084358 -0.080526836 0.08976349 0.029218713 -0.13946296
0.085228786 -0.0960245 -0.07258944 0.07093987 0.013633868 0.067865625 -0.03367105 -0.10212297
-0.08988535 -0.12899928 0.043444816 -0.10639853 0.06373445 -0.09921591 0.09878596 0.115393095
-0.10153781 -0.15898384 0.17179063 0.08921899 -0.09774746 -0.13081299 0.13148306 0.029661296
0.08922352 0.049943794 -0.13582845 0.10758034 -0.11278785 -0.05899998 -0.12489194 -0.09555663
-0.16517656 -0.09292332 0.034235694 0.057743415 0.08360663 -0.103815295 0.11406458 -0.09805913
0.06225358 0.08613931 -0.10175308 -0.06934829 0.109380774 -0.14052823 -0.12957405 -0.14157994
0.085929856 0.085850604 0.038638175 -0.076403506 -0.11651134 0.09700621 0.14615834 -0.15338416
0.14913651 -0.06628337 0.14044198 -0.104391076 -0.10985364 -0.13897406 0.02769879 -0.12142394
00000000: 1f02 ad3c ab47 c23d 4314 cbbc 8c99 983c
00000010: 2b20 973d 48b3 d63b 7c07 f63d fc6f 473c
00000020: 904f 73bd d5c7 1b3e e995 91bd 4a31 173e
00000030: 77e8 ba3c 458b b9bd 765e 0c3e fb07 423d
00000040: 1bcf 9cbd e66d 7d3d e146 6fbc 7a60 2e3d
00000050: ac08 c3bd 4522 673d 553a 5bbd 98c5 de3d
00000060: 6f0d 323e 0d89 9abc d236 b5bd ea36 d4bd
00000070: ef9b ae3d 544f 883c ba8f a6bd e03f 823d
00000080: 9821 a13d 81b4 7dbd 17c5 493e 97ec 023e
00000090: fe51 07bd 2dbc 983d bc39 aa3c 8882 2dbd
000000a0: 1e99 ef3c 6957 cdbd 6165 a5bc 4cd9 35bc
000000b0: 58f4 9a3d a2cf bf3c 37ee d3bd 4d37 1a3e
000000c0: 416e e43d cbec f33c 7994 2b3d 176b 0dbd
000000d0: fb85 d43d e831 df3d 58ec 843d 8dfd a9bd
000000e0: a3f1 a93d ed41 fb3b c3ed 013d 739c 5bbc
000000f0: 6c90 be3d d0bc 013e 3efb bbbd e18f 03bd
00000100: fd6e 953d 7521 95bd 7983 1cbe 2793 cdbc
00000110: c54a 76ba 1b8b 4c3d efea 08be e14c c13a
00000120: 03ff d93c a87f b13d 7dfe 1cbd fb33 a9bd
00000130: 91cb 843d 2890 283d 569d 3fbe 1031 b83d
00000140: 7ea0 c03c 3781 983c 0493 39bb c527 edbd
00000150: 8ad8 c33d f810 84bd d273 143e d6c7 9c3d
00000160: 2f38 3e3d 7e6f ccbd 1fb6 ecbd 26f3 eb3c
00000170: 9355 903d 935b 0bbd 26ab 12be d5b3 a7bd
00000180: 5aa4 dabc 8b40 c93d dd69 1cbd cc78 1dbd
00000190: 88a8 8fbd 3787 6b3d b3f8 1d3c 1d4e d5bc
000001a0: 6d02 1fbe 5b07 ea3d 0d7e 8a3d 99e4 76bd
000001b0: 9be7 933c 7e98 793d 2446 d2bd fcf2 9b3c
000001c0: db7f e5bc a2de c5bd 8f4f 18be e4c7 c6bc
000001d0: 587f 073e c943 d93d a62f 053e 3959 9c3d
000001e0: 4946 1dbe 87d7 863d cb16 48bd 8fd6 14bc
000001f0: 41eb a4bd ecd5 b73d 155c ef3c 61cf 0ebe
00000200: 6e8c ae3d 7ea8 c4bd c6a9 94bd ec48 913d
00000210: 9660 5f3c 22fd 8a3d a8ea 09bd d925 d1bd
00000220: cf15 b8bd 6318 04be 31f3 313d 79e7 d9bd
00000230: 3587 823d b631 cbbd 4b50 ca3d 3753 ec3d
00000240: 0ef3 cfbd a9cc 22be e2e9 2f3e 72b8 b63d
00000250: d22f c8bd d7f3 05be 7fa3 063e 3ffc f23c
00000260: d2ba b63d dd91 4c3d 9d16 0bbe 1553 dc3d
00000270: 51fd e6bd f7a9 71bd 58c7 ffbd 32b3 c3bd
00000280: 0b24 29be 954e bebd ba3a 0c3d 5c84 6c3d
00000290: f439 ab3d 1d9d d4bd b19a e93d 3ad3 c8bd
000002a0: 9cfd 7e3d ce69 b03d eb63 d0bd 7a06 8ebd
000002b0: 0703 e03d a2e6 0fbe 0faf 04be 55fa 10be
000002c0: fefb af3d 71d2 af3d 1043 1e3d 7179 9cbd
000002d0: 7f9d eebd 31ab c63d 88aa 153e bd10 1dbe
000002e0: 3eb7 183e 93bf 87bd 06d0 0f3e fdca d5bd
000002f0: f2fa e0bd 374f 0ebe 93e8 e23c 1dad f8bd

gru.bias_hh_l0 f4 [192]
0.06321031 0.044932473 0.1327999 -0.027297257 0.13151029 -0.040143687 0.157411 -0.048718132
-0.0018724969 0.06757029 0.112213984 -0.037285067 0.06662759 0.045763824 0.041904062 -0.080395274
0.058378715 -0.070590645 -0.04399217 -0.03704132 0.0071213557 -0.08180932 0.033674836 -0.015994068
0.08744807 0.16969897 -0.047998648 0.10444988 0.017802589 -0.08512269 -0.054071717 0.15033677
-0.032676965 0.00012769135 -0.046381064 0.11301247 0.065881915 0.038066175 0.104537666 -0.09344861
-0.049267933 0.055820093 0.10492221 0.031899918 0.021450378 0.019388326 -0.023041757 0.13932334
0.12523955 0.11766495 0.08510011 0.006592595 -0.0839752 0.13186382 -0.07176347 0.057641782
-0.104395784 0.040373802 0.094430424 0.007767705 0.060327232 -0.038947538 -0.067593955 -0.055723645
0.043632004 0.11892538 -0.105804585 -0.17540611 -0.11334874 -0.00883846 0.0029504446 -0.0071662483
-0.17121428 0.079233065 0.06108768 -0.09776984 -0.052758757 0.10680666 -0.060128037 -0.0767446
-0.16995639 -0.09068793 -0.040624756 -0.0031271742 0.14210792 0.052205477 -0.06646144 0.0082324175
-0.10005655 -0.11838421 -0.068860754 0.091097236 -0.13375887 -0.023336539 -0.11182344 0.10651764
-0.10397259 -0.07652468 0.042338196 -0.12994602 0.020232717 -0.052618 0.039357204 -0.0912865
-0.15124837 -0.08460369 -0.0014498259 0.015065341 0.00093806733 0.017166754 -0.05123757 -0.030739067
0.15459871 0.018807156 -0.04115679 0.005567544 0.17166212 0.16523166 -0.017944207 -0.002712836
-0.03431685 -0.091086976 0.11067795 0.008590598 -0.10211746 0.06750782 -0.029218147 0.019421522
0.083168015 -0.064097695 -0.0695416 0.100758374 0.16597103 0.1404598 -0.14667149 -0.06969828
-0.058028076 -0.035412148 0.15250263 -0.023717554 0.14364745 -0.062873095 0.056094468 0.072854996
-0.017832981 0.031069895 -0.06795333 0.03667554 -0.09541573 -0.0045380807 0.017422326 0.107867785
0.07070657 0.15015425 0.023176005 0.035031214 0.0048760725 -0.0064565735 0.004635963 -0.12268502
0.04221243 -0.08637825 0.19932298 0.14162011 0.0873721 -0.062237166 0.02576007 -0.009062035
0.10327954 0.10202977 -0.09148474 -0.15124956 0.07426986 0.009300713 -0.03537278 -0.010850665
0.06305425 0.09142337 0.13078369 -0.08725063 -0.035719838 0.073513776 0.0046404214 0.020622574
-0.0625143 -0.1521377 0.021912191 -0.03519979 -0.045319933 -0.0065772934 0.15142317 -0.0076029934
00000000: 6874 813d 1d0b 383d b2fc 073e 7f9e dfbc
00000010: a2aa 063e b56d 24bd 5930 213e aa8c 47bd
00000020: 926e f5ba 4b62 8a3d 72d0 e53d 3ab8 18bd
00000030: 0c74 883d d972 3b3d 98a3 2b3d 47a6 a4bd
00000040: 851e 6f3d d491 90bd 2231 34bd a4b8 17bd
00000050: 435a e93b a58b a7bd a0ee 093d fe05 83bc
00000060: f917 b33d 91c5 2d3e 3b9a 44bd d2e9 d53d
00000070: bcd6 913c ce54 aebd 4e7a 5dbd e2f1 193e
00000080: 48d8 05bd e3e4 0539 12fa 3dbd 1573 e73d
00000090: 19ed 863d 47eb 1b3d d817 d63d fc61 bfbd
000000a0: 2ccd 49bd 9ca3 643d 75e1 d63d 7da9 023d
000000b0: b4b8 af3c 44d4 9e3c 11c2 bcbc c7aa 0e3e
000000c0: cc3e 003e 52fa f03d f748 ae3d b206 d83b
000000d0: 31fb abbd 4f07 073e baf8 92bd ca19 6c3d
000000e0: 75cd d5bd 005f 253d bd64 c13d 3b88 fe3b
000000f0: b019 773d 7487 1fbd b36e 8abd 7a3e 64bd
00000100: 79b7 323d 268f f33d 13b0 d8bd a99d 33be
00000110: 6223 e8bd 30cf 10bc 3f5c 413b d9d2 eabb
00000120: cc52 2fbe f244 a23d 1337 7a3d 8e3b c8bd
00000130: 9119 58bd 73bd da3d d148 76bd 462c 9dbd
00000140: 0c09 2ebe 98ba b9bd 2566 26bd 47f1 4cbb
00000150: bd84 113e 69d5 553d ef1c 88bd 43e1 063c
00000160: 73ea ccbd 6c73 f2bd de06 8dbd 3091 ba3d
00000170: 16f8 08be 452c bfbc b003 e5bd ec25 da3d
00000180: 95ef d4bd f9b8 9cbd d16a 2d3d 9210 05be
00000190: 15bf a53c f985 57bd 0535 213d 6bf4 babd
000001a0: dae0 1abe b344 adbd 1608 beba 9fd4 763c
000001b0: a2e8 753a 4ba1 8c3c 7cde 51bd 7fd0 fbbc
000001c0: 204f 1e3e 7711 9a3c 0694 28bd f26f b63b
000001d0: 32c8 2f3e 7d32 293e bbff 92bc d6c9 31bb
000001e0: d38f 0cbd cf8b babd 1fab e23d 94bf 0c3c
000001f0: f522 d1bd 8a41 8a3d e55a efbc e219 9f3c
00000200: fe53 aa3d a745 83bd d46b 8ebd 685a ce3d
00000210: 4ff4 293e b2d4 0f3e 0d31 16be f9bd 8ebd
00000220: d9ae 6dbd 540c 11bd a629 1c3e 514b c2bc
00000230: 5118 133e 9cc3 80bd 50c3 653d 0035 953d
00000240: 7916 92bc 4b86 fe3c 1e2b 8bbd 1739 163d
00000250: 5269 c3bd 2eb4 94bb 44b9 8e3c c9e9 dc3d
00000260: 9bce 903d 09c2 193e 9bdb bd3c e47c 0f3d
00000270: 76c7 9f3b aa91 d3bb 47e9 973b 4942 fbbd
00000280: f1e6 2c3d 14e7 b0bd 531b 4c3e dd04 113e
00000290: 25f0 b23d 66ec 7ebd c806 d33c ee78 14bc
000002a0: 3984 d33d fcf4 d03d 5a5c bbbd 2ae1 1abe
000002b0: cc1a 983d 0562 183c 0ce3 10bd fdc6 31bc
000002c0: 9622 813d 2d3c bb3d 29ec 053e 75b0 b2bd
000002d0: f74e 12bd 648e 963d ad0e 983b acf0 a83c
000002e0: 7f07 80bd fcc9 1bbe 3281 b33c a82d 10bd
000002f0: 65a1 39bd 5686 d7bb ad0e 1b3e 8822 f9bb

fc.weight f4 [256, 64]
-0.110459425 -0.054747704 0.104140975 0.07317504 0.03541703 -0.061284434 -0.047497127 0.055573132
-0.0050031715 -0.06466319 -0.0076475046 0.021496996 -0.08915177 0.091430336 0.059094507 0.118335485
0.10637842 0.07793977 0.00011254523 0.0002660276 -0.123033024 -0.07563391 -0.10643827 -0.052157216
0.11079538 -0.05504456 0.012486064 -0.0007188099 -0.07925475 0.035759427 0.0051867967 0.06361586
0.094331205 -0.040526982 0.114172466 0.10227629 0.101364486 -0.042276535 -0.009949346 -0.041462123
-0.09248541 0.008528069 -0.105250016 -0.0077699693 0.014064327 0.08984969 -0.12205915 -0.08446883
-0.002778008 0.023357416 -0.12195238 0.0045656958 -0.039142765 -0.035330042 0.04821409 0.11870288
-0.034588687 0.08074151 -0.06777401 -0.048374068 -0.08306809 0.016981691 -0.051882964 -0.09962217
0.0702662 0.07566526 0.033011775 0.03667793 -0.06945171 -0.0069352547 -0.082847886 0.07407338
-0.041833635 -0.10719006 -0.102738164 -0.08113182 -0.08596684 -0.08693249 -0.040811546 -0.05714284
-0.065532856 0.054396123 0.115018204 0.0560236 -0.009923199 0.07851259 -0.09650886 0.08006427
0.04182153 -0.08068553 -0.061250065 -0.047775686 -0.027369043 -0.09795122 -0.09787494 0.04288654
0.04807027 0.01801229 -0.09478232 -0.10773047 -0.04140044 0.038405467 -0.0006772681 0.051140275
0.074968055 -0.066570796 -0.044814214 -0.02085298 0.11942053 0.10124683 0.06440535 -0.03275964
-0.043090206 0.08303572 -0.040310673 0.089300044 -0.09566835 0.0007000338 -0.078430615 -0.067053296
0.119954355 0.011651477 0.032670617 -0.07210716 -0.09904418 -0.03753438 0.062489823 0.030793656
0.097037815 -0.07470801 -0.016766334 0.11480685 -0.035819076 -0.1166831 0.026012022 0.0059092054
0.06713846 -0.0074505536 0.020225655 0.04188106 -0.09648319 0.037180316 0.07917387 0.055304438
0.09801015 -0.124729306 -0.06234653 0.014485258 -0.07216086 -0.038078833 -0.05938547 0.03769388
0.08869397 -0.089738175 0.06500615 0.08760496 0.07597112 -0.028464276 -0.0015268276 0.031058727
-0.08482976 -0.09258911 -0.08819591 0.13094044 -0.079651386 -0.012182992 -0.04285135 -0.037952505
-0.0637282 -0.005788215 -0.07593611 0.042448528 0.07279931 -0.0070462567 -0.12809113 -0.018716471
-0.114353664 -0.09811779 -0.08705473 0.055803336 -0.08808038 -0.084375754 0.033292823 -0.059825048
-0.07851374 -0.06506569 0.052907936 0.05289772 -0.061387602 0.051718187 -0.0076804757 -0.01539609
0.09960515 0.0023414437 0.006774273 -0.043533705 0.08112337 0.03452495 -0.13175079 -0.03684055
0.044658303 -0.10047685 -0.0924485 -0.016019657 0.085582666 -0.023313543 0.10741422 -0.045746833
0.09913188 0.05439348 -0.018196423 -0.0738643 -0.10433422 -0.009162016 -0.011231694 0.03797087
-0.02059295 -0.00082018366 -0.062429063 0.1221095 0.036318246 0.06920025 0.010749188 -0.03760018
0.062195376 0.0639853 -0.03595186 -0.055836935 0.107890666 0.086418755 -0.08403886 0.07104084
0.0857199 0.026090756 -0.058656957 -0.09303339 0.05868061 -0.13002802 0.07443388 -0.13585202
-0.051921077 -0.0279281 0.0009135315 0.035718773 -0.031496447 0.10344437 0.011740092 0.034521103
-0.06103405 0.048072442 -0.07263782 0.07233351 0.0655895 0.05227481 -0.0066769314 -0.0075611505
00000000: 8d38 e2bd 213f 60bd dd47 d53d ccdc 953d
00000010: 7311 113d 6305 7bbd 598c 42bd a7a0 633d
00000020: a5f1 a3bb 226e 84bd eb97 fabb 781a b03c
00000030: 3495 b6bd d43f bb3d 150d 723d e059 f23d
00000040: eedc d93d e39e 9f3d 4306 ec38 9f79 8b39
00000050: bdf8 fbbd f4e5 9abd 4ffc d9bd cea2 55bd
00000060: b0e8 e23d 6876 61bd 5992 4c3c 846e 3cba
00000070: 5050 a2bd 7a78 123d 01f6 a93b 0849 823d
00000080: b830 c13d 9fff 25bd 41d3 e93d 3b76 d13d
00000090: 2f98 cf3d 292a 2dbd 9502 23bc 30d4 29bd
000000a0: fe68 bdbd 50b9 0b3c 528d d7bd 3a9b febb
000000b0: 106e 663c 1d03 b83d 26fa f9bd fefd acbd
000000c0: 3e0f 36bb 0d58 bf3c 2bc2 f9bd d59b 953b
000000d0: 2a54 20bd 3cb6 10bd 237c 453d 7f1a f33d
000000e0: deac 0dbd ce5b a53d 1acd 8abd e323 46bd
000000f0: 9a1f aabd 301d 8b3c 3b83 54bd b506 ccbd
00000100: bae7 8f3d 63f6 9a3d 5b37 073d 993b 163d
00000110: b33c 8ebd 2241 e3bb 27ac a9bd c9b3 973d
00000120: bf59 2bbd 7686 dbbd 6368 d2bd 7128 a6bd
00000130: 620f b0bd a909 b2bd 022a 27bd 9c0e 6abd
00000140: 1736 86bd 78ce 5e3d aa8e eb3d 0179 653d
00000150: ea94 22bc 35cb a03d 70a6 c5bd bcf8 a33d
00000160: 0d4d 2b3d 753e a5bd 59e1 7abd 70b0 43bd
00000170: 0b35 e0bc a69a c8bd a872 c8bd cca9 2f3d
00000180: 55e5 443d 838e 933c 3c1d c2bd cba1 dcbd
00000190: 8293 29bd 0d4f 1d3d b18a 31ba 7778 513d
000001a0: da88 993d 4556 88bd 1c8f 37bd ded3 aabc
000001b0: c092 f43d 7f5a cf3d f4e6 833d f92e 06bd
000001c0: 5b7f 30bd a20e aa3d ce1c 25bd f1e2 b63d
000001d0: c5ed c3bd 7982 373a 3ba0 a0bd 3d53 89bd
000001e0: a1aa f53d d6e5 3e3c a0d1 053d ebac 93bd
000001f0: add7 cabd a6bd 19bd 54f5 7f3d fa42 fc3c
00000200: c3bb c63d 8300 99bd 8d59 89bc db1f eb3d
00000210: 06b7 12bd 8df7 eebd 2a17 d53c 02a2 c13b
00000220: e47f 893d c623 f4bb 46b0 a53c 798b 2b3d
00000230: fb98 c5bd 634a 183d e925 a23d e886 623d
00000240: 8cb9 c83d 1472 ffbd 135f 7fbd 9353 6d3c
00000250: 13c9 93bd 8df8 1bbd 2e3e 73bd e664 1a3d
00000260: 2fa5 b53d a6c8 b7bd f221 853d 3b6a b33d
00000270: bf96 9b3d ea2d e9bc d51f c8ba df6e fe3c
00000280: 3abb adbd 5c9f bdbd 0fa0 b4bd 4015 063e
00000290: 4420 a3bd 2c9b 47bc e684 2fbd 1674 1bbd
000002a0: ee83 82bd 11ab bdbb 6484 9bbd 82de 2d3d
000002b0: ce17 953d 49e4 e6bb 522a 03be 4953 99bc
000002c0: 4132 eabd fbf1 c8bd c049 b2bd 0a92 643d
000002d0: 7c63 b4bd 32cd acbd 0e5e 083d 1c0b 75bd
000002e0: d0cb a0bd 2941 85bd feb5 583d 48ab 583d
000002f0: 9171 7bbd 73d6 533d 80ac fbbb e23f 7cbc
00000300: c9fd cb3d e872 193b b8fa dd3b 6650 32bd
00000310: 0224 a63d 096a 0d3d aee9 06be 1ee6 16bd
00000320: a0eb 363d cfc6 cdbd a455 bdbd a83b 83bc
00000330: f745 af3d 0bfc bebc fdfb db3d 0861 3bbd
00000340: a805 cb3d b3cb 5e3d aa10 95bc 2b46 97bd
00000350: 2ead d5bd 481c 16bc 2405 38bc 5887 1b3d
00000360: 8cb2 a8bc 9801 57ba 9eb5 7fbd 8c14 fa3d
00000370: 71c2 143d dcb8 8d3d 5d1d 303c a502 1abd
00000380: 94c0 7e3d ba0a 833d 4242 13bd 45b5 64bd
00000390: c8f5 dc3d 51fc b03d 911c acbd dc7d 913d
000003a0: ea8d af3d 48bc d53c 4742 70bd 4a88 bebd
000003b0: 145b 703d 1126 05be ca70 983d cb1c 0bbe
000003c0: 32ab 54bd 79c9 e4bc 107a 6f3a d94d 123d
000003d0: 6b02 01bd a4da d33d 8459 403c 0066 0d3d
000003e0: d7fe 79bd 9ce7 443d 23c3 94bd 9723 943d
000003f0: ca53 863d 1c1e 563d 29ca dabb 87c3 f7bb

fc.bias f4 [256]
0.012557965 0.12587571 0.12551765 -0.090795845 0.018107321 -0.028109295 0.12932415 0.07174832
-0.0901085 -0.04460222 -0.07074203 0.08064672 0.027552681 0.08355421 -0.017547384 0.013578506
-0.022545604 0.04595023 0.12297957 0.03989982 0.030425066 0.026019422 0.06497182 0.17563593
0.01281412 0.19771479 0.13049985 0.07797085 0.22398603 0.12672804 0.23959093 0.38031527
0.30296075 0.36955345 0.30662546 0.35861495 0.3870451 0.37553212 0.34140736 0.32052508
0.24833414 0.43162546 0.21455038 0.3789978 0.28118077 0.3020737 0.15586418 0.15456922
0.2572711 0.32209402 0.26531094 0.24352802 0.15356472 0.2181935 0.23215565 0.23617052
0.117150195 0.20515698 0.043880127 0.23687851 0.23934223 0.13064098 0.22008733 0.1775762
0.012545109 0.20509836 0.22333206 0.13315605 0.21471477 0.11239396 0.19086821 0.048073053
0.04655707 0.18409865 0.17825907 0.07812293 0.006599754 -0.016548522 -0.041144677 0.10671561
0.19414775 0.16128692 0.03745034 0.10920433 0.07066513 -0.0037438963 -0.0391657 0.11140209
0.10503546 0.013098548 0.13133945 0.06824282 0.029049963 0.16318591 0.0021965986 0.13292323
0.059892528 0.020872703 0.09234796 0.16201794 0.023343742 0.086448975 -0.054951116 -0.09858706
0.024206363 -0.07047051 0.07684256 0.13972016 0.010788098 0.034660827 0.027620632 0.004304009
-0.046931423 -0.043512225 -0.04482777 0.012276544 0.037579536 0.14435351 0.015460649 0.0022336058
0.116352156 0.05130576 0.09401396 -0.009209592 -0.032866735 0.14227363 0.010424767 0.042990148
0.072536446 -0.068272844 0.14136475 0.12938142 -0.081175536 -0.048520077 0.075040646 -0.07400954
-0.0550207 -0.0031030704 0.08663063 0.051146273 0.12214271 0.015106542 0.11186078 0.076346636
-0.07445444 0.10511365 0.01237276 -0.0075857667 -0.067244686 -0.03091185 -0.064317875 0.08908543
-0.10730777 -0.11376624 -0.057036925 0.06707415 -0.07665094 -0.030196019 -0.057447724 0.11238112
0.13405532 0.09997924 -0.08583229 -0.11471142 -0.052412894 0.04007796 -0.0073231026 -0.019603934
-0.034457326 -0.07424516 0.10330385 0.049601644 -0.015920887 0.08797026 0.05415135 -0.09931524
-0.035469346 0.034527496 0.10415188 0.116515316 -0.05592036 0.052046806 0.102599725 0.09226167
0.035440065 0.10066392 -0.025774244 0.045588728 0.019700581 -0.038129166 0.04493628 0.09676454
0.13560893 0.10439053 0.12906133 0.1001664 -0.08502448 -0.06576165 0.0599389 0.07152234
-0.06088474 -0.10115352 -0.011992036 0.08824891 0.032972388 -0.04537674 0.11984049 -0.037332747
-0.099868104 0.118531056 -0.00048376864 -0.029491281 0.117263034 0.0030328755 0.09676888 -0.06764263
0.018282808 -0.06713541 -0.038397722 0.033410456 -0.09065918 -0.04273042 -0.009940489 0.0027739247
0.031309098 -0.051826928 -0.011241673 0.043775532 -0.018087234 0.0081433235 -0.06546967 -0.02802197
0.053072736 -0.05817848 0.032434385 0.08247959 -0.085378915 -0.07959493 0.017029375 0.058944438
0.07107242 -0.08538859 -0.095655724 0.031963117 -0.044740267 0.028290054 -0.07268254 0.01700423
0.07537121 0.042449873 -0.0027054518 -0.105405375 0.019637184 0.11315739 -0.03580838 0.09262561
00000000: ecbf 4d3c 90e5 003e b387 003e 2cf3 b9bd
00000010: ce55 943c 7745 e6bc 8d6d 043e c8f0 923d
00000020: ce8a b8bd d1b0 36bd 33e1 90bd 1c2a a53d
00000030: 29b6 e13c 781e ab3d 88bf 8fbc 6278 5e3c
00000040: 8fb1 b8bc 4f36 3c3d b6dc fb3d fe6d 233d
00000050: fd3d f93c af26 d53c f20f 853d e8d9 333e
00000060: 51f2 513c bf75 4a3e c1a1 053e 2eaf 9f3d
00000070: 985c 653e ffc4 013e 5357 753e afb8 c23e
00000080: ac1d 9b3e 1c36 bd3e 03fe 9c3e 619c b73e
00000090: c62a c63e bf45 c03e f2cc ae3e dd1b a43e
000000a0: 4e4b 7e3e 03fe dc3e 18b3 5b3e 000c c23e
000000b0: edf6 8f3e 67a9 9a3e dc9a 1f3e 6547 1e3e
000000c0: 0ab9 833e 82e9 a43e d6d6 873e 695f 793e
000000d0: 1240 1d3e 1e6e 5f3e 36ba 6d3e afd6 713e
000000e0: 71ec ef3d ac14 523e a6bb 333d 4890 723e
000000f0: 2116 753e c0c6 053e 935e 613e 89d6 353e
00000100: 008a 4d3c 4e05 523e 29b1 643e 0f5a 083e
00000110: 30de 5b3e ce2e e63d f572 433e 40e8 443d
00000120: a0b2 3e3d 5b84 3c3e 8c89 363e eafe 9f3d
00000130: c042 d83b c490 87bc 5287 28bd b78d da3d
00000140: abce 463e 6628 253e 8765 193d 85a6 df3d
00000150: e1b8 903d 285c 75bb 376c 20bd c726 e43d
00000160: d51c d73d 4b9b 563c d97d 063e e4c2 8b3d
00000170: 30fa ed3c 351a 273e cff4 0f3b 071d 083e
00000180: de51 753d 3bfd aa3c ed20 bd3d 08e8 253e
00000190: 603b bf3c 290c b13d 6c14 61bd 03e8 c9bd
000001a0: 6c4c c63c d852 90bd a25f 9d3d cd12 0f3e
000001b0: 90c0 303c 83f8 0d3d aa44 e23c a508 8d3b
000001c0: 2a3b 40bd e039 32bd 539d 37bd 8f23 493c
000001d0: 00ed 193d 68d1 133e a94e 7d3c b061 123b
000001e0: 0a4a ee3d fd25 523d 648a c03d d4e3 16bc
000001f0: 459f 06bd 2eb0 113e a4cc 2a3c 7016 303d
00000200: fd8d 943d a2d2 8bbd ecc1 103e 907c 043e
00000210: 5c3f a6bd fdbc 46bd e9ae 993d 5092 97bd
00000220: 635d 61bd e25c 4bbb 666b b13d c17e 513d
00000230: f525 fa3d 6e81 773c 4417 e53d a05b 9c3d
00000240: 927b 98bd d345 d73d 1eb7 4a3c 0692 f8bb
00000250: 95b7 89bd d93a fdbc 17b9 83bd 6c72 b63d
00000260: 2dc4 dbbd 46fe e8bd 8d9f 69bd 2c5e 893d
00000270: 2bfb 9cbd a45d f7bc 4e4e 6bbd 1328 e63d
00000280: cc45 093e eac1 cc3d d7c8 afbd d2ed eabd
00000290: e7ae 56bd c928 243d a3f6 efbb 6e98 a0bc
000002a0: 2023 0dbd d90d 98bd f890 d33d 182b 4b3d
000002b0: 856c 82bc c029 b43d cecd 5d3d ca65 cbbd
000002c0: 4e48 11bd b46c 0d3d 954d d53d 959f ee3d
000002d0: bf0c 65bd 082f 553d ce1f d23d b0f3 bc3d
000002e0: 9a29 113d e328 ce3d 8224 d3bc 3fbb 3a3d
000002f0: 1d63 a13c 542d 1cbd 1b0f 383d 7d2c c63d
00000300: 11dd 0a3e b4ca d53d a728 043e 0b24 cd3d
00000310: 5121 aebd 0bae 86bd 7e82 753d 4e7a 923d
00000320: 4762 79bd 9429 cfbd 3f7a 44bc d8bb b43d
00000330: 0e0e 073d f6dc 39bd ee6e f53d 39ea 18bd
00000340: a687 ccbd 69c0 f23d 54a2 fdb9 b397 f1bc
00000350: 9a27 f03d 35c3 463b c32e c63d 3888 8abd
00000360: d4c5 953c 4a7e 89bd ee46 1dbd 67d9 083d
00000370: 85ab b9bd 1806 2fbd 6fdd 22bc bcca 353b
00000380: f83d 003d 7948 54bd fe2e 38bc f94d 333d
00000390: ae2b 94bc 936b 053c f614 86bd 558e e5bc
000003a0: cc62 593d 8f4c 6ebd ebd9 043d 0feb a83d
000003b0: 24db aebd ab02 a3bd 3081 8b3c b96f 713d
000003c0: 6b8e 913d 37e0 aebd 26e7 c3bd c2eb 023d
000003d0: 9241 37bd 8bc0 e73c 95da 94bd 744c 8b3c
000003e0: 395c 9a3d ebdf 2d3d f34d 31bb c6de d7bd
000003f0: 29de a03c 10bf e73d cfab 12bd 7fb2 bd3d

ln.weight f4 [64]
1.3678955 1.3764557 1.3817182 1.3938527 1.389221 1.4148124 1.3821857 1.3916129
1.4024194 1.3386624 1.3717775 1.3646642 1.3834821 1.4016562 1.3732123 1.3482647
1.4179803 1.4091808 1.4235424 1.3824489 1.3984379 1.4042284 1.3730094 1.3288172
1.4007765 1.3979412 1.3974254 1.3731327 1.3886847 1.1682101 1.3829553 1.4132974
1.3791159 1.3763763 1.4016865 1.4007671 1.3978876 1.396478 1.3811425 1.3751514
1.3818766 1.3599331 1.3963387 1.3707899 1.3862773 1.3753711 1.4033735 1.3709067
1.4117934 1.4182119 1.371256 1.3525593 1.3894576 1.3974782 1.3825228 1.3874007
1.3931131 1.4100493 1.400235 1.3891053 1.353059 1.4046092 1.3711653 1.3863667
00000000: 3317 af3f b32f b03f 24dc b03f c469 b23f
00000010: fed1 b13f 9318 b53f 76eb b03f 5f20 b23f
00000020: 7b82 b33f 4a59 ab3f 6896 af3f 51ad ae3f
00000030: f115 b13f 7869 b33f 6cc5 af3f f093 ac3f
00000040: 6180 b53f 0960 b43f a336 b63f 16f4 b03f
00000050: 0300 b33f c2bd b33f c6be af3f af16 aa3f
00000060: a54c b33f bdef b23f d6de b23f d0c2 af3f
00000070: 6cc0 b13f e987 953f ae04 b13f eee6 b43f
00000080: df86 b03f 192d b03f 776a b33f 564c b33f
00000090: fbed b23f cbbf b23f 47c9 b03f f604 b03f
000000a0: 55e1 b03f 4a12 ae3f 3abb b23f 0b76 af3f
000000b0: 8971 b13f 290c b03f bea1 b33f df79 af3f
000000c0: a5b5 b43f f887 b53f 5185 af3f aa20 ad3f
000000d0: bfd9 b13f 91e0 b23f 82f6 b03f 5996 b13f
000000e0: 8851 b23f 7f7c b43f e73a b33f 34ce b13f
000000f0: 0a31 ad3f 3cca b33f 5882 af3f 7774 b13f

ln.bias f4 [64]
0.37479424 -0.38385853 -0.38554707 0.3905179 0.38724658 0.4023979 -0.3864642 -0.3936712
-0.39059165 -0.3615849 0.37996143 -0.37109917 0.38901752 -0.4057546 0.37787756 0.3578038
-0.399165 -0.39677876 0.40750358 0.38425398 -0.39729536 -0.40517223 0.3824418 0.35895547
0.4007115 0.39473248 -0.39143485 0.37602445 -0.39083022 -0.30536532 -0.38653293 -0.40582928
-0.3733003 -0.3845077 0.3996445 0.39542288 0.39188686 -0.4015915 0.38358527 -0.38159153
0.38160887 0.37748647 -0.39179185 -0.38130176 0.38813353 -0.38454372 -0.3903485 -0.38094383
0.4034172 0.40376824 0.368581 -0.3722726 -0.3940955 0.3985202 0.38433978 -0.39418614
0.38926095 -0.39929572 0.39701778 -0.39198434 -0.3730697 -0.39937982 0.37899244 -0.38937628
00000000: 08e5 bf3e 1b89 c4be 6d66 c5be f6f1 c73e
00000010: 2f45 c63e 1907 ce3e a3de c5be 468f c9be
00000020: a1fb c7be a821 b9be 4e8a c23e b600 bebe
00000030: 4e2d c73e 11bf cfbe 2b79 c13e 0f32 b73e
00000040: 5b5f ccbe 9626 cbbe 4fa4 d03e f0bc c43e
00000050: 4c6a cbbe bc72 cfbe 69cf c33e 03c9 b73e
00000060: 0f2a cd3e 601a ca3e 266a c8be 4786 c03e
00000070: e61a c8be d858 9cbe a5e7 c5be dbc8 cfbe
00000080: 3821 bfbe 31de c4be 349e cc3e de74 ca3e
00000090: 65a5 c83e 679d cdbe 4a65 c43e f75f c3be
000000a0: 3d62 c33e e845 c13e f198 c8be fc39 c3be
000000b0: 70b9 c63e eae2 c4be c2db c7be 120b c3be
000000c0: b38c ce3e b6ba ce3e a6b6 bc3e 849a bebe
000000d0: e3c6 c9be d70a cc3e 2fc8 c43e c4d2 c9be
000000e0: 364d c73e 7d70 ccbe ea45 cb3e 2cb2 c8be
000000f0: fe02 bfbe 837b ccbe 4c0b c23e 545c c7be
