model.pth (torch, 122235 bytes, 8 tensors)

gru.weight_ih_l0 f4 [192, 3]
0.08940283 -0.042419575 0.11143622 -0.096402384 0.10721361 -0.069268465 -0.14253527 0.08995805
0.06081587 -0.008367623 -0.029713843 -0.1239384 0.02452882 -0.074268065 0.02581416 0.105314195
0.0055933218 -0.08777529 -0.03800835 0.0028731097 0.037601426 -0.021973804 -0.012462519 0.044238
-0.19919732 0.17373797 0.09878908 0.012673588 -0.047347005 0.12327884 -0.018439084 0.12011904
-0.008315846 0.12544155 -0.09933928 -0.051342025 -0.06344299 0.03971265 0.10626431 0.045563888
0.008031422 0.06362286 -0.06078184 0.08033101 0.05555594 -0.076671824 0.07516691 0.08607116
-0.013428417 0.11674927 -0.07816176 0.10016224 -0.047909662 0.01927334 0.08018906 -0.08232188
-0.02545917 -0.0675049 0.05013483 -0.030405745 -0.023725897 0.021937883 0.06326988 -0.09488907
0.10314813 -0.028510123 -0.08636417 0.039389763 -0.091477126 -0.16523291 0.10049814 0.029224992
-0.045614712 -0.06719961 0.021662697 -0.057705246 0.07473821 -0.071538284 0.008279628 -0.06866102
0.082862854 -0.082296245 0.049531106 -0.09796482 0.026441395 -0.12577042 -0.112694636 -0.07715786
0.08529489 0.08583903 0.10649808 0.01496673 0.0058930665 0.12821428 -0.08246843 0.009160399
0.021179661 -0.004021383 0.09120667 -0.026568633 0.090829805 -0.09819876 -0.14137705 0.11600664
0.06387174 0.033478957 -0.040316653 0.08141433 -0.007412974 0.06624989 0.1136927 0.09304279
-0.08116432 -0.057025462 -0.24617203 0.21320617 0.068138674 0.031792764 -0.09733971 -0.0896337
0.0021385765 0.08915571 0.010601863 -0.045046788 0.053324323 0.015282825 0.031048916 -0.014986657
0.106622934 -0.24683519 0.23000339 0.007558495 0.22559702 0.028855551 0.001682207 0.05991254
-0.020161815 -0.01872313 -0.14141051 0.08320225 0.0754879 -0.17320257 0.14501528 0.07965155
-0.14789489 0.110975415 0.12452993 -0.05426252 0.04948212 -0.117142245 -0.010027142 0.028691381
0.058918342 -0.0074701216 -0.08508124 0.10571332 -0.06187422 0.052702144 0.12146954 0.04584444
-0.011926254 0.12346816 -0.10615318 0.005429997 -0.07313427 0.098528676 -0.06122327 -0.024653181
-0.07674237 0.057190526 0.031287223 0.012542617 0.091243535 -0.030966133 -0.15090503 0.15135823
-0.002185598 -0.08589858 0.009426934 0.08497994 0.053648513 0.015087765 -0.118654266 -0.028095685
0.011648555 0.0033104718 0.07545687 -0.074923195 -0.058043063 0.017736252 -0.045519706 0.048004955
-0.056174338 0.042772144 -0.10248999 -0.03047257 -0.024884054 -0.09241432 0.048343964 -0.0715078
-0.12225288 0.06894368 -0.14651188 0.062232345 -0.085797206 -0.040094845 0.051720336 -0.050150648
0.077719495 -0.030570418 -0.02496353 -0.09834941 -0.07968892 -0.011582351 -0.072785966 -0.058488026
-0.07874716 0.03795632 0.035724804 0.0049756877 -0.0658085 0.005780533 0.04248317 -0.02943036
0.04165353 -0.13425905 0.034107953 0.028796539 0.052346017 -0.1277961 -0.09470004 0.0041789827
-0.031215478 -0.050713852 0.047451887 -0.042702693 -0.063017875 0.0057257 -0.01977024 -0.054421976
0.027854495 0.012511375 -0.10779792 -0.011667557 0.054933053 0.03987339 -0.14235151 0.06070023
-0.025645912 -0.006139992 -0.053322144 -0.051493302 -0.065052375 0.041391436 0.028462783 0.015849687
00000000: d518 b73d 26c0 2dbd ac38 e43d 9d6e c5bd
00000010: cf92 db3d a0dc 8dbd c4f4 11be ed3b b83d
00000020: 101a 793d 5b18 09bc 726a f3bc 6ad3 fdbd
00000030: aaf0 c83c db19 98bd 3878 d33c f8ae d73d
00000040: 2f48 b73b 88c3 b3bd a5ae 1bbd c84a 3c3b
00000050: f403 1a3d 6802 b4bc 982f 4cbc e832 353d
00000060: 62fa 4bbe 5ee8 313e ee51 ca3d e1a4 4f3c
00000070: efee 41bd 9e79 fc3d 900d 97bc f900 f63d
00000080: 303f 08bc c073 003e 6472 cbbd 044c 52bd
00000090: 66ee 81bd bba9 223d 1aa1 d93d 33a1 3a3d
000000a0: 3a96 033c b44c 823d 61f6 78bd 9684 a43d
000000b0: a08e 633d 1e06 9dbd 1cf1 993d 1446 b03d
000000c0: dd02 5cbc 3e1a ef3d 4613 a0bd dc21 cd3d
000000d0: ec3c 44bd 20e3 9d3c 293a a43d 6098 a8bd
000000e0: c08f d0bc 0240 8abd 2e5a 4d3d 7815 f9bc
000000f0: d05c c2bc 13b7 b33c a493 813d 3355 c2bd
00000100: 543f d33d 108e e9bc b3df b0bd 2957 213d
00000110: 5c58 bbbd d132 29be f8d1 cd3d 4069 ef3c
00000120: 7ed6 3abd f39f 89bd f875 b13c 565c 6cbd
00000130: 5910 993d aa82 92bd 47a7 073c 269e 8cbd
00000140: 00b4 a93d ef8a a8bd 21e1 4a3d c8a1 c8bd
00000150: a09b d83c f6c9 00be 72cc e6bd f104 9ebd
00000160: 16af ae3d 60cc af3d aa1b da3d 0437 753c
00000170: a01a c13b 9b4a 033e 35e5 a8bd 8015 163c
00000180: f880 ad3c cec5 83bb 90ca ba3d 76a6 d9bc
00000190: fa04 ba3d 6e1c c9bd 25c5 10be e494 ed3d
000001a0: 30cf 823d 3b21 093d 1323 25bd 8ebc a63d
000001b0: 88e8 f2bb 06ae 873d b8d7 e83d 388d be3d
000001c0: 7b39 a6bd 8893 69bd 8514 7cbe b852 5a3e
000001d0: 4a8c 8b3d 2139 023d 0b5a c7bd e091 b7bd
000001e0: 5c27 0c3b 4597 b63d 70b3 2d3c fb82 38bd
000001f0: 9b6a 5a3d d064 7a3c 4c5a fe3c 988a 75bc
00000200: 205d da3d 5dc2 7cbe 0286 6b3e 40ad f73b
00000210: e802 673e 7a62 ec3c 807d dc3a da66 753d
00000220: 642a a5bc 4061 99bc ebcd 10be f165 aa3d
00000230: 6699 9a3d 045c 31be e37e 143e 5a20 a33d
00000240: c271 17be 1447 e33d 8c09 ff3d 6042 5ebd
00000250: c3ad 4a3d 46e8 efbd e248 24bc 300a eb3c
00000260: 5c54 713d ecc7 f4bb 133f aebd 3a80 d83d
00000270: d26f 7dbd 34de 573d 06c5 f83d 61c7 3b3d
00000280: 5666 43bc e0dc fc3d d766 d9bd 1eee b13b
00000290: 6cc7 95bd 67c9 c93d 40c5 7abd 78f5 c9bc
000002a0: 1b2b 9dbd 9d40 6a3d 0827 003d 8c7f 4d3c
000002b0: e4dd ba3d b0ac fdbc d986 1abe a7fd 1a3e
000002c0: 403c 0fbb 98eb afbd 6d73 1a3c f609 ae3d
000002d0: 8bbe 5b3d ac32 773c 0201 f3bd ec28 e6bc
000002e0: 95d9 3e3c 80f4 583b 2289 9a3d 5571 99bd
000002f0: 90be 6dbd 9e4b 913c df72 3abd d8a0 443d
00000300: 1017 66bd d831 2f3d 46e6 d1bd 9ca1 f9bc
00000310: a5d9 cbbc b843 bdbd 5204 463d ae72 92bd
00000320: b85f fabd 5832 8d3d 3607 16be 58e7 7e3d
00000330: 72b6 afbd 7e3a 24bd b4d8 533d c46a 4dbd
00000340: 662b 9f3d d06e fabc 5180 ccbc 6a6b c9bd
00000350: f233 a3bd e7c3 3dbc cf10 95bd 2491 6fbd
00000360: 3146 a1bd 1678 1b3d 2c54 123d 180b a33b
00000370: 9bc6 86bd a06a bd3b d502 2e3d f017 f1bc
00000380: e49c 2a3d 347b 09be c8b4 0b3d b8e6 eb3c
00000390: c768 563d fbdc 02be 18f2 c1bd d9ef 883b
000003a0: 9ab7 ffbc 54b9 4fbd e95c 423d 05e9 2ebd
000003b0: 840f 81bd a79e bb3b 33f5 a1bc 94e9 5ebd
000003c0: 1c2f e43c 83fc 4c3c 28c5 dcbd 4829 3fbc
000003d0: 7b01 613d 4852 233d 98c4 11be cea0 783d
000003e0: 6017 d2bc fc31 c9bb 5268 5abd a4ea 52bd
000003f0: 2e3a 85bd 118a 293d c82a e93c 34d7 813c

gru.weight_hh_l0 f4 [192, 64]
-0.06447035 0.04489673 -0.10882074 0.023013642 -0.13245077 0.07343499 0.08830634 0.02630743
-0.14006597 -0.008037541 0.051729813 -0.075637266 0.054734886 -0.06015278 -0.091519035 0.17069605
0.01925856 -0.103934005 0.08220856 0.040310174 -0.023968931 0.012728844 0.06251819 0.06406736
0.16452165 0.17078231 0.10768271 -0.14241014 0.13631843 0.09313591 0.04475065 -0.091115065
0.09541112 0.095821686 0.048482772 -0.04086096 0.08096618 -0.05981666 0.059924755 0.115358755
0.12334799 -0.020864919 -0.056684975 -0.12955096 0.06969058 -0.01829893 0.10039448 0.057840705
0.1250892 0.12614374 0.008203739 0.12988642 -0.013188707 -0.07201108 0.0048593464 0.01208921
0.014800642 -0.096946046 0.047347166 -0.01286052 0.03138829 -0.029951436 0.033436306 0.08679442
-0.08997721 0.09006245 0.077865556 -0.060927574 0.07552819 -0.06311024 -0.04904325 -0.074236885
0.0923894 -0.016259758 -0.0027185148 -0.09299906 0.10087009 0.00034176098 -0.07254849 0.052013632
0.04779838 0.10813157 -0.13752748 0.008226748 -0.1016147 0.12811731 0.1252533 -0.07603691
-0.066284895 -0.06776768 -0.1257566 -0.013402408 0.020718805 0.005060541 0.097723246 -0.023807457
-0.032541376 -0.031987287 0.14182523 -0.13704896 0.15265349 0.105617195 0.09272492 0.14382225
-0.049340073 0.09108628 0.11269648 0.031786907 0.01235308 0.013191277 0.042074293 0.16829157
-0.016440928 0.13261518 -0.012569048 0.023142464 0.12435491 0.11878529 -0.04608077 -0.0121069085
0.002479911 -0.040256705 0.0037797238 -0.012359014 0.11910665 0.11173434 -0.1096893 -0.08100269
0.048205152 0.074988715 -0.015648063 0.02616429 0.0042360784 -0.14182626 -0.048681624 -0.052666776
0.003128819 -0.057912223 0.042941447 -0.029573333 0.08699758 -0.012880899 -0.08732253 0.070862964
-0.0769453 0.02713622 -0.0082343705 -0.08664892 0.1248887 -0.013354318 0.016363956 0.0012015866
-0.04878319 -0.10498198 0.010385229 0.0005137444 -0.0029679548 0.046928853 -0.10557117 -0.024476402
0.03143644 -0.08620716 0.03622903 0.071718074 -0.019826375 -0.086563654 -0.029405454 0.09099522
-0.010098936 -0.09065869 -0.054150548 -0.03448339 -0.11898706 0.0618917 0.06281737 -0.0718704
0.0779217 -0.08140053 -0.093395546 0.12910567 -0.06024968 0.04938386 -0.04359362 -0.122828364
-0.058327455 -0.01998966 0.096887484 0.06442102 0.05764333 0.115090296 -0.1051332 0.09988882
-0.06224618 -0.036565524 0.007655247 0.1299861 -0.008420963 0.08201062 -0.080129564 0.14500706
0.045545954 0.0874943 0.097787894 -0.1392578 -0.014771688 -0.09739719 -0.10556614 0.12865394
0.09159412 -0.057406813 -0.11947218 0.15562876 -0.03443032 0.14454642 0.07369397 0.075518385
0.124378726 0.0064465324 0.0678656 0.009435263 -0.046685312 -0.024592942 -0.077869594 0.02241395
-0.011068138 0.008842944 0.071296915 0.046194904 0.13273439 0.1664946 0.0008342586 0.0652129
0.070895836 -0.011329776 0.10060743 -0.13525832 -0.04276654 0.108509175 0.0651065 -0.10950065
-0.022829814 0.02476746 0.05622683 -0.00041514615 0.087067425 0.09880312 -0.06799352 -0.13308068
-0.046941537 0.06910974 0.13823839 -0.13519767 0.09712952 -0.059263024 0.07771268 -0.026347546
00000000: 0809 84bd a2e5 373d 68dd debd 1b87 bc3c
00000010: 2da1 07be 1665 963d f4d9 b43d ae82 d73c
00000020: 746d 0fbe e4af 03bc a4e2 533d b6e7 9abd
00000030: b031 603d c362 76bd 556e bbbd f2ca 2e3e
00000040: 21c4 9d3c 5adb d4bd f65c a83d 481c 253d
00000050: 7e5a c4bc a48c 503c 8909 803d bf35 833d
00000060: 5d78 283e 8fe1 2e3e c188 dc3d f7d3 11be
00000070: 0f97 0b3e 0abe be3d 754c 373d 899a babd
00000080: e866 c33d 293e c43d df95 463d d25d 27bd
00000090: 99d1 a53d 5002 75bd a973 753d 3641 ec3d
000000a0: df9d fc3d e8ec aabc 812e 68bd 02a9 04be
000000b0: efb9 8e3d a3e7 95bc 9f9b cd3d 60ea 6c3d
000000c0: 6217 003e d32b 013e fa68 063c f200 053e
000000d0: 7215 58bc 8c7a 93bd 273b 9f3b d211 463c
000000e0: 647e 723c a68b c6bd 1aef 413d eeb4 52bc
000000f0: 0291 003d b75c f5bc 82f4 083d 46c1 b13d
00000100: f945 b8bd a972 b83d fa77 9f3d 318f 79bd
00000110: 86ae 9a3d f13f 81bd 93e1 48bd 8209 98bd
00000120: a736 bd3d 2f33 85bc 1c29 32bb 4b76 bebd
00000130: fa94 ce3d 622e b339 4d94 94bd 3f0c 553d
00000140: 3cc8 433d 1674 dd3d 01d4 0cbe 7bc9 063c
00000150: 5e1b d0bd 2f31 033e 6742 003e 3db9 9bbd
00000160: 60c0 87bd c8c9 8abd 57c6 00be c695 5bbc
00000170: 7cba a93c e5d2 a53b 2023 c83d db07 c3bc
00000180: 1b4a 05bd 1a05 03bd a23a 113e 9056 0cbe
00000190: 3251 1c3e d44d d83d 90e6 bd3d 2446 133e
000001a0: d118 4abd 728b ba3d 69cd e63d fd32 023d
000001b0: 9364 4a3c 3a20 583c 1856 2c3d a054 2c3e
000001c0: 20af 86bc 46cc 073e 69ee 4dbc 4495 bd3c
000001d0: c9ad fe3d b445 f33d 31bf 3cbd 0e5c 46bc
000001e0: 0186 223b 37e4 24bd 3eb5 773b 767d 4abc
000001f0: 30ee f33d f9d4 e43d c9a4 e0bd bde4 a5bd
00000200: c472 453d af93 993d 5e30 80bc 7e56 d63c
00000210: cdce 8a3b e73a 11be 6266 47bd 1eb9 57bd
00000220: df0c 4d3b 5e35 6dbd 5fe3 2f3d c643 f2bc
00000230: ca2b b23d 680a 53bc 28d6 b2bd 9a20 913d
00000240: 7f95 9dbd c74c de3c 74e9 06bc fd74 b1bd
00000250: a6c5 ff3d 12cc 5abc b40d 863c 8e7e 9d3a
00000260: e2d0 47bd cb00 d7bd cf26 2a3c ceac 063a
00000270: 0582 42bb 7838 403d b335 d8bd bc82 c8bc
00000280: 7fc3 003d 618d b0bd e464 143d ede0 923d
00000290: ec6a a2bc 4948 b1bd b5e3 f0bc b45b ba3d
000002a0: 0276 25bc 43ab b9bd f7cc 5dbd 753e 0dbd
000002b0: 7daf f3bd 2782 7d3d 65a6 803d ca30 93bd
000002c0: 6a95 9f3d 52b5 a6bd 2a46 bfbd 4734 043e
000002d0: 5ec8 76bd bb46 4a3d 398f 32bd 708d fbbd
000002e0: c5e8 6ebd 5bc1 a3bc f26c c63d 2bef 833d
000002f0: 6a1b 6c3d 76b4 eb3d 1350 d7bd 8292 cc3d
00000300: daf5 7ebd bbc5 15bd ded8 fa3b 141b 053e
00000310: 14f8 09bc 2ff5 a73d f81a a4bd bb7c 143e
00000320: 658e 3a3d 3630 b33d 0545 c83d 9999 0ebe
00000330: f304 72bc 2e78 c7bd 0f33 d8bd dcbd 033e
00000340: b395 bb3d 6823 6bbd d5ad f4bd 255d 1f3e
00000350: cf06 0dbd fa03 143e ddec 963d 62a9 9a3d
00000360: 46ba fe3d 6f3d d33b 1ffd 8a3d 5d96 1a3c
00000370: 1939 3fbd 2377 c9bc 187a 9fbd 769d b73c
00000380: 2357 35bc ffe1 103c 1e04 923d de36 3d3d
00000390: 86eb 073e 8f7d 2a3e 26b2 5a3a 578e 853d
000003a0: d631 913d 86a0 39bc 450b ce3d 2881 0abe
000003b0: f82b 2fbd 0f3a de3d 8f56 853d e041 e0bd
000003c0: 9705 bbbc 21e5 ca3c 1b4e 663d f9a7 d9b9
000003d0: 6850 b23d 4a59 ca3d 3040 8bbd 4d46 08be
000003e0: c545 40bd 6889 8d3d 5d8e 0d3e 4271 0abe
000003f0: d7eb c63d c9bd 72bd d327 9f3d cfd6 d7bc

gru.bias_ih_l0 f4 [192]
0.02989148 0.021021703 0.013317994 0.0014349895 0.07263492 0.14760141 -0.084344424 0.021166427
0.14210206 0.052139968 -0.021946581 0.03811269 0.14601566 -0.09361853 -0.046973694 0.076441854
0.15222025 -0.016821448 0.025819378 -0.13041376 0.15026882 0.053296603 0.03523037 0.055471852
0.14321278 -0.112064555 -0.07548888 -0.061494995 0.07061563 -0.022807218 -0.15456688 0.12046453
0.024615172 -0.005766557 0.07764241 0.07077168 0.04406282 0.12915447 0.037386045 -0.014641611
0.17683846 -0.013223847 0.15155362 0.12523393 0.12071194 -0.07207908 -0.043695934 -0.080198504
-0.119439915 0.07130973 0.22284901 0.051242925 -0.06046705 0.2163299 -0.082020335 -0.00048069903
-0.006919615 0.2032777 0.16847149 0.17233707 0.12664299 0.12862992 0.055461913 0.053354263
0.05648475 -0.016909419 0.044657946 0.12069706 -0.059145905 0.055971846 -0.16752593 -0.17955603
0.1402788 -0.11495038 0.08219417 0.0676721 -0.078075014 -0.13310765 -0.0063178926 -0.14553814
-0.052682087 -0.1725402 0.068625115 -0.13764097 -0.03951583 -0.22521184 -0.1542084 -0.1373023
-0.11848844 -0.18568215 0.14420675 0.012049558 -0.048249457 -0.059844542 0.02522741 0.089805864
0.031906325 -0.062788464 -0.11722387 -0.07297937 0.016709343 0.10393222 0.079277284 -0.13771282
-0.13021103 -0.17935595 0.026358312 0.017187683 -0.056276385 -0.044494607 0.021131009 -0.15335047
0.01031889 0.05240787 -0.020455739 -0.17923184 -0.018770853 -0.0566086 -0.042428575 -0.09244274
-0.20947197 -0.11331336 -0.21689895 0.094994746 0.034111593 -0.0084226215 -0.11742966 0.015881421
-0.12244626 0.10373941 -0.08871963 -0.07179729 -0.08602124 -0.1080732 0.14810377 0.10451349
-0.023543293 0.098336056 0.1864457 -0.17009331 -0.04521024 -0.11854407 -0.019573415 0.081633456
0.011438435 -0.14122143 -0.12709068 0.17563358 0.117223114 0.040011395 0.1773624 0.17060865
0.13329227 0.14712134 -0.10796202 -0.12457883 0.17975575 0.08072466 -0.17135608 -0.14928432
-0.11608748 -0.06029732 0.15660033 -0.14683299 0.18315151 0.19346099 0.11492847 0.10970511
0.023967417 0.14935488 0.09840454 -0.04072013 -0.10287592 0.18529138 -0.08399143 -0.08544164
0.19826141 0.14907064 -0.06906088 0.15685897 0.15052849 -0.03667739 0.15278208 -0.14026529
0.13823578 -0.021626243 0.050325535 -0.018105159 -0.0350569 0.115914896 -0.11816827 -0.12226492
00000000: fade f43c b535 ac3c b733 5a3c 4216 bc3a
00000010: 9ec1 943d d324 173e c5bc acbd 3765 ad3c
00000020: 3483 113e b890 553d 51c9 b3bc 0d1c 1c3d
00000030: 2185 153e 12bb bfbd 7d67 40bd 8c8d 9c3d
00000040: a0df 1b3e 22cd 89bc 2983 d33c 2f8b 05be
00000050: 12e0 193e 8a4d 5a3d b84d 103d 7436 633d
00000060: 5fa6 123e 1a82 e5bd ea99 9abd 2de2 7bbd
00000070: ed9e 903d 34d6 babc c846 1ebe 1cb6 f63d
00000080: c2a5 c93c 63f5 bcbb fc02 9f3d bef0 903d
00000090: 377b 343d 1241 043e 1c22 193d 5ee3 6fbc
000000a0: 2415 353e d6a8 58bc df30 1b3e 533d 003e
000000b0: d237 f73d 329e 93bd 82fa 32bd 1d3f a4bd
000000c0: ea9c f4bd d60a 923d 8832 643e 1ae4 513d
000000d0: 4cac 77bd 9685 5d3e 47fa a7bd 5506 fcb9
000000e0: f0bd e2bb 0828 503e ca83 2c3e 2179 303e
000000f0: b3ae 013e 90b7 033e 082c 633d 008a 5a3d
00000100: 8e5c 673d 9f85 8abc 40eb 363d 0530 f73d
00000110: fa42 72bd bc42 653d eb8b 2bbe 89dd 37be
00000120: 3fa5 0f3e 1b6b ebbd 6b55 a83d ac97 8a3d
00000130: cbe5 9fbd 5f4d 08be 5306 cfbb f307 15be
00000140: 2cc9 57bd 61ae 30be 538b 8c3d c1f1 0cbe
00000150: 5adb 21bd ef9d 66be cfe8 1dbe f998 0cbe
00000160: 11aa f2bd 7623 3ebe efaa 133e 826b 453c
00000170: 39a1 45bd 8d1f 75bd b7a9 ce3c 23ec b73d
00000180: 35b0 023d 3d97 80bd 1113 f0bd 3576 95bd
00000190: 08e2 883c 6ada d43d 215c a23d 9704 0dbe
000001a0: 0a56 05be 16a9 37be 63ed d73c 2fcd 8c3c
000001b0: 1182 66bd fa3f 36bd f01a ad3c e807 1dbe
000001c0: 9010 293c a2a9 563d cb92 a7bc 8d88 37be
000001d0: 55c5 99bc 6bde 67bd 96c9 2dbd 9f52 bdbd
000001e0: d27f 56be d610 e8bd c21a 5ebe 9b8c c23d
000001f0: 99b8 0b3d 09ff 09bc f67e f0bd c119 823c
00000200: 1bc5 fabd 5475 d43d a3b2 b5bd 750a 93bd
00000210: e72b b0bd 7b55 ddbd 84a8 173e 2b0b d63d
00000220: dddd c0bc 6a64 c93d 9feb 3e3e f12c 2ebe
00000230: 5f2e 39bd 3cc7 f2bd 6d58 a0bc 712f a73d
00000240: 4668 3b3c 5a9c 10be 0f24 02be 4ad9 333e
00000250: ac12 f03d fde2 233d 7d9e 353e 09b4 2e3e
00000260: c57d 083e faa6 163e 311b ddbd 3023 ffbd
00000270: e411 383e f852 a53d f877 2fbe fddd 18be
00000280: 46bf edbd 53fa 76bd d65b 203e 635b 16be
00000290: 128c 3b3e a31a 463e 9e5f eb3d 13ad e03d
000002a0: 5157 c43c 7cf0 183e 5288 c93d 27ca 26bd
000002b0: 9cb0 d2bd 06bd 3d3e b303 acbd 07fc aebd
000002c0: 0a05 4b3e f9a5 183e ca6f 8dbd a39f 203e
000002d0: 2424 1a3e 083b 16bd e872 1c3e b4a1 0fbe
000002e0: ae8d 0d3e 8529 b1bc 2622 4e3d 4551 94bc
000002f0: d397 0fbd ca64 ed3d 3502 f2bd 0866 fabd

gru.bias_hh_l0 f4 [192]
0.15399167 0.1413044 0.01493234 0.053975582 0.02153112 0.03434291 -0.08381135 0.037358336
0.13908437 0.13970162 -0.06871393 0.078236826 0.07828529 -0.011583126 0.12264592 -0.0047979956
0.14855054 0.06712378 0.010678877 0.053159494 0.147864 0.10076079 -0.05702757 0.0068533113
0.19978662 -0.08432506 0.07780147 0.15598196 0.04566068 0.1686151 -0.15016171 -0.031652484
-0.049119312 0.15792386 -0.10829089 -0.06686664 0.16410308 0.15055482 0.15396374 0.056742374
0.08825922 0.04721748 0.04871025 -0.071512796 0.17155276 0.0485117 0.105940856 0.0011486693
0.07285851 -0.017306365 0.027181692 0.07898499 -0.066961415 0.0570557 0.09157571 -0.013213176
-0.0019565811 0.019502819 0.027373757 0.14944886 0.19367865 0.03373591 0.023151608 6.6401335e-05
0.1240967 0.036160745 -0.10021131 -0.027961645 0.12315578 0.026390087 -0.14825723 -0.10015849
0.044123907 -0.14646894 0.07746861 0.0025966247 -0.014750678 0.001428235 -0.092314795 -0.07032718
-0.02415639 -0.06758253 0.14169297 -0.11589793 -0.20659748 -0.2543641 -0.026661176 -0.1598808
-0.016885495 -0.0918647 0.056853168 -0.019572306 0.11988675 -0.1856969 0.105138145 -0.02967559
0.009908152 -0.036468405 -0.07903407 -0.031456716 0.05385999 0.03478616 -0.14750622 -0.22803135
-0.19711004 0.05056952 -0.08491689 -0.15284239 -0.023188755 -0.2740281 -0.011928404 -0.1972174
-0.14398731 0.017973704 0.022929152 -0.23539013 -0.14149025 0.06856278 0.06367613 -0.12862776
-0.03349106 -0.14813773 -0.1643382 0.017751705 0.039481085 -0.07018633 -0.08711056 0.0891649
-0.13668358 0.17161351 -0.036120843 -0.10675952 -0.17161168 -0.16298681 0.07612237 0.20258111
-0.16001649 0.16783424 0.09435146 -0.031134656 -0.117979825 -0.0030410113 -0.14353392 0.1687554
-0.1892923 -0.024152413 -0.16690782 -0.011087142 0.17835696 0.19283926 -0.0011452903 -0.018935045
0.21627311 0.016601915 -0.092686 0.017921628 0.17754546 0.15668166 -0.027612526 -0.07764504
0.006494118 -0.09122041 0.045868546 0.05098856 0.15297492 0.18409982 0.13384116 0.2330509
0.2558598 0.03196736 0.20045432 -0.1087444 -0.14924173 0.0024874783 -0.059692398 0.00048971747
-0.019952377 0.1339664 -0.07627021 0.10882471 0.1387682 -0.2188161 0.13833287 -0.056884766
0.06328296 -0.12807809 0.18704632 -0.15714027 -0.21907827 0.11398302 -0.08684481 -0.124118276
00000000: feaf 1d3e 1ab2 103e c6a6 743c 8015 5d3d
00000010: 0862 b03c 27ab 0c3d 49a5 abbd 0e05 193d
00000020: 226c 0e3e f10d 0f3e e4b9 8cbd a13a a03d
00000030: 0a54 a03d 27c7 3dbc c92d fb3d 8138 9dbb
00000040: a21d 183e 3178 893d 75f6 2e3c c5bd 593d
00000050: a969 173e ac5b ce3d be95 69bd be91 e03b
00000060: dd94 4c3e 9eb2 acbd 6156 9f3d bcb9 1f3e
00000070: b106 3b3d 70a9 2c3e fec3 19be 09a6 01bd
00000080: 5531 49bd cbb6 213e 9dc7 ddbd 60f1 88bd
00000090: a30a 283e 0b2b 1a3e aca8 1d3e b16a 683d
000000a0: 40c1 b43d 1e67 413d 6684 473d 4d75 92bd
000000b0: 87ab 2f3e 34b4 463d 85f7 d83d f28e 963a
000000c0: d836 953d 14c6 8dbc 24ac de3c e2c2 a13d
000000d0: 1123 89bd 3db3 693d 0c8c bb3d 147c 58bc
000000e0: fc39 00bb 60c4 9f3c ee3e e03c 1f09 193e
000000f0: b253 463e aa2e 0a3d 71a8 bd3c f240 8b38
00000100: 6926 fe3d 4a1d 143d 963b cdbd d20f e5bc
00000110: 1939 fc3d 0630 d83c bed0 17be e51f cdbd
00000120: 45bb 343d f4fb 15be dda7 9e3d 222c 2a3b
00000130: d4ac 71bc 9d33 bb3a 8a0f bdbd b207 90bd
00000140: 9fe3 c5bc b668 8abd f617 113e e55b edbd
00000150: 4a8e 53be 033c 82be 8a68 dabc cbb7 23be
00000160: 7353 8abc 8f23 bcbd dede 683d 1a56 a0bc
00000170: 2f87 f53d 5427 3ebe ab52 d73d 391a f3bc
00000180: cd55 223c e55f 15bd 9ddc a1bd c2d8 00bd
00000190: 4b9c 5c3d ef7b 0e3d df0b 17be 0d81 69be
000001a0: 37d7 49be fc21 4f3d e8e8 adbd b782 1cbe
000001b0: 58f6 bdbc 694d 8cbe 5a6f 43bc 5cf3 49be
000001c0: 6971 13be 973d 933c ebd5 bb3c 1c0a 71be
000001d0: d2e2 10be a56a 8c3d a168 823d ffb6 03be
000001e0: ec2d 09bd 6bb1 17be 4648 28be 066c 913c
000001f0: ebb6 213d dabd 8fbd 0567 b2bd 169c b63d
00000200: c8f6 0bbe 74bb 2f3e 73f3 13bd bca4 dabd
00000210: f9ba 2fbe 04e6 26be 0ce6 9b3d 6c71 4f3e
00000220: 5ddb 23be bddc 2b3e 573b c13d 1b0e ffbc
00000230: 689f f1bd b44b 47bb 8efa 12be 37ce 2c3e
00000240: d7d5 41be 48db c5bc e2e9 2abe d8a6 35bc
00000250: 35a3 363e a877 453e 911d 96ba ab1d 9bbc
00000260: b376 5d3e bd00 883c 28d2 bdbd 61d0 923c
00000270: 7ace 353e 2871 203e aa33 e2bc 5d04 9fbd
00000280: 9ccc d43b c4d1 babd a8e0 3b3d 61d9 503d
00000290: 75a5 1c3e aa84 3c3e a80d 093e e5a4 6e3e
000002a0: 0e00 833e 35f0 023d e643 4d3e 62b5 debd
000002b0: d3d2 18be f604 233b 0480 74bd 6260 003a
000002c0: 2b73 a3bc 7d2e 093e 8e33 9cbd 7ddf de3d
000002d0: 4019 0e3e 5411 60be 22a7 0d3e 0000 69bd
000002e0: 7f9a 813d e726 03be 1289 3f3e 61e9 20be
000002f0: 0e56 60be ee6f e93d b1db b1bd b931 febd

fc.weight f4 [256, 64]
-0.10552119 0.010289003 -0.061091606 0.01997379 -0.017695593 -0.050997958 -0.07912482 0.07449618
-0.054438625 -0.096656516 -0.04424491 0.026022509 0.11287603 -0.041824196 -0.08465368 0.06446385
-0.10025426 0.05237916 0.055537913 -0.092068 -0.03620179 -0.01437504 0.10658638 -0.025594497
-0.033295386 0.105901115 -0.10262707 0.1023787 0.09154748 0.08897223 -0.058420185 0.06465176
0.07432127 0.07576461 0.0297354 -0.0033116292 0.07995553 0.035946667 0.07186625 -0.0083274525
0.034280423 0.11012316 -0.07358503 -0.13671175 0.043662615 -0.015659595 0.116326585 0.02441344
-0.050434858 -0.098119214 0.08223098 -0.037881207 -0.002776471 0.02126302 -0.099575885 -0.060019996
0.005021463 -0.08278564 -0.052902903 -0.077552155 0.010963509 -0.019836586 -0.02241651 0.002405128
-0.019820197 -0.07879829 0.0064375503 0.09287396 -0.045360815 0.009941697 -0.113041915 0.020819305
-0.020603545 -0.064665526 0.059505694 0.05761054 -0.09463722 -0.13862674 -0.08013252 -0.037563927
0.022728942 -0.13409851 -0.06926252 0.057647485 -0.021093125 -0.026693543 0.072993524 0.09899094
0.07799123 -0.088065155 -0.004350275 -0.040637482 0.10278741 0.13848168 -0.08078399 -0.022496765
0.09095801 0.12909418 -0.035755124 0.08494347 -0.05535406 -0.097390704 0.054565858 -0.020101672
-0.004381476 -0.059267934 0.018131787 0.03157579 0.079052396 0.14186105 0.013609577 -0.06465036
-0.07101444 -0.081776515 0.05485072 0.023349347 -0.046771992 -0.07761223 -0.064117566 -0.14125232
0.056418337 0.10105809 0.0344206 -0.038208127 0.08737757 0.072591476 0.0375684 0.0050588557
-0.090012275 -0.05560051 0.11276663 0.016799511 -0.02395323 0.03392715 0.04604038 -0.07514765
0.032546334 -0.072579235 -0.0757254 -0.009134814 0.15341842 -0.07030408 -0.0060301824 0.0040560947
0.039329518 -0.13178788 -0.0007793427 -0.03770676 0.055536915 0.03526748 0.06668974 0.007016305
-0.050505713 0.075547904 -0.12056376 0.080147564 -0.060443442 -0.07698154 0.0814223 -0.064055026
-0.10340705 0.06887574 -0.039546408 -0.13381943 0.06465346 0.044704422 -0.02873518 -0.043013938
-0.011855329 0.0290995 0.019813096 -0.12570816 0.15089221 0.01734936 0.15720558 -0.030419167
0.048083086 0.093233794 -0.11379883 0.13992839 0.12167977 0.03795482 0.11913914 0.08907612
-0.14137812 0.0754258 -0.009781607 -0.08038589 -0.070926875 0.12203889 -0.0734919 0.011635523
0.06721372 -0.051446833 0.04819425 -0.06176095 -0.054243125 0.08683555 -0.083901785 0.098121814
0.041945007 0.15425384 0.09480838 -0.13257849 0.06843604 0.03815468 -0.140263 0.10979606
-0.00564259 0.06648259 0.08628053 -0.074030325 0.15679678 0.09269058 -0.08321594 0.0739371
0.035591748 0.033048566 0.09970415 0.092913724 0.10638659 0.13623224 -0.10338656 -0.03437396
0.008389954 0.058802485 -0.12793025 -0.11734773 -0.031019274 0.086632505 -0.013729865 0.1548594
-0.058968127 0.13282584 -0.05746256 0.03704259 -0.0311817 0.11008579 0.12384989 -0.07625249
-0.14599739 -0.072630465 0.08503443 0.13287947 -0.022217391 0.094576344 -0.05572093 -0.06505177
-0.061689492 -0.005899401 -0.10623608 -0.14641336 -0.082086444 0.11186431 0.037411742 0.0035135492
00000000: 7e1b d8bd 3593 283c 313b 7abd 13a0 a33c
00000010: 59f6 90bc 3ce3 50bd 320c a2bd 7491 983d
00000020: 09fb 5ebd daf3 c5bd 273a 35bd 282d d53c
00000030: 8c2b e73d d94f 2bbd e95e adbd 9f05 843d
00000040: 1b52 cdbd 888b 563d b97b 633d 268e bcbd
00000050: 5448 14bd 4a85 6bbc f649 da3d 8dab d1bc
00000060: be60 08bd afe2 d83d 242e d2bd edab d13d
00000070: 3f7d bb3d 1337 b63d 014a 6fbd 2468 843d
00000080: c035 983d 7a2a 9b3d a797 f33c eb07 59bb
00000090: babf a33d d03c 133d 9d2e 933d de6f 08bc
000000a0: a169 0c3d 4088 e13d c0b3 96bd 2afe 0bbe
000000b0: 92d7 323d 8d48 80bc a23c ee3d b2fe c73c
000000c0: c894 4ebd baf2 c8bd b768 a83d 5329 1bbd
000000d0: 74f5 35bb c92f ae3c 71ee cbbd 87d7 75bd
000000e0: 168b a43b 858b a9bd b7b0 58bd aad3 9ebd
000000f0: 4aa0 333c 5680 a2bc d4a2 b7bc 5a9f 1d3b
00000100: f75d a2bc ff60 a1bd 16f2 d23b b434 be3d
00000110: 43cc 39bd 80e2 223c 8582 e7bd 3f8d aa3c
00000120: c4c8 a8bc 5c6f 84bd 3ebc 733d 08f9 6b3d
00000130: 29d1 c1bd 2bf4 0dbe 851c a4bd a2dc 19bd
00000140: 0c32 ba3c 1f51 09be 82d9 8dbd c51f 6c3d
00000150: 7dcb acbc 6bac dabc a17d 953d c3bb ca3d
00000160: deb9 9f3d 815b b4bd c08c 8ebb 7d73 26bd
00000170: 3582 d23d 24ce 0d3e 1472 a5bd 234b b8bc
00000180: 3148 ba3d 4431 043e f773 12bd d8f6 ad3d
00000190: f0ba 62bd c774 c7bd 7380 5f3d 43ac a4bc
000001a0: 7c92 8fbb efc2 72bd 1d89 943c 9e55 013d
000001b0: 39e6 a13d 0644 113e b4fa 5e3c 6867 84bd
000001c0: 0570 91bd 727a a7bd 26ab 603d 2147 bf3c
000001d0: fd93 3fbd 29f3 9ebd 1250 83bd 73a4 10be
000001e0: ea16 673d 8bf7 ce3d 9dfc 0c3d 2080 1cbd
000001f0: 03f3 b23d d7aa 943d 53e1 193d c2c4 a53b
00000200: 5b58 b8bd 5cbd 63bd 31f2 e63d 219f 893c
00000210: 9039 c4bc 32f7 0a3d d694 3c3d 03e7 99bd
00000220: 4e4f 053d 6ca4 94bd eb15 9bbd 30aa 15bc
00000230: b819 1d3e 96fb 8fbd d698 c5bb fde8 843b
00000240: fd17 213d 67f3 06be ce4c 4cba 6772 1abd
00000250: ad7a 633d a274 103d a194 883d 08e9 e53b
00000260: 14df 4ebd dcb8 9a3d 22ea f6bd 6824 a43d
00000270: 8b93 77bd 7fa8 9dbd bcc0 a63d 482f 83bd
00000280: 13c7 d3bd b90e 8d3d 6afb 21bd f607 09be
00000290: 0969 843d fc1b 373d 0a66 ebbc 622f 30bd
000002a0: db3c 42bc 1362 ee3c 134f a23c a4b9 00be
000002b0: 7d83 1a3e 3f20 8e3c 80fa 203e 9e31 f9bc
000002c0: c5f2 443d 5cf1 be3d 5c0f e9bd 6349 0f3e
000002d0: 3e33 f93d 8376 1b3d 39ff f33d 8a6d b63d
000002e0: 6dc5 10be d878 9a3d 0943 20bc 5ca1 a4bd
000002f0: 1c42 91bd 87ef f93d ec82 96bd eca2 3e3c
00000300: 59a7 893d eab9 52bd 5567 453d 0df9 7cbd
00000310: 0a2e 5ebd d6d6 b13d b3d4 abbd 17f4 c83d
00000320: 87ce 2b3d b8f4 1d3e e52a c23d a8c2 07be
00000330: 3228 8c3d 1548 1c3d 1ba1 0fbe c2dc e03d
00000340: 7ae5 b8bb 0628 883d d9b3 b03d 369d 97bd
00000350: 568f 203e 8fd4 bd3d 1e6d aabd 566c 973d
00000360: a7c8 113d ef5d 073d b031 cc3d 8d49 be3d
00000370: 36e1 d93d 7780 0b3e 55bc d3bd b6cb 0cbd
00000380: 0576 093c e0da 703d 2600 03be 0254 f0bd
00000390: 221c febc 626c b13d 3af3 60bc 7693 1e3e
000003a0: 9088 71bd 7f03 083e dc5d 6bbd f9b9 173d
000003b0: c470 ffbc a974 e13d 03a5 fd3d 442a 9cbd
000003c0: 5780 15be 48bf 94bd 8826 ae3d 8e11 083e
000003d0: 3f01 b6bc 3eb1 c13d a13b 64bd dd39 85bd
000003e0: 1fae 7cbd c34f c1bb 4d92 d9bd 62ed 15be
000003f0: f01c a8bd 1e19 e53d 0e3d 193d 9343 663b

fc.bias f4 [256]
-0.024727358 0.11419363 -0.06727809 0.1281818 0.16763867 -0.028572734 0.1116363 0.24974704
0.32972533 0.30479476 0.48893994 0.7384444 0.97364026 1.2168293 1.4813346 1.7019656
1.5291353 1.3078346 1.2127604 0.83612597 0.87703454 0.6572097 0.6089393 0.45567167
0.37318113 0.17818059 0.15865904 0.1580509 0.07646509 0.07863265 0.1526825 0.012347556
0.005959868 0.16700572 0.031470932 0.15085539 0.01262248 0.16233549 -0.050359026 0.021356184
-0.0033148502 0.15268576 0.09217521 -0.062065896 -0.0064011733 0.0066187284 0.10070716 -0.046931896
-0.01816141 -0.008734173 0.1382874 -0.036132734 -0.07454962 0.02461467 -0.011435988 -0.06312214
0.0024366057 0.15161268 0.07355597 0.011525111 -0.047813933 0.026683807 0.046151817 0.12349732
-0.07618165 0.020816175 0.09110251 0.10873769 -0.040208247 -0.07618957 -0.08064579 -0.055179633
0.078525156 -0.12840188 -0.12154781 0.05483564 -0.04399174 -0.061967347 0.025899647 0.062029134
-0.03568284 -0.11860572 -0.09889165 -0.06300445 -0.0035215297 -0.007998533 0.124270506 0.110572614
-0.076080866 0.09202349 -0.018841034 -0.10559229 -0.080079205 0.0076549253 0.061821666 0.03136335
0.07195607 0.08296632 -0.0015690954 -0.06078833 0.03509079 0.053473182 -0.0033399994 -0.06358197
-0.10428785 -0.061041575 -0.08958759 -0.051057596 -0.061342996 0.007836348 -0.06564568 0.04048294
-0.0027730893 -0.049511325 0.018236443 0.06579871 0.077287264 -0.11292695 -0.029892512 -0.084428266
0.10639327 0.009252369 0.09718576 -0.006555831 0.033842154 0.057222687 0.11731628 -0.013065608
-0.017453095 -0.050314076 -0.07373089 -0.025589427 0.10676437 -0.02821633 -0.022838352 -0.053186126
-0.07900657 0.11412606 -0.003829181 0.043294776 0.039466236 0.09394961 0.03172676 0.10942362
0.11375615 0.0795404 -0.10963379 -0.11554128 -0.0039861836 0.11147963 0.10553885 -0.0128119
0.06840887 -0.014306439 0.11634597 -0.026621265 -0.10870187 -0.05045176 0.07048357 0.04775026
0.050164152 0.009994846 -0.1439109 0.10363015 -0.07280507 -0.06324396 0.02972081 -0.008601913
0.09339122 0.086245 0.017648319 -0.0028470797 0.048515633 0.06535434 -0.016803531 0.10844458
-0.13315493 0.08728004 -0.09372702 0.09129987 -0.052728396 -0.13250898 0.063271135 -0.026711114
0.048268475 -0.014282368 0.00094546797 -0.015509669 -0.09965868 -0.030944545 -0.050175436 -0.009716617
-0.07290753 -0.050214313 -0.09054535 0.08166221 -0.039040882 -0.09804352 0.020228209 -0.07345059
-0.06413266 0.016798085 0.012015667 -0.10134402 0.016227117 0.11903806 -0.06808224 -0.10781725
0.094569296 -0.07470023 -0.024046393 -0.034423117 0.12938039 -0.07851935 -0.074602045 0.11343066
-0.08273959 -0.05575599 -0.061559595 0.034835193 -0.10183544 0.0165454 0.09550063 0.13365498
-0.046081893 -0.04195367 -0.034776054 0.06604567 0.00096733123 0.123217165 0.03887547 -0.07180855
0.025044806 -0.06446894 -0.097536065 0.054516193 0.11018475 -0.030483665 -0.07860147 0.051507153
-0.068115816 -0.044898596 -0.13470936 0.011348977 -0.089555725 0.062502176 -0.0070272847 0.08403331
-0.07667342 0.052413993 0.030576834 0.111089714 0.052187152 0.082717985 -0.07238561 0.07516524
00000000: 0791 cabc 5ade e93d 18c9 89bd 1742 033e
00000010: 79a9 2b3e 5e11 eabc 93a1 e43d b0bd 7f3e
00000020: c2d1 a83e 0f0e 9c3e 5656 fa3e b10a 3d3f
00000030: 7d40 793f 10c1 9b3f 5f9c bd3f 02da d93f
00000040: b5ba c33f 2067 a73f bc3b 9b3f 5a0c 563f
00000050: 5685 603f e53e 283f 72e3 1b3f cc4d e93e
00000060: 9911 bf3e f974 363e 8477 223e 18d8 213e
00000070: bb99 9c3d 280a a13d cd58 1c3e 674d 4a3c
00000080: ff4a c33b 8c03 2b3e aae7 003d d679 1a3e
00000090: 85ce 4e3c 463b 263e 4445 4ebd 2af3 ae3c
000000a0: f53d 59bb a859 1c3e 5bc6 bc3d cf38 7ebd
000000b0: efc0 d1bb ebe1 d83b 8e3f ce3d a93b 40bd
000000c0: 3dc7 94bc c719 0fbc 369b 0d3e ebff 13bd
000000d0: 79ad 98bd b4a4 c93c 035e 3bbc 2e46 81bd
000000e0: 76af 1f3b 5b40 1b3e 83a4 963d d2d3 3c3c
000000f0: 8bd8 43bd 0098 da3c b009 3d3d 2aec fc3d
00000100: 2005 9cbd af86 aa3c f493 ba3d deb1 de3d
00000110: 67b1 24bd 4709 9cbd 9f29 a5bd 0a04 62bd
00000120: ccd1 a03d c87b 03be 0fee f8bd 569b 603d
00000130: af30 34bd 79d1 7dbd 7f2b d43c 4312 7e3d
00000140: 2b28 12bd 8ee7 f2bd b587 cabd 7a08 81bd
00000150: 77c9 66bb 470c 03bc 8981 fe3d e573 e23d
00000160: 49d0 9bbd d076 bc3d 8358 9abc c540 d8bd
00000170: 9100 a4bd 2bd6 fa3b b738 7d3d db76 003d
00000180: b45d 933d 3fea a93d 1baa cdba 2ffd 78bd
00000190: 5cbb 0f3d b206 5b3d e4e3 5abb 4437 82bd
000001a0: de94 d5bd bb06 7abd b379 b7bd c521 51bd
000001b0: cb42 7bbd 0764 003c 3e71 86bd 70d1 253d
000001c0: b8bc 35bb 63cc 4abd 9864 953c 79c1 863d
000001d0: c948 9e3d 3f46 e7bd 24e1 f4bc bae8 acbd
000001e0: b7e4 d93d 4097 173c 5409 c73d 4cd2 d6bb
000001f0: 129e 0a3d 5662 6a3d 8543 f03d 2211 56bc
00000200: cbf9 8ebc 2216 4ebd 3900 97bd eba0 d1bc
00000210: 47a7 da3d ef25 e7bc 7f17 bbbc b2d9 59bd
00000220: 32ce a1bd ecba e93d fff2 7abb dd55 313d
00000230: 59a7 213d a768 c03d ebf3 013d 7e19 e03d
00000240: fcf8 e83d 14e6 a23d ae87 e0bd e8a0 ecbd
00000250: 889e 82bb 6f4f e43d c124 d83d 01e9 51bc
00000260: f319 8c3d 8e65 6abc cc46 ee3d d714 dabc
00000270: 169f debd 81a6 4ebd b159 903d c795 433d
00000280: ed78 4d3d 6cc1 233c 615d 13be 0b3c d43d
00000290: d31a 95bd 0d86 81bd 0e79 f33c 0aef 0cbc
000002a0: e543 bf3d 38a1 b03d 3593 903c 1296 3abb
000002b0: 54b8 463d 7fd8 853d 8fa7 89bc 3118 de3d
000002c0: c459 08be e1bf b23d f4f3 bfbd 6dfb ba3d
000002d0: bbf9 57bd 6fb0 07be 4c94 813d 44d1 dabc
000002e0: 2ab5 453d 9800 6abc 48d9 773a 441c 7ebc
000002f0: da19 ccbd 6a7f fdbc c284 4dbd 7232 1fbc
00000300: 8b50 95bd 86ad 4dbd d76f b9bd 843e a73d
00000310: 55e9 1fbd 0acb c8bd a1b5 a53c 436d 96bd
00000320: fc57 83bd 239c 893c 5cdd 443c 748d cfbd
00000330: bbee 843c 3aca f33d b46e 8bbd 4acf dcbd
00000340: 8cad c13d 6ffc 98bd f1fc c4bc 41ff 0cbd
00000350: 4b7c 043e c1ce a0bd f5c8 98bd 554e e83d
00000360: 6073 a9bd 6560 64bd ea25 7cbd 59af 0e3d
00000370: 198f d0bd 388a 873c d695 c33d dadc 083e
00000380: 5ec0 3cbd 9dd7 2bbd 5671 0ebd f442 873d
00000390: 8094 7d3a 4859 fc3d e33b 1f3d 5c10 93bd
000003a0: c42a cd3c 4b08 84bd fdc0 c7bd 5f4c 5f3d
000003b0: 8ba8 e13d e1b8 f9bc cff9 a0bd 2af9 523d
000003c0: 4e80 8bbd 97e7 37bd 40f1 09be 0ff1 393c
000003d0: fe68 b7bd 2401 803d 2345 e6bb a819 ac3d
000003e0: f406 9dbd 0eb0 563d 457c fa3c 0183 e33d
000003f0: 32c2 553d 0c68 a93d e83e 94bd 3cf0 993d

ln.weight f4 [64]
3.2190876 3.198749 3.1340535 3.1214051 3.1842072 3.2543743 3.1190736 3.1304808
3.172709 3.0461223 3.3512256 3.1421437 3.1253564 3.1667788 3.1225057 3.160003
3.1231534 3.084294 3.283327 3.1418784 3.1893673 3.102881 3.167948 3.0921016
3.1435459 3.0205123 3.313513 3.1884158 3.1273086 3.1322813 3.3782592 3.1597679
3.1722856 3.1427696 3.1640122 3.2406843 3.093743 3.232291 3.1493094 3.0904322
3.1630502 2.990328 3.1648571 3.1877193 3.1481607 3.1379902 3.1221955 3.119767
3.1403997 3.2525687 3.130513 3.0821056 3.44503 3.170811 3.3414712 3.2146504
3.1161675 3.1344872 3.1117625 3.046534 3.1301663 3.0928683 3.1901424 3.2766297
00000000: 8805 4e40 4eb8 4c40 5594 4840 1ac5 4740
00000010: 0dca 4b40 ab47 5040 e79e 4740 cc59 4840
00000020: aa0d 4b40 abf3 4240 7b7a 5640 e218 4940
00000030: d705 4840 81ac 4a40 22d7 4740 7d3d 4a40
00000040: bfe1 4740 1365 4540 0822 5240 8914 4940
00000050: 981e 4c40 9a95 4640 a9bf 4a40 fee4 4540
00000060: db2f 4940 1350 4140 9910 5440 010f 4c40
00000070: d325 4840 4c77 4840 6635 5840 a339 4a40
00000080: ba06 4b40 2323 4940 2d7f 4a40 5f67 4f40
00000090: e3ff 4540 dbdd 4e40 498e 4940 a4c9 4540
000000a0: 6a6f 4a40 8961 3f40 058d 4a40 9803 4c40
000000b0: 777b 4940 d5d4 4840 0dd2 4740 43aa 4740
000000c0: 4ffc 4840 162a 5040 535a 4840 3841 4540
000000d0: 5f7b 5c40 91ee 4a40 aada 5540 d5bc 4d40
000000e0: 4a6f 4740 709b 4840 1e27 4740 6afa 4240
000000f0: a554 4840 8ef1 4540 4b2b 4c40 4db4 5140

ln.bias f4 [64]
-2.2059202 2.185228 -2.1677284 -2.1673548 -2.186316 -2.217124 2.1553504 2.1565711
-2.1841416 2.1099336 2.2599485 -2.171829 -2.1792495 -2.1813757 -2.157483 2.1663122
-2.1633174 -2.1420429 -2.238801 2.1587706 2.1876802 2.1479099 2.1624212 2.165557
2.1581614 2.0979464 -2.2450092 -2.176813 2.1518545 2.1500604 -2.313026 -2.1786118
-2.182283 -2.1831415 2.2211878 -2.2176952 2.14387 2.2041452 2.1503155 2.1305852
2.1865387 2.0834913 2.1888044 -2.176409 -2.1790388 2.1541903 -2.1822906 -2.167567
2.2028966 2.212109 -2.1703973 2.1239886 2.3584263 -2.2067301 2.2588878 -2.2033503
2.1664355 -2.170228 2.153658 -2.1179466 -2.1883028 2.1335845 -2.1910677 -2.2336946
00000000: cc2d 0dc0 c7da 0b40 10bc 0ac0 f1b5 0ac0
00000010: 9aec 0bc0 5ce5 0dc0 43f1 0940 4305 0a40
00000020: fac8 0bc0 2709 0740 ffa2 1040 3fff 0ac0
00000030: d378 0bc0 a99b 0bc0 3414 0ac0 dca4 0a40
00000040: cb73 0ac0 3b17 09c0 8448 0fc0 4c29 0a40
00000050: f402 0c40 5b77 0940 1c65 0a40 7c98 0a40
00000060: 511f 0a40 c144 0640 3bae 0fc0 e750 0bc0
00000070: fcb7 0940 979a 0940 9e08 14c0 606e 0bc0
00000080: 86aa 0bc0 97b8 0bc0 f127 0e40 b8ee 0dc0
00000090: 2b35 0940 b710 0d40 c59e 0940 825b 0840
000000a0: 40f0 0b40 ec57 0540 5f15 0c40 494a 0bc0
000000b0: 5f75 0bc0 41de 0940 a6aa 0bc0 6bb9 0ac0
000000c0: 42fc 0c40 3293 0d40 cae7 0ac0 6eef 0740
000000d0: 75f0 1640 113b 0dc0 9e91 1040 b103 0dc0
000000e0: e1a6 0a40 04e5 0ac0 88d5 0940 708c 07c0
000000f0: 270d 0cc0 a68c 0840 743a 0cc0 daf4 0ec0
