model.pth (torch, 76187 bytes, 12 tensors)

fc1.weight f4 [64, 3]
00000000: 8218 60bc e86f a7be 600b 94bd 0006 09bf
00000010: c041 5cbe 2c70 b43e c367 6a3d 70e1 c43e
00000020: 4891 6bbe b58a 33bd 6dc7 d7be 88d0 c93e
00000030: 8667 3bbf 19fa 02bd b8d3 1f3e 83c2 68be
00000040: d088 fc3e c362 a3be af16 0c3f 134a e3be
00000050: 06e3 0fbf ebfe f3be 4a29 20be e198 93be
00000060: ee98 d2be ac93 2ebe 30e2 05bd 4361 fdbd
00000070: 61ed ccbe 0ac8 9b3e 0bd0 1e3f d187 d83e
00000080: 4095 b9be 6807 ccbe 2065 ec3c 1261 d13e
00000090: 4399 bebe 494c ca3d 902d bc3d 0b5f 1abd
000000a0: 6d97 b6be 56be c93e ac16 4dbe ffc8 a4be
000000b0: 9363 13bf b547 f33e 9518 f3be 78cf 163e
000000c0: 730e debe 2a9f 63be e03a 8fbd 8f3a fbbe
000000d0: 59fb f5be 68e4 9f3d 272e f9be aa3c c5bc
000000e0: 70e2 df3e 403c 6f3e e797 85be 52fa d03e
000000f0: 5867 db3e 0656 c1be 3430 7d3e 1bc7 d5be
00000100: f83f a4be 0a3e c43e 753e cb3d fb97 3f3f
00000110: ae1a 13bf d483 d43e cb86 903e 37f5 f5be
00000120: 8c6d c63e 8e79 e23d 4f02 10bf 5f1a c2be
00000130: 87c2 ddbe 5c82 07bf c4af ecbe 18d2 87be
00000140: f45d 813e 8b9a 7a3e c1c7 33bf 124a efbe
00000150: af2d e43e 7a69 eebb a673 c7be 6672 eebd
00000160: 549e 28bf 2699 03be da66 e6be bb2d e43e
00000170: 80ef 223c ed70 e5be 866b d63e 2e2b 1fbe
00000180: b70a 27bd a244 e1be ec72 fcbd 190d e43d
00000190: 4c52 fb3e 00f3 febc 2c66 d0be f02d eebe
000001a0: 7b35 90be fd03 0dbf 6d45 8dbe 7232 b03e
000001b0: 5f78 1dbe f235 63be aad3 973e 4cd9 d93e
000001c0: 6d9f c6be a606 ae3e 454a ddbe aa4d fdbe
000001d0: 7809 42be 7889 ac3e 6e11 33bf 0079 7a3e
000001e0: e449 f3be cc50 febd 7cab 02bf de7d c5be
000001f0: 3175 8e3d 00a5 af3e 25ac 05be 7c46 af3e
00000200: f392 acbe fa10 183e 84cd a3be 2f31 07bf
00000210: 574b c9be c877 0bbe 6462 1fbe b9ad ee3e
00000220: 09c1 303e a22e 8a3e 1853 1a3f 050b e4be
00000230: 8e18 62be a01b bb3c a848 b23d 1a83 cabe
00000240: bce6 983e 518a eb3e 8840 3dbe 891a e6be
00000250: 44ae 023e c459 a33e 2d64 00bf f2bb 1fbe
00000260: 5ed9 b9be 39ea 3cbe 3950 3bbe d0c4 a83e
00000270: 7cae c43e d1b5 aa3e 0c67 ed3e b6f2 873e
00000280: 219d b7be 0056 47bb 85bc 13bf 5be1 0ebf
00000290: ee3e 46be 430e f93e d2bd 88be 4847 603e
000002a0: 5493 573d f1d9 f93e 26ee e3be c0b3 16be
000002b0: 0b46 ca3e 1d9a ebbe d3ff 40be ac4e d83e
000002c0: d000 71bd 22b8 873e 0030 f8bc 8055 2b3c
000002d0: 766e 1f3f 0b4c 1139 1cc7 3f3e 6110 a73c
000002e0: 2f75 ad3e 884e 5cbe b0f1 5bbe 60c0 95bc
000002f0: 5442 6f3e 83e9 133f 49e8 fabd f092 b13e
-0.013677718 -0.32702565 -0.07228732 -0.5352478 -0.21509457 0.3524183 0.05722786 0.38453245
-0.23004639 -0.043833453 -0.42144337 0.3941691 -0.7320484 -0.031976793 0.15608108 -0.2273045
0.4932313 -0.31911287 0.5472211 -0.44392452 -0.56205785 -0.47655424 -0.1564075 -0.28827575
-0.411323 -0.1704852 -0.032686412 -0.12372067 -0.40024856 0.30426055 0.620362 0.4229112
-0.3624668 -0.398494 0.028856814 0.4089437 -0.37226304 0.098778315 0.09188378 -0.037688296
-0.35662404 0.39403027 -0.2002818 -0.32184598 -0.57573813 0.47515646 -0.47479692 0.1472758
-0.433704 -0.22228685 -0.069936514 -0.49068114 -0.48043326 0.07807237 -0.48668024 -0.024076778
0.43727446 0.23362827 -0.26092455 0.4081598 0.42852283 -0.37760943 0.2472542 -0.41753468
-0.32080054 0.38328582 0.09924022 0.7484128 -0.57462585 0.41506827 0.2822784 -0.48038647
0.38755453 0.11058341 -0.5625352 -0.37910745 -0.43312475 -0.5293329 -0.4622785 -0.26527476
0.25266993 0.24473016 -0.70226675 -0.467362 0.44566104 -0.0072757574 -0.3895542 -0.116429135
-0.6586659 -0.1285139 -0.45000345 0.4456614 0.009944797 -0.44812718 0.4187891 -0.15543815
-0.040781703 -0.43997675 -0.12326607 0.11135311 0.49086225 -0.03112173 -0.4070295 -0.46519423
-0.28165802 -0.5508421 -0.2759203 0.34413487 -0.15377949 -0.22188547 0.29653674 0.42548597
-0.38793507 0.33989447 -0.43220726 -0.49473315 -0.18948925 0.3369863 -0.6994847 0.2446022
-0.47517312 -0.124177545 -0.51042914 -0.38572592 0.06955946 0.34305573 -0.13053949 0.34233463
-0.33705863 0.14850226 -0.31992733 -0.52809423 -0.39315292 -0.13619912 -0.15564877 0.46616915
0.17261137 0.26988703 0.6028304 -0.44539657 -0.2207968 0.022840321 0.08705264 -0.39553148
0.29863536 0.46003965 -0.18481648 -0.4494212 0.1276179 0.31904423 -0.50152856 -0.15599039
-0.3629865 -0.18448724 -0.18292321 0.32962656 0.3841437 0.3334184 0.4636768 0.2655236
-0.35862067 -0.003041625 -0.5770953 -0.55812615 -0.19359943 0.48643693 -0.2670732 0.21902192
0.052630737 0.4879909 -0.4451763 -0.14717007 0.39506564 -0.46016017 -0.18847589 0.42247522
-0.058838665 0.2650767 -0.030296326 0.0104573965 0.62277925 0.00013856606 0.18728298 0.020393552
0.33878466 -0.21514332 -0.21478915 -0.018280208 0.23365146 0.57778186 -0.12251336 0.34682417

fc1.bias f4 [64]
00000000: 47b1 14bf c7c6 1bbf 0d34 22be 907e 94bd
00000010: ba0f 60bc 32a2 d2be e855 9f3e 9d63 14bf
00000020: 1664 81be 1c62 ae3d c29e d8be 1a8d a2bd
00000030: a75b 0d3f 1203 7cbd 1d74 803e d148 c43e
00000040: 3dfa f13d 5606 27bd 851e 0f3f 8cec e8be
00000050: c5a9 91bd 012b ebbe 070f f93d c1c6 91be
00000060: 2a43 be3d 449e df3c 603d c23e 7d88 3ebd
00000070: db92 053f 427d 813e fcc8 2bbf 8328 cdbe
00000080: d775 92be 6d2d 06be 6284 e83c ed21 173e
00000090: fff8 f9be 4f9d 06bf 5e6e 003d 91aa f03d
000000a0: 8e2d 41be bc7f 0a3e 17b5 c6be 739d 053f
000000b0: c511 f5be bbb3 a0be c96a 91be 8817 e8be
000000c0: d4f0 b33e cd9d 293f 06df 15bf 29f8 e0be
000000d0: e3e6 f3be 4098 d1be 1217 1d3e 16ae 983e
000000e0: 456d a73d 64a6 82bb 4602 b1be 4847 11bf
000000f0: 4064 ad3d 4f6d db3e 783c febe 128e cb3d
-0.58083004 -0.60850185 -0.15840168 -0.072507024 -0.0136756245 -0.4113937 0.3112023 -0.579645
-0.25271672 0.08514807 -0.42308623 -0.07937069 0.55217975 -0.061526366 0.25088587 0.38336805
0.11815307 -0.040777527 0.55905944 -0.4549297 -0.07112459 -0.45931247 0.12161069 -0.2847195
0.09290154 0.027297147 0.3793745 -0.046516884 0.5217721 0.25290877 -0.6710355 -0.4006997
-0.2860553 -0.13103266 0.028383438 0.14759035 -0.4882278 -0.52583784 0.031355254 0.11751283
-0.18865034 0.1352529 -0.38810036 0.52193373 -0.4786512 -0.31387123 -0.28401783 -0.45330453
0.35144675 0.6625641 -0.5854343 -0.4393933 -0.4763709 -0.4093647 0.15340832 0.29820317
0.081751384 -0.0039871205 -0.34572047 -0.5674939 0.08466387 0.42856833 -0.4965551 0.09939207

bn1.weight f4 [64]
00000000: 7e40 8d3f 67fa 6f3f e55d 8b3f 1726 8c3f
00000010: e36c 663f a242 863f 9345 5e3f 0192 733f
00000020: d6cd 873f 16fd 7a3f 45a1 763f 2135 743f
00000030: 8b16 5c3f 6572 833f da29 673f f0d2 593f
00000040: 5de4 833f 5c1e 623f c686 813f 3afb 863f
00000050: ba04 363f ed5d 4f3f 7031 763f b66e 7e3f
00000060: c93a 6e3f 0836 6a3f c4b6 4f3f ec9d 783f
00000070: 4265 493f 3c23 773f 52b5 783f c080 7c3f
00000080: eb55 8c3f 7b6b 803f 4c00 793f 5780 683f
00000090: baa5 8e3f dd50 953f 0d6d 4a3f 369a 8a3f
000000a0: 9817 663f c60c 763f 7633 8c3f 8f20 263f
000000b0: de0e 743f 32f4 863f 914b 523f 0000 803f
000000c0: 5de9 543f f5c3 7e3f 5d7d 783f 18b1 7f3f
000000d0: fb15 8e3f 20b5 793f 6883 6c3f 22eb 533f
000000e0: 7640 8f3f db61 8d3f 0102 853f 0000 803f
000000f0: f52a 763f 46f8 3e3f 0000 803f 3ce0 673f
1.1035306 0.9374146 1.0888029 1.0949124 0.900099 1.0489085 0.8682491 0.9514466
1.0609691 0.9804243 0.9633983 0.9539357 0.859719 1.0269285 0.90298235 0.8508749
1.0304066 0.88327575 1.0119255 1.0545418 0.7110096 0.81002694 0.96169186 0.9938768
0.9305845 0.91488695 0.81138253 0.9711597 0.7867013 0.9653814 0.9715167 0.98633957
1.096372 1.00328 0.9726608 0.9082083 1.1144326 1.1665303 0.7907265 1.0828311
0.8987975 0.9611324 1.0953205 0.6489343 0.95335186 1.0543272 0.82146555 1.0
0.83168584 0.99517757 0.9706629 0.998796 1.1100458 0.97542 0.9238801 0.8278066
1.1191547 1.1045488 1.0391237 1.0 0.961593 0.74597585 1.0 0.9057653

bn1.bias f4 [64]
00000000: a3b1 a6bd ec08 ccbb b23f a23d 32f6 d53d
00000010: b98d 27be 4d95 6d3e 2cf4 86bc 6a09 6e3d
00000020: 56ec 74bd 605a ac3d 9b5a bc3d c2b0 c43e
00000030: c6aa 113d 5543 1a3d aac0 04be 4b7a e2bb
00000040: f664 613c 46cc 02be d7a5 283e 153b 5ebd
00000050: 6197 5c3e af3f d1bd 8e1f ad3d 0297 3f3e
00000060: b695 17b9 cd56 73bd 6773 d73c 257a 3fbc
00000070: d941 c33d 04b5 27bc 33ba 2b3b 8be3 c8bd
00000080: 1b2f 0dbe 8e50 1a3e 6edc 6b3d 5143 563d
00000090: c92c 433e 90ed c8bd 782f cf3d d7fc 44bc
000000a0: 2a20 083d 54cc 22bd 6220 d53d 3704 0a3e
000000b0: 93bd 01be eb64 b2bd 8ef6 d33d 4f1a 84bd
000000c0: cfeb b73a 14be babd c362 f73c a7da 9cb9
000000d0: 72aa 62be 5d50 643d 4970 493d 3845 98bd
000000e0: 580a 913d 50ab 8a3d 9119 973d b743 bcbd
000000f0: d000 c8bd f961 cebc 706b a83d 50fb cebb
-0.0813935 -0.0062266495 0.07922305 0.10447349 -0.16362657 0.23201485 -0.016473852 0.058114447
-0.0597957 0.08415675 0.09196969 0.38416106 0.035563253 0.03766187 -0.1296412 -0.006911551
0.013756981 -0.12773237 0.16469513 -0.054255564 0.21542121 -0.10217225 0.08453284 0.18709949
-0.00014456254 -0.05940895 0.026300145 -0.011686836 0.09534044 -0.010236029 0.0026203513 -0.098090254
-0.137875 0.15069792 0.057583265 0.05231029 0.19060053 -0.098109365 0.10116476 -0.012023172
0.0332338 -0.039745644 0.10406567 0.1347817 -0.12669973 -0.08710655 0.10349761 -0.064503305
0.0014032068 -0.09118286 0.03019846 -0.00029917547 -0.22135332 0.055740703 0.04917935 -0.074350774
0.07082051 0.067709565 0.07377923 -0.09192603 -0.0976578 -0.025193201 0.08223617 -0.00631658

bn1.running_mean f4 [64]
00000000: 0400 0000 f950 193d e02d bb3d 52ac 1c3e
00000010: c876 9b3e 5d51 863d e9d3 043f ace8 c43c
00000020: 7126 a73d f1dc 6a3e b4ed 113e d96d 073e
00000030: ed2d 083f 6379 043e 1705 a03e 5349 0d3f
00000040: 6dc4 843e 7740 813e dcc3 0e3f fb25 963c
00000050: 60e7 6e3e c268 5b3d aa48 ba3e 3a5b c23d
00000060: 2485 713e c6cd 783e 4642 e43e 0e98 a43e
00000070: f7e0 113f 5392 e33e 2012 2e3d 07ff bc3d
00000080: dd60 993d 162f 173e 6857 853e 607c a73e
00000090: 602d c93a 0f7b 943d 7afc 8d3e 59e9 d73e
000000a0: c960 fb3d 739c 713e b0e1 bc3c 2853 0d3f
000000b0: 8edb a63c f287 ba3d 3f06 663e 0000 0000
000000c0: f838 dc3e 1ea6 233f 7fbe e93c 04c6 3f3b
000000d0: 1cbf 4b3d 6365 613d c157 cc3e ee7e e43e
000000e0: ea82 733e e322 273e b728 6a3d 0000 0000
000000f0: f49e b13e 064f d93e 0000 0000 4005 b03e
6e-45 0.037430737 0.09139609 0.1530011 0.3036406 0.065584876 0.5188585 0.024036728
0.08161629 0.22935845 0.14250833 0.13225497 0.5319508 0.1293693 0.31253883 0.5519001
0.2593111 0.25244495 0.5576761 0.018328657 0.2333045 0.0535667 0.36383563 0.09490056
0.23585945 0.24297246 0.44581813 0.3214726 0.56983894 0.44447574 0.042497754 0.0922833
0.07489178 0.14764056 0.26043248 0.32712078 0.0015348606 0.07250034 0.27731687 0.42170218
0.1227432 0.23594837 0.023056835 0.5520501 0.020368364 0.09107961 0.2246332 0.0
0.43012214 0.6392535 0.028533218 0.0029262314 0.049742803 0.05502833 0.399107 0.4462809
0.23780409 0.16321902 0.057167735 0.0 0.34691584 0.42443103 0.0 0.34379005

bn1.running_var f4 [64]
00000000: 0400 0000 28d3 353c 6074 a93c ac29 2f3d
00000010: 9416 263e a9b2 b53c 4c57 963e 580c b13b
00000020: c670 c23c a431 8b3d 8445 a13d 039d 143d
00000030: 68c3 183e 80bb fa3c d711 b03d 8cce 973e
00000040: 42e6 cf3d cf13 0f3e d8ac 5b3e 4baf 443b
00000050: 31ab d93d 7455 9c3c 361d 563e 4a65 0f3d
00000060: a754 8f3d 5a17 e43d 6ab3 3a3e 600c 3b3e
00000070: f378 3b3e a101 5c3e 29a0 853c 9377 283d
00000080: 82ef 963c 5860 473d 8d43 033e 5a9e 253e
00000090: 5a40 1639 9f86 da3c 5186 143e 98ab 893e
000000a0: 270b 263d c3cc 953d 6c58 873b 1aa7 f83d
000000b0: 1ecd 7e3b 07df e13c cb29 ff3d 0400 0000
000000c0: 2144 3d3e a4ff 5e3e cacd de3b 19a8 a039
000000d0: 59e9 813c 8d61 743c 49cc 833e 312a 493e
000000e0: d83a b53d 8b9c 4c3d 6b4a 863c 0400 0000
000000f0: de61 1c3e 2398 cf3d 0400 0000 bd6e 163e
6e-45 0.011097707 0.020685375 0.04276435 0.1621955 0.022179918 0.29363477 0.005403083
0.023735415 0.067965776 0.07874587 0.03628255 0.14918292 0.030606985 0.08597153 0.2964977
0.1015134 0.139724 0.21452653 0.003001171 0.10628355 0.019083716 0.2090958 0.035008706
0.06998568 0.111372665 0.18232504 0.1826644 0.18307857 0.21484996 0.016311722 0.04112966
0.018424753 0.048675865 0.12818737 0.16173688 0.00014329088 0.02667552 0.14504363 0.26888728
0.04053798 0.07314446 0.0041304138 0.12141247 0.0038879584 0.027572168 0.12459143 6e-45
0.1848302 0.21777207 0.0067994343 0.0003064282 0.01585834 0.014915836 0.25741795 0.19645001
0.08849114 0.04995398 0.016392907 6e-45 0.15271708 0.1013644 6e-45 0.14690681

fc2.weight f4 [256, 64]
00000000: bbc1 13be 6fc1 05be 2fb2 02bd e7ec b1bd
00000010: 814e f0bc 441c e53d a23f ef3d 0014 933d
00000020: ff4e 42be 2758 05bc cd20 c0bd 7297 79bd
00000030: a690 e1bd 4e01 a0bd e050 193e dcc2 3abd
00000040: a53d e83d b89d 0fbd 7765 4d3c 3b6e 6dbc
00000050: 358a 97bd f864 b2bd 589e 023e 8984 b53b
00000060: aac9 e93d 02cf b13d 9db0 20bd db27 a13d
00000070: 500e afbb 54ed 61bd 567e 043e a93a b8bc
00000080: 32e2 283e 9eda 08bd 05a2 d03c 5326 753d
00000090: 7179 28be b462 c7bd f6df e63c 500a e6bc
000000a0: 424d 593d 1182 963d e655 e2bd a599 ff3c
000000b0: f3f5 3fbc 11b6 20bd 2876 9ebd 9871 b7bd
000000c0: 7804 de39 6a72 a3bd 7bd2 f73d fe2a c83d
000000d0: 3c89 5d3d 572f 973d 0287 2bbc 4d29 aa3d
000000e0: 89fc 82bd 3f72 273d 78db 123b 00d4 c2bc
000000f0: c0fb 2cbc 2905 873d 7b1b a43d 7c73 4abd
00000100: 0ce6 51bd 66de bfbd 65c9 d7bd 287b 183d
00000110: 444a 89ba 1267 003e 5e88 f23d 494a 233e
00000120: c6bc d23c e2b0 07bd 4d67 f6bc 25ed 24bc
00000130: 97db 5b3d 8000 74bc 1a0b 863d 4d37 11bc
00000140: 2d52 823d ea82 92bd b979 b0bb 5866 e73d
00000150: 5c28 dbbd ef44 a43c 2c78 d23d 9e51 e63c
00000160: 6900 96bd 2f97 fcbd 45e2 a43d d293 053e
00000170: a87a ed3c 719d a5bd 3f7d 92bd 67d7 b33d
00000180: fb70 803d e47b 1ebe 557e 2d3d 148c 8cbd
00000190: ef7f b53c d88a d6bd fa32 1bbe 2fe7 9d3c
000001a0: 34fc 03bd 405d 47bd f5f6 e2bd e0e4 37bc
000001b0: ff6e 1cbd b57c da3d e7bb 30be 51e2 6bbd
000001c0: 18ca ee3c 0f9b 8dbd a425 1d3e cec7 3dbd
000001d0: 92d4 973d 3d9d 103c 1dee dbbc 783d 97bd
000001e0: d35f 42bd c0ca 0a3d 929b 4d3d 52db db3d
000001f0: da9f 09bd d1dc 9dbd 733f 253d 449f b1bc
00000200: befb e4bd ddf8 1fbe db9e 133e a629 ba3c
00000210: 028f b8b8 8e23 c5bd e456 fd3c 13ce cf3d
00000220: 8cf6 673d ef07 6ebd 57b1 06be 2bad 2abe
00000230: 174b bb3d c937 eabc ad62 173e c639 813d
00000240: ff23 2d3d cd0a acbc 21e8 e33d 4aec aabd
00000250: 2481 41bd b4d6 1cbd a939 ccbb a2f0 26be
00000260: 63b8 89bd 51a7 ccbd 41e1 10be d8c8 4b3d
00000270: 9f9a 3b3d f8d6 cbbc 8f43 943d f249 6d3c
00000280: ce2b 993d 50df d0bd afcf 073e e771 1cbd
00000290: 7e67 06bd 596e 12bb e97d 743c 9dde a9bc
000002a0: 1c41 bebd 3a3b 2b3b 0a33 fabc a4f4 71bd
000002b0: 1812 c63d e8d0 253e 1b3a bc3d b000 e13b
000002c0: 9fc8 c63d 77e4 fa3d d819 f43d e348 4dbd
000002d0: 2ab8 c73d b4e8 5fbb 080f 88bd 67d4 b1bc
000002e0: 06c2 c5bd 4148 233e 6f9a b4bd 5eab dabd
000002f0: e279 bcbc 521b 9f3d c738 a7bd 184f 0e3e
00000300: 816b 5ebe 2198 f53c fc43 93bb 9c2b c3bd
00000310: 2abf 883c 9d1e 0b3d 7619 843d 8e98 ac3c
00000320: 49ba efbd 206d d0bd 7da6 4a3c 2cb6 edbb
00000330: f32d 1bbd 37b7 983d 25e2 463d ea37 14bd
00000340: 8a2c 5138 fd13 cbbc 8f99 d3bd db33 c4bd
00000350: f965 4bbc 0b42 143b 92f4 b2bd 4b79 59bd
00000360: 3ddc cfbd 1bfb a2bb 0355 6c3d 2656 cc3d
00000370: 9169 f23c c481 05bc 60d4 a8bd 7997 d03d
00000380: 67d0 56bd 7e7f 723d 9fee 3a3d 3ed3 3dbc
00000390: 5c82 6e3d 241a 15be 57df e9bc 0e2a 273e
000003a0: 9dac 163d 7a96 a2bc a050 ddbd ce48 583d
000003b0: c735 23bd d53d 73bd 3a2f d2bd b625 04bd
000003c0: b4e9 4bbd 4edf a33d af31 aebb a8d5 013e
000003d0: 6c48 db3d fdbd a7bc 5913 16bd f739 193e
000003e0: b500 85bc 3cf1 b53d 0aec 803d dbf9 cd3d
000003f0: efb2 85bc 08fe a1bd e951 ff3c 9da5 a7b9
-0.14429371 -0.1306207 -0.03190821 -0.08687764 -0.029334309 0.11187032 0.11682059 0.07181549
-0.18975447 -0.008138693 -0.09381256 -0.060935445 -0.110139176 -0.07812749 0.14972258 -0.04559599
0.11339883 -0.03506252 0.012536398 -0.014491613 -0.07399408 -0.087106645 0.12755716 0.005539481
0.114154175 0.08682062 -0.03923093 0.0786893 -0.0053422824 -0.055157974 0.12938818 -0.022488909
0.16492537 -0.033411615 0.025467882 0.059851002 -0.16452576 -0.09735623 0.028182965 -0.02808109
0.053052194 0.07349027 -0.1105154 0.031201193 -0.011716354 -0.039236132 -0.0773738 -0.08957213
0.0004234647 -0.07980807 0.12100693 0.09773825 0.054085955 0.07382076 -0.0104692 0.08308659
-0.063958235 0.040880438 0.0022408646 -0.02378273 -0.010558069 0.06592781 0.08013054 -0.04942654
-0.05124478 -0.09368591 -0.1053646 0.037226826 -0.0010474403 0.12539318 0.11842416 0.15946306
0.02572478 -0.033127673 -0.030078555 -0.010066305 0.053676214 -0.014892697 0.06545086 -0.008863282
0.0636333 -0.07153876 -0.005385604 0.112988174 -0.10701057 0.020052401 0.10276827 0.02811509
-0.07324297 -0.123335235 0.0805097 0.1304467 0.028989151 -0.0808667 -0.07152795 0.08781319
0.06271549 -0.15476948 0.042356808 -0.06862655 0.02215573 -0.10475701 -0.15156165 0.019275276
-0.03222294 -0.048672915 -0.110822596 -0.011224002 -0.03819179 0.10668317 -0.17259179 -0.05758888
0.0291491 -0.06914341 0.1534639 -0.046333127 0.074135914 0.008826551 -0.02684694 -0.07384771
-0.047454666 0.033884764 0.05019719 0.107351914 -0.033599712 -0.07708133 0.040343713 -0.02168239
-0.111808285 -0.15622278 0.14416067 0.022724938 -8.800441e-05 -0.09625922 0.030925222 0.101467274
0.05663161 -0.058113035 -0.13153587 -0.16667621 0.091451816 -0.028591054 0.14783736 0.063098475
0.042270657 -0.021001244 0.111282595 -0.0834585 -0.0472423 -0.038290694 -0.0062324596 -0.16302732
-0.06724622 -0.099928506 -0.14148428 0.049752086 0.045801755 -0.024882779 0.07239448 0.014482962
0.07479058 -0.101988435 0.13262819 -0.038194563 -0.03281354 -0.0022343604 0.014922597 -0.020736033
-0.092897624 0.002612783 -0.030541915 -0.059071198 0.0967142 0.16192973 0.0919077 0.006866537
0.09706234 0.122506075 0.11918992 -0.05011834 0.097519234 -0.0034165801 -0.06643492 -0.021707727
-0.09656148 0.15945531 -0.08818518 -0.10677217 -0.023007337 0.07768883 -0.08165126 0.1389736
-0.21720697 0.029979767 -0.0044941884 -0.09529802 0.016692717 0.033964742 0.06450169 0.021068837
-0.11705453 -0.10177064 0.012368795 -0.0072543826 -0.037885617 0.074568205 0.048555512 -0.036186136
4.9870963e-05 -0.024789805 -0.10332023 -0.09580203 -0.012414449 0.0022622372 -0.08738054 -0.05309419
-0.10149429 -0.0049737818 0.05769826 0.09977369 0.029591354 -0.008148614 -0.08243632 0.10185141
-0.05244484 0.059203617 0.045637723 -0.011586009 0.05822979 -0.14560753 -0.02854888 0.16324636
0.03678571 -0.019847143 -0.108063936 0.052803807 -0.039846208 -0.05938514 -0.10262914 -0.032262526
-0.049783424 0.08001576 -0.0053159813 0.1267916 0.10707173 -0.020476336 -0.036639545 0.14963518
-0.016235689 0.088839024 0.06295021 0.10057422 -0.016320674 -0.07909781 0.031166987 -0.00031976114

fc2.bias f4 [256]
00000000: bdf9 523d 5f07 bc3c a47c 813c 0ec3 4e3b
00000010: 79d8 943d 5192 adbd 81f6 e23d b4db 483d
00000020: 3440 b9bd fe0f 29bd 85dc 9cbd 0912 b43d
00000030: 4cd1 843d 9351 2cbc 3736 79bd 8c16 7cbd
00000040: 7961 943b a40f a5bb f9fa c0bd c46f d13d
00000050: c660 f13d 43e5 fbbc 398f 573d ff9d ec3d
00000060: c790 02be af9d 3bbd 01f7 c33d 4128 623d
00000070: 8b64 c93d fdd9 23bd 6cfe eb3d d66b ba3c
00000080: 42b7 9b3d e1b6 c8bc cabc 10be adf2 173d
00000090: 872c 99bd 20af e93a 9211 f8bc 60e4 f13c
000000a0: 7149 91ba 4048 143d 35eb c5bd f1f2 5d3d
000000b0: 3ef1 033e 7a1b b93c f7dd 913d 7709 1dbd
000000c0: c992 8bbd 959e 84bd e255 9a3d 6034 35bb
000000d0: a81b 7fbd 781b 74be 19ed 043e 0fc3 073d
000000e0: 24d9 fcbc a212 433c 8b08 0cbd a81b 503d
000000f0: e5e9 bb3d b44b dfbb 719e 383e 4d9d 543b
00000100: 2c94 c13d 0b7f a5bd 9221 82bc 21fb 81bd
00000110: 4d9b e3bd e469 c8bd 961c 533e 5ac4 4dbc
00000120: 8a73 0c3e 89c1 9ebd 0b5f 34bd 7197 afbd
00000130: 80ea 573e 2372 3fbd d6b2 c03d e279 c23c
00000140: cb5f ebbc 1ec1 abbc 37cc f2bc 21d8 10bd
00000150: 1439 b0bd e05f 1bbd fab6 2fbd d2d9 cabd
00000160: 5bb0 1bbe 77af 323d 7d97 96bc fac1 463b
00000170: 4e89 ed3d 41ee 153e ddc5 aa3c cce9 213c
00000180: 08fe 223e d931 913d 8b95 4ebd 61bc 58bd
00000190: 1f9e c63d fdfe 8fbd 585c 5a3c b26c 05be
000001a0: b40c a1bc a22b 6f3d 4387 8a3c 5148 823d
000001b0: 1b01 923c dc00 aebd aba3 0fbe 7a2c f6bd
000001c0: b453 92bc 16a6 79bd 258f 1c3e 7fa8 c33c
000001d0: ceb6 3c3d 3940 8f3b 318c 19bb b0f7 e63c
000001e0: abac 3dbd 569c 6bbd d2e9 c7bb 1952 a23d
000001f0: c891 a3bd 35df debc a83b 04be 7afd ebbd
00000200: ddc3 b73d aae2 a23d d67a 07be 82f6 a23d
00000210: d26b 05be 64d6 1abe b562 e0bc 9eae c93d
00000220: d760 183d aa81 ca3d 8ec6 11be 4716 013d
00000230: c398 a3bd 6e2b b73d 98e9 9bbd 0b9f 07be
00000240: e079 c4bc 5332 3b3e d176 ecbd 0a30 d6bd
00000250: f3d2 9d3d cdec aabc 8d37 3f3d e70b 24be
00000260: 55d1 bf3d c7e2 7dbd 6350 103b 9089 98bc
00000270: ba83 7bbd fc3c 17be 0842 d73c fbba cf3c
00000280: d852 cb3d 17f5 1dbd a975 a4bc 8193 ddbd
00000290: 945a 2dbd 113e 00bd 4278 48bd af21 d8bd
000002a0: 63d2 72bd 826f 10be 3411 cd3a 972e 0d3d
000002b0: c0ae 593c f8bd 26bd e080 ac3d ee1d 843d
000002c0: df07 acbd bd46 90bd 7498 e6bc bac4 ecbd
000002d0: 1179 613d 55a7 bdbd a977 993d 7c7c 14bd
000002e0: c4b5 6f3d 9544 c83d d41b 173d bc5c 42bd
000002f0: 4db3 a83c cdc2 e0bc 12dd 8cbd 8cbc aa3d
00000300: 0757 553d 4138 e2bd 6634 f13d b3e8 173d
00000310: 3830 b9bd cfee 4fbc 1a42 7d3d 465a d33d
00000320: 9f49 f0bd 5c20 d1bd 8ff0 16be d8a0 7abd
00000330: c49c 463d 4358 953d a6a5 d63d b8e3 cb3d
00000340: 0f9d 8b3b 7581 d43c 222a e5bd 159a a8bd
00000350: a488 e8bd 061b dabd 3308 8ebc 1fb1 b9bd
00000360: e042 943d 07aa 53bd 425e ec3d c332 373d
00000370: cd82 b33d 0505 a83d 1b4d 073d 6dbe cb3d
00000380: c3cb a03d 4f6c f7bd dbf1 c83d 393a b1bd
00000390: 3c94 803d 364e 283d c7cb 2c3c b309 b4bd
000003a0: 7a02 d43d d3a4 b9bd ca00 103d bd43 d93d
000003b0: 0301 e7bd 144c e13d 931f b43d 38ba a1bc
000003c0: 82b9 c9bd b30c 593d c159 da3d 0d0e 90bd
000003d0: 5ae8 743d b124 3b3d f9e0 98bd 5711 c6bd
000003e0: 696e b03c 07e4 f53d d731 b8bd 6a14 ad3c
000003f0: 49df 433d 7900 973d fd68 b03d 38c8 fb3d
0.0515077 0.022952734 0.015806504 0.0031549367 0.072678514 -0.08475173 0.11082173 0.04903765
-0.09045449 -0.041275017 -0.07659248 0.087925024 0.06485233 -0.010517496 -0.06084272 -0.06154494
0.004528221 -0.005037265 -0.09422869 0.10226396 0.11786036 -0.030748969 0.052626822 0.11553573
-0.1275054 -0.045804676 0.09568597 0.05521417 0.0983363 -0.04000281 0.115231365 0.022756498
0.07603313 -0.024501266 -0.14134517 0.037096668 -0.07479196 0.001782868 -0.030281816 0.029527843
-0.0011084509 0.036201715 -0.09664003 0.054186765 0.12884995 0.02259611 0.071224146 -0.038339105
-0.068151064 -0.064755596 0.07535912 -0.0027649626 -0.062282234 -0.23838603 0.1298107 0.033145007
-0.03086526 0.011906298 -0.034187835 0.050807625 0.09175471 -0.0068144444 0.1802919 0.0032442391
0.0945209 -0.08080872 -0.015885148 -0.06346727 -0.11113606 -0.09785822 0.20616373 -0.012559021
0.1371595 -0.07751758 -0.044035953 -0.08573807 0.21085548 -0.04673971 0.0940911 0.023739759
-0.028732201 -0.020966109 -0.029638393 -0.035362367 -0.08604637 -0.03793323 -0.04289911 -0.09904827
-0.15203993 0.043624368 -0.018382782 0.0030328021 0.115984544 0.14641668 0.020846302 0.009882402
0.15917218 0.07089586 -0.050435584 -0.052914027 0.09698128 -0.07031057 0.0133276805 -0.13029745
-0.019659378 0.05839122 0.016910201 0.063614495 0.017822793 -0.08496258 -0.14027278 -0.12020202
-0.017862178 -0.060949408 0.1528898 0.023884056 0.046072774 0.0043716696 -0.0023429508 0.028194278
-0.046307247 -0.05752214 -0.0061008716 0.07925815 -0.0798679 -0.027206043 -0.12913382 -0.11522956
0.08972905 0.07953389 -0.13230452 0.07957174 -0.13029411 -0.15120846 -0.027390817 0.09847759
0.03720173 0.09888013 -0.14235899 0.031515386 -0.07988121 0.089438304 -0.07612914 -0.13244264
-0.023983896 0.18280916 -0.115461 -0.104583815 0.07706251 -0.020864869 0.046683837 -0.16020165
0.09366099 -0.06198385 0.002202057 -0.018620282 -0.06140492 -0.14769357 0.026276603 0.025357714
0.099279106 -0.038563814 -0.020075636 -0.1081915 -0.04232271 -0.03130919 -0.04894281 -0.105533
-0.05928267 -0.14105037 0.0015645386 0.03446826 0.013286293 -0.040708512 0.084230185 0.06451021
-0.08399939 -0.07044742 -0.028148867 -0.1156096 0.0550471 -0.09260432 0.074935265 -0.03625153
0.058522955 0.09778706 0.036891773 -0.04745172 0.02059331 -0.027436638 -0.06878103 0.08336744
0.05208495 -0.11045886 0.11777572 0.037087154 -0.090424 -0.012691214 0.061830617 0.10319953
-0.11732792 -0.1021125 -0.14740203 -0.06118855 0.048489347 0.07292225 0.10480814 0.09955543
0.004260666 0.025940636 -0.11189677 -0.08232514 -0.11354187 -0.106496856 -0.017337894 -0.09066986
0.07239318 -0.051675823 0.11541416 0.044726145 0.08765183 0.082040824 0.033032518 0.0994843
0.078513645 -0.12081205 0.09811755 -0.08653683 0.062782735 0.041090213 0.010546631 -0.087909125
0.10352035 -0.09064641 0.035157003 0.10608623 -0.1127949 0.11000839 0.08795085 -0.019742116
-0.09849836 0.052990627 0.106616504 -0.0703393 0.0597919 0.04568929 -0.07464785 -0.09671276
0.021537023 0.120063834 -0.08993881 0.021127898 0.047820363 0.07373137 0.08613775 0.12294048

bn2.weight f4 [256]
00000000: a58b 303d 85c4 3a3d 7cda 873d 006b 833d
00000010: 3de9 393d 2a50 1d3d e441 8f3d c397 7b3d
00000020: 9fb0 c73d f229 683d 1576 cc3d fbf5 bc3d
00000030: 367b c53d 3239 bc3d 60c2 e53d 2766 ca3d
00000040: b8c5 053e e50e 173e 61d1 293e 9f68 543e
00000050: 19a9 393e 7c4e 5f3e 1541 753e 20c8 843e
00000060: d71b 993e 167b a23e ed6c c33e 0e85 d93e
00000070: b5c7 c63e 57df ec3e 0770 093f 8a3f 0c3f
00000080: 1611 1d3f c920 1f3f 0035 443f 12ce 623f
00000090: 7f7c 743f 5731 6a3f ba4d 803f ec40 953f
000000a0: 7073 a43f c359 a13f 0b00 c63f 9787 c03f
000000b0: b6c8 d83f 3cc9 ec3f 9205 ed3f 3612 0140
000000c0: 8cb7 0840 6f09 1040 8ad0 1640 f4ca 1c40
000000d0: 8451 2440 4721 2640 c51a 2940 cf03 3740
000000e0: ffec 3840 4ffd 4040 5a6c 5340 175a 5840
000000f0: c478 5d40 2388 6140 fe9e 6a40 3a83 6b40
00000100: acb2 7240 e37c 7a40 6b4b 7940 8997 7c40
00000110: 449f 7b40 4d0a 8240 c992 8040 8b37 7d40
00000120: 9526 8440 ba5c 8340 46bd 8440 2446 8140
00000130: 4b52 8540 3052 8140 ae20 8540 17ac 8040
00000140: 10ec 8240 1a80 7a40 4451 8040 5782 8140
00000150: e888 8140 040b 7d40 8aca 7c40 5471 7840
00000160: ebc6 6f40 c3e1 6940 1dee 7040 b9c9 6e40
00000170: c254 6040 b8b4 5a40 7a1d 5e40 9016 5640
00000180: 517d 4b40 cb38 5840 7ea9 3940 23df 4840
00000190: b925 4440 7c00 3e40 f43c 4140 57a8 3d40
000001a0: faef 3440 25c1 3d40 89e9 3540 a90b 2f40
000001b0: 8c14 3140 fca8 3540 b61c 3840 5167 3540
000001c0: ee61 2e40 d000 2640 171d 2e40 6e84 2c40
000001d0: 9efc 2440 b94f 3140 0521 2240 02fb 2940
000001e0: 0d54 1d40 4b30 1b40 6598 2140 d43b 1b40
000001f0: 8099 1c40 d27f 1a40 f14f 1c40 6df0 2240
00000200: 9fe0 1b40 afe6 1740 7beb 1140 caff 0440
00000210: e964 0840 14b6 0e40 6373 0040 8dd0 0340
00000220: c3de 0340 8610 fe3f 7cb1 ff3f 260d 0140
00000230: 626d ef3f f384 f43f 2295 e23f 0c87 e73f
00000240: c7f6 ed3f e995 e13f d2dd d83f d4bd bd3f
00000250: 5fed cf3f 6e3f d43f 3abb cd3f 0e43 d23f
00000260: ae08 bd3f 3328 c93f 44bc bd3f ca82 bb3f
00000270: 0c47 bd3f 9b45 b63f ac26 b73f 3e18 a13f
00000280: e079 a43f 4399 a73f 487c a83f 7009 ac3f
00000290: c541 9f3f 3908 ac3f 87e7 a43f ced2 9a3f
000002a0: 3e79 913f 2281 9e3f 0bf5 943f 83e6 893f
000002b0: b54e 903f 0066 8d3f 759e 843f 2964 883f
000002c0: 916f 833f e4a6 8c3f 539b 8a3f 2627 833f
000002d0: caf0 853f 1090 813f 2218 763f a252 763f
000002e0: 74e5 903f 7c7c 803f 5912 7d3f 03ca 723f
000002f0: 4ba3 833f b797 763f 7479 523f 83a8 663f
00000300: 3cc0 4b3f 4d73 603f fe1e 543f c2d8 3d3f
00000310: 3257 2e3f 2a64 4f3f 0932 553f 7d25 4e3f
00000320: fe5d 3d3f 83bc 3c3f c78e 453f b810 323f
00000330: d526 3e3f df2f 213f 5fa4 343f 07ec 293f
00000340: 7f46 273f 242a 263f 9956 2c3f 89b2 1b3f
00000350: 4c15 063f 336c 1e3f c441 043f 7077 233f
00000360: af63 163f 0337 133f 4158 0b3f 16e4 263f
00000370: 3e7f 0d3f eb68 043f 7530 033f 9ebb f63e
00000380: 67d5 0e3f 1e2a f93e c73d 063f c20a 023f
00000390: b8f0 063f 0464 ca3e badf de3e d44e d73e
000003a0: 6583 dc3e 392d c53e 87f0 e33e 30f4 cb3e
000003b0: e729 cf3e 663a d13e 3a7e d73e 5bec c93e
000003c0: e2d3 b63e ff1a cd3e 7e92 ca3e 9dbf c53e
000003d0: 2188 b63e 62c4 9f3e a024 ad3e 12de 9c3e
000003e0: 36ea 903e 9763 a63e 345f a33e 78b7 973e
000003f0: 8ce4 9f3e 4003 913e 1d0d 9a3e 7ba4 7d3e
0.043101925 0.045597572 0.066334695 0.06416893 0.04538845 0.03840653 0.069949895 0.061424028
0.09750485 0.056680627 0.0998346 0.092266046 0.09642641 0.09190597 0.11218715 0.09882765
0.13063705 0.14751776 0.16583778 0.20743035 0.18130912 0.21807283 0.23950608 0.25933933
0.29904053 0.31734532 0.3816904 0.42484325 0.3882424 0.46264145 0.53686565 0.5478445
0.61354196 0.621594 0.7664337 0.8859569 0.95502466 0.91481537 1.002372 1.1660438
1.2847729 1.2605518 1.5468763 1.5041379 1.6936252 1.8498912 1.8517325 2.0167365
2.1362028 2.2505758 2.3564782 2.4498873 2.5674753 2.595781 2.642259 2.8596075
2.889465 3.0154607 3.3034883 3.3804986 3.460496 3.5239341 3.665954 3.6798844
3.7921553 3.9138725 3.8952281 3.946749 3.9315958 4.0637574 4.017918 3.956515
4.1297097 4.105069 4.1481047 4.039812 4.1662955 4.0412827 4.160239 4.021007
4.091316 3.9140687 4.00992 4.0471606 4.047962 3.9537973 3.949862 3.881917
3.746516 3.6544044 3.7645333 3.7310622 3.5051732 3.4172802 3.470549 3.345127
3.1795237 3.3784664 2.90097 3.1386192 3.0648024 2.9687796 3.0193453 2.9633996
2.827147 2.9649136 2.8423789 2.7350867 2.766879 2.838439 2.8767524 2.834431
2.7247272 2.5937996 2.7205255 2.6955829 2.5779185 2.770491 2.5332654 2.6559453
2.458255 2.4248226 2.5249264 2.4255266 2.446869 2.4140515 2.4423792 2.5459244
2.4355848 2.3734548 2.2799976 2.0781121 2.131159 2.2298632 2.0070426 2.059604
2.0604713 1.9848793 1.9976039 2.0164275 1.8705256 1.9103073 1.7701762 1.8088088
1.8590935 1.7623874 1.6942694 1.4823556 1.6244315 1.6581857 1.6072762 1.6426713
1.4768274 1.5715393 1.4823079 1.4649289 1.4787307 1.4239992 1.4308677 1.2585523
1.2849693 1.3093647 1.3162928 1.344038 1.2441946 1.3440009 1.2883157 1.2095582
1.1365125 1.2383158 1.1637281 1.0773472 1.127402 1.1046753 1.0360857 1.0655566
1.0268422 1.0988431 1.0828651 1.0246322 1.0464108 1.0122089 0.96130574 0.9621984
1.1320024 1.003799 0.9885612 0.94839495 1.0284208 0.9632525 0.8221657 0.9010088
0.795902 0.87675935 0.8285979 0.7415887 0.681018 0.81012213 0.8327947 0.8052595
0.73971546 0.73725146 0.77170986 0.6955676 0.74278 0.6296367 0.7056331 0.66375774
0.65341944 0.6490805 0.6731964 0.608193 0.52376246 0.6188385 0.5166285 0.6385412
0.58745855 0.57505816 0.5443154 0.6519178 0.5527228 0.5172259 0.51245815 0.48190016
0.55794376 0.48664945 0.52438015 0.50797665 0.5271106 0.3952943 0.43530065 0.4205233
0.43068996 0.38511065 0.44519445 0.39834738 0.40461656 0.40864867 0.4208849 0.39438137
0.3570853 0.4005966 0.3956489 0.38622752 0.35650733 0.31204516 0.33817005 0.30638176
0.2830369 0.32497856 0.31908572 0.29632163 0.31229055 0.28322792 0.3008813 0.24769776

bn2.bias f4 [256]
00000000: 17f5 093e 5e32 163e ea7a 3b3e b2f7 263e
00000010: 8e58 323e ccb5 453e d6a2 563e 47e6 5c3e
00000020: ca94 803e fe6c 813e 9295 793e b27b 953e
00000030: d731 983e ead6 933e 4c39 9a3e 89d4 a83e
00000040: 6236 b43e e5d6 c13e 8ff4 e93e 2fcc fa3e
00000050: f823 ff3e d1fa 033f f39f 0e3f 4bc8 1c3f
00000060: 42b9 1e3f 7de6 353f 007c 413f 13b8 553f
00000070: 1b33 533f 0752 673f 67f1 883f b704 8e3f
00000080: 81fe 9f3f 93d0 a13f dd18 bb3f a155 cd3f
00000090: dd44 d43f 624c e33f 273a f83f 7d14 0a40
000000a0: b83c 0d40 20da 1840 332a 2440 74a8 2c40
000000b0: d624 3740 8394 4340 651b 4b40 178b 5840
000000c0: dcd4 5f40 7fbb 6940 8bf6 7140 2508 7a40
000000d0: be66 8140 e3b4 8540 ba72 8840 46ef 8c40
000000e0: fbef 8f40 a1cc 9240 2eba 9640 bed5 9940
000000f0: df8b 9b40 2649 9d40 e1cb 9f40 adff a140
00000100: a500 a340 551f a440 5015 a640 a5a1 a640
00000110: e7e0 a740 6f49 a940 bed5 a940 b9de aa40
00000120: baf1 ab40 f1b2 ac40 e066 ad40 0bba ad40
00000130: 2323 af40 ac7b af40 f9f9 af40 bd3b b040
00000140: 2701 b140 edff b040 e585 b140 b8df b140
00000150: 43c9 b140 0473 b240 79d9 b240 233f b340
00000160: 3d5f b340 f816 b340 152b b340 2a6d b340
00000170: e138 b340 c308 b340 ec63 b340 2fdb b240
00000180: b7ea b240 4fdf b240 980c b240 f793 b240
00000190: 5300 b240 acc9 b140 7409 b140 5dcd b040
000001a0: 79c1 b040 e0fc af40 47b9 af40 4ab4 af40
000001b0: f075 ae40 2c05 ae40 9f0e ae40 15e1 ac40
000001c0: 800c ad40 9439 ac40 00dd ab40 4eab aa40
000001d0: 5ac9 a940 f67b a940 5a91 a840 279b a840
000001e0: 3d92 a640 afed a540 3820 a440 b8d4 a440
000001f0: 2536 a340 e5e3 a140 295f a140 cc2f a140
00000200: 3eba 9e40 17ac 9d40 cb7e 9c40 2de3 9a40
00000210: 2456 9a40 ff57 9840 c2c3 9640 6e4b 9640
00000220: 4fd2 9340 a0ba 9140 ebba 8e40 e47a 8f40
00000230: 0570 8d40 05fa 8a40 9cba 8840 6e20 8840
00000240: 39bc 8640 0299 8440 c1ed 8040 6fe2 7e40
00000250: 42a8 7a40 dcfd 7840 5a8b 7640 1c85 7040
00000260: 4988 6840 d3e8 6a40 9880 6140 79ca 6340
00000270: f493 5d40 baa4 5840 3c8c 5540 c25c 5040
00000280: 6870 4a40 c3e0 4b40 36e2 4340 7f81 4240
00000290: 9014 4140 976c 4340 3a5c 3340 bfb8 3140
000002a0: 6829 3040 a913 2b40 ad36 3240 f47d 2740
000002b0: 6458 2140 9103 2140 8856 1b40 fffc 1840
000002c0: 2208 1740 7435 1540 84bd 1340 3838 1240
000002d0: eaee 0c40 eee2 0b40 bf78 0940 1465 0240
000002e0: 61db 0540 e859 f73f 9602 0240 d9cf f53f
000002f0: 00d9 f33f b58d e53f 737c e43f faef e13f
00000300: d071 e13f 2b1f d63f 940a d63f a74a d03f
00000310: ec6f ca3f 4641 c73f f9dd c53f bf90 c43f
00000320: 5745 b53f 2308 b13f 58d3 ae3f 2050 af3f
00000330: 0d54 b33f 6749 a63f c068 a43f 0f94 9f3f
00000340: c6d0 9a3f 8792 943f 21e6 943f fefb 953f
00000350: 6a68 8c3f 12b3 933f 51d8 923f 57d4 8f3f
00000360: 72e6 893f da2e 843f 205e 713f e2bd 863f
00000370: c0e2 793f 5c28 763f a86b 6d3f 1588 683f
00000380: e4db 533f 29cd 513f 8a72 583f 0022 583f
00000390: 22b8 4e3f c4d9 3c3f 74df 473f 0b92 3a3f
000003a0: 71eb 403f 4933 363f 0d43 403f 67d2 2b3f
000003b0: 2dd6 303f 2bc4 273f ac82 233f 8fbf 243f
000003c0: e05e 163f ad73 1d3f d3ef 1e3f be38 163f
000003d0: d6c8 033f cee8 043f ccfe 0b3f adad 023f
000003e0: fc95 0a3f b657 f83e ab02 013f 3414 ee3e
000003f0: 1699 f43e 496c e93e 87b9 ef3e bb48 f13e
0.134724 0.14667651 0.18308607 0.16305426 0.17416593 0.19307631 0.20960554 0.21572219
0.25113517 0.25278467 0.24373463 0.29195935 0.29725525 0.28874904 0.3012184 0.3297465
0.3519774 0.37859264 0.45694396 0.48983905 0.4983213 0.5155459 0.55712813 0.6124312
0.6200143 0.7105482 0.75579834 0.83484 0.82499856 0.9035954 1.069867 1.1095189
1.2499543 1.2641777 1.4616963 1.6041757 1.6583515 1.7757685 1.9392747 2.1575005
2.206831 2.3883133 2.5650756 2.6977816 2.8616233 3.0559394 3.173547 3.3834894
3.497367 3.6520689 3.7806728 3.906747 4.043792 4.178331 4.2640047 4.404208
4.4980445 4.587479 4.710227 4.8073416 4.860824 4.9151793 4.9936376 5.0624604
5.0938287 5.1288247 5.1901016 5.207232 5.246204 5.290214 5.3073416 5.339688
5.3732576 5.3968434 5.418808 5.4289603 5.473039 5.4838467 5.4992642 5.5072923
5.5313907 5.531241 5.5475945 5.5585594 5.555818 5.57654 5.589047 5.601457
5.605376 5.596554 5.599009 5.6070757 5.600693 5.5948195 5.6059475 5.589256
5.5911517 5.5897593 5.5640373 5.580562 5.5625396 5.555868 5.532404 5.5250688
5.5236173 5.4996185 5.491367 5.490758 5.4518967 5.4381313 5.439285 5.402476
5.407776 5.3820286 5.3707275 5.333411 5.305829 5.296382 5.267743 5.2689395
5.2053514 5.185264 5.128933 5.1509666 5.1003594 5.059069 5.042866 5.0370846
4.9602346 4.927257 4.8904777 4.8402314 4.823015 4.7607417 4.711396 4.6967077
4.6194224 4.5540314 4.460317 4.4837513 4.4199243 4.34302 4.2727795 4.2539587
4.2104764 4.1436777 4.0290227 3.9825704 3.9165196 3.8904943 3.8522553 3.7581244
3.6333182 3.6704605 3.5234737 3.559233 3.4621553 3.385054 3.3366842 3.2556615
3.1631107 3.1855934 3.0606818 3.0391538 3.01688 3.0535028 2.802504 2.776901
2.7525272 2.673075 2.7845871 2.6170626 2.52102 2.5158427 2.4271564 2.3904417
2.3598714 2.3313875 2.308442 2.2846813 2.2020822 2.1857257 2.1479948 2.0374193
2.0915148 1.9324312 2.0314078 1.9204055 1.9050598 1.793387 1.7850479 1.765136
1.7612858 1.6728262 1.6721978 1.6272782 1.5815406 1.5566795 1.5458366 1.5356673
1.4161786 1.3830608 1.3658247 1.3696327 1.4010025 1.2991151 1.2844467 1.2467059
1.2094963 1.1607217 1.163273 1.1717527 1.0969365 1.1539023 1.1472265 1.1236676
1.0773451 1.0326798 0.9428425 1.0526698 0.9761162 0.96155334 0.92742395 0.90832645
0.827574 0.81953675 0.8454977 0.8442688 0.80749714 0.73769784 0.7807534 0.72879094
0.75359255 0.71172005 0.7510231 0.67117923 0.69076806 0.65533704 0.63871264 0.64354795
0.5873852 0.6150463 0.6208469 0.5868033 0.51478326 0.5191773 0.54685664 0.5104626
0.5413511 0.48504418 0.50394696 0.4649979 0.47773045 0.45590428 0.46821234 0.471258

bn2.running_mean f4 [256]
00000000: 2594 763b c238 d7bc f93d 2fbe c194 e0bc
00000010: 40c2 c83d 607d 60be ae18 81bd 781c 6fbd
00000020: 047e a1be ba09 19bd 76f1 adbd d5d6 cbbc
00000030: 378c 0abb 18ce 30be c3f4 4abe 6cc9 7bbe
00000040: 5284 11be 827c 86be 85d2 6fbe ef13 2dbe
00000050: 3076 8dbc 75ee 85be f3e6 31be 5f31 eabd
00000060: 1f9f c4be 9849 85be e1d3 0abe 579e 01be
00000070: 0dfb abbd 2feb a7be e7f6 6fbc c639 20be
00000080: ee9e febd e428 81be f25b c2be dc01 3fbe
00000090: cea0 9abe 992e 65be 405f 95be 8a09 86be
000000a0: c353 16be 9ab3 38be ab6d d6be 16fe 2fbe
000000b0: 1e74 e8bd 669f 0fbe 667f 34be 9c6f 7ebe
000000c0: fa1d 77be a8cf 6ebe b64e eebd 5c2d 00be
000000d0: 3989 91be 0437 f6be c6bb 9ebc 4da4 1dbe
000000e0: 31a0 4ebe 9b34 1abe 12a6 1ebe 505b 14be
000000f0: 97db 50bd 3290 20be bb31 a13d 385d 27be
00000100: be33 0e3d f59a 33be 85aa 0ebe cf25 52be
00000110: fa77 5dbe 9366 62be 686d 0b3e fc42 1bbe
00000120: 041e af3c ec74 e0bd f0c4 26bd 0008 52be
00000130: cfd4 463d 583a 2ebe 2db5 023d e54a 08bd
00000140: 5db0 16be ad01 52bd 1722 dbbd 4822 e8bd
00000150: 2b96 34be ca96 bebd 659a fcbd 2363 14be
00000160: f8f0 33be 54a2 e7bc a4aa 1bbd a5ed b4bd
00000170: befd d43d d95e 0c3e 4843 ea39 0c10 fabc
00000180: a670 373e 2040 7a3c ab2f e8bd 7c0d 283c
00000190: 90a8 03bb e894 febd 040d fabc fedb 2fbe
000001a0: bd88 53bd eff3 b73d 5c37 923a fcb1 ad3d
000001b0: 9179 25bd ec88 5bbe d205 47be 50bb 35be
000001c0: 9c71 75bc 883d 24bc 8c93 223e 1f2b 7fbd
000001d0: f506 853c 1a05 acbd 1521 87bc 8a33 9cbd
000001e0: fb00 e4bd 1f1e f6bd 9014 22bd d74b 1b3d
000001f0: cdef 05be 8e80 27be 920b 52be 3cf5 5abe
00000200: f331 9c3b 39b2 56bc ed9b 85be 22fc 573d
00000210: 91d7 9ebe 1929 7fbe e551 9fbd feef b43b
00000220: aaef b6bd 4d62 253d dfcb 65be 81fb 41bd
00000230: ec55 4fbe 93a8 03bd f581 3dbe 3fc1 8cbe
00000240: bb0e d9bd 50fb a63d 8a85 acbe a09e 5fbe
00000250: f0b0 fbbd 268a 23be 12fb d9bd 0211 93be
00000260: 04c0 c3bd 3218 5abe 48ef 2cbe 54d2 54be
00000270: 5873 80be 0aea afbe afd9 89bd e179 2cbe
00000280: 5d2d a73b 3e29 59be 953e 07be cadb 8fbe
00000290: a16b 27be 6882 42be 0de6 74be bff3 acbe
000002a0: 3e0f 08be cc0a 95be 7a9f 8ebe 0cf6 dbbd
000002b0: ec20 50be 6672 43be 498f adbd b0ea 92bd
000002c0: 6bbc 90be 6a1a 95be 9c2b 64be a76b 9dbe
000002d0: 2610 dcbd 4738 6fbe ae95 acbd 142e 8cbe
000002e0: bf0f e3bd 8676 20be 17d6 95bd a862 adbe
000002f0: 1d10 e1bd 3353 6bbe 1eb2 61be 18ef d8bd
00000300: 5296 d5bd d581 6fbe ea2d a8bd 3a7d 79be
00000310: 6b0b 65be f7db 81be fcff 1cbe e5eb 13be
00000320: 93c9 a8be 492e 59be 781e a1be f0d8 8dbe
00000330: b86a f7bd 1546 76bd 610e 7fbc 3383 88bd
00000340: b47f 05be 8290 0cbe d670 83be f4e3 7bbe
00000350: 9637 96be a294 a4be cf60 18be 920b 81be
00000360: 97df 6dbd 5866 32be 62cf c4bd 4310 26be
00000370: 4660 e7bd b5f3 99bd d2b2 a8bd 8a43 8dbd
00000380: 1668 1ebd b706 82be 3c28 e1bd 158c a9be
00000390: 205e ebbd 3e99 91bb 5f07 16be 16b9 89be
000003a0: d787 8b3c 9cb7 acbe f3b7 a9bd a935 64bd
000003b0: bde4 7ebe 7390 71bd d98b 6f3c 1a04 2dbe
000003c0: 0aea 83be c4af 8ebd 2b84 cd3b f5aa 78be
000003d0: 2bf5 63bc 9810 01be 989f 66be ea56 3fbe
000003e0: 8f2d 28be 3591 d53c 9a58 0cbe c92f 6cbe
000003f0: 685b 0dbe 05f9 05be 67c6 a3bd b66e eabc
0.0037624922 -0.026272181 -0.17113484 -0.027414681 0.09802675 -0.21922827 -0.063035354 -0.05837676
-0.31541455 -0.03736279 -0.08493321 -0.024882713 -0.0021140703 -0.17266119 -0.19819932 -0.24588555
-0.14210632 -0.26266867 -0.2342015 -0.16902135 -0.01726827 -0.2615849 -0.17373256 -0.11435198
-0.3840265 -0.2603271 -0.13557388 -0.12658058 -0.083974935 -0.32796618 -0.014646268 -0.15647039
-0.12432657 -0.2522651 -0.37960774 -0.18653053 -0.3020081 -0.22381057 -0.29174232 -0.26179153
-0.1468039 -0.18037263 -0.41880545 -0.1718677 -0.113502726 -0.1402565 -0.17626724 -0.24847263
-0.24132529 -0.23321402 -0.11636107 -0.12517303 -0.28425005 -0.4808885 -0.019376647 -0.15394707
-0.20178296 -0.1505913 -0.15493038 -0.14487958 -0.050990667 -0.15680006 0.078708135 -0.16344154
0.034717314 -0.1753958 -0.13932236 -0.20522235 -0.21627799 -0.22109441 0.13615954 -0.15162271
0.021376617 -0.10959801 -0.040715158 -0.20510864 0.048542794 -0.17014444 0.031911064 -0.03327455
-0.14715715 -0.05127113 -0.106998615 -0.11334664 -0.1763541 -0.093061045 -0.12334136 -0.14490943
-0.17572391 -0.028275646 -0.038004532 -0.088343896 0.1039996 0.13708057 0.00044682086 -0.03052523
0.17914066 0.015274078 -0.11337217 0.010257121 -0.0020089485 -0.12430745 -0.030523784 -0.17173764
-0.051644076 0.089820735 0.0011155414 0.084812135 -0.040399138 -0.2143895 -0.19435814 -0.17747235
-0.0149807 -0.010024436 0.15876597 -0.062296983 0.016238669 -0.083994105 -0.016495267 -0.07627018
-0.111329995 -0.12017464 -0.03957039 0.037914123 -0.13079758 -0.16357633 -0.20512226 -0.21382612
0.0047666966 -0.013104015 -0.26095524 0.052730687 -0.3102384 -0.24918021 -0.07779292 0.0055217734
-0.08932431 0.04037695 -0.22441052 -0.047358993 -0.2024762 -0.032143187 -0.18506606 -0.27491185
-0.10598513 0.08153403 -0.33695632 -0.21837854 -0.122896075 -0.15970668 -0.10643591 -0.28723913
-0.095581084 -0.21298292 -0.16888154 -0.20783359 -0.25088 -0.34358245 -0.06730973 -0.16843368
0.0051018433 -0.21207139 -0.13207467 -0.28097373 -0.16349651 -0.18995059 -0.23915882 -0.33779714
-0.13287064 -0.291098 -0.27856046 -0.10740289 -0.20325059 -0.19086608 -0.08474595 -0.07173669
-0.28268752 -0.29121715 -0.2228226 -0.30746195 -0.107452676 -0.23361312 -0.08426987 -0.27378905
-0.11086988 -0.15670213 -0.07316225 -0.3386433 -0.109894015 -0.22980957 -0.22040603 -0.105924785
-0.10429062 -0.2338937 -0.082118824 -0.24364176 -0.22367637 -0.25363132 -0.15332025 -0.14445455
-0.3296629 -0.21209063 -0.31468558 -0.27704573 -0.12080902 -0.06012543 -0.015567393 -0.06665649
-0.13036996 -0.13727 -0.25672024 -0.24598676 -0.29339284 -0.32144648 -0.1488068 -0.2520414
-0.05807456 -0.17421854 -0.09609868 -0.16217141 -0.112976596 -0.075171866 -0.08237232 -0.06897648
-0.038673483 -0.25395748 -0.10994002 -0.33114687 -0.11492562 -0.0044433167 -0.1465125 -0.26899022
0.017032547 -0.33733833 -0.08287039 -0.055715237 -0.24891944 -0.058975648 0.014620745 -0.16896096
-0.25764495 -0.069671184 0.006271859 -0.24283965 -0.013913433 -0.12603986 -0.22521818 -0.18685499
-0.16423629 0.026070217 -0.13705674 -0.23065104 -0.138044 -0.13083275 -0.079968266 -0.028617244

bn2.running_var f4 [256]
00000000: e330 183d d1df 0e3d f0bc b93c 8193 7a3d
00000010: 5ba8 2c3d 0e95 1e3d 6d51 fb3c fd6d 2b3d
00000020: 1d7b d13c 406a 503d 6290 c03c ae85 d43c
00000030: 46a9 773d 050c 283d fec0 673d 4adc 193d
00000040: 6751 393d d1e2 1b3d 4a54 503d ef50 203d
00000050: 5bd4 3f3d 3338 453d 103c 363d 7b17 873d
00000060: 9c72 273d b7e9 4e3d c348 a03d 4a2f 2d3d
00000070: 91b1 183d d80b 673d 19b7 833d f23a 943d
00000080: fb65 803d b8af 8b3d 3051 9e3d d75d 883d
00000090: 52e5 893d f0d9 8e3d 82bc 903d c958 883d
000000a0: 9657 9b3d afd9 8e3d 8492 863d 283c a33d
000000b0: f353 883d b3ce 993d 424c 8e3d 8bab 8c3d
000000c0: f527 683d ff7c 823d bc6d 743d 0507 343d
000000d0: 69dd 6c3d cb5a 543d 0a69 913d 38ea 8a3d
000000e0: 756c 583d 00e3 5b3d 8b5d 3d3d dc02 3b3d
000000f0: 0b54 453d 7ca1 2d3d 2423 293d c096 2e3d
00000100: a0f6 1e3d bbc4 163d d5ee 123d abcd 193d
00000110: 30c3 343d 346f 023d 7349 163d e519 303d
00000120: d44d 213d a70e 133d 1cdb 083d 2306 1e3d
00000130: 2266 183d 0fa0 093d 2635 223d efd9 1b3d
00000140: 08f5 1b3d d0b8 193d c08a 2c3d 0353 e43c
00000150: 519b 133d 2870 013d 46df 1f3d 72ad f73c
00000160: 7c48 083d 03af fb3c 506f ea3c ab9b fb3c
00000170: 96a1 fb3c d9b5 063d b54b 053d 1f8d 143d
00000180: 1f28 de3c c5ea 1b3d 62ea f53c 427a 013d
00000190: b21c 133d a93b 053d a832 083d 556a 173d
000001a0: 7e74 283d 9867 233d dc50 253d d48f 373d
000001b0: 1ca1 143d 8314 1f3d 2f45 0e3d cf66 253d
000001c0: b64f 1d3d a559 253d f6ae 293d 1e5b 443d
000001d0: a568 313d 7873 443d 2f91 423d edf9 553d
000001e0: fe1d 293d 21da 293d 316f 5c3d dfac 5a3d
000001f0: c917 593d 85dd 2d3d fbf1 463d 3e8d 223d
00000200: 738d 423d 1309 233d b23c 343d 22e3 483d
00000210: dfc1 523d 70e6 173d 0954 203d cb9e ec3c
00000220: 37b5 223d a760 2c3d 9458 1a3d 2749 673d
00000230: d267 453d eb67 493d 108e 353d d41f 3c3d
00000240: ec1f 083d d1ae 253d ebc5 243d 3fad 1b3d
00000250: 77ef 1e3d 4097 113d 66c3 273d 85a7 243d
00000260: a987 593d 5e18 443d f5ac fa3c ce30 1d3d
00000270: 9c57 053d ace9 e13c b8bb e73c 9a89 2e3d
00000280: bc6d f03c c22f 2c3d d117 1e3d a8ec 0a3d
00000290: dd1a 313d 88ce 413d 73c5 f93c 3278 183d
000002a0: 5592 da3c 684a 033d 8fb4 f33c 60b3 193d
000002b0: 0840 f13c e4f2 3d3d 056c ea3c 9d59 153d
000002c0: 7780 0b3d 9b19 0c3d 7a1d f43c a29f c93c
000002d0: 1c24 083d c4de 0a3d b102 dd3c f9cb d43c
000002e0: eb23 db3c d80e 0a3d 6169 f53c 670d 293d
000002f0: 1c8f b33c 872a 0c3d 5b2a fe3c 3fb8 f63c
00000300: c8a8 093d f2b6 f13c efd5 213d 0cb6 213d
00000310: 3021 213d bde6 fc3c e636 1e3d 2e5d 043d
00000320: 9e22 043d fb4a f43c e51a c73c 8c75 f13c
00000330: ba02 ca3c e503 0e3d 0953 003d f76a f83c
00000340: 43c8 ec3c 43a2 243d c230 133d 799f 263d
00000350: 75da 113d c936 323d 61e3 163d 67d4 113d
00000360: 1960 d63c 8f09 193d 9140 343d 15ec aa3c
00000370: 417d 1d3d 8c12 333d 74ce 1b3d e436 e33c
00000380: c247 463d 6f2f d73c ab61 ac3c 93fa 053d
00000390: 81b3 213d 4c95 0e3d 06fc fe3c bbb2 b93c
000003a0: 3b7c 083d 79c5 0d3d e37c 263d af8d 223d
000003b0: dac8 cf3c 1dd5 213d a1a9 e23c 5386 113d
000003c0: 89ad d03c 0b30 183d e830 de3c 403b e23c
000003d0: 6ae4 e13c ff3b 183d 6630 e93c 78e8 083d
000003e0: 1e09 013d 356d 143d a98f 0d3d 1744 fc3c
000003f0: ed51 043d e7c7 5c3d 2b6c f63c cedc 693d
0.037155997 0.034881417 0.0226731 0.061175827 0.042152744 0.03871637 0.030678475 0.04185294
0.0255714 0.050882578 0.023506347 0.02594265 0.060464166 0.041027088 0.056580536 0.0375636
0.045243647 0.038058106 0.050861634 0.039139684 0.046833377 0.0481493 0.044490874 0.065962754
0.040880784 0.050515857 0.07826378 0.042281426 0.037278716 0.05640778 0.064314075 0.072378054
0.06269451 0.06820625 0.07730329 0.066585235 0.067331925 0.06975162 0.07067205 0.066575594
0.07585065 0.069751136 0.065709144 0.07970458 0.06656637 0.07510128 0.06948139 0.06868657
0.05667873 0.06371497 0.059674963 0.043952007 0.05782834 0.0518444 0.07100113 0.06782955
0.052837808 0.05368328 0.046231788 0.045657024 0.048175853 0.04239033 0.04129328 0.042624235
0.03880942 0.03680871 0.0358723 0.037549656 0.044131458 0.031844333 0.03669114 0.042993445
0.039380863 0.035902645 0.033412084 0.03858007 0.037206776 0.03359991 0.039601468 0.038049635
0.038075477 0.037529767 0.04212451 0.027871614 0.036036793 0.0316011 0.03903129 0.030234072
0.03327225 0.0307231 0.028617531 0.030713877 0.030716699 0.032888267 0.032542903 0.036267396
0.02711874 0.03806569 0.030018989 0.031610735 0.035916038 0.0325276 0.033251435 0.03696664
0.04112672 0.039893717 0.040360317 0.0448149 0.03628646 0.03883792 0.034733947 0.04038125
0.038406096 0.040368695 0.04142662 0.04793846 0.043312687 0.047961682 0.04750174 0.0522403
0.04128837 0.04146779 0.053816978 0.05338752 0.0530012 0.042447586 0.048570614 0.03968548
0.047498178 0.039803576 0.044003196 0.049044736 0.05145442 0.037084997 0.039142642 0.028884312
0.0397236 0.042084362 0.03768213 0.056466248 0.048194714 0.04917137 0.044324934 0.04592879
0.033233568 0.04044992 0.04022781 0.038007017 0.03880259 0.035544634 0.04095783 0.04019882
0.05310789 0.0478748 0.03060005 0.038376622 0.032554254 0.027577244 0.028287753 0.042611696
0.0293492 0.042037733 0.03859693 0.0339171 0.04323851 0.047316104 0.030489659 0.037224002
0.026681105 0.03205338 0.029749183 0.03752458 0.029449478 0.046374217 0.02861596 0.036462415
0.03405806 0.034204107 0.029799212 0.024612252 0.03323756 0.033903852 0.026978822 0.025976168
0.026750525 0.033705562 0.029957475 0.041272547 0.021918826 0.034220245 0.031026056 0.030117152
0.033608228 0.02950618 0.039510664 0.039480254 0.03933829 0.030871743 0.038626574 0.032315426
0.032259576 0.02982091 0.024304816 0.029474996 0.024659503 0.034671683 0.03132919 0.030324442
0.028904086 0.040193807 0.03593517 0.04067943 0.035608727 0.04350928 0.03683794 0.035602953
0.02616887 0.03736263 0.044006888 0.020864526 0.03844953 0.04371886 0.038038686 0.027736135
0.048408277 0.026267735 0.021042665 0.03270967 0.03947783 0.03481035 0.031126034 0.022668233
0.0333216 0.034612153 0.040646445 0.0396859 0.025364328 0.03950988 0.027668776 0.035528492
0.025473373 0.037155192 0.02712293 0.027616143 0.027574737 0.03716659 0.028465461 0.033424824
0.031502835 0.03623696 0.034560833 0.030794187 0.032304693 0.05390158 0.030080875 0.05709534
