model.pth (torch, 68947 bytes, 4 tensors)

fc1.weight f4 [64, 3]
000000 7b df 0f 3f 5e 8a 15 bf 68 d4 5d be cb cd 0f 3f
       0.5620038 -0.58414257 -0.21663058 0.5617339
000010 52 cc fc 3e 0e cb 02 3f 74 a8 83 be 00 07 1e bf
       0.49374634 0.51091087 -0.25714457 -0.6172943
000020 f0 39 00 be b8 94 74 3f 64 f3 8c 3e 3b b0 8e be
       -0.12522101 0.95539427 0.27529442 -0.27868828
000030 32 23 b1 bd 10 ee ef be f2 0e 85 3e a4 5f 9e 3e
       -0.08649291 -0.46861315 0.25987965 0.30932343
000040 dd 82 02 bf d6 c7 ca be 04 66 06 bf 6d dd c3 3e
       -0.5098093 -0.39605588 -0.52499413 0.38254872
000050 e0 28 8f 3c 75 52 1b bf 69 92 27 3c 60 59 c6 be
       0.017475545 -0.60672694 0.010227778 -0.38740063
000060 4e b0 6b be 5b 8d 11 bf f0 23 c6 bd 63 89 60 3f
       -0.23016474 -0.56856316 -0.09674823 0.87709635
000070 ec 99 a4 3e 30 23 51 be c4 5e 15 bf 71 aa fc 3e
       0.32148683 -0.20423579 -0.58347726 0.49348786
000080 da 71 b8 be b8 1a 6b be ff 71 5b 3f e0 e8 68 be
       -0.36024362 -0.22959411 0.8572082 -0.22745085
000090 7a f0 13 3f d4 16 dd be bc 2e a2 bd fe b7 22 bf
       0.57788813 -0.4318148 -0.0791907 -0.63562
0000a0 47 33 9e be 78 af 7e 3e 40 50 33 bc 00 0a 8c bd
       -0.30898497 0.24871624 -0.010944426 -0.06837845
0000b0 50 4d f5 3d 95 c9 4f bf 83 bf 26 3b bc 34 03 3f
       0.11977637 -0.81166965 0.002544374 0.5125234
0000c0 f9 9e 67 3f 80 78 49 be fc 82 f8 be 19 b2 08 bf
       0.9047695 -0.19674873 -0.48537433 -0.53396755
0000d0 34 f1 c4 be c4 4b 29 3e c1 b7 f5 3e 35 2f dd be
       -0.38465273 0.16532809 0.47991756 -0.4320008
0000e0 7e f9 a0 3e cb 65 a6 bd d2 3c 4f 3e 17 2c 86 be
       0.31440347 -0.08124884 0.20238045 -0.26205513
0000f0 3b 7e fb be 16 0b 34 bf a6 ed 93 be eb 4f 4b bf
       -0.49119744 -0.70329416 -0.2889225 -0.7941882
000100 16 65 af be 0c 1a 9d be 70 31 07 3e ec b2 dc be
       -0.3425681 -0.30683935 0.13202453 -0.43105257
000110 d8 32 96 3d e9 17 5f bf 54 9b d0 be e4 5b b4 3e
       0.073339164 -0.8714586 -0.40743506 0.35226357
000120 17 e5 eb be 2b 24 81 3d 6e 04 02 3f 71 84 2b 3f
       -0.4607322 0.063057266 0.5078801 0.66998965
000130 4e ea 36 3d 84 d3 05 3f 71 01 84 3e b1 b8 f8 3e
       0.044657044 0.5227587 0.2578235 0.48578408
000140 54 05 76 3e 7a 37 b5 3e 65 14 bd 3c 80 61 05 3f
       0.2402547 0.35393888 0.023081014 0.521019
000150 65 19 db 3d 65 74 2a bf 38 d5 5b be a3 ef db bd
       0.10698203 -0.66583854 -0.21468055 -0.107390665
000160 fb ed 0f bf 9c 8f 1e 3e 4d 6c dd be 0d 61 f2 be
       -0.56222504 0.1548447 -0.4324669 -0.4733967
000170 8c c7 07 bf 9f fe e7 be c5 d9 ad 3e a8 dd db 3d
       -0.5303886 -0.45311448 0.33955207 0.10735637
000180 c0 f6 37 be e0 c5 38 3d 0e 26 1e be 0b 35 4b bf
       -0.17965221 0.045110583 -0.15444204 -0.7937781
000190 73 6d c6 3e 00 69 f9 3c 68 1d e2 3e 68 c2 82 bf
       0.38755378 0.030445576 0.4416306 -1.0215578
0001a0 08 47 ec 3e 1c 94 55 bf 6f 87 73 be c4 01 12 3f
       0.46147943 -0.8342912 -0.23782133 0.57033944
0001b0 97 dc 27 be 21 a4 49 bf 00 03 72 3e 94 79 e0 be
       -0.16392742 -0.78766066 0.23633957 -0.43842757
0001c0 c1 fb 97 3e 2a 44 2e be be a1 48 3f 16 f6 84 3e
       0.2968426 -0.1701819 0.783718 0.25969
0001d0 88 77 b6 bd af e0 5a bf 73 af 01 bf 6a 58 07 3f
       -0.089095175 -0.8549909 -0.5065834 0.52869284
0001e0 75 1f 6b 3f 0f 1d 34 be 18 d1 e4 3d 38 d6 45 bf
       0.91844875 -0.1758921 0.11172694 -0.77279997
0001f0 f1 67 5e 3c 0a fd 9f be d1 d2 09 3f 67 02 1a 3f
       0.013574586 -0.3124774 0.53837305 0.60159916
000200 aa d4 0f 3f 13 33 94 be bb 6a dd be 28 fb 0c be
       0.56183875 -0.28945217 -0.4324549 -0.13767684
000210 d8 1a 51 be b7 ba 12 bf 0c 72 0a 3e 93 a4 a0 be
       -0.20420396 -0.57316154 0.13520068 -0.3137556
000220 bf 0f 9d 3d 0e bc 81 3e 13 ea 27 bf 6c 94 7f bc
       0.07669019 0.25338787 -0.65591544 -0.015599351
000230 1e bb 35 be 10 4f 3b bd 00 78 08 3c 36 33 6e be
       -0.17747161 -0.045729697 0.0083293915 -0.23261723
000240 2c 13 af be 25 22 96 bd 08 c2 4e 3e 56 92 c4 be
       -0.34194314 -0.07330731 0.20191205 -0.38392895
000250 9c ec 36 3f 20 3f c5 be b3 8b 51 be 68 86 59 bd
       0.7145479 -0.38524723 -0.20463447 -0.053106695
000260 4c 67 09 be f8 85 3e 3d 4a 15 4c be a8 84 00 bf
       -0.13418311 0.04651448 -0.19929996 -0.5020242
000270 8d 54 1a 3f 44 39 e6 be 30 8b 57 be 95 41 ea bd
       0.60285264 -0.44965565 -0.2104919 -0.1143829
000280 df 04 2d be b8 fd ff 3d 6a cb 1a 3f 17 33 1a bf
       -0.1689639 0.12499565 0.60466635 -0.60234207
000290 84 0a 7f 3e 1c cf d8 3c e7 e1 c5 3d b0 05 4e bd
       0.24906355 0.026465945 0.09662228 -0.050298393
0002a0 4a b8 2c be 72 88 a6 bf de 8a 91 3e d4 ee 45 3d
       -0.16867176 -1.301039 0.2842626 0.048323467
0002b0 56 3a 27 bf 0c 7c 08 be 1e da 2f bf 5b 57 c3 ba
       -0.6532339 -0.1332857 -0.68692195 -0.0014903353
0002c0 3a 51 8d 3e 82 1b 11 3d ae f5 e3 be 72 ac 63 be
       0.27601033 0.035426624 -0.44523376 -0.22233751
0002d0 2f af d2 3e 4c 2f a8 be 52 b2 d7 3e 6a 2c 03 bf
       0.4114928 -0.32848585 0.42128235 -0.51239645
0002e0 ad cb f6 be 2b 8b a3 be 3b 98 f6 be 2b 8f 77 3c
       -0.48202267 -0.31942114 -0.48163018 0.0151098175
0002f0 70 e8 03 3f b3 0d 84 3e e0 f8 ef be 8e 50 75 be
       0.51526546 0.25791702 -0.46869564 -0.2395651

fc1.bias f4 [64]
000000 ff 89 1b 3e 4d 96 3c 3f bd 1c 91 3f 4a c6 ad 3b
       0.1518936 0.7366684 1.1336895 0.005303179
000010 10 f6 11 3f be 3c 30 3e 14 90 94 3f 11 9c 45 3f
       0.57016087 0.17210671 1.1606469 0.77191263
000020 81 cd 84 3f 0d 7c 6e 3f b1 2a 88 3d 23 a2 25 3e
       1.0375215 0.93158036 0.06648768 0.16175131
000030 59 84 89 3e f7 ef 66 3e 26 ab 12 bf cd 0c f9 bd
       0.26858786 0.22552477 -0.572924 -0.12160645
000040 17 8c c7 3d 7b 51 8b 3f 95 11 00 3f b6 84 83 3f
       0.09743517 1.0884241 0.5002683 1.0274875
000050 3e 23 3d 3e 4a 76 f0 bd 73 f2 67 3f e0 15 64 be
       0.18470475 -0.11741312 0.90604323 -0.2227397
000060 bf cc 22 3f 4c 21 77 3f d3 a4 1e 3f 97 51 8b 3f
       0.6359367 0.9653518 0.6197025 1.0884274
000070 e7 92 90 3f bd a1 2f 3f 56 80 86 3f af e5 81 3f
       1.1294831 0.6860617 1.0507915 1.0148219
000080 ba 95 d3 be 9a dc 35 3e 1f a1 b3 be 6a df d4 bc
       -0.4132517 0.17759934 -0.35083863 -0.025985438
000090 58 83 8b 3e 7c 09 6f 3f 5b 53 52 3f 82 ae 38 bd
       0.27248645 0.93373847 0.8215844 -0.0450883
0000a0 60 38 ff 3d 35 4f f4 3d 44 ea 13 3f df 58 ff 3d
       0.124619246 0.1192917 0.57779336 0.12468123
0000b0 49 16 82 3f ae 32 86 3f a3 28 4b 3f 82 e4 f8 be
       1.0163051 1.0484216 0.7935888 -0.48611838
0000c0 d6 f8 5e 3f 00 0b 49 3e 06 f8 26 3f 1d 46 82 3f
       0.87098444 0.19633102 0.65222204 1.0177647
0000d0 26 c8 8f 3e d7 c9 1f 3f 62 75 f7 3e d0 2a 87 3f
       0.2808239 0.6241736 0.48331743 1.055994
0000e0 bb 3c 49 be 4d 5b 86 3f 7a e6 5b 3f b1 01 72 3f
       -0.19652073 1.0496613 0.85898554 0.9453383
0000f0 7c e6 75 3e c0 0c dd 3e 2a 3e 1f 3f 2d a3 36 bc
       0.24013704 0.4317379 0.6220423 -0.011147303

fc2.weight f4 [256, 64]
000000 21 16 55 3c 84 1d 44 3d 73 76 b4 3d 39 8d 3f 3d
       0.013005764 0.04787971 0.08811655 0.04676554
000010 26 f2 85 bd ef 2d ba bd 4c 70 be 3d b8 b6 c7 bd
       -0.06540327 -0.090907924 0.09298763 -0.09751648
000020 be aa f3 3c c0 01 4f bb 65 d2 cb 3d 71 73 b7 3a
       0.029744502 -0.0031586736 0.09952239 0.0013996196
000030 1b bd 63 bd 07 e6 1e 3e a6 46 8b 3d 82 34 fe 3c
       -0.055600267 0.15517436 0.068005845 0.031030897
000040 5f b5 7c bd 1a 2f d5 3d bf c1 52 3d bf fd c4 bd
       -0.061696406 0.104093745 0.051454302 -0.09618711
000050 b8 f5 a0 bd 56 60 d0 3c c6 12 98 3c e6 d5 e8 bd
       -0.07859367 0.025436562 0.01856364 -0.11368923
000060 e3 4c ad bd 10 73 9d 3d c2 f9 ca 3c 3b 1e 62 3c
       -0.084619306 0.07687962 0.024777297 0.013801153
000070 bd 9f 85 bd 59 ef 81 bd b8 3e b4 3d 89 22 6e 3b
       -0.06524608 -0.0634448 0.08801025 0.0036336503
000080 c0 09 a6 3b 71 d6 8c bd d0 cc 18 3c 88 04 7b bd
       0.0050670803 -0.06876839 0.009326175 -0.06128362
000090 c7 8c ce 3b 02 ce 91 bd 2c c7 b4 3d c0 c2 b6 3d
       0.006303403 -0.07119371 0.088270515 0.08923864
0000a0 34 e8 b9 bd 36 5e 03 bb 37 f9 10 be 31 cb a5 bd
       -0.09077492 -0.0020045168 -0.14157568 -0.08095396
0000b0 5a 61 51 bd 61 b6 38 bc 1a 28 2a bb 38 95 ac 3c
       -0.051118232 -0.011273951 -0.0025963844 0.021067247
0000c0 cb 11 9c 3d 46 5f e3 3a 0e 16 fa bc e5 91 7c 3d
       0.07620581 0.0017347119 -0.030528095 0.061662573
0000d0 8e 9c e4 3d 09 00 ae 3d 54 80 55 3d 4b a1 13 bd
       0.11162673 0.084961005 0.052124336 -0.036042493
0000e0 96 27 97 3d a8 82 f1 bd f9 65 c1 3d 91 a7 62 bd
       0.07380597 -0.11792499 0.09443278 -0.055335585
0000f0 40 ee 9f 3b 7a 7e cf 3b 4a 4b d6 bd e1 9f d3 bc
       0.0048806965 0.006332216 -0.10463579 -0.025833072
000100 97 4e 9d bb 08 5b cf bd fc b4 0d 3e b6 d4 44 bb
       -0.0048006284 -0.10124785 0.13838571 -0.0030034012
000110 a6 11 c8 3b 6a f2 a8 3b 1e d8 e0 3d 7e 2f 0a 3d
       0.0061056195 0.005155851 0.10978721 0.0337367
000120 6e 3c ae bc 3e ad f2 3d a0 36 62 bd c8 0b 02 bd
       -0.02126905 0.118494496 -0.055227876 -0.031749517
000130 ab f0 0b 3d c2 23 d6 3d fc ef c3 3d 70 2a ca 3d
       0.034165066 0.10456039 0.09567258 0.098713756
000140 ef c8 8e 3c be b5 8b bd 4c 6a 15 bd 7f a9 5b bc
       0.017429797 -0.06821774 -0.036478326 -0.01340711
000150 d8 1a d4 bd c3 23 c4 ba 16 20 99 bd d9 a7 5e bd
       -0.103566825 -0.0014964271 -0.07476823 -0.05435929
000160 c2 95 ad 3d bf 73 03 3d 39 d0 be 3d 4a 0f 01 be
       0.0847583 0.032092806 0.09317059 -0.12603489
000170 e3 9f f9 3b 50 3a 11 3d fb 58 a9 3d 0d 45 80 bd
       0.007617937 0.035456 0.08268925 -0.062631704
000180 f0 77 4b bd f9 ab ee bd 59 10 9e bc f7 b9 9c bd
       -0.04967493 -0.11653895 -0.019294905 -0.076526575
000190 38 46 e9 bd 75 e8 71 bd 87 01 08 3e 37 eb 79 3b
       -0.11390346 -0.05905958 0.13281833 0.0038134584
0001a0 3d ac c3 bd 40 26 d1 3d 4b 58 83 bc 87 70 3b bd
       -0.09554336 0.10212374 -0.016033312 -0.04576161
0001b0 eb 8e 49 3d 20 c2 77 3d 03 a4 e0 bd 64 a4 f7 3d
       0.049208563 0.060487866 -0.10968783 0.12091902
0001c0 9b c0 08 bd 0d 8e ea 3c 6f 47 51 bd 92 47 80 bd
       -0.033386808 0.028632188 -0.051093515 -0.06263651
0001d0 66 8e 51 bd 27 64 ac bc 9a d1 bf 3d 21 2a 7c 3d
       -0.051161192 -0.02104385 0.0936615 0.061563615
0001e0 60 75 4d 3d 33 de 3a 3c d9 84 b9 3d fe 63 b9 bd
       0.050160766 0.0114055155 0.09058542 -0.09052275
0001f0 ca b9 03 3d 40 97 85 3d a2 59 8f 3d 7a b5 01 3e
       0.032159604 0.06522989 0.06999518 0.12666884
000200 55 11 90 bd 9a 73 41 bc b4 fb 92 3b ac 26 20 bd
       -0.07034556 -0.011807347 0.0044855718 -0.03909938
000210 aa c9 e2 3b 3e a1 b3 bd 37 e8 d0 3c a5 3a bf bc
       0.006921013 -0.08770989 0.025501354 -0.023343394
000220 7a 6d 9b bb e0 52 b3 3d b2 94 af 3d e9 e6 c9 3b
       -0.004743275 0.087560415 0.08573283 0.00616156
000230 63 a4 8c bc ec 5c 4b bd 6e 3d 87 bd c7 ad 21 be
       -0.01716823 -0.049649164 -0.06603514 -0.15788947
000240 b0 e7 05 3d d8 0e ef 3d 3e 65 0c bd 8d 7a 2d be
       0.032691658 0.11672753 -0.03427624 -0.1694128
000250 0b ce f2 bd 92 be 65 bd a2 2b a9 bc f6 6a 98 3d
       -0.11855706 -0.056089945 -0.020650689 0.07442276
000260 98 27 cc 3c ec b7 31 3d 3a 8d d4 3c 10 dc c1 3d
       0.024921224 0.043388292 0.025946248 0.09465802
000270 8e 43 49 bd 2a 43 3b 3d ae 07 a1 3d 16 79 df 3c
       -0.04913669 0.04571835 0.07862793 0.027279418
000280 b4 80 83 3d 5d a0 ed 3c 32 55 3a 3e 6c e9 25 be
       0.064210325 0.029007131 0.18196562 -0.16202325
000290 68 d7 8f 3d c6 e8 f7 3a ec d0 11 3d f0 95 13 3e
       0.07023507 0.0018913976 0.035599634 0.14412665
0002a0 e2 6c a1 3d 2d 53 eb 3c aa 45 1c bd b3 b8 42 3c
       0.07882096 0.028726185 -0.038152374 0.011884856
0002b0 42 46 e0 3b f3 53 4e 3c 0b 02 4d 3d ba 9a b0 bd
       0.006844313 0.012593257 0.050050776 -0.08623262
0002c0 fd 79 0a be 0a 69 d0 bd a9 75 e1 3c f5 f8 ea bd
       -0.13523097 -0.101762846 0.027521925 -0.11473266
0002d0 aa b2 8a bc a4 34 cf 3b e0 8b af 3c 61 95 6a 3c
       -0.016930897 0.006323414 0.021429002 0.014317841
0002e0 40 5a 50 bd 05 f5 ef bd 54 6c bf bc 89 1b e9 bc
       -0.05086732 -0.11716656 -0.023367085 -0.028455513
0002f0 22 4e 82 3c 08 8b 0a 3e 92 50 2e 3e 3f 39 86 bc
       0.015906397 0.13529599 0.17022923 -0.016384719
000300 13 62 ea 3c d1 cb 53 3b 78 ed af 3d 4d 00 0b bd
       0.028611219 0.003231753 0.085902154 -0.033935834
000310 0c 16 1b bc 82 45 0f 3e c3 56 b2 bd c1 ac 1a 3d
       -0.009465706 0.13991359 -0.08707955 0.037762407
000320 db 9e fe 3c f9 75 94 3d 04 80 1e 3e 97 22 fc 3d
       0.031081608 0.07249064 0.15478522 0.12311285
000330 9e be 05 bd 93 d9 19 3e e4 68 7e 3d db 0e 67 3d
       -0.03265249 0.15024404 0.06211175 0.05641065
000340 b1 ac 00 3c e2 f1 b6 bc 09 42 ee bc 65 ad 5a 3d
       0.007853673 -0.022332136 -0.029084222 0.05338802
000350 de 82 85 bd ad 27 85 bd 3e 5e 5c 3d ac 9a 73 bd
       -0.065191016 -0.06501708 0.053800814 -0.05947368
000360 88 5e e1 3d c0 ae bc bd 3d c4 fc bc 5f 11 e4 bc
       0.110043585 -0.092130184 -0.030855292 -0.027840314
000370 96 fb 4c 3d e4 13 25 3d 0e dc f1 3d f1 b3 88 bc
       0.05004462 0.040302172 0.1180955 -0.016687365
000380 76 26 bf 3d 05 d2 1a be 20 0a 30 be b9 dc 75 bd
       0.09333508 -0.15119179 -0.17191362 -0.06002495
000390 c0 38 2f 3d 83 e0 f5 bd dc d4 9c 3d 69 9c 2f 3d
       0.04277873 -0.12005713 0.07657787 0.042873774
0003a0 64 b6 ef bd 63 a3 89 3b b8 10 ec 3c 4e 05 9c bd
       -0.1170471 0.0042003854 0.028816566 -0.07618199
0003b0 a4 09 6a bd 8f cf 06 3e 12 24 40 bd 5e cf c6 3d
       -0.0571381 0.13165115 -0.0469094 0.09707521
0003c0 b8 08 84 3d 1a 1b 40 bd 2a f2 31 bd 76 8d cc bd
       0.064469755 -0.046900846 -0.043443836 -0.09987919
0003d0 44 c0 85 bd a0 be 14 3d 80 70 04 3d 83 84 a5 3d
       -0.065308124 0.036314607 0.03233385 0.08081915
0003e0 61 05 33 bd 71 f3 c3 bd e6 63 de bc ef 26 a8 bc
       -0.0437063 -0.09567917 -0.027147245 -0.020526377
0003f0 c2 d4 18 3e 9d 90 96 3d b1 9d a8 bd 64 b6 e6 3c
       0.1492491 0.073518015 -0.08233202 0.028163143

fc2.bias f4 [256]
000000 2f 1e 22 3d a7 54 b6 bd 87 77 b7 3d 80 00 a7 37
       0.039579567 -0.08902865 0.08958345 1.9908184e-05
000010 44 e9 73 bc 1a 26 ea 3d 41 d8 92 bd 53 71 f2 bd
       -0.014887158 0.114330485 -0.071701534 -0.11838021
000020 8b 37 b8 bc f3 84 c6 bd b8 4f a1 bd 03 d5 0b be
       -0.022487422 -0.09693327 -0.07876533 -0.13655476
000030 25 7d c9 3d ff 76 cf bd a4 d2 53 3c 56 0b 9a 3d
       0.098383226 -0.101301186 0.012928639 0.075216934
000040 55 a1 c7 3d 63 37 a8 bc 81 78 a5 3d 8b 7b c2 bc
       0.097475685 -0.020534223 0.08079625 -0.02374055
000050 a9 7d 2a 3a 11 3d 8d bd 27 01 b4 3c c2 21 6c 3d
       0.000650371 -0.06896413 0.021973206 0.05764938
000060 e9 40 0e 3e ff c8 bb 3d 59 ac ff 3d 5e 41 a1 bd
       0.13891949 0.09169196 0.124840446 -0.07873796
000070 e5 81 54 3d 24 bd 61 bd 4b d8 d9 3c cb 30 86 3d
       0.05188169 -0.05511202 0.026592394 0.06552275
000080 49 b4 40 bd e8 12 17 bc 01 ce 9b bc 50 91 2d bc
       -0.047046933 -0.009220816 -0.019019129 -0.010593727
000090 14 55 f6 3d b5 dc 74 3d 4c 4b 84 3d bc 18 f3 3d
       0.12027946 0.059780795 0.06459674 0.11869952
0000a0 29 7a e9 3d 18 79 00 3e 43 b5 09 3e 2c 50 5a 3e
       0.11400253 0.12546194 0.13448052 0.21319646
0000b0 fe 0a 3d 3e 1c 59 f0 3c 37 83 6c 3e 0c d2 5f 3e
       0.18461224 0.029339366 0.2309693 0.2185747
0000c0 35 e7 e2 3d 51 58 7a 3e d8 16 87 3e fe a4 13 3e
       0.110792555 0.24447753 0.26384616 0.14418408
0000d0 e0 13 66 3e 3b f6 4a 3e 8b ce 5a 3e 2d 1e f4 3d
       0.22468519 0.19820492 0.21367852 0.11919818
0000e0 09 2f f7 3d c9 d7 4c 3e e3 fd 4c 3e 42 b0 19 3e
       0.12069518 0.2000419 0.20018725 0.15008643
0000f0 cc 0b 83 3e 46 7d 87 3e 40 54 28 3e d7 ee ba 3e
       0.25594938 0.26462764 0.16438389 0.36510345
000100 75 f1 c3 3e 77 4e c5 3e 17 a0 90 3e 4b 3e 8a 3e
       0.38270155 0.38536426 0.2824714 0.2700065
000110 e6 6c a8 3e 86 99 a7 3e fd 6e ae 3e 1e 5a ad 3e
       0.32895583 0.32734317 0.34069052 0.33857816
000120 f9 68 db 3e 3e b2 b3 3e 1b 20 69 3e 6d 6e a4 3e
       0.42853525 0.35096925 0.22766154 0.32115498
000130 2f 81 d1 3e bd 42 b8 3e f3 9a a8 3e cf 6f 96 3e
       0.40918872 0.35988417 0.32930717 0.29382178
000140 7c 64 dd 3e f8 e7 c1 3e f5 fb 96 3e bd e3 ac 3e
       0.43240726 0.3787229 0.29489103 0.337675
000150 83 84 77 3e e3 26 e3 3e 9e 82 a5 3e 26 7c 84 3e
       0.24171643 0.44365606 0.32326216 0.25875968
000160 a2 86 f4 3e 97 80 c9 3e d9 dc d3 3e f0 5b cf 3e
       0.47758967 0.3935592 0.4137943 0.4049983
000170 4c 84 86 3e 5b 95 e0 3e 2c dd be 3e 34 2e 70 3e
       0.2627281 0.4386395 0.37278116 0.23455125
000180 0a 47 95 3e 24 32 ac 3e 46 20 b9 3e 11 49 a4 3e
       0.2915576 0.33632004 0.36157435 0.32086995
000190 40 62 b9 3e a3 eb e0 3e 28 f9 da 3e 86 f6 de 3e
       0.3620777 0.43929777 0.42768216 0.43547457
0001a0 d1 92 84 3e 3b 1f 91 3e 26 bf e9 3e 3c fc b1 3e
       0.25893262 0.2834414 0.45653647 0.34762752
0001b0 ca f7 98 3e 87 75 a7 3e fb a3 bb 3e 3c 9c b3 3e
       0.29876548 0.32706854 0.36648545 0.35080135
0001c0 2d 66 d9 3e 40 47 d1 3e 9e 23 c9 3e b6 e5 59 3e
       0.42460766 0.40874672 0.39284986 0.21279034
0001d0 eb a1 af 3e 0e 60 cb 3e 5f 01 41 3e 94 0d 6c 3e
       0.3430322 0.3972172 0.1884818 0.23052055
0001e0 04 a7 b9 3e 4d 3b 91 3e 24 a7 98 3e 7d af c6 3e
       0.36260235 0.28365555 0.29815018 0.38805762
0001f0 79 29 b9 3e 09 82 a9 3e 93 ee b4 3e 6d 93 9c 3e
       0.36164454 0.3310702 0.35338268 0.30581227
000200 12 c7 bd 3e 55 89 ca 3e ef 62 88 3e e0 28 4c 3e
       0.3706594 0.395579 0.2663798 0.19937468
000210 3b 4d c3 3e 64 6e 95 3e f5 13 c4 3e 37 81 ba 3e
       0.3814486 0.29185784 0.38296476 0.36426708
000220 04 c9 63 3e 73 3a 21 3e f7 79 26 3e c8 0e c3 3e
       0.2224465 0.15744953 0.16257463 0.38097215
000230 4d b4 b2 3e 09 24 29 3e c7 78 a4 3e c6 6e 7d 3e
       0.34903184 0.16517653 0.32123396 0.24749288
000240 14 0b a9 3e c4 50 65 3e 1c eb 06 3e 4e 7b ac 3e
       0.33016264 0.22394091 0.13175625 0.33687824
000250 d0 54 a0 3e 2b b8 5b 3e ff c2 a6 3e 79 1b 81 3e
       0.31314707 0.21456973 0.32570645 0.25216272
000260 7a 60 08 3e bc 07 74 3e c9 43 31 3e ac 0f 6e 3d
       0.13318053 0.23831075 0.17311014 0.058120415
000270 5d 1f 37 3e 08 d5 2b 3e 56 67 56 3e 63 ad 70 3d
       0.17883058 0.16780484 0.20937857 0.058759104
000280 b7 9f 9b 3e c0 f5 0c 3e e8 3c 0e 3e 2e b2 9c 3e
       0.3039529 0.13765621 0.13890421 0.3060469
000290 a0 9f 8f 3e 05 b3 b7 3d 43 86 55 3e 18 5c 50 3e
       0.28051472 0.08969692 0.20851998 0.20347631
0002a0 93 2f b1 3d e0 9b c4 3d aa 98 60 3e 5f 13 81 3d
       0.08651652 0.09600043 0.21933237 0.06302523
0002b0 b0 fc 60 3e 88 67 8d 3d 23 8b 97 3d c7 73 c8 3d
       0.21971393 0.06904513 0.07399585 0.09787708
0002c0 e6 bc fa 3c f3 c5 4a 3e be 8b 26 3e 84 f6 cd 3d
       0.030607652 0.19802074 0.16264245 0.10056785
0002d0 3e f9 0e 3e 5d d0 45 3e d1 8d cc 3d f9 d8 02 3d
       0.13962266 0.19317766 0.09987987 0.031945202
0002e0 7b 9e 99 3d 73 c0 a1 3d 69 9e a0 3d 9d b4 a0 3d
       0.07500931 0.07898035 0.07842714 0.07846949
0002f0 85 b8 3e 3e 24 8d 3b 3e d6 04 25 3e 86 93 07 3d
       0.18625076 0.1831556 0.16115126 0.033099674
000300 ab f8 b5 3b e2 53 ff 3d f6 ba e3 3d f4 19 ba 3c
       0.005553325 0.12467171 0.11119644 0.022717454
000310 7b 71 50 3e bd 99 e3 3d 36 c6 6d bc ea 4d 46 3e
       0.2035579 0.111133076 -0.014512589 0.1936566
000320 9e 54 d1 3d 26 1e 0f 3c dc 2a a8 3c 10 64 ed 3d
       0.102212176 0.008735215 0.02052825 0.11591351
000330 d7 51 56 bd ae 29 19 3e ba 00 5e 3d 55 8c e0 3b
       -0.052324142 0.14957306 0.05419991 0.0068526664
000340 ce e7 88 bc 3f dd 0f 3e a1 41 2e 3e 2b 43 a8 3c
       -0.016712096 0.14049242 0.17017223 0.02053984
000350 31 37 7f bd 91 cf 97 3d b6 78 df 3d e5 b0 4a 3b
       -0.062308494 0.07412637 0.10911696 0.0030928191
000360 4d ed 1c 3e 27 f4 6d 3d dc 02 82 bd e5 97 08 3e
       0.15324898 0.05809417 -0.06348202 0.13339193
000370 4a 21 2e 3e c2 8b 2d bd 22 5e b4 3d dd 70 99 bc
       0.17004886 -0.04236961 0.08807017 -0.018730575
000380 06 81 2b 3e d0 b8 9e bb 83 8c 89 bd 47 d5 92 3b
       0.16748437 -0.0048438087 -0.067162536 0.004480991
000390 60 61 45 bd 53 86 f3 3d b0 68 70 bd be 08 d7 bc
       -0.048188567 0.11890855 -0.058693588 -0.026249286
0003a0 fc 76 b9 bc ec 38 53 3d 4f af a4 bc 4a 7e 3d 3d
       -0.022639744 0.051567957 -0.020103125 0.046263017
0003b0 10 07 7a bd b2 d4 b0 3d 67 fa 23 bc 5a 2f bc 3c
       -0.06104189 0.086343184 -0.010008431 0.022971798
0003c0 3b 02 5e bd 81 94 71 bd 4d 1e 03 bd ac 22 fa bc
       -0.054201346 -0.058979515 -0.03201132 -0.030534111
0003d0 de 26 8b 3b 9f 7e 0f 3d 3d 47 08 3e 11 99 e9 3d
       0.0042465767 0.035032865 0.13308425 0.11406148
0003e0 ca 83 7e 3d 80 b8 4d 3d c9 89 5b 3d 28 c1 c6 bd
       0.062137403 0.05022478 0.0535982 -0.097048104
0003f0 10 44 59 3d 4c ce dd 3d 40 5a af 3d c6 29 e1 bb
       0.053043425 0.10830364 0.08562136 -0.006871435
