model.pth (torch, 122235 bytes, 8 tensors)

gru.weight_ih_l0 f4 [192, 3]
00000000: f951 203e fc96 fcbd 3018 fdbc e1d2 d7bc
00000010: ae12 8cbe 9803 f1bc 4e14 87be fd66 e1be
00000020: 88bb 9dbd 93cc 713d d44a 38be 8673 af3d
00000030: 2482 d93d 02cd ae3d 720f c1bd 91eb 3e3d
00000040: f92f 923e 0a55 cfbd 2d5a c3bd d74a a9be
00000050: c00f 5d3d 0bf9 44be 77b4 0d3c e8c3 9e3c
00000060: 58a0 2fbe b483 cfbe e6a4 c53d 3baf e23c
00000070: 5a57 493c 0235 90bd 1662 8d3d 2f68 f8bd
00000080: c40e ca3d 1eac 6dbe 8b9e 7fbd 50bf 523d
00000090: ab5b 11be ca4d c9be 5e9a febd b1b8 f5bd
000000a0: e3b6 11bf 90a5 71bc 7c30 8ebf 3abd 97bd
000000b0: 78cc 8dbd e31f a5bd 24db d5be ca1b f23d
000000c0: 4701 433e df3a 403d 806d 853b e950 903d
000000d0: d734 313c 62d8 813d ef68 babc 398e 043d
000000e0: c07c cfbb 6181 383f bcca 923d 7ccf 7a3d
000000f0: 7939 22be 8159 abbe 5231 92bd bda8 e73c
00000100: 858d 8ebe 8e5c 8fbd e8f3 953b 79fd 2ebe
00000110: 9ccc 7abd 4ba1 07be 20a5 1cbf b06b 443c
00000120: 9a1b d33a d467 193e 80c7 fd3b 315b abbd
00000130: 0bac 00be 7cc8 403d be9f 7cbf e0e0 26be
00000140: fcaf 0e3d 3c4f 7f3d ef8c b7bd 008d 44ba
00000150: 89d0 713e c175 a53e 6442 eabd e7df 393d
00000160: cf1a 1bbe da38 e73d 9814 943d 829c 69bd
00000170: acc2 a23d 148a 9f3e 109a 273f 36a7 a1bd
00000180: f79c 2abf 29a7 e83e 6082 80bb 5e60 bcbe
00000190: 0301 33be e09e c23d 7a41 ffbe 2bd3 9fbe
000001a0: d89f c43d 2ade 013d 241d f8bd 9a27 863d
000001b0: ab96 e33d 9a5e 753d 706f d83d 515a f43d
000001c0: fe92 2cbe dcef 5ebd 2942 70be e155 13bf
000001d0: d6ee c83d df4d 613d 56e7 043f 48c4 4fbd
000001e0: ee44 753d 608f acbd 4aec 8d3d 6d0e c3be
000001f0: e39d edbe 00bb ec3a 8878 e73c 04ad 72bf
00000200: 58ee a8bd e525 093e 3b2e c7bd 786d 213d
00000210: 46d4 433e 944d fb3e ce5a f23d 5d44 e6bd
00000220: 1449 0fbf 0a41 afbd 0890 e6bd 1414 40bf
00000230: 08a2 d23c e8bc 23be 1f68 06bc 10bb 593c
00000240: 2bcc 4abd 6514 5fbe 9af0 ac3d e943 4a3c
00000250: bd28 80be aec3 b2bd 247b d9bd 6ff1 cebe
00000260: 9247 bebd df2a b03e 4507 b43e 0e2a b73d
00000270: 7e94 30be efd0 8bbe 90b1 47bd 8457 42be
00000280: 384d 7e3d de95 f13d 4dad c2bd b9d0 38be
00000290: 34b9 4f3d 7f58 893d dc89 053d 9040 cb3c
000002a0: c324 a0bd f3a0 87bc 569e f6bd efac 5c3d
000002b0: 069b babc 0418 0cbd 4015 4b3d 509b 43be
000002c0: 86c0 8a3d d5f7 df3d 900e 243e d85b 7cbd
000002d0: 0585 70bf cfbb 973d 54bf 89bd 0b4c 97be
000002e0: 72c8 8fbe 0442 dc3d c74c 193d 1d14 a5be
000002f0: 50bd aa3c 50cc bdbd 95fe 98be 32e7 abbd
00000300: afd9 a8be df11 0e3c c03b 5fbd d712 75be
00000310: ebd5 a53d 5801 b0bc eddc 5cbe 5afe 6fbe
00000320: 501a 933c 2ac8 70be dd22 5d3e f034 a5bd
00000330: c784 bdbd f2d7 e43d 9899 0b3d a5d3 193e
00000340: 238d 00be 3431 45bd ec7d d2be a4d2 8fbc
00000350: b814 fcbc f0f9 f73d f8b1 783e b0b9 2a3d
00000360: 21b2 663c b01d ccbd 70a2 46bc 2b6a 82bd
00000370: 0140 b73e c6a2 dc3d d89f 6abe b286 0b3e
00000380: 3003 bcbc 789a 3fbe ce28 313d b007 e2bd
00000390: 8da0 c7be b301 79be c003 47bc f435 d4bc
000003a0: f383 0dbe d2d0 bdbd a171 5a3e 2139 dc3c
000003b0: 98db c7bd a469 cabe b318 1ebe f6e8 f0bd
000003c0: 4fc5 d83d b662 303e 30df 593d 80ee 11bc
000003d0: cc98 9d3d 44ec 0ebd 3275 12bd 1442 1b3d
000003e0: 80fd b0bc 3a54 c73d 95c1 d5bd 5c25 2ebd
000003f0: f483 87be c4fc 9dbc d436 42bd 60e0 8ebe
0.1565627 -0.123334855 -0.030895323 -0.026345672 -0.27358 -0.029420659 -0.2638268 -0.44023886
-0.07701784 0.059032988 -0.17997295 0.08566956 0.106205255 0.08535196 -0.09426774 0.046611372
0.28552225 -0.10123642 -0.09538684 -0.3306491 0.0539701 -0.19235627 0.008648983 0.019380525
-0.1715101 -0.4053017 0.096505925 0.027671447 0.012288893 -0.070413604 0.06903474 -0.121292464
0.098660976 -0.23210189 -0.062407058 0.05145198 -0.14195125 -0.3931716 -0.12431787 -0.11998118
-0.5691969 -0.014748946 -1.1108546 -0.07409139 -0.06923765 -0.080627225 -0.41768754 0.118217066
0.19043456 0.046931144 0.0040718913 0.070466824 0.010815821 0.063401 -0.022755114 0.032362197
-0.00633201 0.72072417 0.07167575 0.06123303 -0.15842237 -0.33466724 -0.07138313 0.028278703
-0.27842346 -0.07000075 0.004576195 -0.1708888 -0.061230287 -0.13245122 -0.6118946 0.011988565
0.0016106248 0.14981014 0.0077447295 -0.08367003 -0.12565629 0.047066197 -0.9868125 -0.1629672
0.0348358 0.062331423 -0.08962428 -0.0007497817 0.23614706 0.32316402 -0.11438444 0.045379546
-0.15146945 0.112901405 0.072304904 -0.057034023 0.07947287 0.31160033 0.65469456 -0.07893221
-0.6664576 0.45440033 -0.003921792 -0.36792272 -0.17480855 0.09502959 -0.49854642 -0.31215796
0.096008 0.031706013 -0.12114933 0.06550522 0.11112722 0.059904672 0.1056813 0.11931289
-0.16852948 -0.054427966 -0.23462738 -0.57552916 0.09811179 0.055005904 0.5191549 -0.050724298
0.05988019 -0.08425784 0.06929834 -0.38096943 -0.4640952 0.0018061101 0.028255716 -0.9479525
-0.082485855 0.13393362 -0.09725615 0.03941104 0.19123945 0.49082625 0.11833726 -0.11243508
-0.55970883 -0.08557327 -0.112579405 -0.75030637 0.025712028 -0.15990031 -0.008203535 0.013289228
-0.049511116 -0.21785124 0.084443286 0.012345293 -0.2503108 -0.08728729 -0.1061919 -0.40418574
-0.09290995 0.34407708 0.35161796 0.08943568 -0.17244145 -0.2730784 -0.04875332 -0.18978697
0.06208536 0.11796163 -0.09505711 -0.18048371 0.050713733 0.067063324 0.032602176 0.02481106
-0.07819512 -0.016556239 -0.12041919 0.05387586 -0.022778999 -0.03420259 0.049580812 -0.19102216
0.06775002 0.10935942 0.1602118 -0.061611027 -0.9395297 0.074088685 -0.06725946 -0.29550204
-0.28082615 0.10754779 0.037426736 -0.32241908 0.020842224 -0.09267485 -0.2988173 -0.083937064
-0.3297858 0.008671253 -0.05450034 -0.23932968 0.08097442 -0.021485016 -0.21568651 -0.23436871
0.017956883 -0.23513857 0.2159533 -0.08066738 -0.09253841 0.11174001 0.034082025 0.15022142
-0.1255384 -0.048142627 -0.41111696 -0.017556496 -0.030771598 0.12108219 0.2428664 0.04168099
0.014080555 -0.099666 -0.012123689 -0.06367906 0.3579102 0.10773234 -0.22912538 0.13625601
-0.022950739 -0.18711269 0.043251805 -0.110366225 -0.38989678 -0.24317054 -0.01214689 -0.025904633
-0.13819866 -0.09268345 0.21332408 0.02688271 -0.09758681 -0.39533722 -0.1543911 -0.11763184
0.10584509 0.17225155 0.053191364 -0.0089069605 0.07695159 -0.03489329 -0.035756297 0.037904814
-0.021605253 0.09732862 -0.104373135 -0.042516097 -0.2646786 -0.019285567 -0.04741557 -0.2790556

gru.weight_hh_l0 f4 [192, 64]
00000000: 2b0e 75be ed97 8abd 9142 5abe acd0 203e
00000010: 13a4 29be f594 463e e1e8 b7bc c209 533e
00000020: 0998 48be 2c6a 513d f005 e9bb 8ab0 cabd
00000030: 8824 bcbd 4d8f 383d e74b d5bc 5b78 463e
00000040: 76f7 e43d a236 01be da6a b33c 1408 80bd
00000050: 3d88 22bd f811 a13d 86a0 04be 1638 4d3e
00000060: 4e9d 203e cc9d 4dbe 96b6 05be ceef 833c
00000070: 7f4d 62bd 48eb 32be 0433 29bd d75d acbd
00000080: 8a9f aa3d 29d8 e33c cfaa 253d aeb3 1f3d
00000090: 5240 5c3e c4eb 9cbb d488 b6bd 3772 79bd
000000a0: 838a f13d 36bd 0d3c 5f8e 953d 1511 b23c
000000b0: a892 4b3d 542b 63bb 9f19 dfbd 490f 35be
000000c0: 9c5d 01be d0b7 5a3e 26ca 76bd 7724 df3d
000000d0: 59b8 9e3d a616 323d 3a22 85bd ff15 5b3e
000000e0: eaf9 6dbe 6149 563d 18bb 2cbe c1fc 4bbe
000000f0: dd91 22be 8491 523e 988c 693e 26c5 093e
00000100: 3fd4 a5bd c692 57be afa9 86be 896e 9f3d
00000110: d82b 22be 394d 823c 08c6 47be b148 8b3d
00000120: 3866 66be 745b c13d 9420 d8bc 26bb d0bd
00000130: d6a5 6fbe 0d86 113e ca46 353d c1b0 203e
00000140: c31d 933d 2da3 44be 883c 2c3e 9342 893d
00000150: 2241 993d a07f 633e 8825 06bd f695 ee3d
00000160: 1ca1 2cbd f582 20bc c1d7 70be 4b6b 8dbd
00000170: f503 09be 3686 1dbe 4d8b 0dbd 6e47 57bd
00000180: 5666 babd 1a6a 073e 095e 5d3d 6f74 5dbd
00000190: 29e1 723e a942 383e 46d9 8bbc e009 f0bd
000001a0: a3b4 ff3c 0b04 e0bc ee00 6a3e 2fe2 413e
000001b0: 0c75 bcbd 3675 573e 580a 14bd a957 6ebe
000001c0: a901 afbd ddf3 4d3e 17da c6bd e1cd 5d3d
000001d0: a7e2 8e3d f6df 55be 6937 f2bd 6785 c13d
000001e0: 47ab 1dbe 2a7a fb3c dbe6 4dbe 5c6a 42bd
000001f0: b58e e8bd bf92 433d c14e 593e 7241 3f3d
00000200: fb9d a5bd 1bc1 573d e064 9cbe 561b 54bd
00000210: d02f dcbd 994b 133e 8f03 d33b 1793 c5bc
00000220: 22a1 3abc 92f8 3e3b e624 8fbb bbd9 fb3c
00000230: 7d98 2fbe 61de a53d e31d 023e 3c8f 4a3e
00000240: eab5 84bc efc3 f9bd ccec 303b 0bc6 85bc
00000250: cbb6 303e 7ef6 1a3d ae7c f0bd ebee dc3d
00000260: d2a4 c3bc 7bf2 393b 7fc1 c5bc 2537 9fbd
00000270: b754 e6bd 1597 2dbe 347d c7bd 7eb3 49bd
00000280: 734c 833e fb49 f23d d6a8 393b bd65 a03d
00000290: a2e2 313d 59e4 1b3e a287 ee3a 354e ecbd
000002a0: 6aa5 303d c4b7 97bc 4171 3b3e 7089 e93d
000002b0: 7eb1 86bd 1659 1239 30f8 4f3d b13b 1dbd
000002c0: fe77 1fbe 2c92 403e c03b c4bd 7815 613d
000002d0: 88ba 2e3d 960d 3c3d b47a 2abe 6ad5 0a3e
000002e0: a51a 8bbd df32 1c3e c439 10bd faf4 fcbd
000002f0: 8131 07be 76ce 7f3d a66f 9b3d 5ca7 253d
00000300: 7e80 45be 69e4 39be 3933 28be 19f7 693e
00000310: 9931 ce3b b57a 8b3c 10bb 49bd 1ebd a33d
00000320: ca93 17bd b8a9 2a3e 7cc5 0cbe 6f2b d3bd
00000330: f2a4 1abe 8bf8 103e a0b8 593d 37d7 0d3d
00000340: a947 293d 63ea 9e3c c7e4 3b3e 35a2 f23d
00000350: 66bc 3c3e 89ec 203c 73be d0bd 5498 b03d
00000360: 1441 12bd d177 88bd 090e 1ebe 2d98 2cbd
00000370: a131 03be fa7e bcbc dc72 0cbe a9cd e43d
00000380: 78e5 9abd 8120 943d a9ea c7bb 641f 03be
00000390: c9c7 443e c0d0 0f3e daf6 e8bd 8b77 803d
000003a0: 70b8 4cbc d9d7 88bd eb83 48bc 0d28 233d
000003b0: 28fd b3bd e3e4 46bc 006f 28bd 9ea0 36be
000003c0: 06ff 4bbe 3717 763d ed36 8dbd 8c8c 993d
000003d0: d87a f93d 0369 dfbb 6022 26be 5c45 2b3c
000003e0: 6ecc 2fbe bfef 553d c8e5 2dbe 1289 98bd
000003f0: 213d 04be c95b 3b3e f445 523e af68 7d3e
-0.23931186 -0.06767259 -0.21314456 0.15704602 -0.16566496 0.1939276 -0.022449913 0.20609191
-0.19589247 0.051126644 -0.0071113035 -0.098969534 -0.09186655 0.045058537 -0.02603717 0.1938185
0.11180012 -0.12618497 0.021901537 -0.06251541 -0.03968071 0.078647554 -0.1295186 0.20040926
0.15685007 -0.20079726 -0.13057932 0.016105559 -0.055249687 -0.17472565 -0.041308418 -0.08416336
0.08331211 0.027813034 0.0404461 0.038989715 0.21508911 -0.0047888476 -0.08912817 -0.06089994
0.11793997 0.008651068 0.07302546 0.021736661 0.04970041 -0.0034663277 -0.10893559 -0.17681612
-0.12633365 0.21359181 -0.060251378 0.10895627 0.07750005 0.04347863 -0.06500669 0.2139511
-0.23239866 0.052316073 -0.16868246 -0.19920637 -0.15875955 0.20563322 0.22807539 0.13454112
-0.08097123 -0.21052083 -0.26301333 0.07784755 -0.15837038 0.015905963 -0.19509137 0.06800974
-0.22499931 0.094412714 -0.026382722 -0.10191946 -0.23403105 0.14211293 0.044256963 0.15692426
0.07183411 -0.19202872 0.16819966 0.06702151 0.07483126 0.22216654 -0.032750636 0.116496965
-0.042145833 -0.009796848 -0.23519804 -0.0690523 -0.13380416 -0.15383229 -0.034556676 -0.052558355
-0.0910155 0.13224068 0.054044757 -0.054066118 0.23718704 0.17994179 -0.017071377 -0.117206335
0.031214064 -0.027345678 0.22851917 0.18933938 -0.092020124 0.21040806 -0.036142677 -0.23275627
-0.085452385 0.20112558 -0.09709566 0.05415142 0.06976824 -0.20886216 -0.11826975 0.094492726
-0.15397368 0.0306979 -0.20107596 -0.047464713 -0.11355344 0.04774737 0.21221448 0.046693273
-0.08086773 0.052674394 -0.30545712 -0.051783882 -0.10751307 0.14384307 0.006439633 -0.02411799
-0.011390956 0.0029139859 -0.0043684123 0.03074347 -0.17148013 0.08099056 0.12706713 0.19781202
-0.016200025 -0.121955745 0.002699661 -0.016329786 0.1725723 0.03783273 -0.11742531 0.107877575
-0.023882303 0.002837329 -0.024140118 -0.0777419 -0.11246627 -0.16952164 -0.097406775 -0.049243443
0.25644264 0.11830517 0.0028329394 0.07831905 0.043429025 0.15223826 0.0018198381 -0.11538354
0.0431265 -0.018520243 0.18304922 0.11403167 -0.06576823 0.00013956832 0.0507738 -0.038387004
-0.15573117 0.1880576 -0.09581709 0.054952115 0.04265836 0.045911394 -0.1664837 0.13557974
-0.067921914 0.15253781 -0.03521134 -0.12351413 -0.13202478 0.062452756 0.075896546 0.04044281
-0.19287297 -0.18153538 -0.1642579 0.22848167 0.0062925336 0.017026285 -0.049250662 0.079950556
-0.037006177 0.16666305 -0.1374721 -0.10311019 -0.15101984 0.14157312 0.053154588 0.034629073
0.041328106 0.019398874 0.1834899 0.11847345 0.18431243 0.009822019 -0.10192575 0.08622804
-0.035706595 -0.06663478 -0.15435041 -0.042137314 -0.128119 -0.023009766 -0.1371569 0.11172039
-0.07563299 0.07232762 -0.0061009717 -0.12804943 0.19216837 0.14044476 -0.11375208 0.06272801
-0.012495145 -0.06681795 -0.012238483 0.039833117 -0.0878852 -0.012139532 -0.041121483 -0.17834708
-0.19921502 0.060080733 -0.06895242 0.0749751 0.12181634 -0.0068179383 -0.1622405 0.010453548
-0.17167827 0.052230593 -0.16982186 -0.07448019 -0.12913944 0.18296732 0.20534497 0.24746965

gru.bias_ih_l0 f4 [192]
00000000: 903e bbbd 0551 3d3d 8390 393d 08ab a0bd
00000010: 5e50 edbd abfb 3fbe a71b 14be a1fb 37bd
00000020: 4f2c 6fbc 195c cbbd 0880 d33d 67cb 143c
00000030: 1207 b4bd 4985 233e bcc6 8dbd db6c b83c
00000040: 548e 06be 2503 88bd 1786 52bd c6ec 92bd
00000050: c521 98bc 6c21 073b a7b4 2b3e d419 f7bc
00000060: 069a 39be 7e1a 32be 4894 14be a559 edbd
00000070: 75f4 43bd cdb6 a1bd f228 543b 8123 4dbd
00000080: 7e76 55be bbdb 57bd ff32 8e3d 9dbc 8dbd
00000090: de0a bbbd 10b4 1abe 60b5 083e 66cd d6bd
000000a0: f047 993d 45b6 2a3c cb3a 0d3e 43d7 b6bd
000000b0: 56d4 88bc e138 4b3d 2870 1d3d 57dc 12be
000000c0: 90bb 533d 753a b7bd 2d1e 33bd 57fc e8bd
000000d0: 0102 8fbc 5eae 0ebe b97c adbd 9505 c53d
000000e0: f51b f83c a050 203d 1920 cfbd 9450 bdbc
000000f0: aa84 37be 0e7c 133c 2ab2 f9bc e739 a6bc
00000100: b215 a1bd f37e 07be 5637 13be 8928 36be
00000110: 77b6 a7bd 1ff8 7dbd feb4 8dbd 842d 573d
00000120: 5832 bebe 0ad7 a5bc 1d63 14be 0174 d7bd
00000130: 4645 6dbe e18e e1be ffe6 3fbd af92 7fbe
00000140: dac9 26bc c1df 0e3e a39b 923e 51fc 103e
00000150: 9756 2cbe f160 26be 9c90 2abe dc7e 31be
00000160: ec10 663e df3b d0bd 66e6 19be 6cfb 2cbb
00000170: 63f8 e03d cf33 3c3d ac83 183e f647 b53c
00000180: cdac 173e 2e38 843d 2f9c 47be cb22 41be
00000190: 7a14 a13c 863d 453e c1e3 91be 55e7 4039
000001a0: 5dc0 d6bd 88c6 85be 2c2d 80be 4432 1cbc
000001b0: 2990 0e3e a8b5 2fbe 29d6 73be 9c3f 4abd
000001c0: fd76 7dbd 3938 3ebe e6fc 44be 8b39 063d
000001d0: 4a4e 3abe a878 41bd 3854 d2bd 48f2 c43d
000001e0: b991 60bd f660 d3bd 0e3f ddbd a033 2f3d
000001f0: 5753 ff3b 776b 68be 84cf 12be 5c37 57be
00000200: 0c02 d33d db98 573e c449 253e 9c87 37be
00000210: 3f86 883d 7519 f1bc 97d2 213e 2429 b7bd
00000220: bcc8 803e 2682 cdbd e22c 2f3e 1ffd 263e
00000230: 5792 3e3e 7d69 4bbe 60c6 92bd 398f 3bbe
00000240: c39a 77bd fa07 623d d081 73bd 333e 1abc
00000250: f5d4 5bbe d1e3 39be c5dd b23d 7cbc 60be
00000260: 6c42 473b 1425 523e 21b5 f53d 69c3 ab3d
00000270: ba2f ae3d ce46 7e3d 5e21 c03d 25a1 68bd
00000280: a3ae 443e 265c 0cbe d7df 53be 74f3 803e
00000290: 7a4a 15be a1af 66bd 759d 743e 2ad5 84bd
000002a0: 11e0 d1bd 978d 9a3e 05c3 63be e426 edbd
000002b0: 29d2 093b 037e 58be 3481 653e 757e 303e
000002c0: dd43 453d 3c47 47be dc87 173e 3871 debc
000002d0: 86da 95bd ee5e 113e 26cb 323e 2cf4 2ebd
000002e0: ab4b 8a3d 408d 93bd 21a8 b83d 466a ef3d
000002f0: 1c94 913d 5a04 5ebe 5fff 06be c36e d8bd
-0.09142792 0.046219844 0.045303833 -0.078451216 -0.115875944 -0.18748347 -0.14463674 -0.044917706
-0.014597966 -0.099296756 0.103271544 0.009081698 -0.08790411 0.15968813 -0.06922671 0.022512844
-0.13140231 -0.06641225 -0.05139741 -0.07174067 -0.01857079 0.0020619286 0.16768132 -0.030163683
-0.18125162 -0.17392918 -0.1450969 -0.11589364 -0.047840554 -0.078961946 0.0032373038 -0.050082687
-0.20845982 -0.052699786 0.069433205 -0.06920741 -0.09132932 -0.15107751 0.13350439 -0.104883954
0.07484424 0.010419433 0.13791959 -0.08927777 -0.016702812 0.04961479 0.03843704 -0.14341865
0.051692545 -0.08946697 -0.04372995 -0.11376255 -0.01745701 -0.13933703 -0.084710546 0.09620205
0.030286768 0.03913939 -0.10113544 -0.023109712 -0.17921701 0.009001745 -0.030480463 -0.020291282
-0.07865466 -0.13232021 -0.14376578 -0.177889 -0.08189099 -0.062004205 -0.06919287 0.05253364
-0.37147784 -0.02024414 -0.14490934 -0.10520173 -0.23170957 -0.4405432 -0.046851154 -0.24958299
-0.010179961 0.13952543 0.28634366 0.14158751 -0.16829906 -0.16247918 -0.16656727 -0.1733355
0.22467393 -0.101676695 -0.15029296 -0.0026394976 0.10984876 0.045947846 0.14893979 0.02212904
0.14812012 0.06456028 -0.19493173 -0.18860929 0.019663084 0.1926175 -0.28494075 0.00018396725
-0.10485909 -0.2612803 -0.25034463 -0.009533469 0.1392218 -0.1715914 -0.23812164 -0.04937707
-0.061881054 -0.18576135 -0.19237098 0.03276972 -0.18193927 -0.047234207 -0.1026997 0.09616524
-0.054826472 -0.10321228 -0.10803042 0.042773843 0.0077919173 -0.22697245 -0.14336973 -0.21017212
0.10303125 0.21054403 0.1614142 -0.17922825 0.066662304 -0.029431084 0.1580299 -0.08943394
0.25153148 -0.100345895 0.17106965 0.16307496 0.18610512 -0.1986446 -0.07166743 -0.18316354
-0.060450327 0.05518339 -0.05944997 -0.0094142435 -0.21467955 -0.18153311 0.087337054 -0.21946901
0.003040458 0.20521957 0.11997438 0.08386881 0.08505197 0.062079243 0.09381364 -0.056794304
0.19207244 -0.13707027 -0.20690857 0.2518574 -0.14579192 -0.056319837 0.2388819 -0.0648597
-0.102478154 0.3018615 -0.22242363 -0.115796834 0.0021029806 -0.2114182 0.22412568 0.1723574
0.048160423 -0.19460768 0.1479792 -0.027153596 -0.07317071 0.14196369 0.17460307 -0.04271333
0.06752714 -0.07204676 0.09016443 0.11690192 0.07108328 -0.21681347 -0.13183354 -0.10568001

gru.bias_hh_l0 f4 [192]
00000000: 6141 f9bc 7127 8b3d 2658 f2b9 939d 363d
00000010: 4c1d 183c 552e 57be 3f6a 7bbd 4837 59bd
00000020: 9987 0e3e a20a 66bd 7b20 203e 05b2 693d
00000030: a69d 7fbd 7923 883d 3ac1 5dbe fee8 eabd
00000040: 850f 97bc 2d1f a63c c1c9 bfbd f790 92bd
00000050: e2a5 77bc 026d bc3c 2b00 01bd c1f5 3dbd
00000060: 1591 80be 12ab 82bd 6d05 0abe 3669 e53c
00000070: 5ed0 f7bd a3af 04bd ed2e aa3d 0b2b 4fbe
00000080: d1f9 a5bd 464f 00be 58d2 6d3d b4d0 253d
00000090: c658 c0bd ee8d 6a3d 8fad 443e 81c5 65bd
000000a0: d99f 46bd 1768 febd 7ec1 323d a0d9 df3c
000000b0: b46c 28be 84c6 113d 117b 143e 19b3 59bc
000000c0: 61db fa3d 8d45 e6bd f8f3 24bd 30dd 24bc
000000d0: 2663 b03d 5e60 9b3d 6a0d 91bc 1f12 943d
000000e0: e863 39bd 0599 ad3c 4ecb 3cbd db74 4ebd
000000f0: 1fdc 6ebe 24ad cf3d d1d7 27be 72ee 39bc
00000100: 28c8 a53d 9265 e6bd 6d97 89bd b062 03be
00000110: 1c19 213c feda 013e ab88 c23b 8a6e b0bd
00000120: 4099 89be 48b1 96bd 5bfc 65be 8632 33be
00000130: 3c40 98be 8c98 d2be 68b9 8fbd b038 81be
00000140: 4569 15bd 6933 c23a 6f28 963e a759 db3a
00000150: 11de c5be 9882 bcbd 6481 25be f0b1 8cbe
00000160: 77ba 613e a571 43be 31fc c7bd 661c 99bc
00000170: 6cfd c23d 5212 163d 90aa 053e d477 dc3d
00000180: e30a 3a3e d113 af3c aa3e 4ebe 74e4 eabd
00000190: 5568 fd3d 174a 743d c750 9fbe 513f 283e
000001a0: 422a a8bd 06f5 7cbe d9e3 a5be 0b16 f43d
000001b0: 3a69 b0bd d839 b9be cf9b 3bbe 8a7d 54be
000001c0: 3da6 5b3c b0a4 0ebe 76b4 0dbd 5d80 95bd
000001d0: 6047 943c 664b 7abb 26b6 3bbd d8ae 5e3d
000001e0: a46a 5abd 9b24 8abd 5f6b 4dbc 5962 2c3c
000001f0: 4bb8 5c3e 56bc 6abe 84be ecbd 35f2 3abe
00000200: 8b89 3c3e f2f0 7b3e 4c6d 4d3e 18e3 71be
00000210: d199 f33d 220a 5ebc 0151 123e c51e 99bd
00000220: 1a69 9a3e 270a 32be 63e8 4e3e bd9c 573e
00000230: eb31 1f3e 352c e5be 216b f8bd 0bf6 10be
00000240: 90f9 0cbe 574c 493e 4a35 ccbd 981f 6bbd
00000250: a947 98be 8a7b 28be 4ca8 843e e626 70be
00000260: df9c 9f3d 78c8 9d3d a42b 2a3e 4917 f43d
00000270: f71d 6f3d 167b f83d a1d8 f43d bbde bbbd
00000280: 6a64 5a3d f13f 15be be5e 85be 22d2 9c3d
00000290: c146 70bc 482a 0bbe 7dec c53e 5650 00bd
000002a0: 1060 06be 33e9 153e eeef f3be 1ce8 99bd
000002b0: b62c af3c 5a00 50be 792f a93e 5fc7 233e
000002c0: 022a 443e a7f8 22bd 5767 753e 9dbe 8e3b
000002d0: e084 82be f155 0a3e 1918 a33c 6e10 5bbe
000002e0: 3fe9 293e 53cb 09be 0e53 cb3d d9df 20bd
000002f0: d669 9a3b 6ff6 6ebe 12b1 2bbe c7e1 6bbe
-0.030426683 0.06794632 -0.00046223513 0.04458387 0.009284329 -0.21013768 -0.06138062 -0.053031236
0.13918914 -0.056162484 0.1563739 0.05705454 -0.062406205 0.06647391 -0.21655741 -0.11470221
-0.018440017 0.020278538 -0.093646534 -0.07156556 -0.015115233 0.023001198 -0.0314943 -0.046376947
-0.2511069 -0.06380285 -0.13478632 0.02800427 -0.1210029 -0.032394063 0.08309732 -0.20231263
-0.08104289 -0.1253024 0.058061928 0.040482238 -0.09391932 0.05726426 0.19206832 -0.056096558
-0.048492286 -0.12422197 0.04364156 0.027325451 -0.16447717 0.03558971 0.14500071 -0.013287329
0.122488745 -0.112437345 -0.04027173 -0.010062501 0.08612661 0.0758674 -0.017706592 0.07230019
-0.045261294 0.02119113 -0.046092324 -0.05040441 -0.23326157 0.10140446 -0.16390921 -0.011348354
0.080948174 -0.11249842 -0.06718335 -0.12830615 0.009832647 0.12681195 0.0059367022 -0.08614834
-0.26874733 -0.073580325 -0.22459547 -0.17499742 -0.29736507 -0.4113201 -0.07017785 -0.25238562
-0.036477346 0.0014816347 0.29327723 0.0016735093 -0.38645986 -0.09204596 -0.1616264 -0.27479506
0.22043787 -0.1908632 -0.097648986 -0.0186903 0.09520993 0.036638565 0.13053346 0.10765043
0.18168215 0.021371754 -0.20141092 -0.11469355 0.123734154 0.05964097 -0.31116316 0.16430403
-0.08211185 -0.24702844 -0.32400396 0.11918267 -0.086138204 -0.36176944 -0.18321155 -0.20751014
0.0134063335 -0.13930011 -0.03459593 -0.07299874 0.01810044 -0.0038191914 -0.045828007 0.054365963
-0.053324357 -0.06745263 -0.012537806 0.010521495 0.21554677 -0.22923407 -0.115597755 -0.18256457
0.18411843 0.24603632 0.20061225 -0.23621786 0.118945725 -0.013552221 0.14288713 -0.07476572
0.3015831 -0.17386685 0.20205836 0.21055885 0.15546386 -0.4476029 -0.12129808 -0.14156358
-0.13767076 0.19658028 -0.099711016 -0.057403177 -0.29742172 -0.16453376 0.2590965 -0.23452339
0.07793593 0.07704252 0.1661821 0.11918504 0.058378186 0.12132852 0.11955381 -0.09173342
0.05331842 -0.14575173 -0.26048845 0.07657267 -0.014665307 -0.13590348 0.3865699 -0.031326614
-0.13122582 0.1463974 -0.4764399 -0.075149745 0.021383625 -0.20312634 0.3304403 0.15994023
0.1915665 -0.039787915 0.23965202 0.004356219 -0.25492 0.13509347 0.019908952 -0.21392986
0.16592883 -0.13456468 0.09927951 -0.039275978 0.0047123237 -0.23336194 -0.16766766 -0.23035346

fc.weight f4 [256, 64]
00000000: 35ec af3c e9f4 bc3c abc9 8ebd 436d 7b3d
00000010: 4604 71bc f9d2 0d3c 9905 06bd 8dc7 ddbb
00000020: cdc4 863c 0e31 b43c 0a31 6f3d 0e6e 893d
00000030: 6031 493d 21c5 37bc ceca 9abc 9acb 6f3c
00000040: 5718 913d 9db1 823d 4969 23bd 31f9 8b3d
00000050: d360 1abd b16b 7d3d b6a3 a7bc 59e8 17bd
00000060: 4da3 253b 6cb7 e9bd 7bd3 353c 7aac a6bd
00000070: 683e 263d c5e5 d03c 7e15 81bd d51d 17bc
00000080: b3a3 de3c 1590 74bd 68a8 2d3c 66f3 373d
00000090: 384d 9ebd 3b21 5fbc 0e2e 31bd 7cd1 2a3d
000000a0: 11fc 16bd 4e5d db3d 53ae 57bc e9af da3c
000000b0: 8e18 453c 25eb 7b3d 8fec 2fbd 56e9 6ebd
000000c0: a6e2 653b 938a cebd 83e2 bf3d 382b 3a3d
000000d0: 0956 143d 60c1 af3d 9446 ac3d ca8f b33c
000000e0: 1157 6abb 745f 443d 1977 d23d 70b7 a8bc
000000f0: 6db0 8cbc 8cae d43d 6dac 023d 255e 2abc
00000100: c797 e13c 1a86 fa3d 2a52 d53d abb8 b7bd
00000110: 0700 1d3d d10e e53c 99bc c83b 75ff bcbd
00000120: 815b f8bc f498 d43c c2ae bebd 31ca b4bd
00000130: 5b4b 943d 3867 3dbc e348 ccbd 98f5 93bd
00000140: 0419 d33d 0859 8c3c 13ad e23c 27fc c5bc
00000150: 6708 963c b745 713d c4e5 23bc bde5 8f3d
00000160: 42e7 62bb a337 8bbc 2f87 fabd 5059 84bc
00000170: 8136 703d cc78 54bd cd9b ed3c d218 11bd
00000180: b82c d83c 5630 b3bc 9b28 8ebc 6203 5c3d
00000190: 84ce f53b 19f3 3b3d 047d 4d3c be45 a83d
000001a0: d0f4 65bc bd8e 6ebc 39ab 433c 91e6 40bd
000001b0: 3955 943d 6cf5 733c 5cd6 153d 1f89 2ebd
000001c0: a65e 06bd bc99 023c 51c9 28bd afc1 5abd
000001d0: 010e 03bd 8fea a6bc 2b75 0a3c aa1c a9bb
000001e0: 692f 443d 54e7 7fbc 0e09 323c ff05 3dbc
000001f0: ad9a 133d 1962 153d 7cf7 873c d434 a6bd
00000200: 03b4 16bd 1dd9 433b ddfb 2fbd 5aa3 fcbb
00000210: f5e7 363c ac9f 88bd 1426 c83c d9c2 1e3d
00000220: 10d4 dfbc 7d96 73bd 1cbb 04bb 0fd8 09bc
00000230: 6211 80bd 88b9 debd 01ae 63bd 1024 2b3d
00000240: 558d b53d 8732 593d 466e b7bd c027 9abb
00000250: 687e 18bd 359f ec3c 15c2 a7bd 537c b5bd
00000260: 6913 083d e543 a63d d05c 673c 91d8 b33c
00000270: afcd 92bd 5a98 413d 104a b03b 7e8c c53d
00000280: 8682 5b3c 3529 363c 9781 703d e1db 513c
00000290: f748 77bd 690b 13bd fea5 0c3d 31a2 32bc
000002a0: 7fc5 cdbc ea3e f6bc 370d 623d ef0a 9dbd
000002b0: 8d4c a2bc a909 813c cc9c 743d 5285 08bd
000002c0: 31a9 bcbd 36fc f13d ba2a a13b 1aa1 da3b
000002d0: 355e 573d fa31 7d3d b221 853d 5676 7bbd
000002e0: ea30 51bd 5b00 92bc 86ed abbd 4983 11bc
000002f0: 8812 653c d52f 933d d43e 073d 8f76 a5bd
00000300: cce1 ee3c 3b4b db3b e30e 03bd faff 943d
00000310: 7498 f53d 60b2 ba3d a3eb 203d ec8c 8dbd
00000320: 9b0a 85bd 8583 413c 85e8 28bc 396f b0bd
00000330: afd5 b43d 3e61 c3bb 9f31 8e3b a189 45bd
00000340: 2e19 18bd 2fd9 853b 9c3a e9bc 6aa3 b23c
00000350: 0b1a 833d 597c 9e3d 997a a1bd c885 603d
00000360: 2126 c3bc 4c37 463d 2bef 953d 4126 8fbd
00000370: 83bd 943a 2554 a23d 449c 83bd dda9 0e3c
00000380: a076 983c 7224 d53d 3456 693c 0aff ad3b
00000390: 7b5b d8bd 36d6 3ebd 7013 083e fb66 643c
000003a0: 7629 b6bd 29b1 a43d 366d 06bd cb82 f83d
000003b0: 5925 fc3b 2c1c 86bd 9db8 e2bd 2681 b3b8
000003c0: fa88 f9bd 992d d0bd a957 e7bc c439 aebd
000003d0: 09eb 47bd b9f8 74bd 3d33 463d 7674 b7bc
000003e0: cb27 033d 4a34 88bd da53 afbd a474 95bd
000003f0: bc21 57bc fefb 5dbd 90b0 29bd f61b f53d
0.021474937 0.023066001 -0.06972059 0.061383497 -0.0147104915 0.008656257 -0.032720182 -0.006768173
0.016451264 0.021996047 0.058396377 0.067104444 0.049119353 -0.011216433 -0.018895533 0.014635945
0.070847206 0.06381533 -0.03989533 0.06834639 -0.037689995 0.06187028 -0.020463806 -0.03708682
0.0025274337 -0.11411938 0.011097784 -0.08138366 0.04058686 0.025500188 -0.063029274 -0.009223421
0.027177667 -0.05970772 0.010599233 0.044909857 -0.07729572 -0.013618763 -0.04325681 0.041703686
-0.036861483 0.10711156 -0.013164121 0.026695209 0.01202978 0.06150355 -0.04295021 -0.058327995
0.003507772 -0.10085025 0.093693756 0.045451373 0.036214862 0.08581805 0.08411899 0.02191915
-0.0035757462 0.047942594 0.10276622 -0.020595282 -0.01717397 0.10384855 0.03190272 -0.010398422
0.027538193 0.12232609 0.10416062 -0.089707695 0.038330104 0.027961167 0.006125998 -0.09228412
-0.03031707 0.02595184 -0.09310676 -0.088276275 0.072409354 -0.011560254 -0.099748395 -0.07224578
0.10307506 0.017132297 0.027670419 -0.024168087 0.018314553 0.058904376 -0.010003511 0.07026241
-0.0034622704 -0.016994303 -0.122328155 -0.016155869 0.05864573 -0.051873013 0.029004956 -0.03542406
0.026388511 -0.021873634 -0.017353347 0.053714164 0.007501425 0.045886133 0.012542013 0.08216427
-0.014035419 -0.014560399 0.011942678 -0.047094885 0.072428174 0.014890056 0.036581382 -0.042611238
-0.032805108 0.007971223 -0.041207615 -0.053407367 -0.031995777 -0.020375518 0.008450787 -0.0051608877
0.047896776 -0.015619118 0.010866417 -0.011537074 0.036036182 0.036470506 0.016597502 -0.08115545
-0.036792766 0.0029884048 -0.042964805 -0.0077099027 0.011163701 -0.0667108 0.02443222 0.03876004
-0.027322799 -0.05946969 -0.0020253127 -0.008413329 -0.062533155 -0.10875231 -0.055585865 0.04178244
0.088648476 0.053026702 -0.0895658 -0.0047044456 -0.037229925 0.02888451 -0.08191315 -0.088616036
0.033221636 0.081184186 0.014121249 0.021953853 -0.07168137 0.047264434 0.0053799227 0.096459374
0.013397818 0.011118223 0.058717337 0.012808771 -0.06037232 -0.035899553 0.03433799 -0.010902927
-0.025118588 -0.030059297 0.055188384 -0.07668101 -0.019811893 0.015751677 0.059719846 -0.03333027
-0.09211958 0.118156835 0.0049184235 0.006672037 0.052580077 0.06181524 0.065005675 -0.06139215
-0.05107204 -0.017822435 -0.083949134 -0.0088813985 0.013981469 0.071868576 0.033018902 -0.08079254
0.029160403 0.006692318 -0.03199662 0.07275386 0.11991969 0.091160536 0.03928722 -0.06911644
-0.064961635 0.011811142 -0.010309343 -0.08614964 0.088298194 -0.00596252 0.0043394114 -0.048226956
-0.03713339 0.004084728 -0.02847033 0.021806438 0.06401452 0.07738561 -0.07884712 0.054815084
-0.023821892 0.04839258 0.07321008 -0.06989718 0.0011347983 0.079262055 -0.0642629 0.008707491
0.018611252 0.10407342 0.014241744 0.005309944 -0.105643235 -0.046591006 0.13288665 0.013940568
-0.08894627 0.08041603 -0.032818995 0.12134322 0.007694882 -0.06548342 -0.110703684 -8.559441e-05
-0.12184329 -0.10164947 -0.028240042 -0.08507112 -0.04880813 -0.059807513 0.04838871 -0.0223944
0.03202037 -0.06650598 -0.08560915 -0.07297638 -0.0131306015 -0.054195397 -0.04142815 0.11968224

fc.bias f4 [256]
00000000: 1dce 6e3d b661 743b 1923 2c3e 4aca 113e
00000010: fff7 de3d 1c4e 39bd 3e9e 8e3d 03d8 133e
00000020: 80fa b0bd 0ecf d0bd b10f 6bbc 35a4 da3d
00000030: 3bb5 8cbc 7b9a 873d 4d39 b3bd edf0 6c3d
00000040: 892b ae3d 64ec a2bc 6df0 1c3e 08dd 65bd
00000050: 710b d33d ecc8 573e 997b d93d e9ca 533e
00000060: 1904 d23d d661 0e3e 6638 643d ba45 b63d
00000070: 0bb4 ab3e 25b8 2f3e a301 953e c425 b03e
00000080: de1c 6f3e 44ce c43e b18c b03e 5049 d33e
00000090: 1432 8c3e 35d3 cc3e d3ea b63e ca54 993e
000000a0: 2794 6b3e a94f 8e3e 084a 943e 3687 853e
000000b0: 50aa bc3e 1876 ce3e 54be db3e 72dd ce3e
000000c0: 2ac1 7b3e e1cd c03e a659 a13e 10a1 843e
000000d0: 9361 113e fea1 c53d d8d5 1b3e 329c 833e
000000e0: 1d01 6d3e f548 953e 8ce0 633e 232f 813d
000000f0: d3b5 5a3e 469a a93d e052 853e 8577 6f3e
00000100: 64bd 613e a938 4f3e 76c8 023e c44d 3a3e
00000110: 0a0b f03d 3476 923e a103 cb3d 3f75 7a3e
00000120: 80cd 603e 787b 5f3e dafe d93d a54e 953e
00000130: a84d cf3d 1244 813e 1580 283e e9b4 773e
00000140: e11e 473e db75 cb3d dd33 1b3e dcb5 4d3e
00000150: 0fd6 813d 0aeb 123e 1d8f 923c ee39 2d3e
00000160: aae7 a03d 6748 943d b040 4a3e 41e7 0f3d
00000170: 842c 4c3e e5da 4d3d fe43 533e 1385 ff3d
00000180: 178f 6c3d 25d2 f93d 36a2 a93d fef3 4a3e
00000190: e8b5 ed3d 7d98 ea3d 33b4 293e 709c d9bc
000001a0: 17b7 183e 64b7 e8bc 5e11 d73c 0733 8ebd
000001b0: b010 a3bd 4966 183e 0e75 bfbc 7989 c73d
000001c0: 5927 793d d53a c33d 902d 2dbd da22 9a3c
000001d0: f46c cb3d f528 cfbc 29af 0f3e 8353 ee3d
000001e0: 968e ccbc fddb d23d e189 9aba 2626 893d
000001f0: 5c2e 273e da7d b8bc 1e23 4f3d 0881 c3bd
00000200: d956 6bbd cae8 97bc 62ad 023d 848b 6d3d
00000210: 7e93 e23d 0b81 023e b0d8 173d 4abf de3d
00000220: c7a1 833d 7839 8bbd b15e 793d c74c 9c3c
00000230: 3785 dabb dbd6 353d ad06 013e 6438 083e
00000240: ed5a 213e 8d28 b13c 5390 4b3d f424 9b3d
00000250: f26a 16bd f916 053e 2ceb 0d3e cdf0 0f3e
00000260: e438 28bd 6e8c 60bd 82ee dbbd 0918 b53d
00000270: c769 9e3d 293c a7bc a73b a53d b76c a7bc
00000280: a067 e53d 7420 52bd d656 263d 58ab e5bc
00000290: 1d96 ba3d d896 d7bc 5834 36bb f9ba 033b
000002a0: 8c66 21bc f828 a2bd 1c4b 43bc 996e 8c3d
000002b0: 0587 c13d 5d63 59bd 049d c3bc bbd0 1d3d
000002c0: 4d19 53bc e2fc 61bd 8861 613d 369e 6f3c
000002d0: 8c3c 2bbd 5d14 a0bc 4355 7d3d 8411 243d
000002e0: 58e0 843d da63 2d3c e1d4 6cbd 6054 bd3d
000002f0: e266 b53d bec0 993c 4cde 473d 8406 bfbd
00000300: 1ac7 70bd 0117 a63d c5ad 8d3b 99dd 6fbd
00000310: 5106 f8bc e68b 00bb c85e 24bb d7a2 88bd
00000320: 14f7 c43c 6f78 b53c 0caf 4dbd 9a43 dd3c
00000330: e0ce febc 7b7f 83bd db67 f13a 545b 843d
00000340: 9be6 1d3d 532e 29bd 774a e4bd ad8e d2ba
00000350: e1f3 833d 152d e33c 0646 dc3c a51f 66bd
00000360: 497c b7bc 383d 76bd c406 033c 7ac2 a53b
00000370: 2b27 90bd f336 d73d 268a a2bd f422 8e3d
00000380: 1578 cbbc 1f11 803d dcc9 d13d a0d2 8f3c
00000390: 1301 873a e70a 50bd 3486 d13c 5eee cb3d
000003a0: 2d80 a3bd f61b 58bd 9e1e 953c 7dfc a3bd
000003b0: 4f42 893d 9cf7 003d 0bf6 7a3c 46fe 913d
000003c0: 0508 823d 7dd3 61bc 9343 debc 93e3 ccbc
000003d0: bf68 19bc dc22 2a3d 1f98 603d 9c5f bbbd
000003e0: 454d e1bc 0150 87bd 2ae9 42bd 7dac a63d
000003f0: 85aa 7e3d 6789 dbbc e3e1 7d3d f2ca 8e3d
0.058302034 0.0037289686 0.16810264 0.14237323 0.10887145 -0.045240507 0.06963776 0.1443787
-0.08641529 -0.101957425 -0.014347003 0.10675851 -0.017176261 0.06621262 -0.08751164 0.057846952
0.085043974 -0.01988811 0.1532609 -0.056118995 0.10304917 0.2107274 0.106192775 0.20682873
0.10254688 0.13904509 0.05571785 0.08900018 0.335358 0.1716009 0.2910281 0.34403813
0.23350856 0.38438618 0.3448234 0.4126687 0.27381957 0.40004888 0.35726032 0.299475
0.23005734 0.2779515 0.2896273 0.2607972 0.36848688 0.40324473 0.42918646 0.40403324
0.24585405 0.37657073 0.3151371 0.2590413 0.14197378 0.09650038 0.15218294 0.25705105
0.23144956 0.29157224 0.22253627 0.06307819 0.21358423 0.082813784 0.2603979 0.23385437
0.22044903 0.20236458 0.12771782 0.18193728 0.117208555 0.28605807 0.099128015 0.24458788
0.21953392 0.21824443 0.10644312 0.29161564 0.10122234 0.25247246 0.1645511 0.24190105
0.19445373 0.099345885 0.15156503 0.20088905 0.063396566 0.14347473 0.017890507 0.1691663
0.078566864 0.07240372 0.19751239 0.03513265 0.19938856 0.050257582 0.20631406 0.12476554
0.05775365 0.12198285 0.082828924 0.19819638 0.116069615 0.11454866 0.16572647 -0.026563853
0.14913593 -0.02840776 0.026253399 -0.069433264 -0.07962167 0.14882769 -0.023371246 0.09743018
0.06082854 0.09532706 -0.04227978 0.018815447 0.099328905 -0.025288085 0.14031662 0.11637022
-0.024970334 0.10295866 -0.0011790359 0.06696729 0.16326278 -0.022520948 0.0505706 -0.09546095
-0.05745587 -0.01854362 0.031903632 0.05799438 0.11063288 0.12744538 0.037071884 0.10876329
0.06427341 -0.06798071 0.06088132 0.019079579 -0.0066687125 0.044394355 0.12600203 0.13302761
0.15757342 0.021625781 0.049698185 0.075754076 -0.036723085 0.12997045 0.13859242 0.14056702
-0.04106988 -0.054821424 -0.10738851 0.08842475 0.07735019 -0.020414429 0.080680184 -0.020437581
0.112014055 -0.05130048 0.040610157 -0.028035805 0.09110663 -0.026317045 -0.0027802195 0.0020100458
-0.009851109 -0.079179704 -0.011919763 0.06857032 0.09449581 -0.053073276 -0.023878582 0.03852914
-0.01288445 -0.05517281 0.055024654 0.014625123 -0.04180579 -0.01954096 0.06184889 0.040055767
0.06488103 0.0105828885 -0.057820205 0.09244609 0.08857514 0.018768664 0.048795983 -0.09327415
-0.058783628 0.081098564 0.0043236935 -0.05856094 -0.03027645 -0.0019614636 -0.0025080908 -0.06671684
0.024043597 0.022152154 -0.050215766 0.027009774 -0.031104505 -0.06420799 0.0018417792 0.06462732
0.03855 -0.041303944 -0.111470155 -0.0016064249 0.064430006 0.027731458 0.026888859 -0.056182522
-0.022398131 -0.060116976 0.0079972185 0.005058584 -0.07038721 0.105085276 -0.07936506 0.069402605
-0.024837533 0.062532656 0.1024358 0.017556489 0.0010300003 -0.050791647 0.025576688 0.09957574
-0.07983432 -0.05276104 0.018203076 -0.08007143 0.067021005 0.03148614 0.01531745 0.07128577
0.06349186 -0.013783333 -0.027131831 -0.02501086 -0.009363352 0.04153715 0.054832574 -0.091490954
-0.027502665 -0.066070564 -0.047585644 0.08138368 0.06217434 -0.026798917 0.061983 0.069723025

ln.weight f4 [64]
00000000: b74c b93f 572f c03f 1fbf c23f ced6 b63f
00000010: c656 bf3f eadb ba3f 7bf3 b53f aed6 c33f
00000020: f720 bb3f 96f9 bd3f 8d1e c13f 1776 c53f
00000030: b5fe b73f 44dc b23f 0345 cf3f 86e9 bc3f
00000040: b5e5 bd3f 383f b73f deea 9c3f 091f b93f
00000050: 806a bf3f d0b8 bd3f aaea bb3f e0cd b83f
00000060: d91b f03f 84ab c33f cc1d ce3f b155 bc3f
00000070: 7764 bf3f 56e6 bc3f a35d b73f e3ce d03f
00000080: 8362 0540 7721 c13f be1f bf3f 5443 ba3f
00000090: 3fc4 c03f 262b bc3f 9775 bd3f a7f3 c93f
000000a0: 5d92 bf3f e057 bd3f e698 ab3f 6469 bc3f
000000b0: f4f7 c13f e7e8 ba3f ddda af3f d827 c33f
000000c0: dea3 bc3f 5d9e bd3f 446a b53f eff8 c53f
000000d0: ff96 c63f 22bd c23f f46c bc3f deda bf3f
000000e0: 462c c13f c564 bc3f d01e c23f 9589 c43f
000000f0: 9829 e83f 72d9 bc3f 6e81 b83f e4e0 bd3f
1.4476537 1.5014447 1.5214576 1.4284303 1.4948356 1.4598362 1.4214929 1.529989
1.4619435 1.4841793 1.5087448 1.5426663 1.4374605 1.397347 1.6192936 1.4758766
1.4835726 1.4316168 1.2259176 1.4462596 1.4954376 1.4822025 1.4680989 1.4437828
1.8758498 1.5286717 1.6102843 1.4713651 1.4952534 1.4757793 1.4325451 1.6313137
2.0841377 1.5088338 1.4931562 1.4551797 1.505989 1.4700668 1.480151 1.5777482
1.4966542 1.4792442 1.3406036 1.4719663 1.5153794 1.4602326 1.3738667 1.5246534
1.4737508 1.4813954 1.4173055 1.5466594 1.551483 1.5213969 1.472075 1.4988668
1.5091636 1.4718252 1.5165653 1.5354487 1.8137693 1.4753859 1.4414499 1.4834256

ln.bias f4 [64]
00000000: 8bdb e53e 8d7d f33e 1fd0 063f dc29 e9be
00000010: 6fc1 ec3e f222 e0be ddbb e33e fb50 f1be
00000020: 8d36 f13e 27aa ebbe fb9e ee3e b05d fa3e
00000030: 6f75 ee3e 94ce e3be 2f42 e6be 834a f0be
00000040: ca5f ecbe bccf e23e a662 c7be a53f ef3e
00000050: c281 f8be 53b8 f0be 3d4e eb3e 091b f2be
00000060: 740e e1be 6f91 fc3e 5e8d ec3e ca3f eb3e
00000070: 82a3 ef3e 4bc1 eb3e d7ff d93e 35d0 ed3e
00000080: 5c16 fcbe f7ed fcbe 94a9 f0be 9aeb ea3e
00000090: 46ac ecbe df6b e8be 84cb f63e bc40 e43e
000000a0: a725 edbe 3f78 f73e e7f1 e8be ee78 e9be
000000b0: 432d e5be c880 e9be 6562 ec3e 57e2 f33e
000000c0: 0173 ee3e 9ae5 eebe 2f1d e43e 9d54 f5be
000000d0: b71f 00bf 1e37 f73e 79f9 ea3e cca0 f2be
000000e0: 87c3 f53e b7ec e7be a067 f23e a8dd f23e
000000f0: 3806 dd3e 1a65 f2be c6da e1be f386 f6be
0.4489406 0.47556725 0.5266132 -0.4553975 0.46241328 -0.4377666 0.44479266 -0.47132096
0.4711193 -0.46028253 0.46605667 0.48899603 0.4657397 -0.44493544 -0.4497237 -0.46931848
-0.4616683 0.44299114 -0.3894245 0.46728244 -0.48536497 -0.47015628 0.4595813 -0.4728625
-0.4395634 0.49329707 0.46201605 0.45947105 0.46804434 0.46045908 0.42578003 0.46447912
-0.4923581 -0.49400303 -0.47004378 0.45882875 -0.46225184 -0.453948 0.48202145 0.44580638
-0.4631779 0.48333928 -0.45497057 -0.45600075 -0.44761094 -0.45606065 0.4616882 0.4763362
0.46572116 -0.46659547 0.44553515 -0.47916117 -0.50048393 0.4828424 0.45893458 -0.47388303
0.48000738 -0.45297787 0.47344685 0.47434735 0.43168807 -0.4734276 -0.44112223 -0.48149833
