model.pth (torch, 121287 bytes, 6 tensors)

gru.weight_ih_l0 f4 [192, 3]
00000000: 205c 36bd 3a3a cf3d 8c0c 253d 3418 97bd
00000010: a414 65bd b0f6 323c 3062 693c 189d b9bc
00000020: 6a79 c7bd 0a3e fabd 4c8a 9fbd 9a19 b03d
00000030: e06e 653d ce7f de3d a6a3 b8bd 8ca1 f3bd
00000040: 5c5c b83d 96ae a23d 6436 883d 84b3 463d
00000050: dc1a b93d 0c11 28bd f09f 8a3d 723a 8f3d
00000060: 5a35 fa3d 8006 923d dab4 eebd 08e4 c7bc
00000070: 90e0 60bc 001b 1e3b 7cce 923d 84c0 f63d
00000080: 0098 7f39 187b 933d 3283 f1bd e8ec 2e3d
00000090: 8ead a1bd 1cd6 26bd 309a dabd d2d7 fcbd
000000a0: e0c6 f9bb e0b9 c4bd 08ea 48bd 36d2 933d
000000b0: 8080 c1bd 489d 733d 9c95 053d 6071 c73b
000000c0: c003 debc 8097 6a3b e8e5 a9bd 62d9 af3d
000000d0: 2c0d ed3d 441c dcbd 3af5 90bd 6087 0c3d
000000e0: 9c08 30bd 7416 053d f08b aabc 6280 93bd
000000f0: 4019 29bd c8f5 1cbd e0b0 bd3b 0004 973d
00000100: 9203 efbd c06d acbd 28b3 4dbd 0ab8 d03d
00000110: 48b8 0d3d e4ba fcbd 18ed 003d b0c1 e03d
00000120: dc66 023d e09f 963d 46dc 9f3d a2a4 ce3d
00000130: 101d dc3d 4027 0a3b fcde 9e3d 9a76 e13d
00000140: 0093 e6bb f653 973d 3834 5ebd 609e 3ebc
00000150: 4018 b2bb bea9 d1bd 0054 bbbc 385e 8fbd
00000160: 5c44 b63d 46ca 8d3d 78be 413d 2806 473d
00000170: 0272 b5bd f8a9 0d3d 5083 833d 024d d73d
00000180: 3055 083c 287c edbd 4e5d cc3d 54ea 91bd
00000190: c0ab dbbc 268d b0bd 606f 3f3c b472 67bd
000001a0: 78b2 993c 6ad4 89bd a863 aebd f0d7 f2bd
000001b0: c60c 89bd 20aa db3b 92f7 ac3d d888 04bd
000001c0: e0af fbbc 9092 bf3c e8f0 3bbd 4af5 cf3d
000001d0: 1c06 69bd 200e 3dbd 8876 c63d a834 f3bc
000001e0: aa02 94bd 6028 4dbd 409b 7e3d d045 aa3c
000001f0: 4c35 873d a0a8 9a3c a60f a1bd e4c0 62bd
00000200: 00dd 9e3d 6812 803c 1ea9 a33d e0c5 ca3d
00000210: c292 c53d 607d 923b aad0 e83d 0065 7d3a
00000220: f847 863c a08a 49bc 1851 cc3d eaf0 ae3d
00000230: c008 943d a8ca 2f3d 582e ff3c 9a7f d9bd
00000240: 80e9 9bbd f887 a43d 18ef 10bd 885e ca3c
00000250: 1261 923d ec51 2ebd 803c 8b3c 3011 e6bc
00000260: 6054 76bd 0ee3 cabd 9044 953d 00bb 243c
00000270: 58fb dabd cc79 49bd 16af c5bd fc1c d5bd
00000280: 6028 b53b 5cdd 493d 1aa5 93bd 8085 b4bc
00000290: 5057 b33c 480a ce3d f84a d33d 7cf1 8fbd
000002a0: 78f3 8d3c a256 a3bd 2abb c03d 9a16 f93d
000002b0: d271 c5bd 88dd b7bd 1040 e8bd c27e a13d
000002c0: 44df 81bd 2c3e dabd 78e3 283d ca30 ee3d
000002d0: f4ce a83d 2c59 2ebd b890 b33d a2a5 8dbd
000002e0: a064 87bc 1489 b7bd bca4 abbd bed7 d73d
000002f0: 80e9 90bc b031 91bc 022a 8e3d c0b6 29bc
00000300: 400a 583c 146e 9d3d 628f bfbd 58bb f9bd
00000310: 90a7 913c 24b8 b73d 6a26 aabd f432 173d
00000320: 5a32 d4bd 464a edbd 8470 3a3d dc1f a6bd
00000330: 492e 41bd 75b0 69bd 793d eb3b 208a a93d
00000340: 7ca2 afbd e8e5 aebd 150c 863d e6de ce3d
00000350: 2460 0b3c 406a 993c d02b c83d 589e f93d
00000360: ecda d73d 0046 c0bb e453 9e3d a0ca f9bb
00000370: fa3f 803d 9010 a43c 3cd5 f43d e8d9 f13c
00000380: 8049 8ebc 20c6 543d 3a3c 943d a21a b63d
00000390: 2009 833b 2aaf a1bd 1c14 cb3d feaa debd
000003a0: ba40 c83d 2e71 f73d 001a 9939 7246 b73d
000003b0: 3ef1 813d 0ea4 ebbd 0aa4 ef3d 82fe de3d
000003c0: 5e88 e33d 7791 853d ed3f cebb 7822 273d
000003d0: 4abb c8bd 3c14 5f3d 2e4a 9bbd d4d8 d1bd
000003e0: 7259 dbbd 023a fabd 481a 863c c692 8a3d
000003f0: b049 5f3b 59f1 94bd ff02 b1bb fcf2 233d
-0.04452145 0.10118528 0.04029517 -0.07377663 -0.055927888 0.010923073 0.014244601 -0.022657916
-0.09739955 -0.12218864 -0.0779005 0.08598633 0.05601394 0.108642206 -0.090155885 -0.11896047
0.09001991 0.07943456 0.06650999 0.048511043 0.09038326 -0.041031882 0.06768787 0.069935694
0.12217207 0.07130146 -0.116555884 -0.024400726 -0.013725415 0.002412498 0.0716829 0.12048438
0.0002437532 0.07201213 -0.11792602 0.0427064 -0.07894431 -0.040731534 -0.1067394 -0.12345852
-0.0076225847 -0.09605765 -0.049051315 0.07217829 -0.094483376 0.059476167 0.03261338 0.0060865134
-0.027101398 0.0035795867 -0.08295804 0.08586384 0.11574778 -0.10747579 -0.07078023 0.03430879
-0.04297696 0.032492116 -0.02081868 -0.072022215 -0.041283846 -0.038320333 0.0057889074 0.0737381
-0.11670603 -0.08419371 -0.050219685 0.10191353 0.034599572 -0.12340334 0.03147611 0.10974443
0.031836376 0.073547125 0.07805686 0.10089995 0.10747731 0.0021080524 0.07757375 0.110089496
-0.0070365667 0.07389061 -0.05424902 -0.011634439 -0.0054350197 -0.10237454 -0.022867203 -0.07000393
0.08899757 0.06923346 0.047300786 0.048589855 -0.08859636 0.034585923 0.0642153 0.10512735
0.0083210915 -0.115959466 0.09978734 -0.07124773 -0.026815295 -0.08620672 0.011684269 -0.056505874
0.018761858 -0.06729968 -0.08515102 -0.11857593 -0.066918895 0.00670363 0.08445658 -0.032357067
-0.030723512 0.023385316 -0.045884043 0.10154207 -0.056890592 -0.04615605 0.09690577 -0.029688194
-0.07227071 -0.050087333 0.062159777 0.020785242 0.066019624 0.018879235 -0.07864313 -0.055359736
0.07756996 0.015633777 0.07991241 0.09901023 0.096471325 0.0044705123 0.113679245 0.0009666234
0.01639174 -0.012301117 0.09976405 0.085420445 0.072282314 0.042917877 0.031150028 -0.10620041
-0.07612896 0.080337465 -0.035384268 0.02470328 0.07147421 -0.042558596 0.016996622 -0.028084368
-0.06013906 -0.099065885 0.07288468 0.01005435 -0.10692471 -0.04918842 -0.096525356 -0.10405919
0.0055284947 0.04928337 -0.07209225 -0.022036314 0.02189222 0.10060555 0.103170335 -0.07028481
0.017328009 -0.07975508 0.09410699 0.12162514 -0.0964085 -0.089778006 -0.11340344 0.07885505
-0.06341413 -0.106563896 0.041232556 0.116303995 0.08242598 -0.04256551 0.08767837 -0.069163576
-0.016527474 -0.089616925 -0.0838103 0.105391964 -0.017689466 -0.017723888 0.06941606 -0.010358512
0.013186038 0.07687011 -0.0935352 -0.12193936 0.017780095 0.08970669 -0.08308108 0.036913827
-0.10361166 -0.11586432 0.04551746 -0.081115454 -0.04716328 -0.05705305 0.007178959 0.082782984
-0.08575913 -0.08539945 0.06545273 0.10101108 0.008506808 0.018727422 0.097739816 0.12188405
0.10539803 -0.0058677197 0.077308446 -0.0076230317 0.062622026 0.020027429 0.11954734 0.029522851
-0.017369032 0.05194676 0.0723805 0.088917986 0.0039988905 -0.07894738 0.09915945 -0.10872458
0.097779706 0.12082134 0.00029201806 0.08948983 0.063448414 -0.115059 0.1170121 0.10888387
0.11109994 0.06521886 -0.0062942416 0.040804356 -0.098013476 0.054462656 -0.07582508 -0.10246435
-0.1071042 -0.12218095 0.016369954 0.06766276 0.003407102 -0.07272596 -0.0054019685 0.04002665

gru.weight_hh_l0 f4 [192, 64]
00000000: 341e 3a3d 4496 053d 5cb1 70bd a6e1 a83d
00000010: 5aad febd 1439 a5bd 2038 c33c 4080 423d
00000020: bc8e d9bd 42f6 b83d 4e9a 903d d8bd 8f3d
00000030: f09b 9d3d e0bc 903d be37 b4bd 9efa f4bd
00000040: c094 103c 6ad6 a9bd 24d0 21bd dc99 c53d
00000050: f0a6 70bc 6417 8e3d e0f5 953c ca47 ecbd
00000060: 0000 a834 1033 603d 5268 f83d 04bf 8a3d
00000070: 6029 fdbc 0886 a4bd 8651 fc3d bc8b 62bd
00000080: 3e9b a93d 482c ec3c 10c4 763c 308b 503d
00000090: 74d1 72bd 400e 5a3c bc45 abbd 38de 33bd
000000a0: 785f b0bc 600b d93d 6c3e 65bd 2069 cfbd
000000b0: 20d9 ca3d 56fc f1bd 7c19 2abd ce5f 8c3d
000000c0: a0a1 23bd a2ac e2bd 8c7d f83d d07b d23c
000000d0: 2ef9 9f3d 2460 ecbd 3c09 293d f4e3 193d
000000e0: 1094 b23d 32c8 f83d 5027 cc3c ee64 de3d
000000f0: 3811 4abd 9842 dbbd eed8 a63d 58ff e9bd
00000100: ec3b e63d 6676 8cbd 106a b13c 2cbb 79bd
00000110: 9619 c63d 7c4f 423d d85f e1bc aaaf c7bd
00000120: 588f f33d f86f bb3d 64f7 a7bd 4087 c1bc
00000130: 9a7d f9bd f0bb 50bd 0408 683d 4e9d 89bd
00000140: fe0d b8bd 7026 70bc 00fe 64ba 8c85 723d
00000150: 5616 ae3d cea9 babd 8a9a 9e3d c02d 9b3c
00000160: 9687 f83d 7801 9a3c 5024 443c 0897 debc
00000170: f446 e03d 800d fd3b 4444 adbd 48cc 273d
00000180: b89a a23d bcad 1abd 5003 47bc dca5 d1bd
00000190: 7063 c93d c882 dc3d 4cd5 19bd 1850 073d
000001a0: b8d1 4c3d e0e4 f0bc ec01 7ebd bcf2 9b3d
000001b0: 4466 f53d d25c 943d 1096 d83d 0c6a 923d
000001c0: 54ce 25bd 408e 363c d409 d03d 60fe c63d
000001d0: 40b7 8f3b 2c15 ecbd b837 31bd c020 05bc
000001e0: 42d8 813d 1c59 723d ec0b 293d 3441 713d
000001f0: 7482 d93d 681b 033d 6811 8abc e495 343d
00000200: 2cd4 6c3d 9876 90bd aab0 babd e25b dd3d
00000210: 6cb0 073d 1047 2ebc b0da a03d 0284 e23d
00000220: 84ba ef3d 7081 cf3d f493 8c3d 10b3 6b3c
00000230: 40e5 2bbb 46e1 803d 105e f43d 56a5 d0bd
00000240: 10d4 9c3c 502d fabc d0fe 10bc ec28 d1bd
00000250: e8d8 edbc 005d 97bc a47f 923d b264 a03d
00000260: 80b5 3c3b d836 8c3d 4836 c0bc b09a ddbd
00000270: 8c8e 283d ae3e 9d3d 688b 123d 0c66 0dbd
00000280: d8bb 8cbc 58c2 84bc e6c9 9fbd 3edf 8cbd
00000290: 7af6 f23d 0247 d03d 4092 7d3d 14b1 97bd
000002a0: 8655 9c3d 00fd 85bc d877 40bd 107d 3d3d
000002b0: c445 0c3d 58af 6cbd 50dd 173c 30e1 343c
000002c0: 023c 983d 2ae5 f1bd a04a ea3c 18bd 873c
000002d0: e092 f33d ca4f d63d 8088 d13c bc30 dcbd
000002e0: 1857 74bd 64bc 7e3d 785d be3c 848e 963d
000002f0: c03a 82bc 08b8 1dbd 3cbd e63d 3850 6cbd
00000300: 8c9c 86bd 405f 9cbb 5488 e73d b49d 003d
00000310: 2a40 85bd 80ec 40bb 8078 983d 6c38 3abd
00000320: f0c1 a53d b497 793d 68f1 f1bc 6000 b13c
00000330: ace7 6abd 84d4 3b3d 8e44 db3d a8e8 eabc
00000340: 703c 27bd 747e 13bd 007c d3b9 9496 a53d
00000350: c06e 6fbd 74a4 f03d 502c 90bc d804 9a3d
00000360: 6e62 c4bd 6869 8ebc b484 9ebd 8486 2d3d
00000370: 4059 a73c 1aaf 97bd 3435 b83d 609c d1bd
00000380: 4046 733c 98da fabc aca1 fbbd 008c b23b
00000390: bcf2 7b3d a080 a8bb 00c9 14bd 4070 06bc
000003a0: b081 17bd ce0e cebd 2a9f d83d 70c4 eebc
000003b0: 9e21 8d3d 5082 fd3c c001 2bbc c000 4dbc
000003c0: ccc2 d9bd 7801 f63d d8ed 4d3d 503d c53c
000003d0: 8046 41bd 306e 15bd 5ac8 cebd 76dc aebd
000003e0: a0a1 9b3b 00bd 193b 9206 a7bd 2ad7 8d3d
000003f0: 1a06 90bd 74f1 e7bd 7029 dd3c 2e66 b73d
0.04543896 0.032614008 -0.058762893 0.08246164 -0.12435408 -0.080675274 0.023830473 0.04748559
-0.106229275 0.09031345 0.07060681 0.07018632 0.07695758 0.07067275 -0.087996945 -0.11961864
0.008824527 -0.08292849 -0.03950514 0.09648487 -0.0146882385 0.06938055 0.018305719 -0.1153713
3.1292439e-07 0.054736197 0.121292725 0.067747146 -0.030903518 -0.08033377 0.12320237 -0.055309042
0.08281563 0.028829709 0.015061393 0.05091399 -0.05928178 0.0133090615 -0.0836291 -0.043913096
-0.021529898 0.10597873 -0.055967733 -0.10127473 0.099046946 -0.118157074 -0.04152821 0.06854211
-0.03994906 -0.11068083 0.12133321 0.025693804 0.07811199 -0.11541775 0.041268572 0.03757091
0.08719647 0.12147559 0.02492109 0.108590946 -0.049332827 -0.10706061 0.08146845 -0.11425656
0.11241898 -0.0685852 0.02165702 -0.060969517 0.09672849 0.047439083 -0.027511522 -0.09750302
0.11892575 0.09152216 -0.08201483 -0.023624063 -0.1218216 -0.05096048 0.05664827 -0.067194566
-0.08987044 -0.014657602 -0.0008735359 0.05920939 0.08500354 -0.09114419 0.0774432 0.018942714
0.12135236 0.018799528 0.011971548 -0.027171627 0.10951033 0.0077225566 -0.08460286 0.040966302
0.079396665 -0.037763342 -0.012146786 -0.10236713 0.09833419 0.10767132 -0.03755693 0.033035368
0.05000469 -0.029406011 -0.06201355 0.07614657 0.11982396 0.072442666 0.10575497 0.07149133
-0.040479973 0.0111423135 0.101581246 0.09716487 0.004385859 -0.11527476 -0.04326603 -0.008125484
0.06340076 0.059167013 0.041271135 0.058900073 0.10620585 0.03200856 -0.016854003 0.04408826
0.05781953 -0.0705387 -0.09115727 0.10808541 0.033127233 -0.01063706 0.07854211 0.11060335
0.11705497 0.1013211 0.06864157 0.014385954 -0.0026229173 0.062929675 0.119320035 -0.10187785
0.019144088 -0.030539185 -0.0088498145 -0.10212883 -0.029034093 -0.018476963 0.07153252 0.07831706
0.0028794706 0.06846398 -0.023463383 -0.1082052 0.04115157 0.07677971 0.03577748 -0.034521148
-0.017179415 -0.016205952 -0.07802181 -0.068785176 0.11863418 0.10169794 0.061907053 -0.07406822
0.076335 -0.016355991 -0.046989292 0.046261847 0.03424622 -0.05778441 0.009269074 0.011040017
0.074333206 -0.11811288 0.028600037 0.01656966 0.118932486 0.10464437 0.025577784 -0.10751483
-0.05965337 0.062191382 0.023237929 0.073514014 -0.015897155 -0.038505584 0.11266562 -0.05769369
-0.06572828 -0.004772097 0.113052994 0.031400397 -0.06506379 -0.002943784 0.074448586 -0.045463964
0.08093631 0.06093569 -0.029534057 0.021606624 -0.057349846 0.045856968 0.10706435 -0.028675392
-0.040829122 -0.036009267 -0.00040337443 0.08085361 -0.05845523 0.11750117 -0.017599255 0.07520455
-0.095890865 -0.017384246 -0.07740155 0.042364612 0.0204283 -0.07406445 0.08994523 -0.10234904
0.014848292 -0.030621812 -0.12286696 0.005448818 0.061510786 -0.0051422864 -0.0363245 -0.008205473
-0.036988914 -0.100614175 0.10577233 -0.029146403 0.068911776 0.030945927 -0.010437429 -0.012512386
-0.10632858 0.12011999 0.050275654 0.024077088 -0.047186375 -0.036482036 -0.10096808 -0.08538143
0.004749492 0.00234586 -0.0815555 0.06925805 -0.07032414 -0.113253504 0.026997298 0.08955036

gru.bias_ih_l0 f4 [192]
00000000: 002f 55ba c403 d1bd c09f 4d3d 8261 c23d
00000010: c8a8 fe3d a0b6 b5bc 4a93 8e3d 642a 563d
00000020: 106c babd 98ee 8ebc 682c b5bc 8cca 7b3d
00000030: 5c84 62bd 66b7 82bd 1c33 523d 3208 ffbd
00000040: 2280 c6bd 40c3 03bc fc84 2f3d d0ec 9abd
00000050: 70cf 6a3d b8a6 b2bd 1ed1 82bd b0de 06bc
00000060: 74af 273d b002 fd3d 7c6c a43d e857 9b3c
00000070: 3eda a0bd 000e b83b 6cee 023d 02b5 9f3d
00000080: e0fc d73c 4c83 2dbd 9cf3 903d ca15 9a3d
00000090: 00f4 b3bb 749b 17bd 9096 2fbd fc6c b1bd
000000a0: 00d7 203c 2c2c 11bd f8db 47bd f4bb e8bd
000000b0: 64b0 19bd 3cd3 b23d 4ee7 c0bd 80a9 89bd
000000c0: 487a e5bd 4491 d7bd 6089 e23c 0030 21bd
000000d0: c8a7 97bd 3a54 803d 224c ac3d a093 fdbc
000000e0: 183e 813c 6267 8e3d f896 d2bd 2a06 bfbd
000000f0: c2a7 eebd 4086 01bc 28c3 aebd 82d4 b63d
00000100: 5cd3 953d 40dd d6bd 483d 8b3c c800 993d
00000110: cd48 f33d c689 a83d 6920 993d 12cf a93d
00000120: c601 f3bd 08a3 683d c06d b83c 2a6f ebbd
00000130: a4d8 c2bd 90c0 ac3c a8a9 313d 686a 03bd
00000140: 459b 02be 8000 473c 9045 8b3d a28d bc3d
00000150: 0d14 d33d be41 82bd f885 d0bc 0466 36bd
00000160: 125b 853d 74cb 90bd b2da af3d 602a b43b
00000170: f805 c3bd 64da d13d 1019 f23d 00d5 db3b
00000180: d823 ee3c 3a23 db3d 18d1 0c3d 4442 e2bd
00000190: 5b17 14bc 388e 3ebd ccb0 a5bd d609 b5bd
000001a0: 8888 23bd bcc5 a0bd 729f f6bd bc74 29bd
000001b0: cae9 f9bd 482b 35bd 6eb6 913d e0de e3bb
000001c0: f4ff a1bd 40b0 ebbd 6a11 fabd 7cc5 e93d
000001d0: ee9d 8a3d b0aa eebc 802a a5bb d84f ea3c
000001e0: f050 923d 4c27 883d 36da ff3d f02a d63d
000001f0: 02bd 98bd c8a0 d5bd 84de 643d ac0d 8bbd
00000200: 48c6 a1bd d023 d13d 4c3a 4b3d 5ec7 99bd
00000210: 405d 373c 8479 b2bd ce6f d23d d6a9 c53d
00000220: 407f d7bc 7a09 e83d e8c0 fdbc b0ab 62bc
00000230: 72a8 fb3d b0a7 0c3c 7249 d9bd f0c8 213d
00000240: 321d a13d a820 cbbd 7a0b d23d c050 d8bb
00000250: e044 ffbb b2aa 8d3d e871 fabc 8640 f63d
00000260: e467 8f3d e83c 8d3c 40df bbbb c835 423d
00000270: 289a fd3c 8c48 6b3d 9071 54bc d82e bf3c
00000280: a087 3fbd f601 db3d d4e2 c53d c0af c9bb
00000290: 9615 b33d f0f1 32bd fa71 c23d 5c74 a9bd
000002a0: e052 42bd 929c b73d 02a1 f23d 1ad1 f43d
000002b0: f098 373d 208a 29bc f0cf eabd 9c0b 8dbd
000002c0: 007d 56bd 800e f9bd 0056 3bbd 10c2 6b3c
000002d0: 9e16 8d3d d0ad ec3d 1827 1dbd 5000 fe3d
000002e0: 5012 d2bd acd8 dd3d e051 75bc 28e1 82bc
000002f0: b009 fcbc 80ab 5a3b 20f6 55bd b2f1 c73d
-0.0008132309 -0.10205796 0.050201178 0.094912544 0.12434536 -0.022181809 0.06961687 0.05228652
-0.091026425 -0.017447755 -0.022115901 0.06147246 -0.05530201 -0.06382637 0.051318273 -0.12452735
-0.09692408 -0.008042157 0.042851433 -0.075647 0.057326734 -0.08723205 -0.06387542 -0.008231804
0.04093881 0.12354028 0.08028504 0.018962815 -0.078541264 0.0056169033 0.031965658 0.077981964
0.026365697 -0.042361543 0.07077715 0.07523687 -0.0054917336 -0.037013486 -0.042868197 -0.08663365
0.009816885 -0.035442516 -0.048793763 -0.11363974 -0.037521735 0.08731696 -0.09419118 -0.06721783
-0.11204964 -0.10525754 0.027653396 -0.039352417 -0.074050486 0.06266065 0.08412959 -0.030954182
0.015776679 0.069533125 -0.10282701 -0.093273476 -0.11653091 -0.007905543 -0.08533317 0.089272514
0.07315704 -0.10491419 0.016996995 0.07470852 0.1187912 0.08229403 0.07476885 0.08291449
-0.11865573 0.056796104 0.02251327 -0.11495812 -0.09513977 0.021087915 0.043374687 -0.0320839
-0.12754543 0.012146115 0.06800377 0.09206702 0.10306559 -0.063601956 -0.025454506 -0.044530883
0.06511511 -0.070700556 0.08586635 0.0054982156 -0.09522623 0.10246733 0.118211865 0.006708741
0.029069826 0.10700078 0.034379095 -0.110477954 -0.0090387715 -0.04652235 -0.08090362 -0.08839767
-0.03992513 -0.07850215 -0.120421305 -0.041371092 -0.12202795 -0.04423073 0.07114874 -0.006954059
-0.07910147 -0.115082264 -0.12210353 0.1141462 0.06768404 -0.029134125 -0.005040467 0.028602526
0.07144344 0.0664812 0.12492792 0.104574084 -0.074579254 -0.10431057 0.05587627 -0.06789717
-0.07899147 0.10211909 0.049616143 -0.075087294 0.011191666 -0.087145835 0.10275231 0.09651534
-0.026305795 0.113299325 -0.030975774 -0.013834879 0.12287988 0.008584902 -0.10609712 0.03949827
0.07866897 -0.09918338 0.10256095 -0.006601423 -0.007790193 0.06917323 -0.030571893 0.120240256
0.070022374 0.017240956 -0.0057334006 0.04741457 0.030957296 0.057442233 -0.012966529 0.023337767
-0.0467602 0.106937334 0.09662405 -0.0061549842 0.087443516 -0.04368776 0.094943956 -0.08274147
-0.047442317 0.0896541 0.11847116 0.119539455 0.044823587 -0.010347873 -0.11465442 -0.0688698
-0.052365303 -0.12160969 -0.045736313 0.01438953 0.068890795 0.115565896 -0.03836736 0.12402403
-0.10257399 0.108323425 -0.014973134 -0.015976503 -0.030766338 0.0033366382 -0.052236676 0.097628966

gru.bias_hh_l0 f4 [192]
00000000: 04f0 52bd 400f 323c 9e1b 96bd ccc6 abbd
00000010: b481 1a3d 9482 d43d eaaa f6bd 5cfa 15bd
00000020: 4006 25bc 0021 29bb d88a e8bd d88c 813c
00000030: b20f 883d 9033 cb3c 1af0 90bd 3c9c f93d
00000040: 300c 713d ecc2 7cbd 40b1 a9bd 983f ff3c
00000050: 40d8 ff3d cc4c a0bd 4866 bcbc 283e 99bd
00000060: bc2c 513d 2ca3 14bd 02f2 d3bd 102d 36bc
00000070: 9e75 dabd e0e0 0abc f0f2 9f3d 48c4 0fbd
00000080: 5441 253d 38a0 8a3c f8bd 293d b8e9 dbbc
00000090: 84cc 7fbd 3cfa 62bd f041 6e3c d01b 67bc
000000a0: 026c a33d 6c94 b53d 7622 f53d ceca c9bd
000000b0: 88d6 713d b410 85bd 7ced aa3d 1898 a3bc
000000c0: 80a9 1bbb 80b7 ce3d 6c8b db3d 6ce5 28bd
000000d0: fe3f c4bd daae d03d b0cd 833d 4a19 d53d
000000e0: c0a5 4abd e0df c73d 1a69 883d 0ca7 b13d
000000f0: 10ef aebd ecef f4bd 524e eebd 60f4 20bd
00000100: 00ac 2139 e6c6 ebbd 5210 843d 80c4 023b
00000110: 6b92 3e3c 8035 e2bb 34cb 2fba 2aa0 90bd
00000120: fea6 edbd 04f4 583d b27a dd3d aa1d 9c3d
00000130: 2042 c93c 2c19 bb3d b85e 59bd 4262 b9bd
00000140: 2f08 6c3d e232 9dbd c2a8 9d3d 9027 83bc
00000150: 7d8c 793d ea20 87bd ceab e5bd 2eaf d4bd
00000160: 009c 8eba 604c 23bc 1a76 edbd 4c60 8bbd
00000170: 72df 943d 7894 f93c 60ef 113d 6cb3 4c3d
00000180: d8b0 83bd a8e1 8f3c f691 d0bd 766b f7bd
00000190: 737f 043c cc8c ca3d 00c0 a0b8 b8fe 00bd
000001a0: 20cb ef3c 6031 dabb 80ec 41bd 90b4 0abd
000001b0: 3e0d eebd b471 e13d 4cc6 753d e005 c4bd
000001c0: 6026 11bc 7042 76bd e262 8cbd 56f8 a53d
000001d0: 58af bfbc b045 25bd 6049 66bd d823 e53c
000001e0: 10e5 e9bc a447 c63d 7608 dabd 2e43 ccbd
000001f0: 6c53 93bd 480f bbbd 3a23 ab3d 9a28 c6bd
00000200: ba1e c1bd ba31 fc3d dcf8 463d ce8a c7bd
00000210: 008f f73b 188d 82bd 6833 f0bd 8ca4 08bd
00000220: 944d 56bd 3804 9a3c a06f 6b3c e0c8 ea3c
00000230: b64a e53d 64da 8ebd 4005 c13c 6af4 923d
00000240: 0afc b83d 0280 a23d 42f2 f53d 707b 1abc
00000250: 325f adbd 92a8 e53d 4270 fa3d e6c4 9f3d
00000260: b0c8 39bc 40b0 97bc 8a03 abbd 2c1e 2a3d
00000270: f844 973d 6017 833b d8de e13d 5eb2 84bd
00000280: 8851 fbbd 2076 e33c 704a c53d 9436 943d
00000290: d0fe f6bd 54d5 1cbd b474 d4bd d4d9 ff3d
000002a0: 7c56 f23d f80e 393d ccab 283d e835 a83d
000002b0: 2039 67bd 78b5 933d a291 b73d 1cde edbd
000002c0: a401 4dbd 0a36 c63d 8c4d 4fbd 5ce0 5ebd
000002d0: 6445 6b3d 70fd 203c 4cb7 5e3d 647d c6bd
000002e0: 74c2 efbd b2c6 8c3d d082 0ebc 04c1 9fbd
000002f0: 562c afbd 809a 303d 584f 893d 0e0b f3bd
-0.051498428 0.010867894 -0.07329486 -0.08387527 0.03772135 0.10376468 -0.12044318 -0.036615714
-0.010072291 -0.0025807023 -0.11354607 0.01581423 0.06643619 0.02480486 -0.07077046 0.121880025
0.058849514 -0.06170933 -0.08285761 0.031158254 0.12492418 -0.07827148 -0.02299799 -0.074825585
0.051068053 -0.036288425 -0.10348894 -0.011119142 -0.10666965 -0.008476466 0.078100085 -0.035099298
0.040345505 0.016922101 0.041440934 -0.026844844 -0.0624509 -0.055414423 0.014542088 -0.014105752
0.07979585 0.088662 0.119694635 -0.09853135 0.059042484 -0.064973265 0.08346078 -0.019969985
-0.0023752153 0.100935936 0.10719952 -0.04123442 -0.09582518 0.101896 0.06435716 0.10405214
-0.049474478 0.09759498 0.066606715 0.0867444 -0.08541691 -0.11959824 -0.11636032 -0.039295554
0.00015418231 -0.11512546 0.06448425 0.001995355 0.011631588 -0.0069033504 -0.0006706 -0.07061799
-0.11604117 0.052967086 0.10814418 0.076228455 0.024567664 0.091356605 -0.053068846 -0.09051944
0.057624992 -0.07675721 0.076982036 -0.016010076 0.060924996 -0.06598075 -0.1121441 -0.103849754
-0.0010880232 -0.00996694 -0.11594792 -0.068054765 0.07269181 0.030466303 0.035628676 0.049975798
-0.06430215 0.017563656 -0.1018409 -0.120810434 0.008087027 0.09890136 -7.665157e-05 -0.03149292
0.029271662 -0.006658718 -0.047344685 -0.033863604 -0.116236195 0.11008015 0.060003564 -0.09571433
-0.008859247 -0.060121953 -0.06854798 0.08104007 -0.02339904 -0.040349662 -0.05622232 0.027971193
-0.028551608 0.09681633 -0.10646145 -0.09973751 -0.07193646 -0.09133774 0.08356328 -0.09675713
-0.09429689 0.12314172 0.048577175 -0.09743272 0.0075548887 -0.06374568 -0.11728555 -0.03336005
-0.052320078 0.01880084 0.014369875 0.028660238 0.111958906 -0.069752485 0.023562074 0.071755245
0.09032448 0.07934572 0.12009098 -0.009428844 -0.08465423 0.11213793 0.12228443 0.07801227
-0.011339352 -0.01851666 -0.083502844 0.04153268 0.073862016 0.0040005893 0.11028832 -0.06479333
-0.1227141 0.027766287 0.096333385 0.072369725 -0.120603204 -0.038289383 -0.10373822 0.12492719
0.11832902 0.04518029 0.041179463 0.08213407 -0.056450963 0.07212347 0.08963324 -0.116146296
-0.050050393 0.09678276 -0.050611064 -0.054413185 0.057439223 0.009826049 0.054374024 -0.09691885
-0.11707011 0.068738356 -0.00869818 -0.07800487 -0.08553378 0.043116093 0.06704587 -0.11867343

fc.weight f4 [256, 64]
00000000: 1196 b83d a0a7 cbbd 239e 8a3d 43cd c53d
00000010: afb9 c4bd b53b ddbd 359e ac3d bc1b 40bd
00000020: 7467 b8bd 0003 58bc c3c1 cebd 009f 213c
00000030: d863 84bd 666f bf3d 88ff 63bd 56fd c9bd
00000040: a0a1 9b3b 720f db3d c61d 81bd fcfb 7f3d
00000050: 32a6 b53c 6016 f8bb 5fe5 a5bd c01a 3a3c
00000060: 2c52 2ebd 60bd 8fbb 784f 5e3d 8d48 37bb
00000070: 9f83 e7bd 7e7c f13d 0f12 a1bd 7d13 983d
00000080: 4408 12bd df16 e53d a02c 17bc 4af8 b93b
00000090: d8b6 203d 80a1 db3d 9be3 ba3d c0be 983d
000000a0: 080c 473d c45c 513d 90ed 933d 987e 30bd
000000b0: aa17 ebbc b0be cf3d 03bc d3bd 0cd1 fb3c
000000c0: 9bb3 943d 54ee 6b3d e3c1 cc3d 55ca d13d
000000d0: 1b14 f9bc 8817 5dbd 90fb 27bc 30f9 2c3d
000000e0: ed90 d8bd cc43 2e3c c0ba fe3b 38b6 973d
000000f0: 776b f4bd 55d7 da3d e764 9d3d 8090 9e3d
00000100: 29de dd3c 8066 8e3d 5608 ccbd a033 c73d
00000110: 898f e3bd 2122 efbc 40e5 91bd 50c9 afbc
00000120: c428 0e3d 84eb 1dbd 51b8 5a3d 6c66 cebd
00000130: 14ee 05bd 4096 51bb 6a48 993d c8c1 4c3d
00000140: d022 bd3d 7a8f cabd a4b8 963d 081c cdbc
00000150: ba4a 14bd 00d6 c2bb 910f ed3c b437 cfbd
00000160: b809 c3bd 3099 69bd cf3d 043e 534b 113d
00000170: c812 a9bd aa59 c2bd 328c 88bd 603e 1bba
00000180: a2d7 f93d 2459 89bd 9861 e1bd 9874 a93d
00000190: ce49 f93c 9c0c f1bd bfd1 1dbd 402b 05bc
000001a0: 9a97 bb3d 106b c7bd c02a efbb 1647 35bc
000001b0: a80c 333c c080 c83b 3ef8 df3d 022a e43d
000001c0: 1c9f c13d f8b4 d6bc b743 373d 9329 26bc
000001d0: 1a23 8f3d 2ef1 d73d 9c7a 443d 4a58 673c
000001e0: 3484 8e3d 28c0 0ebc 94f5 693d 8cd0 9c3d
000001f0: 23dc 303d e67e 893d 8bc0 0dbd 20bc 21bc
00000200: 30ce d3bd 2443 4d3d 32c8 cebd 5714 21bc
00000210: aac2 6ebb 3cd8 42bd 57b0 46bc c0c3 993b
00000220: 64be 853d 94c4 d3bd 124c cabd 06f4 ed3d
00000230: 60a9 81bb 705a d23c 0834 38bd f48a db3d
00000240: df0c 2a3c 5082 3f3c c8d5 54bd 68d1 d93c
00000250: ddcc 74bd dcb2 4f3d d207 f4bd 40e9 65bd
00000260: b88b f43c 8c73 29bd 8821 b53d 8f0b 83bd
00000270: 01ca 843d 088b f4bd 66f1 99bd 583b 19bd
00000280: c8be 0ebd b540 7fbd 4667 d23d 50db ac3d
00000290: 9885 073d 34e5 c33d e8d3 99bd 2019 ab3c
000002a0: f708 efbc 6884 803c 0269 9cbd 9c33 383d
000002b0: 816f 9b3b 001e 0abc a868 2b3d ec2f dd3d
000002c0: 8878 afbd 8c30 bebd daf3 d7bd 1e84 4c3d
000002d0: c93d 49bc 3a0b d63d 6078 073c c88d 10bd
000002e0: a865 723d 2c72 9cbd 6645 a33d 40da a93d
000002f0: d4da 6b3d 67b2 0fbc f92f 9cbc 40ca 5c3d
00000300: a612 abbd 486d debc 1e84 a0bd 780d 79bd
00000310: 0742 47bb 4fb5 8a3a 366b 503d 66df a93d
00000320: 4046 2cbd 768b 973d ec1b e03d 008e 97bb
00000330: c87e fdbc d88b bebd c2f8 d0bd 003d 1cbd
00000340: 4405 e2bd d6c5 923d accc c3bd d08d 803d
00000350: e77e d4bd 4865 d53c 2e66 b9bd 58d9 c13d
00000360: 6053 fcbb 3ccd 193d 80c6 ea3d f442 c53c
00000370: 7abb d1bd b0c8 9dbd 2e85 e1bd 339c 6c3c
00000380: 8015 2d3d 09fa 22bc 10ce c33d 3898 dfbd
00000390: 7992 6bbc 6846 c43d 967e a13d 1431 99bd
000003a0: f8a6 d7bd 3a66 efbc 3880 dabc 525b a83d
000003b0: 785b 18bd 407f 72bb 16a9 cf3d 3a9b f33d
000003c0: 3cad 9c3c 8459 103d 6f76 e5bb 671f 2b3d
000003d0: dc61 d33c 0305 ae3b acff ab3d ad06 3d3c
000003e0: 80d2 423d c90a 6a3c a298 cb3d f0c5 66bd
000003f0: 016e 623c 6516 663b 5a85 dbbd 08d9 ebbd
0.09012998 -0.09944081 0.067684434 0.09658291 -0.09605729 -0.10802404 0.08428613 -0.04690145
-0.09004107 -0.013184309 -0.10095551 0.009864569 -0.06464356 0.093474194 -0.055663615 -0.09862773
0.004749492 0.10696305 -0.06304507 0.06249617 0.022173975 -0.0075710267 -0.0810039 0.011358917
-0.042558834 -0.004386589 0.054275006 -0.0027966828 -0.113044016 0.11791323 -0.078647725 0.07425592
-0.035652414 0.11186003 -0.009226948 0.0056753503 0.039236873 0.10724163 0.091254435 0.07458258
0.04859546 0.05111386 0.07223046 -0.04308948 -0.028697807 0.10143793 -0.10338595 0.03073933
0.072608195 0.057600334 0.099979185 0.1024367 -0.030405095 -0.05397752 -0.010252848 0.04222983
-0.105745174 0.010636281 0.007773727 0.07407802 -0.1193456 0.106856026 0.07685261 0.07742405
0.027083473 0.06953144 -0.099625275 0.097266436 -0.111113615 -0.029191079 -0.07123804 -0.021458298
0.034706846 -0.038554683 0.053398434 -0.10078129 -0.032697752 -0.0031980425 0.07484515 0.04998949
0.092351556 -0.09890647 0.07359436 -0.02503778 -0.036204077 -0.005945921 0.028938087 -0.101180464
-0.09523338 -0.057030857 0.12914203 0.035472225 -0.08255535 -0.09489758 -0.06667365 -0.00059220754
0.12199332 -0.06706455 -0.11004943 0.082741916 0.0304307 -0.11769983 -0.038530108 -0.008127987
0.09159775 -0.097372174 -0.0072987974 -0.0110643115 0.01092831 0.006118864 0.1093602 0.11140825
0.09454176 -0.02620934 0.044742312 -0.010141748 0.06989117 0.10544048 0.047968492 0.014120171
0.069588095 -0.008712806 0.057118967 0.07656965 0.04317869 0.06713657 -0.03460745 -0.009871513
-0.103420615 0.05011286 -0.10096778 -0.00983151 -0.0036431947 -0.0475695 -0.012127004 0.0046925247
0.06530455 -0.10340229 -0.098777905 0.116188094 -0.0039569587 0.02567789 -0.044971496 0.107198626
0.010379045 0.011688784 -0.05196169 0.02658911 -0.059765685 0.050707683 -0.11915554 -0.056130648
0.02985178 -0.04136996 0.08844286 -0.06398689 0.06483842 -0.119405806 -0.07516746 -0.03741011
-0.034849912 -0.06231757 0.10273604 0.08440268 0.03308639 0.095652014 -0.07511121 0.020886004
-0.02917908 0.015688136 -0.07637216 0.044971094 0.004743517 -0.008430004 0.041847855 0.10800156
-0.085679114 -0.09286603 -0.10544558 0.049930684 -0.012282797 0.1045136 0.008268446 -0.035291463
0.05917898 -0.07638964 0.07972221 0.08293581 0.057581738 -0.008770562 -0.019065844 0.053903818
-0.08353166 -0.027151719 -0.07837699 -0.06080386 -0.0030404346 0.0010582599 0.050883494 0.08294563
-0.042059183 0.07399647 0.10942826 -0.004625082 -0.030944243 -0.09304017 -0.10203697 -0.03814411
-0.110361606 0.071666405 -0.095605224 0.062770486 -0.10375767 0.026049271 -0.09052692 0.09465283
-0.0077003688 0.037549242 0.11463642 0.024079777 -0.102408364 -0.07704294 -0.1101173 0.014441538
0.042256832 -0.009947308 0.09560788 -0.10917705 -0.0143781835 0.095837414 0.078854725 -0.07480064
-0.10529894 -0.02922355 -0.026672468 0.08220543 -0.037196606 -0.0037002116 0.101396725 0.118948415
0.019125573 0.03524162 -0.007002644 0.041777994 0.025803499 0.005310656 0.08398375 0.011537236
0.04756403 0.014284798 0.09941222 -0.05634111 0.013820172 0.0035108563 -0.10718794 -0.11516005

fc.bias f4 [256]
00000000: c570 ca3d e8e3 2cbc f512 503d 4686 c13d
00000010: 6aef 043e caa5 f03c c3b6 b1bb 8e45 883d
00000020: daa7 a3bb 8ceb bb3d 4e76 67bc 3f74 103d
00000030: 756d b83c 2281 e43d 08a6 00bc e8c2 db3c
00000040: bf2a 623c f155 a7bd 2d5d f23d 1e7c 1dbd
00000050: de87 013d cbec f43d 0052 6b3c 3142 383d
00000060: 9365 013c 4901 46bc b671 0a3e 85b2 fd3c
00000070: cc43 383d b683 37bd 7dcc 873d 9bbe 383d
00000080: a365 5cbc c5e3 153e 2bf0 b0bd 46e8 b93d
00000090: 7069 b63d 3eca 953d 8461 cfbc bc97 853d
000000a0: d556 403e 3115 3f3d 9910 473d b878 603c
000000b0: b31e 1e3d 47e0 663d 1221 473d 698e 393e
000000c0: 0547 7f3e 251b ad3d 53f0 4a3e 03bc 8e3e
000000d0: 2cab a53e 79de 743e d802 753e 6fe5 823e
000000e0: 5250 a13e 5c41 833e b34c 503e 659e 8c3e
000000f0: dfa8 5b3e 8c6c ac3e f327 9a3e 0d19 eb3e
00000100: bb6d e83e 4999 ce3e d067 a13e 7709 b73e
00000110: 9235 b43e 670b f83e b5a4 9e3e 4ec6 aa3e
00000120: cc0c d43e 8239 a53e 519b 063f 7432 963e
00000130: 357e da3e 1d76 ef3e 5245 b33e c4c7 a03e
00000140: 701b a93e 6db9 fa3e 0802 9b3e 2878 e83e
00000150: 5144 b93e b074 cd3e 4f20 aa3e 18a1 b33e
00000160: 6017 db3e ec48 b13e 031b ca3e 53c4 d13e
00000170: 6013 823e 720d d93e 232c a23e c309 b93e
00000180: 57fb d03e 6134 703e 7cae af3e 358c 6c3e
00000190: be97 c63e 0aa1 9e3e db08 593e 67a2 633e
000001a0: 0793 9a3e 46f3 5e3e 52cd 9e3e 63f4 d63e
000001b0: 3fe8 5d3e fa07 613e ad0b b13e 14de 883e
000001c0: 70b3 5e3e 7c8a c53e 48a4 933e 70d7 443e
000001d0: 71af 813e 392e b63e f018 973e d952 5f3e
000001e0: cbaf 3d3e bdfd 0b3e 5924 063e 44a9 d83d
000001f0: e6b2 c13d 1718 793e f0fc 883e 8e24 893e
00000200: 6ac8 0f3e 1183 e23d d2b3 e93d 2b8e 313e
00000210: 5e1e 9e3d d44d 4f3e 418b d13d 9a91 c83d
00000220: 388b bc3d bcea 713e 1e20 2d3e a8b0 413e
00000230: 9cea c33c 48fa b73d cd93 313e 7181 843e
00000240: 9ca3 6f3d a141 303e a3f9 463e 794f 273e
00000250: da75 3f3d 7f2b 593e 84a0 793d 2582 8e3d
00000260: a3e8 283e 3376 183e 878a 333e cb21 6d3e
00000270: d9d5 023e 3491 2c3e 7bf4 1f3e 4092 f93d
00000280: 07a9 dc3d d4b4 d73d 8ddb 063e ce30 2f3e
00000290: 04a5 ba3a 6006 4b3e eb99 303d 74d0 013e
000002a0: 45f3 433e d947 68bb c88f ab3d b940 ac3d
000002b0: 61c9 e53c 55d6 013e f082 2b3e 4fa2 27bd
000002c0: c5b9 003e 95ad 753d 7b2d d63d 0390 f53d
000002d0: 0204 0b3e f71e d43b 8bd6 a33b 4503 183e
000002e0: d9bd f6bc 3f6a 563d f573 ae3d 06c5 5cbd
000002f0: 7674 79bd b12c 353e 3c6e b43d 0fb0 18bd
00000300: 2b1b 60bd 5d5a 233e 8260 223e a255 e33d
00000310: f9fd 0a3e 2b03 fb3d c6e6 083e dcfe ad3d
00000320: c6a4 28bd 4bd9 a0bd 1d77 643c b878 fc3d
00000330: 3ca2 23bd 676d 223e c930 c93d 0716 3b3a
00000340: d1be 56bc 1a42 213e 033b 263d 06ad 8ebd
00000350: d422 9cbd 32b2 063e 5d5f 8dbd 12c3 073e
00000360: d3a1 b03c 8e4a 173d 5591 cdbc d4dd e93d
00000370: 8af9 ac3d 10ce a3bc fc87 75bd 4e46 2fbd
00000380: cf52 a13d 66aa 1f3e 35dc 493c 3bdc cb3d
00000390: 03bd 083e 335f cf3d 64f0 97bc 5020 e63c
000003a0: 63ed c03d 82f8 96bd b8cc 67bd 5f84 a73c
000003b0: b462 de3d 32e0 733d 1c06 9ebd 7316 083e
000003c0: 8fe4 3cbc 10e9 fb3d 9b69 ca3d 4433 113d
000003d0: e8cc c5bc a4e4 7c3d 5dd9 a9bd 67e8 033e
000003e0: 03b9 17bd a453 813d e501 9ebd 9bb8 0dbd
000003f0: fc52 4abd 0e68 b9bd 0ca6 84bd bbbf de3d
0.0988479 -0.010552384 0.05079933 0.09449439 0.12981954 0.02937593 -0.005423398 0.066538915
-0.0049943747 0.091757864 -0.014127327 0.03526711 0.02251313 0.11157443 -0.007852085 0.026826337
0.013804137 -0.08170689 0.11834178 -0.038448445 0.031623714 0.11959227 0.014362812 0.044985
0.007897752 -0.012085267 0.1351994 0.030968914 0.04498653 -0.044803344 0.066308 0.04510365
-0.013451966 0.14637668 -0.086395584 0.09077506 0.08906829 0.07313965 -0.025315054 0.06523082
0.18783124 0.04665107 0.048599813 0.013700657 0.038603496 0.05636623 0.048615523 0.18120731
0.24929436 0.08452443 0.19818239 0.27877817 0.32357156 0.23912992 0.23926866 0.2556567
0.31506592 0.25635803 0.20341758 0.27464595 0.21451138 0.33676565 0.30108604 0.4591755
0.45396218 0.40351322 0.31524515 0.3574941 0.3519712 0.484462 0.30985036 0.3335442
0.41416013 0.32270437 0.52580744 0.29335368 0.42674413 0.467698 0.35013825 0.3140241
0.33028746 0.48969594 0.30274987 0.45404172 0.36184934 0.40128088 0.33227775 0.35083842
0.4279127 0.34625947 0.39473733 0.40970096 0.25405407 0.4239307 0.316743 0.3614026
0.40816757 0.23457481 0.3431281 0.2310036 0.38787645 0.30982238 0.21194784 0.2222992
0.30190298 0.21772489 0.31016022 0.41983327 0.21670626 0.21975699 0.3457922 0.26731932
0.21748137 0.38582218 0.28836274 0.19222808 0.25329164 0.3558214 0.29511213 0.21808948
0.18524091 0.13671012 0.13099803 0.1057916 0.0945795 0.24325596 0.26755476 0.26785702
0.14041296 0.11060155 0.11411251 0.17339389 0.07720636 0.20244533 0.10231639 0.09793396
0.09206241 0.236247 0.16906783 0.18915045 0.023915581 0.08983284 0.17341538 0.25880006
0.05850564 0.17212535 0.19431166 0.1633891 0.04674325 0.21207999 0.060944095 0.06958417
0.16494994 0.1488884 0.17533313 0.23157422 0.12776889 0.16852266 0.15620606 0.12186098
0.10774427 0.10532537 0.1316969 0.17108461 0.0014239852 0.1982665 0.043115538 0.12677175
0.19135769 -0.0035443215 0.083770335 0.08410782 0.028050127 0.12679417 0.16749167 -0.040926274
0.12570865 0.059979994 0.104578935 0.11990359 0.13575748 0.006473418 0.0049999407 0.14844997
-0.030119823 0.052347418 0.08518211 -0.053898834 -0.06090208 0.1769283 0.08810088 -0.037277278
-0.05471341 0.1595244 0.15857127 0.111003175 0.13573445 0.122564636 0.13369283 0.08495876
-0.041172765 -0.07853945 0.013944414 0.12327713 -0.03994964 0.15862046 0.09823758 0.0007136766
-0.013107018 0.15747872 0.04058362 -0.06966595 -0.076238304 0.13153914 -0.06902955 0.13258007
0.021561539 0.036936335 -0.025093714 0.114192635 0.08446033 -0.01999572 -0.059944138 -0.042791657
0.078771226 0.15592346 0.012320568 0.09954115 0.13353352 0.1012558 -0.018547244 0.02809158
0.09420278 -0.07371618 -0.05659172 0.020448862 0.1085867 0.05953998 -0.07716009 0.13289814
-0.011529102 0.123003125 0.09883424 0.03544928 -0.024145558 0.061741486 -0.08293412 0.12881623
-0.037041675 0.06314781 -0.07715205 -0.03459988 -0.049395546 -0.0905305 -0.064769834 0.108764134
