model.pth (torch, 171429 bytes, 12 tensors)

rnn.weight_ih_l0 f4 [64, 3]
0.09499482 0.018421574 -0.018372089 -0.059124276 -0.014897902 0.038366795 0.07958996 0.05254072
-0.1092252 -0.015646601 0.005300363 -0.020305768 -0.03028373 -0.011319055 0.05794519 -0.006036034
0.010365659 0.08446853 0.024777016 0.014225649 -0.07732217 0.048016917 0.024329724 -0.096731484
0.033860363 0.039041206 -0.00072801113 0.10256955 0.034954388 0.0656378 0.07149718 0.03977418
0.06722844 -0.041849487 -0.024836162 0.073737785 0.08854839 0.027381763 0.05129242 0.06957932
0.031590287 0.09383084 0.054406762 0.03909423 -0.11158995 -0.035438597 -0.023292731 0.064399526
0.056893177 0.028172905 -0.11671731 0.06966284 0.033690408 0.0032405257 -0.05823531 -0.011181048
-0.09070544 0.06992983 0.03154567 -0.066127926 -0.06043966 -0.01844769 0.06197664 -0.0018051933
-0.0006273542 -0.06358604 -0.08347435 -0.03748953 0.07418083 -0.10162256 -0.029482808 -0.11598982
0.041241646 0.006062071 -0.038683712 0.07227437 0.033803795 -0.0787209 -0.053357303 -0.0049665356
0.038684443 0.07070866 0.01772249 -0.030692577 -0.015087853 -0.023716046 0.070317954 0.07735001
0.026877454 0.06049235 0.087221466 0.06552155 0.030766517 0.042151537 0.017477356 -0.03819053
0.013237341 -0.00014525489 -0.043998748 0.052499358 0.032457713 0.029637009 -0.036102217 -0.03174184
-0.10548377 0.01170184 -0.0030725023 -0.044933513 -0.004038169 0.0033901217 -0.09031828 -0.061716516
-0.032535326 -0.0734005 0.08126148 0.045693755 0.070963144 -0.05608846 -0.027586035 0.118642256
-0.03415107 0.0065443073 -0.11108081 0.010518916 -0.016911136 0.0016949326 -0.009435879 -0.01758496
0.070050314 -0.051101767 0.0056241136 0.08681713 -0.12243927 -0.050691497 0.11283289 0.008031284
-0.017925698 -0.022141293 0.08716869 0.012789693 0.1091439 -0.08428195 -0.043040764 0.046843022
-0.052097503 -0.026140695 0.10459307 0.036062427 0.046971925 0.04870148 -0.011450107 0.0090362355
0.052538335 0.043509856 0.010811875 0.009487495 -0.086240955 -0.03363606 0.10619202 -0.050975546
-0.031347126 0.06517626 -0.12294276 -0.06524642 0.038150415 -0.06646858 -0.02282712 -0.092040524
0.00016393418 0.030204473 0.026098087 0.042332795 -0.002520906 0.119337395 0.10073426 0.078651324
-0.0830317 -0.055388156 -0.036945995 0.1101702 0.07504222 -0.0021984242 0.04952164 0.080656186
0.05519071 0.033965364 -0.010265996 -0.03734659 -0.10125397 -0.05299703 -0.0066758455 -0.0064135045
00000000: a58c c23d d7e8 963c 1081 96bc 4c2c 72bd
00000010: 5416 74bc 8026 1d3d 1000 a33d f034 573d
00000020: 76b1 dfbd 4d2d 80bc abae ad3b 4858 a6bc
00000030: 9615 f8bc 8f73 39bc f057 6d3d ecc9 c5bb
00000040: bad4 293c d6fd ac3d 2bf9 ca3c b212 693c
00000050: 165b 9ebd 63ad 443d 214f c73c 281b c6bd
00000060: 2ab1 0a3d ace9 1f3d 00d8 3eba fc0f d23d
00000070: 552c 0f3d 1c6d 863d 1d6d 923d 40ea 223d
00000080: 10af 893d 5e6a 2bbd 3575 cbbc d603 973d
00000090: dc58 b53d b84f e03c 0018 523d 9a7f 8e3d
000000a0: d164 013d 622a c03d a0d9 5e3d 4521 203d
000000b0: 4689 e4bd 1028 11bd 66d0 bebc e6e3 833d
000000c0: d208 693d ddca e63c 7c09 efbd 64ab 8e3d
000000d0: f4fe 093d 005f 543b 2688 6ebd b730 37bc
000000e0: c6c3 b9bd 5f37 8f3d 0836 013d 146e 87bd
000000f0: 948f 77bd 9c1f 97bc 38db 7d3d 3c9c ecba
00000100: 0775 24ba 6639 82bd 9af4 aabd 9f8e 19bd
00000110: 1eec 973d 7d1f d0bd ee85 f1bc 128c edbd
00000120: 00ed 283d 56a4 c63b d072 1ebd 9604 943d
00000130: d975 0a3d 6c38 a1bd 308d 5abd 52be a2bb
00000140: 9473 1e3d b4cf 903d c12e 913c 006f fbbc
00000150: 0b33 77bc 2748 c2bc dc02 903d af69 9e3d
00000160: 1b2e dc3c d4c6 773d 2ba1 b23d 2a30 863d
00000170: 100a fc3c 17a7 2c3d ac2c 8f3c ac6d 1cbd
00000180: 6fe1 583c 904f 18b9 0838 34bd 9109 573d
00000190: 61f2 043d 50c9 f23c ebdf 13bd bb03 02bd
000001a0: e007 d8bd 13b9 3f3c 095c 49bb 340c 38bd
000001b0: 9e52 84bb ce2c 5e3b caf8 b8bd 75ca 7cbd
000001c0: c343 05bd 0053 96bd 6b6c a63d 6029 3b3d
000001d0: 2055 913d 03bd 65bd 1cfc e1bc b6fa f23d
000001e0: fee1 0bbd a171 d63b 567e e3bd 8857 2c3c
000001f0: 3989 8abc 8028 de3a f298 1abc 560e 90bc
00000200: 8a76 8f3d 1650 51bd 7c4a b83b 2ecd b13d
00000210: 71c1 fabd e3a1 4fbd ee14 e73d a695 033c
00000220: ead8 92bc a861 b5bc 8085 b23d dc8b 513c
00000230: d686 df3d 049c acbd 834b 30bd 78de 3f3d
00000240: 3164 55bd 0325 d6bc e434 d63d 32b6 133d
00000250: a265 403d 347b 473d 3b99 3bbc b80c 143c
00000260: 7032 573d 6437 323d 4a24 313c 7071 1b3c
00000270: 199f b0bd f7c5 09bd 347b d93d bccb 50bd
00000280: d865 00bd 227b 853d 6ac9 fbbd ea9f 85bd
00000290: 9c43 1c3d ae20 88bd f1ff babc be7f bcbd
000002a0: bfe5 2b39 5f6f f73c a8cb d53c 2765 2d3d
000002b0: c935 25bb 2a67 f43d c44d ce3d f213 a13d
000002c0: 860c aabd b1de 62bd af54 17bd eaa0 e13d
000002d0: bcaf 993d 7013 10bb 34d7 4a3d 122f a53d
000002e0: a70f 623d 441f 0b3d b532 28bc bdf8 18bd
000002f0: 3e5e cfbd 6a13 59bd 0dc1 dabb 6028 d2bb

rnn.weight_hh_l0 f4 [64, 64]
-0.021844624 0.07785076 -0.10804694 0.018552033 -0.07423301 -0.017759364 -0.031619556 0.09045919
0.02950333 -0.027286254 0.015383915 0.017673368 -0.07766092 0.117530875 -0.050374184 -0.050136633
0.025798563 -0.017376412 -0.049866118 0.097306155 0.13340847 -0.0682683 0.011852195 -0.017069286
-0.029611358 0.08397172 -0.078742445 -0.08940867 0.027148303 0.08175543 0.0681044 0.054802008
-0.0204222 0.10196517 0.06520731 0.13041571 0.091359906 0.056243185 -0.11140914 -0.015229572
-0.055933557 0.005942302 0.04763869 -0.11957686 -0.04249613 0.05702319 -0.069145456 0.009876496
-0.090417325 -0.015107328 0.050334677 -0.1125539 -0.041866735 0.051022395 -0.11437801 -0.105368495
-0.034621153 0.012574792 0.010208827 0.14189939 0.08667113 -0.009546546 -0.08975099 -0.02588443
0.13282894 -0.08911672 -0.13225438 0.08629723 0.08956845 0.10711542 -0.10179594 -0.08642384
0.076829314 -0.0067350613 -0.05933852 -0.10102306 0.0654151 -0.07166452 -0.08356008 0.09860419
-0.10321781 0.0053232824 0.037541267 -0.05232306 0.04294891 -0.057104833 0.08551756 0.072962694
0.09995548 -0.030270368 0.07135747 0.056786675 -0.016365102 0.12987486 -0.008533846 0.116601855
0.004367365 0.11554045 -0.11662942 -0.014571684 0.11291015 0.00077558873 0.0056441487 0.018943354
-0.056434613 0.08171385 0.06514647 0.08335757 0.030193023 0.13571641 -0.019040199 -0.018561903
0.12355551 -0.11450603 -0.026137816 0.079326995 0.033501264 -0.11581363 -0.13071178 -0.0895161
-0.12310648 0.048473433 0.059768457 -0.030462803 -0.054812796 0.076021925 0.06789875 0.076334305
-0.07531044 0.096460715 0.12460264 0.09185707 -0.0021344547 -0.053840645 0.10822375 -0.01873704
-0.003717277 -0.05776697 -0.095731944 -0.014416094 0.002198147 -0.06508139 0.0120227495 -0.033214327
-0.09247289 0.031655647 -0.06447376 -0.10503093 -0.0036894553 -0.056639038 -0.0960946 -0.050408836
-0.03833197 0.0075232736 -0.052125465 -0.07528196 -0.0034455766 -0.05165269 0.01937607 0.09748873
-0.11413235 -0.09696948 -0.095797695 -0.044617012 -0.0499068 -0.07354949 0.048330374 0.0006860762
-0.07303136 0.10658609 -0.08420569 0.093144774 -0.06176191 0.012547269 -0.042583622 0.11501689
0.051640596 -0.101961575 -0.08985319 -0.07025925 0.05801308 -0.101257764 -0.07346028 0.07282726
-0.030735692 0.10054587 0.11392051 0.04507796 0.15966797 -0.038005825 -0.025255242 -0.075190134
0.11664639 -0.018881043 -0.05406078 -0.09502711 0.049003907 -0.04176874 -0.09507574 0.13104637
0.120872356 -0.00618684 0.042674493 -0.0024066921 0.008456889 0.094505765 -0.108104296 -0.043640032
0.07005097 -0.08043994 -0.062410414 0.036696583 -0.015785247 0.04925443 0.106827796 0.065487586
0.090485364 -0.02080173 -0.12499671 -0.12999338 0.11262372 -0.065434314 -0.00023436728 0.07120013
0.05861986 0.049160432 -0.08755712 -0.039578132 0.06617344 -0.015464127 -0.0656098 -0.0314213
0.10687829 0.027372839 -0.054577444 0.059702255 0.054446835 -0.0563444 0.15475175 -0.12436044
-0.032817245 -0.017790057 0.07935238 0.019416485 0.058413252 0.06055829 0.07296729 0.06609419
-0.016961958 -0.08268824 -0.086262316 0.0007313254 0.054447826 0.12121616 0.05746196 0.13064328
00000000: 7ff3 b2bc 3870 9f3d b747 ddbd 6ffa 973c
00000010: 7a07 98bd 167c 91bc 8283 01bd ab42 b93d
00000020: f8b0 f13c 6c87 dfbc d10c 7c3c bdc7 903c
00000030: b00c 9fbd 07b4 f03d 2955 4ebd 125c 4dbd
00000040: 8257 d33c fa58 8ebc 6a40 4cbd 7348 c73d
00000050: 3b9c 083e 40d0 8bbd b52f 423c e3d4 8bbc
00000060: 8593 f2bc 5df9 ab3d b843 a1bd e51b b7bd
00000070: 1e66 de3c 646f a73d 527a 8b3d 1278 603d
00000080: 754c a7bc 1dd3 d03d 698b 853d b28b 053e
00000090: e71a bb3d 415f 663d 7a2a e4bd 7485 79bc
000000a0: 961a 65bd a4b7 c23b c920 433d b6e4 f4bd
000000b0: 6c10 2ebd 2691 693d 229c 8dbd 07d1 213c
000000c0: b82c b9bd ba84 77bc bc2b 4e3d a982 e6bd
000000d0: 747c 2bbd dcfc 503d 053f eabd 70cb d7bd
000000e0: e9ce 0dbd 8006 4e3c ed42 273c 134e 113e
000000f0: a280 b13d 1e69 1cbc 5ecf b7bd 960b d4bc
00000100: 4f04 083e d482 b6bd b16d 07be 9abc b03d
00000110: aa6f b73d 545f db3d 647a d0bd fbfe b0bd
00000120: b058 9d3d cab1 dcbb f30c 73bd 2ee5 cebd
00000130: 5af8 853d d9c4 92bd 8c21 abbd fef0 c93d
00000140: dc63 d3bd ee6e ae3b dfc4 193d b450 56bd
00000150: 32eb 2f3d c2e6 69bd d523 af3d 776d 953d
00000160: 75b5 cc3d 90f9 f7bc dd23 923d 2599 683d
00000170: 1b10 86bc eafd 043e 8bd1 0bbc f4cc ee3d
00000180: 1d1c 8f3b 79a0 ec3d 68db eebd 13be 6ebc
00000190: 703d e73d e150 4b3a 8df2 b83b 182f 9b3c
000001a0: fb27 67bd 9759 a73d 836b 853d 60b7 aa3d
000001b0: 5c57 f73c 3ef9 0a3e 31fa 9bbc 220f 98bc
000001c0: ac0a fd3d 2382 eabd f91e d6bc 3176 a23d
000001d0: 9f38 093d b22f edbd 4fd9 05be 3854 b7bd
000001e0: 401f fcbd 148c 463d c5cf 743d 218d f9bc
000001f0: 6283 60bd 62b1 9b3d 800e 8b3d 2955 9c3d
00000200: 5c3c 9abd 328d c53d ab2f ff3d 8f1f bc3d
00000210: 35e2 0bbb 0288 5cbd 6aa4 dd3d 6c7e 99bc
00000220: 8f9d 73bb 0f9d 6cbd 1c0f c4bd 7b31 6cbc
00000230: c90e 103b 6449 85bd 11fb 443c bf0b 08bd
00000240: 6d62 bdbd 5aa9 013d d20a 84bd 751a d7bd
00000250: caca 71bb 56fe 67bd 3fcd c4bd 7f79 4ebd
00000260: fc01 1dbd cb85 f63b 8381 55bd 6e2d 9abd
00000270: 2fcf 61bb c591 53bd 90ba 9e3c 2ca8 c73d
00000280: 39be e9bd ef97 c6bd 9531 c4bd 54c0 36bd
00000290: 136b 4cbd 1da1 96bd 12f6 453d cbd9 333a
000002a0: 7791 95bd cf49 da3d 0874 acbd b0c2 be3d
000002b0: 0efa 7cbd 1093 4d3c 2a6c 2ebd fa8d eb3d
000002c0: 1785 533d 3bd1 d0bd f304 b8bd 15e4 8fbd
000002d0: 209f 6d3d 3b60 cfbd 5872 96bd 7526 953d
000002e0: 6bc9 fbbc feea cd3d 284f e93d aba3 383d
000002f0: 0080 233e ffab 1bbd 15e4 cebc 49fd 99bd
00000300: 4de4 ee3d 6bac 9abc d66e 5dbd 939d c2bd
00000310: 52b8 483d b315 2bbd 12b7 c2bd 0531 063e
00000320: ed8b f73d faba cabb 73cb 2e3d 98b9 1dbb
00000330: c38e 0a3c 3d8c c13d c965 ddbd e4bf 32bd
00000340: e276 8f3d b2bd a4bd 10a2 7fbd 284f 163d
00000350: 1050 81bc 03bf 493d 88c8 da3d 5b1e 863d
00000360: 6450 b93d 6468 aabc 46fe ffbd fc1c 05be
00000370: 44a7 e63d 6d02 86bd 7dc0 75b9 60d1 913d
00000380: 611b 703d 735c 493d 2651 b3bd ae1c 22bd
00000390: f185 873d 405d 7dbc 6e5e 86bd 9fb3 00bd
000003a0: 01e3 da3d 013d e03c 998c 5fbd 5a8a 743d
000003b0: a503 5f3d 63c9 66bd 3e77 1e3e b0b0 febd
000003c0: 606b 06bd 74bc 91bc 8083 a23d 520f 9f3c
000003d0: bc42 6f3d f80b 783d e06f 953d 645c 873d
000003e0: cef3 8abc 7458 a9bd 4caa b0bd 6bb6 3f3a
000003f0: af04 5f3d 2e40 f83d 3b5d 6b3d 5ac7 053e

rnn.bias_ih_l0 f4 [64]
-0.057744723 0.1292647 0.12729289 0.0061818613 0.1377095 0.10894009 -0.11813805 0.03898884
-0.04029798 -0.095374525 -0.14841436 -0.10979787 -0.14686626 -0.15247415 -0.17267871 0.0138003295
-0.036792275 -0.044246458 -0.09633251 0.07306788 -0.119152956 -0.046675153 0.080002785 -0.0341161
-0.021599995 -0.16139066 0.07904641 -0.102489136 -0.08521718 -0.10146909 0.10743228 -0.0056663887
-0.15562439 -0.14998104 0.071426116 -0.020532403 0.12133313 -0.11025797 -0.10344001 -0.017044181
0.12579052 -0.09908833 0.16130136 0.14581247 0.11562448 -0.10276796 -0.032667857 -0.12511832
0.007371194 0.11311258 0.088225745 0.17278405 0.024075245 -0.077183664 -0.0070082503 0.16099858
0.028302629 -0.13635121 0.044552017 -0.13948262 -0.069019884 0.0007209212 0.027253026 0.01987796
00000000: bb85 6cbd f75d 043e 1159 023e 3691 ca3b
00000010: b803 0d3e fb1b df3d 5df2 f1bd c3b2 1f3d
00000020: 7f0f 25bd b853 c3bd eff9 17be b5dd e0bd
00000030: 1c64 16be 2f22 1cbe b0d2 30be c71a 623c
00000040: 7fb3 16bd c63b 35bd fb49 c5bd 9da4 953d
00000050: 7706 f4bd 722e 3fbd 80d8 a33d 53bd 0bbd
00000060: 79f2 b0bc 9843 25be 16e3 a13d d3e5 d1bd
00000070: 5886 aebd 07cf cfbd 7505 dc3d 1dad b9bb
00000080: 005c 1fbe a194 19be db47 923d 9233 a8bc
00000090: 817d f83d eece e1bd 5bd8 d3bd 3da0 8bbc
000000a0: 3bcf 003e d3ee cabd 2f2c 253e dd4f 153e
000000b0: 87cc ec3d 0278 d2bd bbce 05bd 041f 00be
000000c0: 0f8a f13b 91a7 e73d b3af b43d 4dee 303e
000000d0: 7339 c53c 7812 9ebd 77a5 e5bb d0dc 243e
000000e0: eada e73c a79f 0bbe 2d7c 363d 88d4 0ebe
000000f0: 4c5a 8dbd 34fc 3c3a bd41 df3c 1bd7 a23c

rnn.bias_hh_l0 f4 [64]
0.009278595 0.067254014 0.12446067 0.17422964 0.05943076 0.06274064 -0.106851295 0.09799354
0.18429358 -0.13647456 -0.08116761 -0.1461831 -0.102119654 -0.08813756 0.028227216 0.16919953
-0.15874214 0.18421413 -0.069305435 0.16627929 -0.05618257 -0.14095677 0.16174391 0.10703442
-0.16021 -0.053209256 0.107921265 -0.14647505 0.006484068 -0.04945189 0.105830856 -0.1516971
-0.036232483 -0.04944866 -0.015723089 -0.14653921 0.14909708 -0.12383961 0.020543227 -0.14594568
0.13238662 -0.10940177 0.07714083 0.13531664 0.11237058 0.012071386 0.05726796 -0.048623674
-0.08293931 0.057501197 0.12001968 -0.008122876 0.102047525 -0.03847333 0.14039311 0.04106074
0.04297453 -0.13067952 0.16156533 -0.13353586 -0.028601492 -0.14340198 -0.16284114 -0.04761255
00000000: 4005 183c 79bc 893d 3ce5 fe3d 4169 323e
00000010: ab6d 733d 2a7e 803d dad4 dabd d6b0 c83d
00000020: 75b7 3c3e fdbf 0bbe 343b a6bd 06b1 15be
00000030: 1c24 d1bd 7781 b4bd c33c e73c a442 2d3e
00000040: 4d8d 22be a1a2 3c3e 02f0 8dbd 1e45 2a3e
00000050: b21f 66bd f956 10be 32a0 253e dd34 db3d
00000060: 170e 24be f3f1 59bd d305 dd3d 8efd 15be
00000070: 4e78 d43b 118e 4abd d9bd d83d 7c56 1bbe
00000080: 8368 14bd ae8a 4abd b5cd 80bc 600e 16be
00000090: e8ac 183e 9f9f fdbd 454a a83c c972 15be
000000a0: 5c90 073e 090e e0bd 03fc 9d3d 7290 0a3e
000000b0: 8c22 e63d 10c7 453c cf91 6a3d 9e29 47bd
000000c0: 16dc a9bd 6086 6b3d e1cc f53d d015 05bc
000000d0: 4bfe d03d 3696 1dbd 36c3 0f3e 4e2f 283d
000000e0: 1006 303d dad0 05be 6271 253e a0bd 08be
000000f0: ad4d eabc f8d7 12be d4bf 26be 6105 43bd

rnn.weight_ih_l0_reverse f4 [64, 3]
-0.0036736426 0.004416589 -0.07609132 0.06022784 0.009554516 0.050084263 -0.07766644 -0.02291206
-0.10641082 -0.05545847 -0.026744269 0.031062424 -0.08624011 -0.020936918 0.061388284 0.048512273
0.028459692 -0.08500004 0.018336205 0.017290533 0.11706993 -0.0021103323 0.008417359 0.105062276
-0.09408891 0.019754896 0.07441625 0.009222994 0.0036596812 0.011970758 -0.018945428 0.011328955
-0.0905371 0.029759217 0.016023869 -0.06453231 -0.097596556 -0.03143047 -0.007411167 0.08792457
0.0398365 -0.06766866 0.1147469 -0.007660704 -0.05772133 -0.054572083 -0.012764682 0.079416186
0.06760158 0.00307417 -0.005669087 -0.095060766 -0.02170827 -0.021123856 -0.048753925 -0.008984803
-0.038134083 -0.057213828 -0.022916835 -0.04823537 -0.05836885 -0.0051129423 -0.096199825 -0.07727098
-0.0123318955 0.0077593923 -0.09302028 -0.030117083 -0.028824627 -0.02160328 -0.0057229004 -0.07852714
0.07920967 0.050983865 0.05286835 0.030511193 0.041097827 -0.05294521 0.01340575 -0.010095954
-0.08737023 -0.0033365793 -0.02423846 -0.0963455 0.08484888 0.050524753 -0.10827832 -0.010691381
-0.0055263094 0.10993327 -0.012291858 -0.019132394 0.064695224 0.08007898 0.031865194 -0.027560443
0.03212065 0.011082687 0.03013578 -0.07133436 -0.015730243 0.056876868 -0.09282487 -0.022899514
-0.03257546 -0.055509124 0.0062724953 -0.03736426 -0.06618505 0.009445713 0.115845114 -0.058782976
0.021019386 -0.062995136 0.03598772 0.023508444 -0.06701097 0.035818312 0.017307913 -0.104228556
0.0064156544 0.005588274 -0.08562559 0.04247486 -0.0019664739 -0.013230309 -0.035213664 -0.01086793
0.11801386 0.06903961 0.038798273 -0.01674436 0.049196538 0.028617071 0.10094665 0.04908507
0.017498797 -0.090508625 0.014964225 0.015465214 -0.119493306 0.08650632 0.014808695 -0.098057315
0.07008063 0.020905644 -0.007759437 0.08779941 0.06347549 0.019780993 0.062056866 0.038241304
-0.12349683 0.04660459 -0.0039463784 0.079145566 -0.015476006 0.021144312 -0.024422929 0.028919037
-0.0019976585 0.045768976 0.04979544 0.008498545 -0.11859709 -0.03835838 -0.008547197 -0.017065078
-0.031273954 -0.03586237 0.07212117 -0.01724162 -0.006401435 -0.10352494 0.032542873 0.0055771484
0.055302337 -0.08052976 -0.024702247 -0.10077159 0.09322388 0.05053419 0.047341228 -0.11800524
-0.03798262 0.072237745 0.013227961 0.028691417 0.024890155 -0.044438858 0.010162946 0.0060169995
00000000: 7fc1 70bb 09b9 903b c4d5 9bbd 78b1 763d
00000010: 8b8a 1c3c 2825 4d3d 950f 9fbd 13b2 bbbc
00000020: eaed d9bd 6c28 63bd cc16 dbbc a076 fe3c
00000030: a89e b0bd e683 abbc 4872 7b3d ceb4 463d
00000040: 4d24 e93c 8014 aebd cf35 963c e0a4 8d3c
00000050: 5cc2 ef3d 804d 0abb f6e8 093c e42a d73d
00000060: b0b1 c0bd 05d5 a13c 8c67 983d 0a1c 173c
00000070: 43d7 6f3b 0021 443c 7133 9bbc 159d 393c
00000080: 846b b9bd 9ac9 f33c 7d44 833c 8429 84bd
00000090: b4e0 c7bd 3dbd 00bd 60d9 f2bb cc11 b43d
000000a0: 992b 233d de95 8abd 6c00 eb3d a506 fbbb
000000b0: 346d 6cbd fa86 5fbd f522 51bc f4a4 a23d
000000c0: b272 8a3d 0478 493b c0c3 b9bb 38af c2bd
000000d0: 8bd5 b1bc f00b adbc 32b2 47bd ff34 13bc
000000e0: 7c32 1cbd 0c59 6abd 16bc bbbc 7492 45bd
000000f0: 2d14 6fbd 788a a7bb 6a04 c5bd 3f40 9ebd
00000100: b80b 4abc 8042 fe3b 6b81 bebd 1ab8 f6bc
00000110: a021 ecbc 5df9 b0bc 2b87 bbbb d6d2 a0bd
00000120: ae38 a23d 75d4 503d 7c8c 583d 9cf2 f93c
00000130: 3256 283d 14dd 58bd caa3 5b3c 8069 25bc
00000140: 2aef b2bd 83aa 5abb bc8f c6bc ca50 c5bd
00000150: 40c5 ad3d 0bf3 4e3d 06c1 ddbd e72a 2fbc
00000160: 0b16 b5bb b224 e13d ca63 49bc 8abb 9cbc
00000170: ee7e 843d 7300 a43d 1485 023d 70c6 e1bc
00000180: f190 033d 2994 353c 50df f63c c017 92bd
00000190: b6dc 80bc b8f7 683d f71a bebd c397 bbbc
000001a0: d86d 05bd 895d 63bd 8189 cd3b 440b 19bd
000001b0: 078c 87bd 31c2 1a3c 3440 ed3d 6bc6 70bd
000001c0: d930 ac3c 9803 81bd dc67 133d c894 c03c
000001d0: 0c3d 89bd 39b6 123d 53c9 8d3c c875 d5bd
000001e0: 693a d23b d71d b73b 785c afbd 1efa 2d3d
000001f0: f5df 00bb f0c3 58bc 343c 10bd 670f 32bc
00000200: 40b1 f13d a464 8d3d f0ea 1e3d 782b 89bc
00000210: 4f82 493d 596e ea3c 1ebd ce3d 6d0d 493d
00000220: a359 8f3c 965c b9bd 822c 753c cf61 7d3c
00000230: e8b8 f4bd 3a2a b13d 2ba0 723c 46d2 c8bd
00000240: 6f86 8f3d 5042 ab3c e042 febb 2dd0 b33d
00000250: 70ff 813d c00b a23c 572f 7e3d eaa2 1c3d
00000260: e8eb fcbd 74e4 3e3d 9f50 81bb 1217 a23d
00000270: 138f 7dbc d636 ad3c 9812 c8bc 9ee7 ec3c
00000280: 26eb 02bb 4078 3b3d 4ef6 4b3d 7b3d 0b3c
00000290: 08e3 f2bd ad1d 1dbd 8b09 0cbc 10cc 8bbc
000002a0: 1e19 00bd 6ce4 12bd 44b4 933d 4c3e 8dbc
000002b0: 21c3 d1bb e204 d4bd ad4b 053d 83c0 b63b
000002c0: b484 623d c9ec a4bd 5e5c cabc 5661 cebd
000002d0: 29ec be3d f0fc 4e3d e0e8 413d bbac f1bd
000002e0: aa93 1bbd 62f1 933d 17ba 583c 430a eb3c
000002f0: 70e6 cb3c 8505 36bd 7c82 263c 402a c53b

rnn.weight_hh_l0_reverse f4 [64, 64]
0.01997495 -0.009769089 0.017588418 0.04418237 0.03882993 0.05876867 -0.13864495 0.033303574
-0.050249793 -0.04571227 0.050307468 -0.072321326 0.013902318 -0.085212715 0.009525539 0.12421245
-0.045058977 0.072996 -0.049720373 -0.12448527 0.030520994 -0.08424512 -0.050546277 -0.12538464
0.016216062 -0.10097129 -0.0009275211 0.041592088 -0.08290133 0.028730467 -0.0014900628 0.05581937
-0.03443666 0.12234644 -0.027837053 -0.04346357 0.02823469 0.0526456 -0.042768277 -0.09841565
0.069022045 -0.13014643 -0.049003135 0.045178212 0.081486374 0.024051335 -0.017122936 0.060397886
0.093949944 -0.053249322 -0.05176711 0.030824779 0.024659371 0.11228094 -0.027008174 -0.013510712
0.088701926 0.06590691 0.048125107 -0.13762464 0.058760032 0.06309219 0.075358815 0.1427504
0.119098455 -0.10734853 -0.053414874 -0.011819706 0.04205911 0.08693716 0.009001317 0.010605019
0.05915635 -0.015066779 0.0703151 -0.11343631 0.100298606 -0.03600002 -0.010272992 -0.006058152
0.05750873 0.06321404 -0.061698582 0.13211265 0.07781575 -0.065647386 -0.063338295 0.05727901
0.031773258 0.0018667822 -0.024238087 0.05352635 -0.08118315 -0.0062875277 -0.10556951 0.038103435
0.058061413 -0.11399332 -0.047300715 0.10481299 -0.11123235 0.051637687 -0.11217745 -0.10757181
0.09186991 -0.07946521 0.114862666 -0.024409272 -0.12287438 -0.026365384 -0.07133632 0.037854627
0.08483269 -0.06611723 -0.015260148 -0.0019362351 -0.092052326 -0.08119309 0.079725884 -0.072578095
-0.13983935 0.00087551784 -0.047729164 -0.101089224 0.093094304 0.07153381 -0.057918362 -0.046255767
-0.10038315 0.10118129 -0.12823476 0.01132184 -0.085643224 -0.0040798346 -0.0072831647 -0.037062086
-0.03522054 0.07070893 -0.028985478 -0.08565723 -0.026530242 -0.037792303 -0.0401248 0.014179363
-0.09428477 0.07765597 0.12603113 0.09820181 -0.0916483 -0.025507664 0.073517606 -0.111727625
-0.024023168 -0.020211693 0.046895552 -0.07541049 -0.002593057 -0.10992101 -0.07220414 -0.078887925
0.047247414 0.055970944 0.05839092 0.09614917 0.046256516 -0.092646904 -0.057467554 0.012010821
0.07356905 -0.08249219 -0.036555335 -0.06147799 0.025479196 -0.05531101 -0.083773814 -0.07415035
0.09733976 0.049505398 -0.011228568 0.025736334 0.044208057 0.12998033 0.11529449 0.06272136
-0.016039347 -0.026211075 -0.11950401 -0.1279967 -0.009495511 -0.07306598 -0.08822843 -0.050606597
-0.13267922 0.054619543 0.036867887 -0.009344234 0.020288384 -0.0937349 0.030281723 -0.05095579
-0.13598534 0.054341946 -0.10638131 0.09508569 0.09109265 0.08543687 -0.04184171 -0.11260558
-0.12232634 0.0617669 0.12933654 -0.114675686 0.027511824 -0.06749858 -0.020318741 -0.05904536
0.055476964 6.358186e-06 -0.08549614 0.043893445 -0.03131624 0.10388795 -0.08223977 -0.09353021
-0.113294914 0.031550083 -0.08085768 -0.047929652 -0.030643683 0.051241454 -0.027891675 0.006689818
0.05097463 -0.11576255 0.049049843 -0.09066731 -0.07538749 0.047754753 0.10301003 -0.036174886
-0.0015902962 0.10118434 -0.05789158 -0.09393311 0.020775938 0.11741542 0.016847067 0.081003875
-0.022794958 -0.017410688 -0.010753596 -0.040613424 -0.09603616 -0.105549246 -0.034774955 -0.057272915
00000000: 82a2 a33c 870e 20bc 9615 903c 93f8 343d
00000010: 220c 1f3d 6bb7 703d f1f8 0dbe 5469 083d
00000020: bad2 4dbd ca3c 3bbd 340f 4e3d 341d 94bd
00000030: 8cc6 633c 0184 aebd 0211 1c3c 1963 fe3d
00000040: c38f 38bd ed7e 953d 97a7 4bbd 22f2 febd
00000050: 2a07 fa3c b588 acbd 9d09 4fbd d564 00be
00000060: 8cd7 843c 09ca cebd e324 73ba 775c 2a3d
00000070: 2cc8 a9bd 285c eb3c 364e c3ba daa2 643d
00000080: 750d 0dbd c590 fa3d 880a e4bc db06 32bd
00000090: 704c e73c eaa2 573d ca2d 2fbd 258e c9bd
000000a0: 6e5b 8d3d 1b45 05be 83b7 48bd ca0c 393d
000000b0: 54e2 a63d 4e07 c53c 6645 8cbc c663 773d
000000c0: d468 c03d f61b 5abd c009 54bd 3f84 fc3c
000000d0: 7302 ca3c 8df3 e53d 3f40 ddbc 095c 5dbc
000000e0: 5ba9 b53d 34fa 863d d51e 453d 79ed 0cbe
000000f0: 5cae 703d 7a36 813d b955 9a3d 292d 123e
00000100: e4e9 f33d 8cd9 dbbd 8ec9 5abd 71a7 41bc
00000110: 2c46 2c3d 1c0c b23d 437a 133c acc0 2d3c
00000120: ee4d 723d a7da 76bc 5d01 903d 4c51 e8bd
00000130: 5b69 cd3d c274 13bd 0d50 28bc 7683 c6bb
00000140: 468e 6b3d 5d76 813d a7b7 7cbd 8a48 073e
00000150: dd5d 9f3d 2372 86bd 82b7 81bd 659d 6a3d
00000160: ad24 023d d1ae f43a f48e c6bc 723e 5b3d
00000170: 5a43 a6bd 9b07 cebb d434 d8bd 5912 1c3d
00000180: ced1 6d3d 5475 e9bd 65be 41bd 31a8 d63d
00000190: c9cd e3bd 0a82 533d 4abd e5bd 9c4e dcbd
000001a0: 4b26 bc3d a8be a2bd 1e3d eb3d f4f5 c7bc
000001b0: 90a5 fbbd 38fc d7bc c718 92bd 740d 1b3d
000001c0: c3bc ad3d 7868 87bd b305 7abc 45c9 fdba
000001d0: ee85 bcbd 9048 a6bd 5347 a33d d3a3 94bd
000001e0: 0c32 0fbe 0283 653a a87f 43bd de07 cfbd
000001f0: 3aa8 be3d 5180 923d ce3b 6dbd b076 3dbd
00000200: ae95 cdbd 2338 cf3d f94f 03be 3d7f 393c
00000210: b765 afbd 22b0 85bb 9da7 eebb 6ace 17bd
00000220: 6a43 10bd d8cf 903d f472 edbc 0f6d afbd
00000230: f355 d9bc 1acc 1abd e759 24bd 8f50 683c
00000240: 6018 c1bd 180a 9f3d 4e0e 013e 081e c93d
00000250: 1bb2 bbbd 73f5 d0bc 6690 963d 74d1 e4bd
00000260: 3ccc c4bc fe92 a5bc 8d15 403d d170 9abd
00000270: 47f0 29bb 441e e1bd c4df 93bd fe8f a1bd
00000280: 8186 413d ca41 653d 512b 6f3d dbe9 c43d
00000290: 7977 3d3d a9bd bdbd 1963 6bbd 09c9 443c
000002a0: 5fab 963d aaf1 a8bd 0cbb 15bd 58d0 7bbd
000002b0: bfb9 d03c cc8d 62bd 9b91 abbd 24dc 97bd
000002c0: 115a c73d 2cc6 4a3d 07f8 37bc 01d5 d23c
000002d0: 8213 353d 9019 053e 841f ec3d 0e74 803d
000002e0: f364 83bc 9cb8 d6bc 85be f4bd 9111 03be
000002f0: 0f93 1bbc 9ea3 95bd 1bb1 b4bd dd48 4fbd
00000300: 10dd 07be beb8 5f3d c802 173d 8f18 19bc
00000310: d333 a63c 15f8 bfbd 6011 f83c 05b7 50bd
00000320: be3f 0bbe a995 5e3d 72de d9bd 49bc c23d
00000330: c98e ba3d 87f9 ae3d 3762 2bbd c19d e6bd
00000340: 3b86 fabd 4aff 7c3d cc70 043e 16db eabd
00000350: 7a60 e13c b23c 8abd 7d73 a6bc 8cd9 71bd
00000360: d03b 633d 6758 d536 9a18 afbd 9dc9 333d
00000370: 7545 00bd 35c3 d43d 536d a8bd c48c bfbd
00000380: 2a07 e8bd a93a 013d b698 a5bd e251 44bd
00000390: 7608 fbbc 8fe2 513d 157d e4bc 4336 db3b
000003a0: c6ca 503d ea14 edbd 7de8 483d c8af b9bd
000003b0: c264 9abd 7d9a 433d ecf6 d23d 1e2c 14bd
000003c0: 7c71 d0ba bc39 cf3d b91f 6dbd 0160 c0bd
000003d0: 4d32 aa3c 7f77 f03d dc02 8a3c 5ce5 a53d
000003e0: 7ebc babc dca0 8ebc da2f 30bc 435a 26bd
000003f0: 9bae c4bd 342a d8bd 2f70 0ebd 0197 6abd

rnn.bias_ih_l0_reverse f4 [64]
0.05719579 0.0037946508 0.002629157 0.055034135 0.017872816 0.07480434 -0.08209883 -0.14620607
-0.016044289 0.079380006 0.0074794926 0.06682329 0.15379128 -0.1107136 -0.12242978 0.09655094
-0.079391815 0.08079467 0.12774383 -0.15178025 -0.06663723 0.06081903 0.1388104 -0.19607356
0.067227654 -0.14755711 -0.107523516 0.0026299306 -0.0037882456 0.030997388 0.16769624 -0.083981104
-0.17981184 0.10238731 -0.005108024 -0.0150498655 0.09821135 0.10499303 -0.103302404 -0.061227467
0.12985815 -0.10591446 0.13825239 0.18152812 0.09563889 -0.16048297 0.14785828 -0.080946095
0.032649674 0.05093456 0.1306473 -0.10310313 0.089187056 0.1499745 -0.13524339 0.101840176
0.014344711 -0.02349915 -0.15033214 -0.13573408 -0.032090187 0.07002684 0.07260363 0.0032582176
00000000: 2246 6a3d adaf 783b ef4d 2c3b 796b 613d
00000010: 036a 923c 0533 993d 6e23 a8bd 0bb7 15be
00000020: 506f 83bc fc91 a23d 8816 f53b a6da 883d
00000030: 767b 1d3e d0bd e2bd 77bc fabd 80bc c53d
00000040: 2d98 a2bd ad77 a53d 47cf 023e 486c 1bbe
00000050: 1a79 88bd 601d 793d 5024 0e3e 82c7 48be
00000060: a7ae 893d 3619 17be 4a35 dcbd ea5a 2c3b
00000070: 3744 78bb 3cee fd3c 90b8 2b3e 49fe abbd
00000080: 9820 38be 70b0 d13d 3661 a7bb b693 76bc
00000090: 0823 c93d 9606 d73d 3690 d3bd a7c9 7abd
000000a0: 89f9 043e aee9 d8bd 0992 0d3e 82e2 393e
000000b0: 53de c33d a655 24be 2968 173e 11c7 a5bd
000000c0: aabb 053d c2a0 503d 68c8 053e bc27 d3bd
000000d0: b4a7 b63d ea92 193e 3e7d 0abe 9591 d03d
000000e0: 1406 6b3c 4a81 c0bc abf0 19be e0fd 0abe
000000f0: 0071 03bd 3b6a 8f3d 36b1 943d d287 553b

rnn.bias_hh_l0_reverse f4 [64]
-0.03598108 -0.15867391 0.0891906 0.01639774 0.13588677 0.16137126 -0.10298693 -0.14658915
-0.0054663434 0.1594403 0.12549034 0.17089121 -0.00443702 -0.10539354 0.037478898 0.13913205
-0.12335721 0.10566367 0.16197287 -0.10018439 -0.08329744 0.02669882 0.045127254 0.012212837
0.07564216 0.045001283 -0.1434035 -0.14175156 -0.12713522 0.100461386 -0.038208347 -0.1650557
0.038105376 0.08956019 0.14536501 0.18686526 0.08881473 0.10889779 -0.086151324 -0.023086827
0.110234044 -0.012850319 0.0095635895 0.06607075 0.030369362 -0.092869006 0.12604845 -0.1064256
0.095527016 -0.12100797 -0.026377484 -0.16703683 0.1741504 0.12859176 -0.08511621 0.14416869
-0.006426911 -0.1509967 -0.041831926 -0.064441614 -0.115438245 -0.025898391 0.15442184 0.17665033
00000000: e660 13bd 6a7b 22be 90a9 b63d 8e54 863c
00000010: e725 0b3e 823e 253e d0ea d2bd 771b 16be
00000020: 031f b3bb 5144 233e 8a80 003e 1bfe 2e3e
00000030: 6c64 91bb 91d8 d7bd 7983 193d a278 0e3e
00000040: b4a2 fcbd 3266 d83d 37dc 253e 792d cdbd
00000050: d997 aabd 7cb7 da3c 5bd7 383d 5a18 483c
00000060: 47ea 9a3d 4453 383d 5ed8 12be 5227 11be
00000070: bc2f 02be b3be cd3d 5b80 1cbd 5d04 29be
00000080: 6214 1c3d 556b b73d 91da 143e 9b59 3f3e
00000090: 7fe4 b53d ce05 df3d 1b70 b0bd 9620 bdbc
000000a0: 63c2 e13d 258a 52bc 9ab0 1c3c 1a50 873d
000000b0: 2bc9 f83c 1b32 bebd d812 013e aaf5 d9bd
000000c0: aba3 c33d 07d3 f7bd 9815 d8bc b40b 2bbe
000000d0: 7c54 323e 8fad 033e 6851 aebd f5a0 133e
000000e0: d698 d2bb e19e 1abe f457 2bbd f7f9 83bd
000000f0: e36a ecbd dd28 d4bc c220 1e3e d3e3 343e

fc.weight f4 [256, 128]
-0.043894056 -0.042813744 -0.0035207178 0.039151784 0.046893388 0.0825572 0.042293053 -0.09334368
0.074005954 -0.02267318 0.049449958 0.026898721 0.017456995 0.00021476191 -0.03611523 -0.030032143
0.058315128 0.01714997 0.041268613 0.08364477 -0.02551572 0.07326999 0.008431941 0.002173342
0.082348034 -0.007315637 0.0012185341 -0.020450387 0.07404767 -0.06080932 -0.0149177415 -0.044664115
-0.00690329 -0.019545095 0.015096443 -0.046485115 -0.029664995 -0.07256571 -0.0046466663 0.017675187
0.043893605 0.019937526 0.042420495 -0.023979615 -0.08916013 0.04237218 0.00040270892 -0.043480236
-0.06028314 0.054033417 0.010239098 0.0015877001 -0.01589249 0.040103357 -0.027455296 -0.017188141
0.035173386 -0.08432705 -0.07765553 0.013695059 -0.00509402 0.037641168 -0.006379151 0.013921813
-0.0025834227 -0.038041495 0.052783612 -0.053552195 0.0786594 -0.014130453 0.06144953 0.06313084
-0.089258805 0.052944906 -0.01127379 -0.05013231 0.023478381 -0.03284878 0.008495998 0.0138466405
0.08124748 0.020127114 -0.07558388 0.019682303 -0.01193304 0.074629426 -0.040673036 0.05531829
0.054521948 -0.018173018 -0.06895324 -0.06483188 -0.015044838 0.005026763 -0.0005027518 -0.004572613
-0.06614591 0.055325493 0.005301192 -0.03598449 0.057672422 -0.05030314 -0.045672968 0.023981014
0.046865646 0.0789581 -0.02529649 0.024709035 -0.051421672 0.008600551 -0.03677892 -0.042942576
-0.02718755 -0.03106072 0.03030999 0.03116993 -0.00475909 0.015792701 -0.004144059 -0.059867375
0.012815184 0.014242609 -0.091428794 -0.05079006 -0.034861684 0.051692206 0.041468922 -0.012356669
-0.013888061 -0.065479785 -0.063248634 -0.07398258 0.034377888 -0.018325169 -0.020986924 0.020273328
-0.015594286 0.06807809 0.07401201 0.036481157 -0.07442688 -0.016795585 -0.0065602437 -0.0112010995
0.0013087592 0.044804018 -0.092137985 -0.014022199 -0.063831836 -0.04854628 -0.048572775 -0.038848296
-0.009246933 0.05320722 -0.010124744 0.038690425 -0.0420506 0.019569775 -0.05385593 0.0056089046
0.0093524065 -0.04527499 -0.055548564 0.002825854 0.06401488 -0.02964843 -0.0869282 -0.0055685504
-0.01117034 -0.06115062 -0.012876473 0.086321175 0.09011204 0.044827476 0.041214153 0.014607472
0.05459069 0.06345386 -0.059126094 0.07716264 -0.024537649 0.0054723164 0.015233741 -0.03173923
-0.032860678 -0.04440115 -0.012034197 -0.030361628 0.00959812 -0.06139629 -0.017932124 -0.08318372
-0.005460247 0.09590027 0.059463594 0.02011673 -0.024902489 -0.069358505 0.021199327 0.08270248
0.0463043 0.09435268 -0.009607289 -0.043495934 0.052279547 0.0075539853 0.022082238 0.04155845
-0.061207287 0.0033886714 -0.07044406 0.01680084 -0.014455193 0.047626447 -0.017545503 0.04015109
-0.04819826 0.032569654 -0.071208745 -0.0236587 -0.04197002 -0.031175636 -0.043187346 -0.08539364
-0.032767255 0.06973668 -0.025567405 -0.035557434 0.045588657 0.057474796 0.06912315 -0.02244536
-0.058502667 0.0015806902 -0.07433448 -0.03763896 0.052851982 0.022094985 0.065126 -0.02906653
0.029526507 0.014052993 -0.012173795 -0.010650476 -0.041892 -0.012677469 -0.0065074833 0.042395968
-0.06527486 0.07092882 0.032067873 -0.023127213 0.034753684 -0.024534147 0.057797737 -0.023473162
00000000: 41ca 33bd 775d 2fbd d8bb 66bb 9f5d 203d
00000010: 4813 403d c013 a93d 7b3b 2d3d f92a bfbd
00000020: 6f90 973d 1bbd b9bc 0a8c 4a3d b55a dc3c
00000030: f901 8f3c b631 6139 90ed 13bd f805 f6bc
00000040: d8db 6e3d 187e 8c3c 4709 293d f34d ab3d
00000050: 5806 d1bc 940e 963d 2026 0a3c a16e 0e3b
00000060: 16a6 a83d 03b8 efbb 38b7 9f3a 9287 a7bc
00000070: 4ea6 973d 3213 79bd 8b69 74bc b8f1 36bd
00000080: fe34 e2bb 091d a0bc 1257 773c 2d67 3ebd
00000090: 0104 f3bc 559d 94bd 1043 98bb 8ecb 903c
000000a0: c8c9 333d 0654 a33c 1dc1 2d3d e670 c4bc
000000b0: 9699 b6bd 738e 2d3d ad22 d339 5518 32bd
000000c0: 74eb 76bd 2552 5d3d e4c1 273c 601a d03a
000000d0: f830 82bc 6b43 243d eee9 e0bc 25ce 8cbc
000000e0: f811 103d a9b3 acbd dd09 9fbd 3e61 603c
000000f0: bdeb a6bb a02d 1a3d 3208 d1bb 5118 643c
00000100: a44e 29bb 66d1 1bbd a133 583d 8c59 5bbd
00000110: 2e18 a13d 6a83 67bc 81b2 7b3d be4a 813d
00000120: 52cd b6bd c2dc 583d b4b5 38bc 8957 4dbd
00000130: bc55 c03c 718c 06bd cc32 0b3c 05dd 623c
00000140: 1465 a63d 9ee1 a43c b9cb 9abd c83c a13c
00000150: cc82 43bc 50d7 983d c598 26bd 6e95 623d
00000160: 6852 5f3d 95df 94bc 5b37 8dbd 94c6 84bd
00000170: a07e 76bc 8bb7 a43b 1acb 03ba dcd5 95bb
00000180: 8277 87bd fc9c 623d 9fb5 ad3b 7964 13bd
00000190: eb39 6c3d aa0a 4ebd 9413 3bbd d573 c43c
000001a0: 31f6 3f3d c9b4 a13d 963a cfbc 9a6a ca3c
000001b0: 889f 52bd 53e9 0c3c 7ea5 16bd 8ee4 2fbd
000001c0: 6db8 debc 0d73 febc a84c f83c 1558 ff3c
000001d0: 24f2 9bbb b25f 813c e3ca 87bb 7e37 75bd
000001e0: c7f6 513c d559 693c 053f bbbd 3d09 50bd
000001f0: 20cb 0ebd 35bb 533d 51db 293d a073 4abc
00000200: c08a 63bc 441a 86bd 8088 81bd 2e84 97bd
00000210: d4cf 0c3d aa1e 96bc c5ec abbc 4014 a63c
00000220: 2d7f 7fbc 876c 8b3d 9c93 973d 446d 153d
00000230: 1f6d 98bd e596 89bc 50f7 d6bb d184 37bc
00000240: ac8a ab3a 6b84 373d d7b2 bcbd 5ebd 65bc
00000250: 44ba 82bd 77d8 46bd 3ff4 46bd 641f 1fbd
00000260: 7380 17bc d0ef 593d 41e2 25bc da79 1e3d
00000270: 403d 2cbd cb50 a03c 0998 5cbd e7ca b73b
00000280: d63a 193c 4572 39bd e486 63bd f731 393b
00000290: 3c1a 833d 44e1 f2bc 6a07 b2bd 6378 b6bb
000002a0: cd03 37bc 1379 7abd d8f7 52bc 28c9 b03d
000002b0: a98c b83d 049d 373d 2cd0 283d 2e54 6f3c
000002c0: 7d9a 5f3d 19f4 813d 342e 72bd 7207 9e3d
000002d0: 2e03 c9bc 1e51 b33b f196 793c ff00 02bd
000002e0: eb98 06bd fbdd 35bd 152b 45bc f3b8 f8bc
000002f0: 6f41 1d3c ad7a 7bbd 64e6 92bc 3a5c aabd
00000300: dfeb b2bb 5c67 c43d 1990 733d d7cb a43c
00000310: 4e00 ccbc d50b 8ebd 36aa ad3c eb5f a93d
00000320: 94a9 3d3d fa3b c13d e467 1dbc cb28 32bd
00000330: 1423 563d 6c87 f73b cfe5 b43c 3139 2a3d
00000340: 7eb4 7abd 7914 5e3b fa44 90bd eaa1 893c
00000350: 79d5 6cbc f313 433d 96bb 8fbc 7875 243d
00000360: 8a6b 45bd c267 053d e4d5 91bd e4cf c1bc
00000370: c1e8 2bbd 0c64 ffbc 37e5 30bd dce2 aebd
00000380: f536 06bd 1bd2 8e3d bc72 d1bc aca4 11bd
00000390: 2cbb 3a3d b16a 6b3d 7090 8d3d 55df b7bc
000003a0: 7ea0 6fbd 292f cf3a ad3c 98bd 4f2b 1abd
000003b0: 527b 583d 8b00 b53c c860 853d ee1c eebc
000003c0: 93e1 f13c 863e 663c 9974 47bc 567f 2ebc
000003d0: f296 2bbd 29b5 4fbc ba3c d5bb 65a7 2d3d
000003e0: d3ae 85bd 2143 913d 9a59 033d 4875 bdbc
000003f0: e159 0e3d d6fb c8bc 52bd 6c3d ca4a c0bc

fc.bias f4 [256]
-0.03528178 0.046350803 0.0085889 -0.012947768 -0.058305945 -0.0059258225 -0.058306016 -0.011151048
-0.040681005 -0.07304003 0.047850125 0.08142721 0.07576808 0.06690913 0.071435265 0.06649004
-0.011283279 -0.011068587 -0.049851526 0.030654056 0.044666298 0.057542287 0.11011565 0.046823736
0.043926895 0.06341139 0.09444624 0.03357165 0.10531917 0.052249376 0.20090167 0.089308806
0.102156885 0.15658109 0.26114607 0.1922015 0.12509465 0.29012302 0.20330906 0.1308879
0.14035586 0.23917207 0.22495349 0.2019394 0.2307024 0.12715623 0.11479458 0.18062626
0.23701864 0.11392106 0.08766134 0.20770481 0.15018198 0.13132605 0.047579624 0.039907157
0.17650478 0.18046892 0.0119420355 0.02523967 0.07574597 0.09895578 0.12137679 0.000919155
0.15784542 0.016419906 0.03881155 0.01854907 0.07497013 0.1087695 0.14977102 0.027459525
0.10942753 0.100676775 0.05202795 0.01979646 -0.00041086142 -0.04072682 0.11095272 0.026504286
0.012739733 0.0926975 0.10388033 0.09061676 0.054917034 0.120578565 -0.0061245337 0.08323957
0.04080154 -0.042557754 0.11149817 0.07886674 0.109294124 0.004257653 -0.02443581 -0.010453164
0.053358734 -0.005312108 0.030596597 -0.041666586 0.0681872 6.0936004e-06 0.03161691 0.11623037
-0.039831627 -0.046216004 0.02641533 0.06179186 0.05327415 0.03594316 -0.06011083 0.06087098
-0.00087973964 -0.047058877 -0.024767956 -0.025428532 0.032661412 0.04880657 0.023587335 -0.06157051
0.03856209 0.058927782 -0.00791399 0.060029294 0.006751676 0.07904447 0.025692582 -0.014224094
-0.028031863 -0.050044853 0.07705317 0.0400098 0.002697992 0.04412106 -0.00047273803 -0.012762177
0.025550919 -0.07282942 0.049527008 -0.06577265 -0.046567496 -0.00859992 0.034390118 -0.020040717
0.096313916 0.026195185 -0.024099002 -0.09222578 0.019111577 -0.05797282 0.017588966 0.015291668
0.05991891 0.000811116 -0.051475756 -0.06871411 0.028136902 -0.050839283 -0.02544562 0.061556138
0.06959084 -0.057822 0.030324833 0.025965871 -0.05496018 -0.013077444 0.049394075 0.050076213
0.03973404 0.00028233425 0.013460902 0.00161279 -0.010825308 -0.039935686 0.014485757 0.06725535
0.061762404 0.05674072 -0.018289538 -0.080526456 -0.0624447 0.027258087 0.06902847 0.0032188327
-0.06247263 0.07369072 -0.026799118 0.0077320803 0.07780833 0.06582625 0.04336271 0.06908626
-0.03313585 -0.009501929 0.079227954 0.079859324 0.068226464 -0.042041086 0.031215386 -0.01336528
0.051444333 -0.079327404 -0.047093976 -0.07430841 0.07749472 0.051540982 -0.019786095 -0.07387906
-0.035828795 0.01962389 0.02407715 0.06528104 0.07076837 -0.04569755 0.03761629 0.07305142
0.0028899065 -0.022890735 0.012398309 -0.013481757 0.055402137 -0.014857081 0.009097158 0.0020440677
-0.019572387 -0.0234319 -0.024254978 -0.08976334 0.07833194 -0.0804738 0.043104313 -0.08070509
-0.07681098 0.023652507 -0.07469679 -0.05138841 0.03461824 -0.017385215 -0.060595926 0.056827776
-0.074743286 -0.056128465 -0.06039842 -0.0017039219 -0.029392958 -0.024220025 -1.011746e-05 -0.021342114
0.07201023 0.028348796 -0.05195997 0.0339621 0.016983625 0.068722256 0.0408994 -0.04904623
00000000: a183 10bd 57da 3d3d 75b8 0c3c e022 54bc
00000010: 37d2 6ebd 672d c2bb 4ad2 6ebd e3b2 36bc
00000020: 20a1 26bd 0396 95bd 7efe 433d 4fc3 a63d
00000030: 4c2c 9b3d a707 893d a74c 923d ee2b 883d
00000040: 81dd 38bc 0559 35bc 1d31 4cbd 371e fb3c
00000050: 02f4 363d 76b1 6b3d 5084 e13d 3fca 3f3d
00000060: b0ec 333d d5dd 813d 086d c13d 6d82 093d
00000070: 94b1 d73d 7103 563d 2bb9 4d3e 89e7 b63d
00000080: a137 d13d cb56 203e f0b4 853e 78d0 443e
00000090: d018 003e 018b 943e 4030 503e 7a07 063e
000000a0: 72b9 0f3e 86e9 743e 355a 663e 34c9 4e3e
000000b0: 403d 6c3e 3e35 023e 6c19 eb3d 17f6 383e
000000c0: 04b5 723e 724f e93d ca87 b33d 92b0 543e
000000d0: 4ec9 193e 567a 063e dae2 423d b075 233d
000000e0: abbd 343e d8cc 383e 87a8 433c 6dc3 ce3c
000000f0: b420 9b3d 54a9 ca3d 6594 f83d 73f3 703a
00000100: 3ba2 213e 0a83 863c dcf8 1e3d 38f4 973c
00000110: f189 993d 8bc2 de3d 935d 193e ccf2 e03c
00000120: 8a1b e03d a02f ce3d 421b 553d 302c a23c
00000130: e368 d7b9 2ad1 26bd 2e3b e33d 841f d93c
00000140: 50ba 503c 30d8 bd3d 36bf d43d 4895 b93d
00000150: aff0 603d e5f1 f63d 50b0 c8bb 8279 aa3d
00000160: 841f 273d 0a51 2ebd 2759 e43d e384 a13d
00000170: 99d5 df3d c883 8b3b 9c2d c8bc bf43 2bbc
00000180: b08e 5a3d 3111 aebb b7a5 fa3c 95aa 2abd
00000190: bba5 8b3d a177 cc36 bc80 013d 300a ee3d
000001a0: 7d26 23bd fe4c 3dbd f664 d83c 7619 7d3d
000001b0: ff35 5a3d 2339 133d c636 76bd d953 793d
000001c0: 549e 66ba cfc0 40bd 2be6 cabc 7f4f d0bc
000001d0: f9c7 053d 66e9 473d 3a3a c13c 5c31 7cbd
000001e0: 48f3 1d3d 425e 713d aea9 01bc 47e1 753d
000001f0: 2a3d dd3b 11e2 a13d 4079 d23c 2d0c 69bc
00000200: 14a3 e5bc d5fb 4cbd 0dce 9d3d 51e1 233d
00000210: cbd0 303b 49b8 343d d3d9 f7b9 7318 51bc
00000220: 2950 d13c 9727 95bd d5dc 4a3d d0b3 86bd
00000230: 8fbd 3ebd aee6 0cbc a7dc 0c3d 6e2c a4bc
00000240: 3b40 c53d 4997 d63c 456b c5bc dfe0 bcbd
00000250: e28f 9c3c e874 6dbd bc16 903c e789 7a3c
00000260: 886d 753d 13a1 543a 3ed8 52bd fcb9 8cbd
00000270: 5c7f e63c da3c 50bd 5573 d0bc 4a22 7c3d
00000280: a485 8e3d c3d6 6cbd c96b f83c 61b6 d43c
00000290: ed1d 61bd c742 56bc 7151 4a3d b71c 4d3d
000002a0: 29c0 223d 4306 9439 1d8b 5c3c 4164 d33a
000002b0: a25c 31bc 9a93 23bd ab55 6d3c 2cbd 893d
000002c0: 93fa 7c3d f568 683d f1d3 95bc 0eeb a4bd
000002d0: 04c6 7fbd 5a4c df3c cc5e 8d3d 0df3 523b
000002e0: 4de3 7fbd 29eb 963d d389 dbbc 645d fd3b
000002f0: f959 9f3d eacf 863d 199d 313d 197d 8d3d
00000300: 75b9 07bd fbad 1bbc 4442 a23d 498d a33d
00000310: 51ba 8b3d 4633 2cbd 69b7 ff3c 0cfa 5abc
00000320: 4bb7 523d 6876 a2bd 9de5 40bd 022f 98bd
00000330: 8db5 9e3d a31c 533d 7316 a2bc e84d 97bd
00000340: 37c1 12bd 48c2 a03c 713d c53c 11b2 853d
00000350: 02ef 903d 5b2d 3bbd 8a13 1a3d fc9b 953d
00000360: 9664 3d3b 5a85 bbbc 4722 4b3c 96e2 5cbc
00000370: 5aed 623d 1d6b 73bc 3f0c 153c c4f5 053b
00000380: 4556 a0bc 42f4 bfbc 60b2 c6bc d8d5 b7bd
00000390: 7f6c a03d 73cf a4bd 268e 303d b648 a5bd
000003a0: 134f 9dbd e7c2 c13c a1fa 98bd a77c 52bd
000003b0: dbcb 0d3d 706b 8ebc 6f33 78bd 3ec4 683d
000003c0: 0213 99bd f6e6 65bd 5564 77bd 2256 dfba
000003d0: 80c9 f0bc 1369 c6bc 29be 29b7 a8d5 aebc
000003e0: 197a 933d bc3b e83c fad3 54bd d81b 0b3d
000003f0: 3e21 8b3c 41be 8c3d 2186 273d b3e4 48bd

ln.weight f4 [128]
1.2875209 1.223518 1.2459105 1.2489527 1.2560703 1.2525626 1.2408347 1.2635268
1.2549703 1.2645291 1.2510067 1.2589737 1.234341 1.2484288 1.2653177 1.267441
1.2720778 1.2436751 1.2346681 1.2409754 1.2457548 1.2650024 1.2541481 1.2550845
1.2475662 1.2534653 1.264728 1.2743534 1.277045 1.2552644 1.2604195 1.2505085
1.2656438 1.2539716 1.2616634 1.2322694 1.2627643 1.263597 1.2505715 1.2532966
1.2509531 1.2791252 1.2723371 1.2285044 1.2608706 1.2673724 1.2172439 1.2521266
1.2754 1.2559633 1.2690449 1.2645051 1.2319667 1.2486498 1.2523537 1.2753048
1.2777295 1.2925413 1.263978 1.2674258 1.2859086 1.2709057 1.24613 1.2623957
1.2776774 1.2673744 1.2735282 1.2535326 1.268105 1.2631943 1.2350798 1.2475058
1.246994 1.2366397 1.2326418 1.2515255 1.2715592 1.2497016 1.2826961 1.262264
1.234085 1.230869 1.2673101 1.2447252 1.2621461 1.2427346 1.2736266 1.2553475
1.2650867 1.2260307 1.244922 1.2223465 1.2388628 1.2352667 1.2594314 1.2481812
1.2469392 1.2637599 1.2523136 1.2939913 1.2579004 1.272491 1.15751 1.2641426
1.2717754 1.2247353 1.271263 1.2551665 1.2464775 1.2369596 1.2619361 1.2692682
1.2496306 1.250279 1.2548863 1.2721915 1.2780102 1.2155485 1.266272 1.2356879
1.2558439 1.2558795 1.2409368 1.2432623 1.2785991 1.2565812 1.263642 1.281997
00000000: 7ccd a43f 3d9c 9c3f ff79 9f3f afdd 9f3f
00000010: e9c6 a03f f953 a03f acd3 9e3f 3fbb a13f
00000020: dea2 a03f 17dc a13f fd20 a03f 0d26 a13f
00000030: e3fe 9d3f 84cc 9f3f eef5 a13f 823b a23f
00000040: 72d3 a23f bf30 9f3f 9b09 9e3f 48d8 9e3f
00000050: e574 9f3f 99eb a13f ed87 a03f 9ca6 a03f
00000060: 40b0 9f3f 8d71 a03f 9be2 a13f 031e a33f
00000070: 3676 a33f 81ac a03f 6d55 a13f aa10 a03f
00000080: 9e00 a23f 2482 a03f 307e a13f 01bb 9d3f
00000090: 43a2 a13f 8cbd a13f ba12 a03f 066c a03f
000000a0: 3b1f a03f 60ba a33f f1db a23f a23f 9d3f
000000b0: 3564 a13f 4239 a23f a6ce 9b3f af45 a03f
000000c0: 4f40 a33f 68c3 a03f 1070 a23f 4edb a13f
000000d0: 16b1 9d3f c2d3 9f3f 204d a03f 303d a33f
000000e0: a48c a33f fe71 a53f 08ca a13f 023b a23f
000000f0: a798 a43f 0aad a23f 3081 9f3f 2f96 a13f
00000100: ef8a a33f 5339 a23f f902 a33f c273 a03f
00000110: 4451 a23f 5ab0 a13f 1817 9e3f 45ae 9f3f
00000120: 809d 9f3f 364a 9e3f 35c7 9d3f fd31 a03f
00000130: 74c2 a23f 39f6 9f3f 632f a43f de91 a13f
00000140: 7ff6 9d3f 1e8d 9d3f 3837 a23f 2853 9f3f
00000150: 018e a13f ed11 9f3f 3206 a33f 3aaf a03f
00000160: 5cee a13f 93ee 9c3f 9b59 9f3f da75 9c3f
00000170: 0e93 9e3f 381d 9e3f 0c35 a13f 67c4 9f3f
00000180: b49b 9f3f e2c2 a13f d04b a03f 82a1 a53f
00000190: e102 a13f fce0 a23f 4a29 943f 6dcf a13f
000001a0: 89c9 a23f 20c4 9c3f bfb8 a23f 4ca9 a03f
000001b0: 938c 9f3f b154 9e3f 1f87 a13f 6177 a23f
000001c0: e5f3 9f3f 2409 a03f 1da0 a03f 2cd7 a23f
000001d0: d795 a33f 1897 9b3f 3315 a23f 052b 9e3f
000001e0: 7ebf a03f a9c0 a03f 04d7 9e3f 3823 9f3f
000001f0: 23a9 a33f a7d7 a03f 05bf a13f 7a18 a43f

ln.bias f4 [128]
-0.2821276 0.24120107 0.25487402 0.250972 0.25523683 0.25592652 -0.25420254 0.26924503
0.25657588 -0.24880272 -0.24043737 -0.26499984 -0.24245109 -0.24877454 -0.25943527 0.26199514
-0.2625837 0.2545919 -0.24457702 0.25699317 -0.25416905 -0.25924024 0.25265944 0.2512194
-0.24402447 -0.24929099 0.2649862 -0.26099744 -0.27550277 -0.2563352 0.26135552 -0.25546446
-0.2565328 -0.25097835 0.2625582 -0.24197546 0.26368114 -0.25703925 -0.24976987 -0.2594452
0.25514907 -0.26880422 0.2650332 0.2477328 0.2495673 -0.2664925 -0.26697585 -0.25586656
-0.27264288 0.28605264 0.2659362 0.2630234 0.2432224 -0.25653607 0.24573152 0.2665505
0.26984817 -0.27494204 0.2648662 -0.26918802 -0.27553073 -0.26074708 -0.25064865 -0.26877773
0.2817626 -0.26671213 0.26660573 0.25165427 0.26288795 0.2653727 -0.25188962 -0.25099346
0.25080118 0.24199852 0.24212267 0.26140383 0.26096714 -0.24904625 -0.27460068 0.25764704
-0.24763462 0.24230887 0.2636013 -0.24895532 -0.25135654 0.24982457 0.26461503 -0.26113513
0.27200168 -0.23712608 -0.25408795 -0.23676743 -0.23909947 0.24594831 0.25918943 -0.24917221
-0.25150326 0.2615136 0.24725395 0.2803935 0.25396344 0.26595217 -0.21280366 -0.26672977
0.26776424 -0.2410417 0.25067475 0.2605381 0.26281837 -0.24805419 0.2596129 -0.25889787
0.2565888 -0.25212842 0.27122635 -0.26649487 0.2678303 0.23451601 -0.26251388 0.24868251
-0.25527778 -0.25608194 -0.24989837 -0.25694793 -0.27155674 0.2527525 0.2637383 0.26178205
00000000: 0773 90be 6afd 763e d97e 823e 677f 803e
00000010: 67ae 823e cd08 833e d626 82be 7cda 893e
00000020: ea5d 833e 24c6 7ebe 3735 76be 0fae 87be
00000030: 1945 78be c1be 7ebe b3d4 84be 3a24 863e
00000040: 5f71 86be df59 823e 6672 7abe 9c94 833e
00000050: 7222 82be 23bb 84be 945c 813e d49f 803e
00000060: 8de1 79be 2346 7fbe 45ac 873e 75a1 85be
00000070: b30e 8dbe 5e3e 83be 64d0 853e 3dcc 82be
00000080: 4458 83be 3c80 80be 076e 863e 6ac8 77be
00000090: 3701 873e a69a 83be acc3 7fbe 00d6 84be
000000a0: e6a2 823e b5a0 89be 6eb2 873e abad 7d3e
000000b0: 928e 7f3e b471 88be 0fb1 88be f100 83be
000000c0: d997 8bbe 7e75 923e ca28 883e 01ab 863e
000000d0: 4b0f 793e b258 83be 0ba1 7b3e 4f79 883e
000000e0: 8a29 8a3e 34c5 8cbe 8b9c 873e 03d3 89be
000000f0: 5d12 8dbe a480 85be 0555 80be 3c9d 89be
00000100: 3043 903e 7e8e 88be 8c80 883e d4d8 803e
00000110: 4099 863e eede 873e adf7 80be 3782 80be
00000120: 0369 803e 76ce 773e 01ef 773e b9d6 853e
00000130: 7c9d 853e fb05 7fbe 7698 8cbe 50ea 833e
00000140: ee93 7dbe d11f 783e c0f6 863e 25ee 7ebe
00000150: ceb1 80be 03d2 7f3e 9f7b 873e 81b3 85be
00000160: ce43 8b3e 2ed1 72be d117 82be 2973 72be
00000170: 7ed6 74be e0d9 7b3e 7ab4 843e 0027 7fbe
00000180: 09c5 80be 1ce5 853e 2430 7d3e bd8f 8f3e
00000190: 7f07 823e e22a 883e 34e9 59be ce90 88be
000001a0: 6518 893e a3d3 76be 7158 803e 4065 853e
000001b0: 2190 863e eb01 7ebe fbeb 843e 438e 84be
000001c0: 9b5f 833e fa16 81be 2ede 8a3e 0472 88be
000001d0: 0e21 893e f724 703e 3868 86be a1a6 7e3e
000001e0: c5b3 82be 2c1d 83be 5ce5 7fbe ae8e 83be
000001f0: 7c09 8bbe c768 813e b508 873e 4c08 863e
