model.pth (torch, 122235 bytes, 8 tensors)

gru.weight_ih_l0 f4 [192, 3]
00000000: b39a eebc 1039 243e b87a c1bd 29a2 c73d
00000010: 5d1c 043d 2e5f f13d 9e11 3b3e b013 2a3e
00000020: b070 4b3c b685 173e bba1 143e 4887 f4bc
00000030: 3531 23be bfaa a63e 0801 aabc dd30 d13d
00000040: 778d 893e 12ed d03d 0a89 9f3e 44fa 3b3e
00000050: 0863 fd3c dc6b 0bbd 27e1 7c3d a49e d83d
00000060: 7261 883c 5131 d73d f8f6 e53c 632f 8b3d
00000070: 3432 b33e ce87 fbbd 9fa0 5b3e 6f65 7d3e
00000080: 30f9 3ebd e01f 923e 0981 a33e cc9c be3d
00000090: bb7c db3d 7fdf 883e 9465 6c3d 79e6 ed3d
000000a0: 3e6b b73c c417 28bd ed93 ac3d 63fd 3fbe
000000b0: 54ff 4e3d 0c4e 86bc a4fc d53d c87f 59bd
000000c0: a4da 83bd ce97 213e 0017 96bd 522e 8e3d
000000d0: 7e16 08bd 960b e33d 8662 82bd 0d15 63be
000000e0: a0e6 37bc 466a d83c cf05 6f3e 80ae d2bb
000000f0: 437d 443d 5994 893d 62cd e2bd 06aa d53d
00000100: db1d a33e 8a79 b83d 05cf a03c 33c4 4d3d
00000110: 003c 883a 778e 053e 6d01 163e e0aa 563d
00000120: bf14 253e 5f80 c83d fea8 f33d 1fb0 0d3e
00000130: 7dae 753e bccf 1abd 5a60 5bbc 4298 ae3b
00000140: f2eb c43d b66c 933e 8b50 2e3e 2a04 ccbd
00000150: 8854 9b3e dfe8 6c3e c054 25bc 02b3 e33c
00000160: 2e07 023e 5c38 973d 8a1e da3d 8389 903b
00000170: ecf3 c23d 8735 1b3e 8602 523e 3827 a53c
00000180: 58e7 ae3d 8ea6 9e3e f02e cc3c 69da 273e
00000190: 3e8a 9e3e 7650 d2bd d5ee 00bc 3331 7d3d
000001a0: 7824 f3bc bde8 903e 540c 433e 22b3 a73d
000001b0: deb4 db3d b01d 94be 2e95 993d e970 003e
000001c0: d663 b7bc 445c 7e3d 1920 813e 5cde 483e
000001d0: 1080 5fbd cb88 e53d 1dda 943d d0af dd3d
000001e0: f26b 59bc 639b 3dbe 7039 4ebc 0ea0 8f3b
000001f0: 07f1 f63c cac8 f4bd 6e51 023e 4f7d ad3c
00000200: 4c4b 673d 639f 5f3e 11f7 003e e07f d93c
00000210: e495 ae3d 512d b83e 7804 37bd f2fc e03c
00000220: 1fdc 1dbd 9ce9 efbd 488d 9d3c 3a71 b3bd
00000230: b6e7 f33d 580c e3bd a9ce 14bd 40be c9bd
00000240: 16fd eb3d d4d9 1b3e a094 7cbd 1a88 f03d
00000250: 1da2 0e3e 1c8d 603d 43d0 2c3e ad1a 6d3e
00000260: cc1e 003d f08a 3a3e 06e9 a43e 2c05 14bd
00000270: dd70 4e3d 1a9a 243e 6866 dcbc 0867 8fbd
00000280: 1204 9bbd 40f3 bcbc e737 afbd 8c87 28be
00000290: 507a e93d db54 663e 0a3e 7c3e 40e3 6a3b
000002a0: 2d48 8cbd 631c 4bbe 9cfe 023d ad50 89bd
000002b0: 7022 b73d fc61 af3d 6868 b1bc a0eb dabd
000002c0: 7412 69bd 9558 51be b327 dfbb 6005 8abb
000002d0: d033 a43c 9cc6 84bc fee9 8f3d 79eb 69bd
000002e0: 5539 35bd d0ab 1e3d 42f5 f4bb ace2 f03c
000002f0: feaa e2bd ac9f b03d a81b 8abd 36ad cbbd
00000300: f623 bd3c f466 9ebd 6ae8 e33d 4686 943d
00000310: 3120 0b3e 98e1 acbc 1d2b 2d3e 7577 933e
00000320: 6049 bbbd 8253 833e 42a2 293e 0826 54bd
00000330: 2fcb 58be d8ab e03e 0814 a2bc 932f 8f3d
00000340: 5742 9d3e f025 873c 8f11 c43e 20cf c93e
00000350: 94f9 3c3d 1acb b73d edf6 79bd 7ee8 ddbd
00000360: 67e6 133e e3c6 d1bc 5848 943c 18f9 8a3d
00000370: 3ffd cd3e f270 abbd c8e5 8a3e a111 b73e
00000380: 1423 b5bd 001c 393e 099e d13e 065a d7bd
00000390: 0e61 f33e b5ae 5b3e 682b 75bd 7e65 e43e
000003a0: 0457 913e be83 91bd 9524 a23a 14c4 cebe
000003b0: 40b0 4fbd 3f06 43be 0bc8 d2be b8ef 5b3d
000003c0: 2487 f4bd 069a ba3e a073 fcbb bd57 ab3d
000003d0: 7bc1 8abd 982b 4e3d faac 893c 6933 cebe
000003e0: 70c1 30bd 20c5 133d 0975 983e bc73 643d
000003f0: ae68 c13d e98d 4f3e b433 7cbd d717 5d3e
-0.0291265 0.16037393 -0.09447235 0.097477265 0.03225361 0.11785732 0.18268439 0.16609073
0.0124170035 0.147971 0.1451482 -0.029849663 -0.1593674 0.32552144 -0.020752445 0.10214398
0.26865742 0.102014676 0.3115924 0.18357188 0.03093101 -0.03403841 0.06173816 0.10577133
0.016648028 0.10507453 0.028071865 0.06796148 0.3499924 -0.12281762 0.21447991 0.24745725
-0.046624362 0.28539944 0.31934384 0.093072504 0.1071715 0.26733014 0.05771406 0.11616225
0.022390004 -0.04103829 0.08426652 -0.18749003 0.05053647 -0.016394638 0.10448578 -0.053100377
-0.06438187 0.15780565 -0.07328606 0.06942429 -0.033224575 0.11086194 -0.06366448 -0.22175999
-0.011224419 0.026417863 0.2334206 -0.0064294934 0.04797102 0.06717748 -0.1107433 0.1043282
0.31858715 0.09007557 0.019629965 0.05023594 0.0010393858 0.13042627 0.14648981 0.052409053
0.16121195 0.0979011 0.11897467 0.13836716 0.23992343 -0.037795767 -0.013389671 0.005328209
0.096153155 0.28793877 0.17022912 -0.09961732 0.3033793 0.23135708 -0.010091007 0.027795319
0.12698051 0.073837966 0.10650356 0.004410924 0.09519181 0.15157138 0.20508775 0.020160303
0.08540219 0.30986446 0.024924725 0.1639191 0.30964845 -0.10269253 -0.007869442 0.0618145
-0.029680476 0.28302565 0.19047672 0.08188464 0.10727857 -0.289289 0.07499157 0.12543072
-0.022386473 0.06209971 0.252198 0.19616073 -0.05456549 0.11207732 0.07268164 0.10824549
-0.013270365 -0.18516307 -0.012586936 0.0043830937 0.030144228 -0.1195236 0.12726375 0.021177916
0.056468293 0.21838145 0.12594248 0.026550233 0.08524683 0.35972074 -0.044681996 0.027464364
-0.038540002 -0.11714479 0.019232407 -0.08761831 0.1190943 -0.11086339 -0.0363299 -0.098507404
0.11522882 0.15219814 -0.061665177 0.11744709 0.13929029 0.054822072 0.1687632 0.23154707
0.03127937 0.18217063 0.32209033 -0.036137745 0.050400604 0.1607441 -0.0269043 -0.070020735
-0.07569136 -0.02306521 -0.085555844 -0.16457957 0.114002824 0.22493307 0.24633041 0.0035841018
-0.06849704 -0.19835047 0.031981096 -0.06704841 0.08942115 0.08563611 -0.02165623 -0.10689473
-0.056902364 -0.20443948 -0.0068101524 -0.0042120665 0.020044237 -0.016207986 0.07027052 -0.05710933
-0.04424413 0.038738072 -0.007475526 0.02940496 -0.110677704 0.08624205 -0.06743556 -0.09945147
0.023088437 -0.077344805 0.11128314 0.07252173 0.13586499 -0.021103665 0.16910978 0.28802076
-0.091448545 0.2564965 0.16565803 -0.051794082 -0.21171258 0.43881106 -0.019784942 0.06991496
0.30714676 0.016497582 0.38294646 0.39415836 0.046136454 0.089742854 -0.061026502 -0.1083536
0.1444336 -0.025607532 0.018100902 0.06785792 0.40232274 -0.08371152 0.27128434 0.35755637
-0.08844581 0.18077087 0.40940884 -0.105152175 0.47534984 0.21453364 -0.05985585 0.44608682
0.283867 -0.07105206 0.0012370521 -0.4038397 -0.050705194 -0.19045351 -0.41168246 0.05369541
-0.119398385 0.36445636 -0.0077042133 0.08366344 -0.06775185 0.050334543 0.016806114 -0.40273598
-0.043153226 0.036076665 0.2977679 0.055774435 0.09443794 0.20268978 -0.061572745 0.21591125

gru.weight_hh_l0 f4 [192, 64]
00000000: 9a29 a83e 1496 433e 7aa7 b33e 2d43 97be
00000010: 255f 42be 107b 4bbe a3e6 73be 426d 1abe
00000020: 58f3 123e 66cd 00be e54a 77be 6423 1e3e
00000030: 3f99 9d3e c90b c13e e853 393e 186a 853e
00000040: 54d0 2ebe 6bc3 ba3d f8bb b1bd dcd1 c63e
00000050: 7b75 67be f7c1 103e 9474 993e 4506 bdbe
00000060: 2197 553e ec6c 343e b0e8 48be a21d 8abe
00000070: 6a0a b13e cc12 083d 8dc0 d9bd 2e77 3bbe
00000080: facf 8f3d 4ad2 803c e13e 893c cf84 04be
00000090: 8432 5abe b8e5 bf3b 2571 9a3d 80ca a0be
000000a0: f99b 243e 2fa2 083e fd95 2bbe 6570 b0be
000000b0: 1cd2 e4bd 05d9 55be ea19 48be a8f8 08be
000000c0: 3b9c fcbd 00c8 763a e858 603e 065b 973e
000000d0: f246 f0bd 474d 6c3e f7df 393d 8830 b43e
000000e0: f450 ffbd a8eb a83d 36ca edbd 8f95 e83d
000000f0: e804 cabd 7b3f 823e 55f6 a6be c3f6 3d3e
00000100: ed5d 8d3e 2129 d33e 3c50 8f3e bf45 e2be
00000110: d016 a0bd e8b1 2dbe 43a8 aabe eea6 3fbe
00000120: c715 0f3e 9c29 26be c071 76be 04e7 b63d
00000130: 26a2 8b3e 7b71 543e ba21 f1bc 2aba f43d
00000140: adc1 26be 1ee8 703e 9f39 1cbd 82a6 843e
00000150: a9b9 99be 1f58 cc3e ff5e 8a3e a711 6ebe
00000160: 59b7 8c3e bdf1 503e 6f4e b8be 7b97 4fbe
00000170: f508 c73e 3312 31bd 7afb 93be e5de 9fbe
00000180: 408a 873e f386 423e 8a19 933d d59e 0ebc
00000190: 44e5 5f3d c059 a43d 738b 003e ee07 94be
000001a0: 09d8 2fbd 308d 1cbc 56b5 c4be cc43 86be
000001b0: ebeb 13be 0be6 35be 6214 c73b f216 bbbc
000001c0: 3eef a7be 2ee9 953c 7c3b f63d b08e a23e
000001d0: 3d9c cabd dd5c 843d d518 90bd e8f8 bc3e
000001e0: b962 bcbe 1f7b e5bd 826b 373d 8a40 5e3e
000001f0: d427 b7bc 3a2a 0d3e 94ed eabd 6003 ad3e
00000200: 3316 743e a6cc c73e 8961 ec3e 1777 60be
00000210: 5ad6 1dbe 108b 92be 32d4 10be 681d f3bd
00000220: 5154 1e3e cd14 54be d58b 2bbe 1322 87bd
00000230: a4bb 883e 258a 313e 0ea0 993d 71ca 533b
00000240: 0ce2 9abe b140 8abd b503 2cbc 6a64 a23e
00000250: d6a7 12be 1ba5 ba3e c7de 9c3e 86e0 18be
00000260: f05b 813e ef7b 633e 49d3 b1be c7a1 c2bd
00000270: f3ff 843e 5470 713c d656 a4be cd47 13be
00000280: b3d3 273e 7f43 b1bb ecc2 b0bc 00cd c5bd
00000290: 149c 2ebe b5a1 ef3d 8e1b 823e 0475 99be
000002a0: 3833 02be 323c ba3d 1853 a9be dd7f 36be
000002b0: 31a7 093d 4c39 6fbe c709 47be fc3c 10be
000002c0: 423e 03be 6467 0e3e 7326 1f3e a0eb 823e
000002d0: 853b 393d 3238 6a3e 1832 69bd e102 563e
000002e0: 2bfd 0ebe 06fc e7bd 30b8 bbbd 0e70 273e
000002f0: da4d e1bd 2c41 e9ba 9eb2 a3bd 7696 483e
00000300: a41a f03c 96a2 ba3e 411f bd3e 7dff 31be
00000310: 7b37 a1bd 198e 86be e183 2dbd a6b3 1dbe
00000320: 16ae 8f3d 6841 14be 16af 61be 8d01 223e
00000330: fe31 d13d 3dcd 813e cbed 0d3e d305 103e
00000340: fb63 85bd 6763 413e 7aa0 1c3c 4dd5 7b3e
00000350: c11f 5bbe 19ca e73d 40ae a23e f4ce b6bd
00000360: c1ff 8c3d d301 553e 1f86 9bbe b26a 05be
00000370: 031d 7f3e 5246 503d 2940 61be 943d f4bd
00000380: 0e4e 453e e14a 06bd fb20 d83d ea30 03be
00000390: 54c3 69bd 5ba5 a2bc 23fe 5e3e 0efe 8dbe
000003a0: db29 13be 1946 063e a704 8cbe 689f d7bd
000003b0: f396 84bd 5f14 f9bc f628 503d 77ee 30be
000003c0: 2579 62bd 5149 4e3e 16c2 803d a4b5 9d3e
000003d0: 71ed 2dbe 1b0c 973d a70a 9cbd a5fe 9e3e
000003e0: a93d 72be c299 5cbd 05a3 473d d77c 693e
000003f0: d65d dc3d 3c7c a9bd 825a b5bc c2ee 0c3e
0.3284424 0.19100219 0.35088712 -0.2954344 -0.18981607 -0.19871163 -0.2381845 -0.15080741
0.14350641 -0.12578353 -0.24149664 0.15443188 0.3078098 0.37704304 0.18098414 0.26057506
-0.17071658 0.09119304 -0.0867843 0.38831985 -0.22603409 0.14136492 0.29971755 -0.36918846
0.20858432 0.17619675 -0.19620013 -0.26975733 0.34578258 0.03322105 -0.10632429 -0.18307182
0.0702209 0.015725274 0.016753616 -0.12941287 -0.21308333 0.005856242 0.07541112 -0.31404495
0.16075124 0.13343118 -0.16756435 -0.3446075 -0.11172888 -0.20883568 -0.19541135 -0.13376105
-0.12334486 0.00094139576 0.21908915 0.29561633 -0.11732282 0.23076354 0.045379605 0.35193276
-0.124666125 0.08248073 -0.11610834 0.11356651 -0.09864217 0.25439057 -0.3260981 0.18551163
0.27610722 0.41242316 0.279909 -0.44193837 -0.07816851 -0.16962397 -0.33331499 -0.18716022
0.13973151 -0.1622681 -0.2406683 0.089307815 0.27272147 0.20746414 -0.029435027 0.119495705
-0.16284819 0.23526046 -0.03814089 0.25908285 -0.3002446 0.3991098 0.270256 -0.23248921
0.27483633 0.20404716 -0.3599734 -0.20272629 0.3887402 -0.043230247 -0.289028 -0.31224743
0.26472664 0.18996792 0.071826056 -0.008704861 0.054662004 0.08024931 0.12553196 -0.289123
-0.042930637 -0.009555146 -0.38419598 -0.262236 -0.14445464 -0.17763536 0.006075428 -0.02283809
-0.32799715 0.018299665 0.120230645 0.31749487 -0.09893081 0.06463025 -0.07035986 0.3690865
-0.3679407 -0.11205124 0.04478026 0.21704307 -0.022357859 0.1378564 -0.11471096 0.33791637
0.23836593 0.39023322 0.46168163 -0.21920429 -0.154138 -0.2862172 -0.14143446 -0.11870843
0.15461852 -0.2071106 -0.1675256 -0.06598296 0.26705658 0.17337854 0.07501231 0.003231671
-0.30250585 -0.0675062 -0.010498931 0.31717235 -0.14321837 0.3645409 0.30638716 -0.14929399
0.25265455 0.22215246 -0.3473151 -0.09503513 0.25976524 0.014736254 -0.320975 -0.14382859
0.1638935 -0.0054096575 -0.021577321 -0.09658241 -0.17051727 0.11700765 0.25411648 -0.29972088
-0.12714851 0.090935126 -0.33071208 -0.17822213 0.03360671 -0.23361701 -0.19437324 -0.14085764
-0.12816718 0.13906628 0.15542011 0.25570393 0.045222778 0.22873 -0.05693254 0.20899536
-0.13963763 -0.113273665 -0.0916599 0.16351339 -0.11001177 -0.0017795912 -0.07993053 0.19588646
0.029309578 0.36452168 0.36937907 -0.17382617 -0.0787191 -0.26280287 -0.042362098 -0.15400562
0.07015626 -0.14478076 -0.22039446 0.15820904 0.102146134 0.25351897 0.13860242 0.14064722
-0.065132104 0.18885575 0.009559745 0.24593087 -0.21398832 0.11317844 0.31773567 -0.08926192
0.06884719 0.20801477 -0.30375764 -0.13028982 0.24913411 0.050848313 -0.21997131 -0.119258076
0.19268057 -0.032786254 0.105531655 -0.12811628 -0.057071045 -0.019854238 0.21776633 -0.2773289
-0.14371435 0.13112678 -0.273473 -0.10528451 -0.06474104 -0.030405222 0.050820313 -0.17278467
-0.055291314 0.20145155 0.06287019 0.30802643 -0.16985108 0.07375356 -0.07619219 0.31053653
-0.23656334 -0.053857572 0.048739452 0.22801529 0.10760085 -0.08275649 -0.022137884 0.13762954

gru.bias_ih_l0 f4 [192]
00000000: 4556 bbbe 7135 eebd 2469 07be 6237 563d
00000010: eff9 c0bd 201a 78be 8f1e 81bc 03f9 aabd
00000020: ea59 df3c d228 71be 41f3 5cbe 482a 04be
00000030: 8ad7 b8bd 2d35 7dbe 8ba3 97bd 3bd1 03be
00000040: 00b8 1cbe 0b1e a6be c897 4cbd 8318 38be
00000050: b795 21be d07c 5bbe 958c 2cbe c51c b7bd
00000060: b697 87be 1542 53bc 6031 59be 4806 bcbd
00000070: a947 80bc 8d21 71be 9758 f3bd 0413 d3bb
00000080: 1f58 86bd aae3 41be 7d84 06be 50c0 1cbe
00000090: eb07 68be d7dc 0cbe 28b2 11bd f704 e8bd
000000a0: ee3c 9c3d 9c3f e8bd f559 42bd 0ae6 70be
000000b0: c365 8abd 2476 03be 8231 38be 3c95 adbd
000000c0: eac6 3fbe 36e3 88bd f095 2fbd 7e52 0ebe
000000d0: 228b 26be cad3 5bbe 6009 f9bd 8362 4cbe
000000e0: 6ff7 763c c23e aabc 5ef3 08be f8d7 fdbd
000000f0: 6f63 583d 0b5c 21be f824 4fbe 63bd 73be
00000100: b32f eb3d 9233 7abd 9a1a 043e d3bc d03c
00000110: 8bc5 27be 9228 673d a565 30be 3a46 c63d
00000120: b480 903e 7ec6 81bb 9ad6 233d 31ff acbe
00000130: ae92 9abd a444 c9bd 6729 db3d d773 743d
00000140: f6c3 85bc ab95 b7bc 1fea 923d 772c 213e
00000150: be5c be3d 669d 8abd 97e4 b3bd 2ac1 11bc
00000160: bb2a 01bd 767c 8bbd 2334 33be 0662 3fbe
00000170: 005d 0cbe e502 013e 472a 11be d4fc 0dbe
00000180: 9a7a 4ebe 5448 19be ab7d 6c3d ae28 97be
00000190: cb50 1bbc 12f3 1fbe f17f 84be 00bd 59be
000001a0: bb6a bbba c1b7 2e3e a465 2bbd 0620 6ebd
000001b0: 7489 2f3d 6621 0f3d a8b0 293e 915b e63c
000001c0: 872f e7bc 4686 113d 96b2 6abc fa6b bcbd
000001d0: 0d8f 153e f6a5 283d 768a e03c 4d81 8e3c
000001e0: c2e6 5fbd 0be1 943d 6972 d63d 6131 fe3c
000001f0: 4ce0 933e 74c5 103d a175 bd3e 70ac e23d
00000200: 7665 83bc 5c57 d3bd ff1a 5ebd 6c32 863d
00000210: 0184 533d 073f 5e3c 8cb5 263e a6ac 693c
00000220: 48b0 75bd db63 293d ee3a 703d b149 24ba
00000230: 6e62 26be d79b 22be a8f7 77bc 3974 d5bc
00000240: 94d8 ac3d a667 0cbc 42f4 81bd dc82 72bd
00000250: 7687 a23d cd88 e3bd 6262 2cbd ad06 e53d
00000260: 07b6 edbd db17 adbd 0370 093e 0ca0 013d
00000270: 67ec ecbd bfc0 00bd 0080 d03d 5c51 7d3d
00000280: 0450 cabd 8136 34bd 5cc2 e73c fe09 013e
00000290: 7d31 673c 932b 6fbd d714 a0bd 9d75 093e
000002a0: 4935 46bd 0c1a a3bd 9b28 0a3e 012f dc3d
000002b0: 85ea 323d 75ee f1bc 3ad7 32bb 5ae5 8d3d
000002c0: 0592 993d 6c22 8bbd 0fe0 c63a ad27 babd
000002d0: 17a6 d03c 0fe2 b6bd d5e4 123b 855f dbbd
000002e0: f88b 523d 05ec 043c 405b 713d e29f 88bc
000002f0: 4e9e 693d 13a8 bcbc 39a3 383d fd74 70bd
-0.36589256 -0.11631287 -0.13223702 0.05229891 -0.09422671 -0.24228716 -0.015761642 -0.083482765
0.027264554 -0.23550728 -0.21577169 -0.12906754 -0.09025486 -0.24727316 -0.0740424 -0.12872784
-0.15304565 -0.32444796 -0.049949437 -0.179781 -0.15779768 -0.21434331 -0.16850503 -0.08941034
-0.26482934 -0.012894173 -0.21210241 -0.091808856 -0.01565917 -0.23547955 -0.118821315 -0.006441476
-0.065597765 -0.18934503 -0.13136478 -0.15307736 -0.2265927 -0.13756119 -0.035570294 -0.11329072
0.07628809 -0.113402575 -0.04744907 -0.23525253 -0.06757691 -0.12838036 -0.17987636 -0.0847573
-0.18728223 -0.06683962 -0.0428676 -0.13898656 -0.16264012 -0.2146751 -0.12159991 -0.19959454
0.015073641 -0.020781878 -0.13374087 -0.123947084 0.052829202 -0.15757768 -0.20228946 -0.23802714
0.11483707 -0.061084338 0.12900773 0.025480663 -0.1638395 0.056435175 -0.17226274 0.096813634
0.28223193 -0.0039604297 0.039999582 -0.33788446 -0.07547508 -0.09827545 0.10701256 0.059680786
-0.016328793 -0.022410234 0.07173561 0.15739618 0.09295033 -0.067683026 -0.087838344 -0.008896152
-0.03153489 -0.068108484 -0.17500357 -0.18689737 -0.13707352 0.1259876 -0.14176284 -0.13865978
-0.20163956 -0.14968997 0.057737034 -0.29523224 -0.009479712 -0.15620068 -0.25878862 -0.21263504
-0.0014298776 0.17062284 -0.04184498 -0.05813601 0.042855695 0.03494396 0.16571295 0.028119834
-0.028220905 0.035528444 -0.014324805 -0.092002824 0.14605351 0.041173898 0.027409773 0.01739564
-0.054663427 0.07269486 0.10471041 0.031029405 0.28882062 0.035344556 0.37003806 0.11068046
-0.016039591 -0.10319397 -0.054224964 0.06552586 0.05163956 0.013564832 0.16280192 0.014262354
-0.059982568 0.041354995 0.05864995 -0.00062670844 -0.16248485 -0.1587976 -0.015134729 -0.026056396
0.084397465 -0.008569634 -0.063454166 -0.05920683 0.079359934 -0.11110077 -0.042086013 0.11182914
-0.116069846 -0.08451816 0.13421635 0.031646773 -0.11568528 -0.031433817 0.10180664 0.06184517
-0.09878543 -0.04399729 0.02829092 0.12601468 0.01411092 -0.058391165 -0.07816475 0.13423772
-0.04839066 -0.079639524 0.13492052 0.10751153 0.043680687 -0.02953265 -0.002728893 0.06928511
0.07498554 -0.06793675 0.0015172976 -0.09089599 0.025469823 -0.08929836 0.0022414227 -0.10711578
0.051403016 0.008112912 0.058924913 -0.0166778 0.057035737 -0.023029363 0.045077536 -0.05870532

gru.bias_hh_l0 f4 [192]
00000000: f07e 94be 1635 4bbd c32f 43bd 09d6 10be
00000010: f32e 14be fb12 c9bd 860e 0dbe 7db9 03bd
00000020: ed1d 06be 7e5e d2bd f722 94bd 9ba3 2dbd
00000030: a9cf c43c 651c 56be a99b 0abe 5ce6 e9bc
00000040: 2dde debd e4f7 2ebe b5d4 93bd cb81 5fbe
00000050: e53f 69be 0abb 86bc 3f32 0dbe f015 51be
00000060: cd40 9cbe 12f0 5abd 5435 45be 6415 51be
00000070: 6163 81bd 8127 55bd b796 47be f16e 0dbe
00000080: 12ae 89be b354 a1bd 9494 6b3d 4c1a 85bd
00000090: f10e 76be 958b 1cbd 8925 4fbe 19ce 10be
000000a0: 41b0 553d 079e 17bd c2f7 43be 1569 9abe
000000b0: 0807 52be f97e 0fbe ce4e 2ebe 7edc 30bd
000000c0: 681d 24bc 93d2 7a3c d46b 40bd ea55 50be
000000d0: 45d8 3cbe 75e0 21bd 9785 ecbd 7d96 e3bd
000000e0: 916e d2bb bf63 6bbe dc42 0fbe a14b edbd
000000f0: 5999 32be 03c7 b3bd ea41 17be 2943 7bbe
00000100: e589 0d3e 95e8 8239 1f02 34bc dc08 27be
00000110: 8da4 35be ffc5 a8bb 94ea 1dbd d88a 50bd
00000120: a6c0 8c3e 9422 11be 26f0 ad3d ece5 85be
00000130: 013d 1ebe d8d9 eabd 0b18 b93d 0d96 b83d
00000140: 86ef b93c 9740 1dbd d070 8cbd be08 3e3e
00000150: ae2a 3c3e 1e27 45be c1a8 143e b8e4 f43d
00000160: d6b2 1c3e 82d3 9abc e443 bfbc b4e3 34be
00000170: b629 21bd 14a3 9e3d c600 37be 6e82 e1bd
00000180: 2e5c 86be 8dcb 67be d942 893d f0e0 2abe
00000190: 6403 20bd 82b4 68be d8f0 93bd 93d6 24be
000001a0: d430 b93c 83db 933d e025 6bbe cbd2 26be
000001b0: 949e 92bc 927e 0d3e c920 873d 928d f73d
000001c0: 9535 d5bd 2f99 0cbe 453d 1dbe 4701 7ebe
000001d0: 6f12 3d3e ba22 633e e1e1 b2bb d3b3 2dbe
000001e0: a0f3 d93c 04c1 c3bd 54c4 a23d 3e9d 0c3d
000001f0: 0c8c 923e b78d 233d 2bd8 8b3e 9dae f83d
00000200: e027 94bd 8722 b0bd 8fe1 01be 4f2c 233e
00000210: 2377 fbbd 8a22 4d3d b766 d43d 0284 d73d
00000220: b4d1 3a3d a3a5 493d 8693 413d 42b3 41bc
00000230: eea6 29be a1c9 a0bc bfa0 15bd 99dd 22bd
00000240: 2d82 e23b 208c 87ba 75d6 ae3d 3f48 7fbc
00000250: ddef 463d 0362 01be dd8f 4abd ff59 59bc
00000260: a925 9cbd 9dec e73c 50f1 c63d 9679 983d
00000270: b083 06be 87c0 a73d 9520 443d 26a0 df3d
00000280: a7d5 88bd 84f5 90bd 25c9 1ebd adb6 53bd
00000290: a1cc 753d 7016 0b3d ee7e c4bd ee14 4a3b
000002a0: e984 863d c66f 033e 3717 023d 086a 393d
000002b0: 5607 d13d 7e03 fa3d c206 df3d 7951 42bd
000002c0: 8fe4 babd 5517 ef3d 2e0b b5bd 2bf7 6abc
000002d0: 154f 2dbb 4974 8b3c fa83 023d 09fd 0bbd
000002e0: 4bac eb3d 4e99 cc3d 5518 e7bd 6db5 933c
000002f0: a9e2 42bd 5844 05bd c694 64bb e18c 45bc
-0.29003096 -0.049611174 -0.04765297 -0.14144148 -0.14471035 -0.09818073 -0.13775072 -0.032159317
-0.13097353 -0.10271929 -0.072332315 -0.042392354 0.024024801 -0.20909269 -0.13535942 -0.028552227
-0.108822204 -0.1708675 -0.07218305 -0.21826856 -0.2277828 -0.016446609 -0.13788699 -0.20418525
-0.3051819 -0.053451605 -0.19258624 -0.20418316 -0.06317783 -0.052039627 -0.19491087 -0.13811852
-0.26890618 -0.07877483 0.057514742 -0.06499156 -0.24029137 -0.038219053 -0.20229162 -0.1414112
0.052170042 -0.03701594 -0.19137481 -0.30158296 -0.20510495 -0.1401328 -0.17022249 -0.043179028
-0.010016777 0.015308994 -0.046977833 -0.20345274 -0.18441875 -0.0395207 -0.11548918 -0.11112688
-0.006421872 -0.22987269 -0.13990349 -0.11586691 -0.1744131 -0.08778193 -0.14771238 -0.24537338
0.13822134 0.0002496882 -0.010986834 -0.16311973 -0.17738552 -0.005150556 -0.03855379 -0.05091366
0.2749073 -0.14173347 0.0849307 -0.2615198 -0.15452959 -0.11467332 0.09037789 0.09012995
0.022697221 -0.038391676 -0.06857455 0.18558022 0.18375656 -0.19253203 0.145175 0.11957687
0.15302595 -0.018899683 -0.023347802 -0.17664987 -0.03934642 0.077459484 -0.17871389 -0.110112056
-0.26242203 -0.22636242 0.06702203 -0.1668737 -0.039065734 -0.22725108 -0.07223672 -0.16097479
0.02260629 0.07219603 -0.22963667 -0.16291349 -0.017897882 0.13817814 0.0659805 0.12087549
-0.104106106 -0.1373031 -0.15355404 -0.24805175 0.18464063 0.22181216 -0.005459056 -0.16963129
0.026605427 -0.09558299 0.07947603 0.034329645 0.28622472 0.03993007 0.2731336 0.1214268
-0.07234168 -0.086003356 -0.126837 0.15934871 -0.12278583 0.050081767 0.10371154 0.10523225
0.045610145 0.04923023 0.04725983 -0.011822524 -0.16567585 -0.019627394 -0.036530253 -0.039762113
0.006912491 -0.0010341443 0.08536998 -0.01558119 0.048568595 -0.12635045 -0.049453605 -0.013266086
-0.076243706 0.028311068 0.097139955 0.07445066 -0.13136172 0.081910186 0.047882635 0.10919218
-0.06681376 -0.070780784 -0.038766045 -0.051687885 0.060009602 0.033956945 -0.095945224 0.003083523
0.06568319 0.12835607 0.03176042 0.045267135 0.10206477 0.12207697 0.10889961 -0.04744098
-0.09125625 0.11674372 -0.08840023 -0.014341156 -0.0026444842 0.017023223 0.031864144 -0.03417686
0.11507472 0.09990178 -0.11283938 0.018030846 -0.04757944 -0.03253588 -0.0034878715 -0.012057514

fc.weight f4 [256, 64]
00000000: d6dc 6e3c 8e5f 1a3d b983 2cbc c9f4 8d3d
00000010: 87af 8e3c 4459 583d ac83 963d fc94 a53c
00000020: 2d59 fb3c 741f ddbc fe25 c5bd 1017 763c
00000030: 81d5 ad3d 8173 40bd 9897 a2bd 5992 843d
00000040: 8cfb acbc 5d28 353c e208 b13a f842 733d
00000050: b912 19bd 75d4 923d 00ea 13bd c49c 10bd
00000060: a080 c7bd 1236 67bc f32f cf3d e4bb 4fbc
00000070: e711 8c3d ef92 ac3c 9068 f3bc 0ddd 863d
00000080: 190e 373d c8f3 77bb d04f bdba a805 b53d
00000090: 47b5 6b3b 3710 143b e006 473d 9192 ecbc
000000a0: be81 42bd aded 013d 342a 9ebc 8ce2 723d
000000b0: d3b5 403d c263 9c3d 7faa 2c3d 6004 46bc
000000c0: a6b1 95bc c9d3 da3c f9a8 3ebd dd9c 78bd
000000d0: 9f96 4abd 43ef daba f970 37bd 10dc 993d
000000e0: bdb1 ab3d d0a2 9fba 5eb2 49b9 ce23 ac3d
000000f0: 711e 3dbb de0f 563d 684f 343d 9b43 8e3d
00000100: 3d68 44bb eab9 42bd dce5 623a 7053 823d
00000110: 7c51 253d a495 813d 0303 2f3d 3f6c 40bc
00000120: 5007 133e beb6 983b 3970 34ba 138a 1d3c
00000130: 90ae bebd 6c19 253d c666 e23b fcf4 c6bb
00000140: 338f 66bd f295 c8bb 912b 51b9 5b2c 863c
00000150: 8ff0 d53d 7f39 d83b 9b07 023e ab38 43bd
00000160: 973f 743d ba82 9abc cbcb 923c 9f7b 873b
00000170: 4e54 3bbc 8999 593d a0df 1f3d cf17 7b3c
00000180: bc58 803d dd30 b4bc 652b 513b 2acd de3d
00000190: 0de3 c53c 8831 753c 2563 993d 9ed4 643a
000001a0: 2d24 473d 26e3 423d 6540 b5bd a075 e3bd
000001b0: c1b5 2d3d 7ae7 dabc 2ae3 a53d 0dc1 71bc
000001c0: dafe 613a ecc2 01bc 6cc1 86bc 1f99 efbc
000001d0: 5e21 38bd 3b47 123d cd83 f7ba 9d3f ae3d
000001e0: d84d 183c ee69 ba3c 4e43 633d 99b8 e2bc
000001f0: ba89 4539 d84d 08bc 021c 8c3d 50ea 77b9
00000200: 08ba df3c ff8a 583d 3bd8 12bc 0580 823d
00000210: 428a 1d3c cd4e b43d 0f5c 2b3d f330 aebd
00000220: 13a3 b13d a8fc 46bd d786 7ebc c7fc 66bd
00000230: 59d5 74bd baf3 c83d 7f23 303d 8f7e 113d
00000240: 84d9 3c3c a42b 5abb 0620 693d b8ac 023d
00000250: aa92 c23c 8fb7 aa3d c354 563d f500 213d
00000260: a3f2 f2bc 16f9 553b 99b5 8d3d ccd6 c63c
00000270: 1a78 b4bc 77b4 81bc ac48 ab3c b5cf d7bc
00000280: 246f e83c 5351 22bd bb5a 47bd e354 ce3d
00000290: d486 b8bc fe8c 203c c4d4 a53c 40c5 9f3c
000002a0: 6841 bfbb 9de9 c93c d2f0 87bd 2204 f93c
000002b0: 6091 ff36 b728 593a d529 95bb 59a4 c43d
000002c0: a033 28bc 4108 2e3c 01fa 2abd 33c3 623d
000002d0: 0275 613d ff3a 35bd 7f95 e9bc 5ff2 893d
000002e0: c3c9 823d 233d e63c bf23 e3bc 8ee7 953d
000002f0: 14a4 9bbd 0516 82bc e8b9 4bbd 7dda 7a3c
00000300: c2a6 3e3d 6626 ba3c f079 483d 2ade 773d
00000310: c18c 293d f18f 7fbc ffca 093d 8a3a 113d
00000320: e8a5 8abc e573 21bc be94 4c3d a944 783d
00000330: 1cb2 763d 280d 113d 0124 be3d e8c4 813d
00000340: 6a12 543d 59a0 ab3d ec5e c13c d55d 313d
00000350: 9463 5e3d 3b62 623c 1e9f 933c 10ac abbd
00000360: b62b ac3d ad7c 233d 77b5 1e3d d2a8 bd3c
00000370: ef07 94bd b3b9 833d d0fb 5b3c 22c1 7aba
00000380: 2cf2 513c 2804 4ebb 6c22 043d 6f93 e0bc
00000390: 0dcd 6a3c a36f 083d a180 f43a df18 193d
000003a0: 2636 e2bb 8ab3 f83c e0f7 6b3b cb0a 983d
000003b0: d955 d83c 9d59 02bd a482 8abc d1c8 8a3d
000003c0: 1489 b73c 71cb a3bc 10dc 373c 081c a53d
000003d0: 5440 b0bc caec bfbc 44dc 633b 08a7 ffbc
000003e0: dda2 0e3b 75f6 893d c9b8 8a3b 81e2 623c
000003f0: bbf2 e23c c3b4 a0bb f103 313d d829 d93d
0.014579019 0.037688784 -0.010529452 0.06931455 0.017417682 0.052819505 0.07349333 0.020212643
0.03068217 -0.026992537 -0.09626387 0.015020147 0.08487988 -0.046985153 -0.079390705 0.06473226
-0.02111604 0.011056987 0.0013506676 0.05939004 -0.03737137 0.07169429 -0.03611183 -0.035305753
-0.0974133 -0.014112012 0.101165675 -0.012679074 0.06839352 0.021066157 -0.029712945 0.06585131
0.04469118 -0.0037834514 -0.0014443342 0.088389695 0.0035966204 0.0022592673 0.04859054 -0.028878482
-0.047487013 0.031720806 -0.019307233 0.059298083 0.0470484 0.07636215 0.042154785 -0.012086004
-0.018273186 0.026712315 -0.046547864 -0.06069647 -0.04946005 -0.0016703386 -0.044785473 0.07512677
0.0838351 -0.0012179259 -0.000192353 0.08405267 -0.0028857256 0.052261226 0.04402104 0.069464885
-0.0029969357 -0.047540583 0.00086554675 0.06363571 0.040360913 0.0632737 0.04272748 -0.011744558
0.14358258 0.0046604564 -0.00068831776 0.009615439 -0.09310639 0.040307447 0.006909224 -0.006071685
-0.05628891 -0.0061213905 -0.00019948023 0.016378572 0.104462735 0.006598651 0.12698214 -0.047661465
0.059630957 -0.018861163 0.017919442 0.00413461 -0.011433674 0.05312494 0.039031625 0.015325501
0.06266925 -0.021995956 0.0031916734 0.10878976 0.024156118 0.014965422 0.074896134 0.0008729192
0.048618484 0.047579907 -0.08850173 -0.111064196 0.042409662 -0.026721705 0.08099969 -0.0147555
0.00086210447 -0.007920008 -0.016449653 -0.029247819 -0.044953696 0.035712462 -0.0018883884 0.08508227
0.009295903 0.02275559 0.05548411 -0.027675914 0.00018838691 -0.008319341 0.068412796 -0.00023643044
0.027310386 0.052866932 -0.008962686 0.06372074 0.009615483 0.088040926 0.04183584 -0.0850543
0.08673682 -0.048580796 -0.015535078 -0.05639341 -0.059773777 0.09812112 0.0430026 0.035521086
0.011526469 -0.0033290172 0.056915306 0.031903 0.023751575 0.08335792 0.05232693 0.039307553
-0.029656714 0.0032649687 0.06919403 0.024272345 -0.022029925 -0.015833123 0.020908676 -0.02634416
0.028373308 -0.039628338 -0.04867051 0.100747846 -0.022525229 0.00979924 0.020243056 0.019503236
-0.0058366545 0.024647528 -0.0663773 0.030397478 7.616516e-06 0.000828396 -0.004552106 0.09601659
-0.010266215 0.010622085 -0.04174233 0.055361938 0.055043228 -0.044245716 -0.028513668 0.06735682
0.06386139 0.028105324 -0.027727006 0.07319556 -0.07599655 -0.01587964 -0.04973784 0.015310881
0.04654575 0.022723388 0.048944414 0.060514607 0.041394 -0.015598283 0.033640858 0.035456218
-0.016924813 -0.009854292 0.04994654 0.060612354 0.060228452 0.035412937 0.09284211 0.06336385
0.051775374 0.08380193 0.023604833 0.043302376 0.054294184 0.013817365 0.018020209 -0.08382428
0.08406775 0.039913822 0.038747277 0.023151789 -0.07228076 0.06431904 0.013426736 -0.0009565522
0.012814086 -0.0031435583 0.03225939 -0.027414052 0.0143311145 0.03330959 0.0018654057 0.037377235
-0.0069034277 0.030359048 0.00360059 0.074239336 0.026408123 -0.031823743 -0.016907997 0.06776584
0.022404231 -0.01999447 0.011221901 0.08061987 -0.021515049 -0.02342834 0.003476874 -0.031207576
0.0021764555 0.06736461 0.004233454 0.013847948 0.027703634 -0.004904361 0.04321665 0.10603684

fc.bias f4 [256]
00000000: 740d 503a 63bc 8abb 7abb acbc 884f 9fbc
00000010: 3569 833c d882 893c b778 933c e0c1 a83c
00000020: 56cb d73c 61aa 4abc 7a44 2f3b b88d 783c
00000030: 7ea1 123d e156 a23c 65eb 44bc 36b3 d03b
00000040: dc05 f93c fc8c c43c a4eb fb3c a349 023c
00000050: f593 e1bc aa70 803d d202 863c 7e3f 653a
00000060: cddf 943c 9eda 8a3c 7809 983b cf20 0e3d
00000070: 7b0b 8f3c e225 38bd 2191 723d 8b3c 9e3d
00000080: 1865 d53d d8b2 3cbc 389c 2e3d 584f 393c
00000090: d619 903d 0df2 ce3c cab5 5b3d dad3 bbbc
000000a0: c654 1fbb bd2f 1f3d 84fe 52bb 68f5 a23d
000000b0: 9d18 3abd f328 f8bc 8de2 493c 4da6 3a3d
000000c0: c68c e33b 8fa6 263d 84b1 94bd 73c3 fdbc
000000d0: c8d3 b4bd 4753 b8bd 85a0 41bd 4574 9c3c
000000e0: 7c35 313d ad3a f2bc c61e 6fbd 7295 b8bd
000000f0: 8cd6 00be f6ec 353b ddd9 32bd 903b 3bbc
00000100: 1709 9dbd c111 1e3d 81b0 c23d 7ee5 c43c
00000110: 575f 3a3c 27ed a63d 235e 0a3e 06a8 043e
00000120: c89a 8a3d 51d0 4a3e c6fb 253e a80f 2a3e
00000130: de71 333e 3bbe ac3d 7adc 003e 31bf 2f3e
00000140: eee4 133e 77e9 1b3e 1565 5b3e cd21 ac3e
00000150: be09 ac3e c7a7 503e fea2 a03e 29f6 613e
00000160: b5b4 4e3e c138 893e 951a 503e 7770 353e
00000170: 567a 983e 2246 403e 6544 6f3e 3a2a 943e
00000180: 27db 9c3e 964e 9b3e 19f7 793e a519 423e
00000190: 020c 4c3e f6db 4a3e cdb3 7f3e c167 7e3e
000001a0: f866 1b3e 6603 963e 41cc 6c3e c00e 793e
000001b0: 9123 613e fb8b 833e 22e4 8d3e 3b15 263e
000001c0: 152e 863e 40d0 873e 9fd1 853e d951 513e
000001d0: 876a 843e 9338 6b3e fc45 603e d486 473e
000001e0: 0e9d 403e dc8d 0c3e 8657 253e 6bf6 493e
000001f0: be1d df3d 6c98 ef3d b972 c53d ef1a 5b3e
00000200: 4cc0 1f3e 8115 6e3e 7c43 193e dc84 de3d
00000210: d940 2a3e 59f5 3c3e b8be 2f3e 84a4 7a3d
00000220: 0bf7 8c3d f4fc d73d 5483 cf3d ca6c 223e
00000230: bd02 be3d cbd7 b73d 23ce 1d3e 7974 223e
00000240: af7b 023e d71c 033e 688b dd3d 653a 283e
00000250: 522c 213e 20cf a23d db87 163e bb5f 153e
00000260: 4219 613d 5f8c 1e3e 370e 0d3e 7695 a43d
00000270: 74fc 273e 26a2 ca3d 0aa6 453d f874 0c3e
00000280: baab 0b3e 7d9e cc3d d607 283e 0fd6 1d3e
00000290: 6e72 b53d 56fe 163e 603e 203e 3bf3 b63d
000002a0: b9be 063e b19a aa3d 3995 133e 837e 963d
000002b0: a943 013e 959c 083e f694 f63d 1ba4 113e
000002c0: b315 b33d 8af7 173e 05cf cd3d 1f92 da3d
000002d0: 0c5c 143e b115 a13d e748 9d3d 9196 a73d
000002e0: 6439 0a3e 06a8 c03d aeec 8b3d 1276 823d
000002f0: 0956 693d ecd7 8e3d dc3e a93d d9a7 943d
00000300: d9c8 013d 7ec6 763d 790a a43d 7a8a 5d3d
00000310: e85c 5f3d eca3 df3d 059a 9a3d 061a 873d
00000320: d1f8 e23d 2065 853d db0b 6d3d e7f6 783d
00000330: b1cf b73d 7c81 9a3d 43f3 9f3d 2ffd f43d
00000340: 62e6 c03d 09cb 8f3d 0b82 8b3d 9c4c be3c
00000350: 72bb 913d e1a3 9a3d 23cd a73d 589e bf3d
00000360: 4e17 203d 8d91 883d 265f 4a3d 2e7d 853c
00000370: fbaf c03d 6f00 ea3d 272b 803d 23fe 7d3d
00000380: 8cd1 4c3d a911 ac3d 691f 193d 3aad 243d
00000390: e871 903d c765 e13c 79f8 9b3c f5ec 6e3d
000003a0: cd30 cc3d a5f0 a63d e3e8 643d f022 a13d
000003b0: 7fd4 4d3d 1fdf b43d a652 a53d e5c3 ac3d
000003c0: 2a7e 3d3d 96ce c13c 8823 4e3d b572 ac3d
000003d0: 2c8e 483d 8497 ce3b fb5f 3d3d e14a 8c3d
000003e0: e72d ac3b 20d3 303d 3d08 893d b829 203d
000003f0: c279 3c3d 978f 023d c86f 533d 64a4 6a3d
0.0007936575 -0.004233883 -0.02108549 -0.019447103 0.016041378 0.016786024 0.018001897 0.02060026
0.026342075 -0.012369723 0.0026743696 0.015170507 0.035798542 0.019816818 -0.012019013 0.00636902
0.030398302 0.023993008 0.03075201 0.007952127 -0.027536372 0.06271489 0.016358767 0.0008745118
0.018173123 0.016949948 0.0046398006 0.034699257 0.017461529 -0.044958003 0.059220437 0.077263914
0.10419673 -0.011517249 0.04262945 0.011310421 0.07036178 0.025261903 0.053640164 -0.022928167
-0.0024312004 0.038863886 -0.003219516 0.07956964 -0.04543363 -0.030292964 0.01232208 0.045568753
0.0069442717 0.040686186 -0.07260421 -0.030976987 -0.088294566 -0.09000259 -0.047272224 0.01909841
0.043263897 -0.029568994 -0.058378957 -0.090128794 -0.12581843 0.0027759648 -0.043664802 -0.011427775
-0.076677494 0.03859115 0.09506322 0.024035212 0.01137527 0.08150702 0.13512473 0.12954721
0.067678034 0.19806029 0.16209325 0.16607535 0.17523906 0.08434721 0.12584105 0.17162777
0.14442798 0.15225779 0.21425278 0.33619538 0.33601183 0.20376502 0.31374353 0.22066559
0.20186122 0.26801112 0.2032264 0.17718683 0.29780835 0.18776754 0.23365934 0.28938466
0.3063595 0.30333394 0.24410667 0.18955095 0.19926456 0.19810471 0.24970932 0.24844266
0.15175998 0.29299468 0.23124792 0.24322033 0.21986224 0.25692734 0.27713114 0.16219036
0.26207033 0.2652607 0.2613649 0.20441379 0.25862524 0.229708 0.21901697 0.19485027
0.18809912 0.1372599 0.16146669 0.19722907 0.10894345 0.11698994 0.09641022 0.21396993
0.15600699 0.2325039 0.1496715 0.10865185 0.166263 0.18452968 0.17162597 0.06119205
0.06883057 0.10546294 0.10132471 0.15861812 0.09277866 0.08976706 0.15410666 0.15864743
0.12742494 0.1280397 0.10817605 0.16428526 0.15739563 0.07949662 0.14700262 0.145873
0.05495573 0.15483235 0.13774954 0.0803632 0.16404897 0.098942086 0.04825405 0.13716495
0.13639727 0.09991167 0.16409239 0.15413688 0.08859716 0.14745459 0.15648794 0.08933111
0.13158692 0.08330286 0.14412393 0.07348349 0.12623467 0.13340981 0.12040131 0.14222758
0.08744373 0.14840522 0.100492515 0.10672402 0.14488238 0.078654654 0.07679921 0.08183015
0.13498455 0.09407048 0.068322524 0.063701764 0.056966815 0.069747776 0.082639426 0.07258577
0.031685684 0.06024789 0.0800981 0.05408714 0.05453196 0.109199375 0.07548908 0.065967605
0.11082614 0.06513429 0.057872634 0.06078234 0.08975161 0.075442284 0.0781007 0.119623534
0.09418942 0.07021148 0.06811913 0.02322989 0.071158305 0.07550789 0.081934236 0.093563735
0.039084725 0.066683866 0.049407147 0.016295042 0.094085656 0.11425864 0.06258231 0.06200994
0.050004527 0.08401806 0.03738347 0.040204264 0.07052976 0.027514352 0.01903938 0.05833145
0.099702455 0.08151368 0.05588616 0.07867992 0.05025148 0.088316195 0.080724046 0.084358014
0.046262898 0.023658078 0.050326854 0.08420316 0.04896371 0.006304683 0.046234112 0.068502195
0.0052544954 0.043170094 0.066910245 0.039102286 0.046014555 0.03187522 0.051620275 0.05728568

ln.weight f4 [64]
00000000: 7c4c 653f 0127 663f 80b5 643f 27bf 703f
00000010: ac91 3a3f 7f07 6f3f c543 813f 1d0d 663f
00000020: 497d fe3e 46f6 0c3f 7f11 673f 4c0c 483f
00000030: 2ff3 813f 73d4 803f 583c 743f 2f5d 833f
00000040: b86e 813f 8483 013f 5921 683f 4b90 3e3f
00000050: 27be 5b3f e6a6 7f3f 3285 2f3f 035b 673f
00000060: 272a 763f 1f5f 713f 31ba 643f 71c0 703f
00000070: 7ac0 763f 0fec 4a3f 21f4 523f 8eb9 733f
00000080: 23cd 513f 44d7 3c3f c5f0 753f f7d7 2b3f
00000090: e2b9 783f ee50 3c3f b34b 6e3f 1c90 643f
000000a0: 2ec6 7c3f 8df6 623f 5a93 623f bd79 6f3f
000000b0: 651f 583f d662 d53e 79a5 6e3f faac 823f
000000c0: c782 393f 0849 083f 37e2 5b3f 0edd 703f
000000d0: b700 633f 5564 783f c85e 5d3f 8588 6e3f
000000e0: 20fa 003f 03fd 593f f3e1 813f c0ef 663f
000000f0: 780d 703f 7fc2 7f3f 7ec2 613f 8582 4b3f
0.8956983 0.89903265 0.8933945 0.94041675 0.7287853 0.93370813 1.0098807 0.8986376
0.4970496 0.55063283 0.9026107 0.78143764 1.0152339 1.0064834 0.9540458 1.0262812
1.0111914 0.505913 0.90675884 0.74438924 0.85837024 0.9986404 0.68562615 0.9037325
0.9615807 0.9428577 0.89346606 0.9404364 0.96387446 0.79266447 0.8240376 0.9520501
0.8195364 0.7376597 0.9607051 0.6712641 0.97158635 0.7356099 0.9308426 0.89282393
0.987399 0.88657457 0.8850609 0.9354513 0.84422904 0.41676968 0.9322124 1.0209038
0.72465175 0.53236437 0.8589205 0.940873 0.88672966 0.97028095 0.8647275 0.9317706
0.5038166 0.8515169 1.0147079 0.9020958 0.9377055 0.9990615 0.88187397 0.7949603

ln.bias f4 [64]
00000000: 41f5 a23d ca02 c5bb a0f8 91bb 4709 223d
00000010: c5de 0b3e a021 083d 768e 003c 0842 873c
00000020: aa04 553e b025 64be 88de 0abd e7c9 8fbb
00000030: 31f6 3dbd 73b6 ffbc 9931 a53a bc81 7dbd
00000040: 965f a33d 35c7 5c3e 3118 e13d 940d 463e
00000050: 571d 48bd 5dc1 96bd 7a64 d03d 159c 0ebd
00000060: 5e58 9dbb ec1a e0bb 7cdc 363d e6d9 e33d
00000070: cbc6 2dbd 1cf1 2dbc 6028 17bd 3126 523d
00000080: 1624 5d3e deab ff3c 0ca3 3b3d d454 07bd
00000090: 460a 0b3e 6c7e 56be 938d 07bd c308 833d
000000a0: 1641 39bd ce22 fd3c 89d1 583d 4d19 0c3d
000000b0: 90af 95be 1f3a 7f3c 56ae 08bd bab2 8c3d
000000c0: 52c1 f83c fa84 963d ce61 b3bc a5e2 ebbc
000000d0: 1f5f a3bc d5e6 1abd 2efb b83c c68b 99bd
000000e0: 7808 98be 501e ccbd 11f3 8b3d 626b 3c3d
000000f0: 65cb 3bbd 0824 fa3b e419 adbc 5702 adbb
0.07956935 -0.0060122954 -0.0044546872 0.03955963 0.13659199 0.033235192 0.007846465 0.016510978
0.2080256 -0.22280002 -0.03390363 -0.0043880823 -0.046377365 -0.031214928 0.0012603282 -0.061891302
0.07977216 0.21560366 0.10990942 0.19341117 -0.048856106 -0.073611 0.101754144 -0.03481682
-0.004801794 -0.006839147 0.044643864 0.11125545 -0.042425912 -0.010616567 -0.03690374 0.051305953
0.21595797 0.031209882 0.04580979 -0.033039883 0.13578138 -0.20946664 -0.033094 0.063981555
-0.045228086 0.030900385 0.052934203 0.034203816 -0.29235506 0.015577822 -0.033369385 0.06870027
0.03036562 0.07349582 -0.021897223 -0.028794596 -0.019942818 -0.037817795 0.02258071 -0.07497363
-0.2969396 -0.09966719 0.068334706 0.046000846 -0.04584827 0.00763369 -0.02113051 -0.00527982
