model.pth (torch, 122235 bytes, 8 tensors)

gru.weight_ih_l0 f4 [192, 3]
00000000: 10e0 423e 8552 bebe 60ee d6bb 40fe 703d
00000010: 06c4 d7bd cccd aa3d ebff bcbd 7f08 013e
00000020: 0052 fabb 45ab 00be f82e b7be e65d f8bd
00000030: cfdd bfbd 2719 02be e652 8b3d f5de 4e3e
00000040: 0fdb 52bd 6096 dd3d 2e96 483e ae71 94bc
00000050: 0809 6fbd 4ba3 97bd 147d af3d 4e02 fabd
00000060: eb09 4b3f a416 c6be 20af 7d3d 76fd 16be
00000070: cf92 04bd ca8f eabd 4901 4d3f bb0f fcbe
00000080: 0480 50bd 2ea8 433d fba7 6bbd aece c3bd
00000090: 498c 8f3d 76b7 15be bc9a be3d e36e 8b3d
000000a0: 7dbe c2bd 6065 e73b 8deb 24be b0c4 d7bc
000000b0: 6020 dcbd cb04 a43d 702d 2ebc 807e cd3c
000000c0: 4e25 683f d756 3a3c 288e 6b3d 00e2 babd
000000d0: 08a4 06bd 6837 f4bd 2dc1 6e3c 43d6 23be
000000e0: b8c6 80bd 5f80 0fbd 66cc adbd aa00 a23d
000000f0: 3b92 18be 40fa e93d b050 fabc 6ca5 ad3e
00000100: 22d9 4fbd 8870 fe3c 0369 43bd d947 a7bd
00000110: 84c9 3fbd 19f5 3fbd c8e0 3a3c 3879 893c
00000120: 85a0 ecbd 631d cabd 9413 31bd b557 0e3e
00000130: 4c15 bbbd 48a6 cc3c b684 87be 602f edbc
00000140: c071 19bb fea6 b3bb 27b2 f43b 9c50 5b3d
00000150: d439 14be e974 10bd 9882 58bd 4922 673f
00000160: 56a3 6e3e aae3 84bd 0c62 c1bd 7ca8 bcbe
00000170: f2d3 afbd 993d 3a3f 49f5 0ebe 1ef9 fd3d
00000180: b895 d23d bcd6 0abc 6a01 cebd 7a46 dabd
00000190: f37c 503b 9284 fd3d b35e 3b3f 05f0 743d
000001a0: c8a7 ec3c 7db8 cbbd 739a 4dbd 94f0 09bd
000001b0: b110 78bf 6811 a13d bc03 b1bd 3f0e 223f
000001c0: 782b b13e 1ac6 df3d 5809 52be feb2 d43c
000001d0: 5cca 243d ae19 5e3e 6e76 a5bd d44c 623d
000001e0: f2d6 2bbf 3fee 61bb 0029 013a 59ce 433e
000001f0: 93d6 0ebd 2c36 f73d 27a9 23bd 1000 a7bc
00000200: d8db e13c 01dd aa3d 927e f63d c04a d33d
00000210: b87b 2b3e 8d6c 24bc c81c bdbc 1f98 16be
00000220: 3da4 393d 6628 d23d 103f 78be 9bf4 28bd
00000230: b4ea 3b3d 3009 52be 60c4 d1bc 401a b23b
00000240: ba99 8bbd 27da 443e 8846 883d b2f4 d7bd
00000250: 74c6 94be 2097 c33c 36a9 3d3e bb7a 1a3e
00000260: 92f4 b1bd 7dce 23bf 5991 b93e b80d 813d
00000270: 2307 4e3e 4913 ac3c a0de 183c c7ba 7ebd
00000280: 87b2 2d3c fcf4 cebd 3166 e3be 81ed 953d
00000290: 1262 8a3d f826 eb3d 5255 b2bc 205e 34bc
000002a0: d08f 91bc 5c9d 9cbd 4cd5 0abd ac4e aebd
000002b0: 1dee b0ba 3e07 f9bd 435a d43b 6cac 04be
000002c0: 3c1c ae3d 773c 2dbe 6da5 aebe 8805 93bc
000002d0: 910f 62bf 1369 1b3e 10de 903d 7e98 993e
000002e0: 8d0b 9dbe 72d0 ad3d 25de c23e 790c 023e
000002f0: d6fd efbd 1d40 f53c c87e 1ebe 80f9 0c3d
00000300: 65c1 9c3c e271 cbbc 0098 6dbc 0efe c7bc
00000310: f0de cdbd 18bd a93c 474a 1cbd 4dd7 bd3d
00000320: ec48 a9bd 96ad 7f3d 6e90 5ebe f8c7 bebc
00000330: 24da 68bd 7cec b93d d030 023d f60c 2bbc
00000340: ecec d43b 044f a33d bcbd 13be 3954 d23d
00000350: 180c f7bc 94f3 f93d 3b19 d33c 6865 e6bd
00000360: 3419 393d 0129 2cbe 901b 9fbc 605b 553e
00000370: 971f a8bd 90db d83c c590 f63d ebd1 603c
00000380: 063e b33d 593b 84bd 5e5b cb3d dc3b dabd
00000390: 265a 80bd 4a17 d23d 086f 81bc 95fa 15bc
000003a0: f005 1e3d d08c dfbd b3fd 403d 2acb d4bd
000003b0: 80b5 e13a 3993 2abd 648f eebc 8af9 f2bd
000003c0: 48d9 673d c6f0 a13c d047 7c3d 7b07 de3b
000003d0: 9ea0 ab3d b4b3 1d3d 40f7 1fbb 298f afbd
000003e0: 7849 b53d 4a48 9abc 8492 853c e29c bd3d
000003f0: 6850 363e 89db e4bd 6a35 ec3d d103 313d
0.19030786 -0.37172332 -0.0065591782 0.05883622 -0.105354354 0.08340034 -0.092285 0.12600897
-0.0076391697 -0.12565334 -0.35778022 -0.12127285 -0.093684785 -0.12704907 0.06802921 0.20202239
-0.05147844 0.108196974 0.19588539 -0.018120613 -0.058358222 -0.074041925 0.08568779 -0.12207471
0.7931201 -0.38689148 0.06193459 -0.14745125 -0.03236657 -0.11453207 0.80080086 -0.4923075
-0.050903335 0.04776781 -0.057533246 -0.095609054 0.07009179 -0.14620766 0.09306857 0.06808259
-0.09508989 0.0070616454 -0.1610548 -0.026338905 -0.107483625 0.08008727 -0.01063095 0.025084734
0.9068192 0.011373243 0.057508618 -0.09125137 -0.032871276 -0.119246304 0.014572424 -0.15999703
-0.062879026 -0.035034534 -0.084862515 0.07910283 -0.14899532 0.114246845 -0.030556053 0.3391527
-0.050744183 0.031059518 -0.04770757 -0.08168001 -0.04682304 -0.046864603 0.011406131 0.016781434
-0.11554054 -0.09868886 -0.04323156 0.13900645 -0.091349214 0.024981633 -0.26468438 -0.028953254
-0.0023413748 -0.0054825535 0.0074675265 0.053543672 -0.14475185 -0.035267744 -0.05285892 0.9028669
0.23304495 -0.06488736 -0.09442529 -0.36847293 -0.08585347 0.7275024 -0.13960756 0.12401031
0.10282463 -0.008474048 -0.100588635 -0.106579736 0.0031812757 0.123788014 0.73191375 0.059799213
0.028888598 -0.09947298 -0.050196122 -0.0336767 -0.9690047 0.07864648 -0.086432904 0.6330299
0.34603477 0.10926457 -0.20511377 0.025964256 0.040232047 0.21689484 -0.08079229 0.05524905
-0.67124856 -0.003447428 0.0004927069 0.19121684 -0.034872603 0.12070879 -0.039956238 -0.020385772
0.02757065 0.083429344 0.1203586 0.10316992 0.16746414 -0.010035646 -0.023085013 -0.14706467
0.045322645 0.10261612 -0.24242806 -0.0412489 0.045878127 -0.20511317 -0.025606334 0.005435258
-0.068164304 0.19223844 0.06654078 -0.10544719 -0.29057658 0.023875773 0.1852158 0.1508588
-0.08689226 -0.6398695 0.36243704 0.06301445 0.2011991 0.02100529 0.009330422 -0.062189844
0.010601646 -0.10105321 -0.44413903 0.07320691 0.06756987 0.11482042 -0.0217692 -0.011008769
-0.01776877 -0.076472014 -0.033894822 -0.08511099 -0.0013498698 -0.121595845 0.0064804866 -0.12956399
0.08501479 -0.16917597 -0.34110585 -0.017946973 -0.88305 0.15176801 0.07073605 0.29999155
-0.30672875 0.084870234 0.38060108 0.1270007 -0.11718337 0.029937798 -0.1547805 0.03441763
0.019135186 -0.024834577 -0.014501572 -0.024413135 -0.100522876 0.02072005 -0.038156774 0.09269581
-0.08265862 0.062421404 -0.21734783 -0.023288712 -0.05684866 0.09078309 0.031784832 -0.010440102
0.00649797 0.079740554 -0.14427847 0.102699704 -0.030157134 0.12204662 0.025768867 -0.112498105
0.04519005 -0.16812517 -0.019422323 0.20835638 -0.0820915 0.026471883 0.12039331 0.013721923
0.087520644 -0.06456632 0.09929536 -0.106559485 -0.062671944 0.10258348 -0.015800014 -0.009153982
0.03857988 -0.1091553 0.047116946 -0.10390313 0.0017220229 -0.04164431 -0.029121108 -0.11864002
0.0566037 0.01976813 0.061591923 0.006775794 0.08380245 0.038501456 -0.0024408847 -0.085722275
0.08851904 -0.018833298 0.016305216 0.09258439 0.1780411 -0.111746855 0.115336254 0.04321653

gru.weight_hh_l0 f4 [192, 64]
00000000: fd89 3bbd fd48 683d 69df b43d f561 ab3d
00000010: 9fd8 d0bd e26f 703c 22c4 d6bd d51a 7ebd
00000020: eb09 a53d 5306 d93d 5a2e 2ebd d5d5 c7bd
00000030: 5e55 84bd b4b7 b13d 55a6 863d b0d5 e03c
00000040: 57b0 c93d 6887 563d c938 77bd fa75 9dbd
00000050: 7d2c 613c 5525 eb3d c30d 9d3d aac6 acbd
00000060: b1b2 aebd 0eb0 b5bc 1017 01be e697 e8bd
00000070: 9348 bf3d daca d23d c979 fd3d 6206 e3bd
00000080: 16d7 853d 2b86 edbd 9918 413d 2512 de3d
00000090: 0bca 983c 0359 143e 89c4 203d af65 16bd
000000a0: d017 45bd d813 b0bc 846e f7bd 7fea 47bd
000000b0: f4ff debd a927 ffbd 7841 b2bb 0529 403b
000000c0: 7216 c63d 0017 c23d 7a73 823b 7ee5 45bd
000000d0: 4367 c2bd 120d 5f3d 7558 eabd 472e 31bd
000000e0: f3d5 063e f1ef 9c3d 3036 cdbd 682b 733d
000000f0: 3681 bbbd f38c 89bd 38b1 35bd 53f4 bdbb
00000100: dcbf 89bc 8574 e3bd c7e0 5bbc 4849 b2bd
00000110: a683 2ebc 934c 813d 65d0 e93d f11c dbbd
00000120: 5d44 b73c 6f03 83bd d98a 833d 35dd ccbb
00000130: e07f ea3c a1f1 7cbd c40b d83d bf16 debc
00000140: 2ea7 933c cebb 9b3d c285 e33d 2f2a 37bd
00000150: de3f e8bd 0bab 7e3d e80f 0b3d 2fba 8c3d
00000160: 1cbb 17bb 27af 29bd c554 bdbd d908 04be
00000170: 22dd f7bc 5a28 9cbd 2f4e 01be 2a20 833d
00000180: b4ca 9abc e11f 2cbc 65d1 83bc cb9c c23d
00000190: f5ce e23b 0d87 e1bc 2071 ec3c 389e d93d
000001a0: 2f59 0dbd 067b 853d 8825 9abc 6363 c4bd
000001b0: 45c5 2bbd 5783 2f3d 695d 003e 4bbb 0fbe
000001c0: c467 fa3b 1489 16bd 9051 fd3d 764c a03d
000001d0: 585e 9cbc b6ae edbb 3629 2d3c f803 103e
000001e0: 76a0 c73c 40b8 b23d 332d 73bc af1f d2bd
000001f0: 5664 f93d fed9 a4bc 938b 6cbd fb04 02bc
00000200: 2ad8 8cbc 8ba4 9c3c 9c11 f43d a666 773c
00000210: 298b b1bd c7e4 f2bc 30de 443c bd2b 973d
00000220: 57cf 7d3d 62fe 09be cb3d 91bd b7c1 a7bd
00000230: a8df f43a a293 f0bd e81d ac3d fc39 b63d
00000240: e2d8 bd3d 91a0 9d3d 73ed 2ebd 049c 6cbd
00000250: d9fb 4a3d 387c 703d b6db 053e 1df6 20be
00000260: 6cf4 d73d f0e6 333d c619 803c 9a9b 9a3d
00000270: d720 9ebd 772e bbbc 2dcf 9f3d 6183 b6ba
00000280: 3fbe 86bd c358 de3c 84fe d0bd b751 9dbd
00000290: 94db 7a3c b191 f43d f940 8cbd 8c24 f53d
000002a0: f84f 21bd 34da b33d 2164 d8bd 0016 383c
000002b0: 1f26 393d a605 07bd 5227 b0bc 5fd4 10be
000002c0: f588 8c3d c2bf 80bd a0d7 c83d febc f73d
000002d0: 6559 1abd be8a fb3a e4d4 bc3d 4e26 5e3d
000002e0: 90db 763d dfee abbd d492 0b3e 88b3 56bd
000002f0: 42ff 0e3c 12b9 f03c bdb4 903d c6ab 853d
00000300: 0a67 78bc 60db b4bd c259 37bd f944 823c
00000310: a102 9abb d6d1 78bd 2917 9c3d a4da 123e
00000320: d670 ca3d 0ec0 bb3d 8a5f 69bd 5cbb c2bd
00000330: 060c 8dbd a02e 3cbd 91d2 5cbd 8c9c f1bd
00000340: 9601 76bd bb28 cabd 3c52 3d3d f10b 993d
00000350: 1098 683d 284f e2bd 393c 23bd d3bc 503d
00000360: 06ac 033b 03df 03bb 1dc0 b4bd ef63 1dba
00000370: 1e7c 94bd 9800 2c3d 677d 9bbd 6a0c 373d
00000380: 6552 08be e491 193d 5fd7 ce3d ce18 c23d
00000390: 240e 6a3d f296 683d 5cd9 a93d 6975 dbbd
000003a0: 6a54 d93d feaa 2e3c 836e ba3d a425 0fbd
000003b0: 2923 7d3d da41 963c 3628 a2bd 796d 993d
000003c0: 2173 a03d 56bc d5bd 8e6c 00be 53c2 803d
000003d0: d4ee c9bd 9f99 b23d d8a3 18bd 1375 ebbd
000003e0: 258e c33d 902f 92bd 2f4a ce3d 532f b63d
000003f0: abd4 4cbd cc50 d8bc a32d dabd 973e a23d
-0.045785893 0.056710232 0.088316746 0.08368293 -0.10197567 0.014675112 -0.10486628 -0.062037308
0.08058532 0.105969094 -0.042524673 -0.09757582 -0.06461595 0.08677617 0.06574694 0.027445644
0.09848087 0.052375227 -0.06035689 -0.07688518 0.013743517 0.1148173 0.076686405 -0.0843633
-0.085301764 -0.022178676 -0.12606454 -0.11357097 0.09340014 0.10292597 0.12376744 -0.11085202
0.06535165 -0.11597856 0.0471426 0.108433045 0.01865103 0.1448708 0.03924993 -0.036718067
-0.048118412 -0.021493837 -0.12081626 -0.048807617 -0.10888663 -0.124587364 -0.0054399334 0.0029321325
0.0967225 0.09477043 0.003981051 -0.048314564 -0.09492352 0.054455824 -0.11442653 -0.043257024
0.13167553 0.07662953 -0.10020101 0.059367567 -0.091555044 -0.06716337 -0.044358462 -0.005796948
-0.016815118 -0.11106209 -0.01342029 -0.087053835 -0.010651505 0.063134335 0.11416701 -0.106988795
0.022371465 -0.06397139 0.064229675 -0.006251956 0.028625429 -0.061753873 0.10549119 -0.027110456
0.018024053 0.0760418 0.11109497 -0.044717964 -0.11340307 0.062174838 0.033950716 0.06871449
-0.0023152297 -0.041426804 -0.09244684 -0.12894 -0.030256812 -0.07624884 -0.12627481 0.06402619
-0.018895485 -0.010505647 -0.016091058 0.09502562 0.006921644 -0.027530218 0.028862536 0.10625881
-0.03450888 0.065176055 -0.018816724 -0.09589269 -0.041936178 0.042849865 0.12535633 -0.1403629
0.0076417644 -0.03675182 0.123690724 0.07827084 -0.019087955 -0.007253493 0.0105689075 0.14064014
0.024368506 0.08726549 -0.014842319 -0.102599494 0.12177341 -0.020123478 -0.057750296 -0.007935758
-0.017192919 0.019121429 0.11917421 0.015100157 -0.08669121 -0.029650105 0.012015864 0.07381389
0.061965313 -0.13475946 -0.07091864 -0.08191245 0.0018682377 -0.11746909 0.08404142 0.088977784
0.09269883 0.07696641 -0.042706918 -0.057765976 0.049556587 0.058712214 0.13072094 -0.15718885
0.10544667 0.04392141 0.01563729 0.0754921 -0.077211075 -0.022849305 0.078031875 -0.0013924652
-0.06579255 0.027141934 -0.10204795 -0.076816015 0.015311141 0.11941851 -0.0684833 0.119698614
-0.039382905 0.08781853 -0.10565973 0.011235714 0.04520237 -0.03296437 -0.021503124 -0.14143513
0.0686206 -0.06286575 0.09806752 0.12096594 -0.03768291 0.0019191129 0.09220293 0.05423575
0.060267985 -0.083951704 0.13630229 -0.052417308 0.00872785 0.029385123 0.07065723 0.06526904
-0.015161285 -0.08830905 -0.044763334 0.01590203 -0.0047000204 -0.06074699 0.07621605 0.14341217
0.09884803 0.09167491 -0.05697588 -0.09508392 -0.06887059 -0.045942903 -0.05391175 -0.11797437
-0.060060106 -0.0987105 0.046221003 0.07472981 0.056785643 -0.11050254 -0.039852355 0.050961327
0.0020091548 -0.002012194 -0.08825705 -0.0006003966 -0.07250236 0.041992754 -0.07592278 0.044689573
-0.13312681 0.037492648 0.100996725 0.09477387 0.05714239 0.056784578 0.08293411 -0.107157536
0.10611804 0.010660885 0.0910311 -0.034948006 0.06180111 0.018341947 -0.07917826 0.074915834
0.07834459 -0.10436313 -0.1254141 0.062870644 -0.09860006 0.08720707 -0.03726563 -0.114969395
0.09548596 -0.07137978 0.10072743 0.08895745 -0.050007503 -0.026405714 -0.10653236 0.07922094

gru.bias_ih_l0 f4 [192]
00000000: de4a 1a3e 4392 87bc ea56 153e 4a0d 48bd
00000010: 62e5 c1bc edc2 2ebd b64d 3e3d 3af0 103e
00000020: 96e1 a03d d5eb 20bb 7844 933c cc5d fc3d
00000030: b4d9 c53d f40b 713e 4d71 d33d f41f ab39
00000040: dc86 b7bd 7155 5e3c 2a83 103e 560a 833e
00000050: dca1 38bc fb94 8fbd 2dcd 0b3e 44c0 fa3b
00000060: 87c5 363d f99a 0d3e de33 10be be92 133e
00000070: 920e 18bd be17 c6bb f49b 093e 9659 b3bd
00000080: a509 403d 6537 293e 41bb 2bbd 419d 7f3e
00000090: 0ab7 f4bd 1645 a63c c876 203e ab38 8a3e
000000a0: 94eb bbbd 70bf 27be c77f 293e 9531 b13d
000000b0: 93f2 963d c5e2 903d 5a52 3d3e a21f b53d
000000c0: e5e9 a43d 1105 21bc 8544 4ebd 1716 85bc
000000d0: 99ef 073e cead 423e 1deb cfbd 492e 713d
000000e0: bd5a 833e 60ca 5b3d 455b f63d 4c55 b13d
000000f0: 7124 e9bd ff5f 12bd 97aa e83c cc5b f1bd
00000100: e5c5 26bd 7cb2 b93c 0b96 9dbe ee77 b0bd
00000110: fca4 14be 239b 593e 61cf a4be c109 efbd
00000120: bc00 76bd e8e9 103c c158 a63e de29 fd3d
00000130: 4e19 6ebe 8955 be3d 1474 37bd fe90 21be
00000140: 365c 8bbd e2fb 6ebe 3670 97be 93a0 21be
00000150: 29d5 d6bc d390 e0bd 270f 01be 94b9 583d
00000160: d7c4 b4bd ffca e1bd 6083 62bc 621e c43d
00000170: c29c 1ebe b26f 733d 3024 39be 4473 c73d
00000180: cd58 16be 6f2d bb3b 9cad 3cbd fe22 79be
00000190: 7beb ba3d 30a1 f3bd be82 edbd aa66 77be
000001a0: ac41 983e 0879 013e 6423 3e3d d4c4 17bd
000001b0: f960 6d3d 0745 2c3c 504e 873d cf5a 723e
000001c0: 31e2 9b3d 3cf7 93bc 73e7 c4bc 9888 b23d
000001d0: 1005 383d 20a6 4fb9 9095 67bd f338 99bb
000001e0: e09f 63be bcae 6bbe 4fb8 70be 59a8 053e
000001f0: b87e 81bb 5233 37bd df24 07be 3ae8 ba3d
00000200: defa 443e 8358 22be 3650 8b3e ebf8 5dbe
00000210: 663a 5d3e 4313 5fbe 9bc5 793e 787c 5bbe
00000220: b146 41be 0d0f 22be c89a fd3c 3f54 1fbe
00000230: 1fd5 6c3e e984 753e 6aeb 46be 059b 6d3e
00000240: a38c 62bd 4368 9c3e 1316 f53d 832d 343e
00000250: c151 65be be78 973e 0bd2 123e 22f5 f3bd
00000260: ef7a 87be b073 553e 5f8b 16be da94 0cbe
00000270: 4f4b 38be 4bc7 c2bd 5557 2abe ef41 dbbd
00000280: 16ca 7c3e beab 09be 059c 91bd 14a8 0e3e
00000290: 8982 80bd 66ca fc3d fc6f 1ebe 3a1c 753e
000002a0: 3bb2 2dbd 11f5 7ebe 8f69 78be 069a 14be
000002b0: cc28 673e f50c 963e e682 5a3e 27ea d3bd
000002c0: d97f 4ebe cd6e 8e3e 7276 4a3e 7d45 113e
000002d0: 9553 243e 58b1 863e a0b2 fdbd 0af1 8b3e
000002e0: f385 633e f11a 873e 05d1 363e c994 41be
000002f0: fb76 ba3d dcec 4bbe e484 2b3e 1038 3bbe
0.15067622 -0.016549235 0.14583936 -0.0488408 -0.023668949 -0.042666364 0.04646083 0.14154139
0.07855527 -0.002455463 0.017976984 0.12322578 0.09660664 0.23539716 0.10324345 0.0003263947
-0.08961269 0.0135701755 0.14112535 0.25593823 -0.011269059 -0.07010838 0.13652487 0.0076523144
0.04462197 0.13828649 -0.14082286 0.14411446 -0.03712327 -0.0060453108 0.13438398 -0.087573215
0.046884198 0.16525038 -0.041926626 0.24962331 -0.119489744 0.020296615 0.15670311 0.2699636
-0.09175792 -0.16381621 0.1655265 0.08652035 0.07370486 0.07074503 0.18488446 0.08843924
0.08052424 -0.009827868 -0.050358314 -0.016245885 0.13274993 0.19011614 -0.10152266 0.05888203
0.25655165 0.053659797 0.12029127 0.08658847 -0.11383904 -0.03573608 0.028401656 -0.11785087
-0.04071607 0.022668116 -0.30778536 -0.08616625 -0.14516062 0.21250586 -0.32189468 -0.11671782
-0.060059294 0.00884483 0.3248959 0.12361501 -0.2325184 0.09293658 -0.044788435 -0.15777966
-0.06804697 -0.23338273 -0.29577798 -0.1578391 -0.02622469 -0.10965123 -0.12603436 0.052911356
-0.08826607 -0.110250466 -0.013825268 0.095761076 -0.15489486 0.059432693 -0.1808021 0.09738782
-0.14682312 0.005712203 -0.046064004 -0.24329755 0.091269456 -0.118959785 -0.11597203 -0.24160257
0.29737604 0.12643826 0.04642047 -0.037052944 0.05795381 0.010514504 0.06606734 0.23667453
0.07611502 -0.018062226 -0.024036145 0.087174594 0.044926703 -0.00019802945 -0.05653912 -0.0046759783
-0.22228956 -0.23015875 -0.23507808 0.13052501 -0.0039518736 -0.044726677 -0.13197659 0.09126325
0.19236323 -0.15854077 0.27209634 -0.21676986 0.21604308 -0.21784692 0.24391787 -0.214342
-0.18874623 -0.15826054 0.030957595 -0.15559481 0.23128174 0.23976482 -0.19425741 0.23203667
-0.055309903 0.30548295 0.11967101 0.17595486 -0.22394468 0.29584306 0.14337938 -0.1191199
-0.26460978 0.20844913 -0.14701603 -0.13728657 -0.17997478 -0.09510668 -0.16634877 -0.10705935
0.24686465 -0.1344442 -0.071098365 0.13931304 -0.062748976 0.12343292 -0.15472406 0.23936549
-0.042406302 -0.24898173 -0.24259017 -0.1451188 0.22574157 0.2930676 0.21338996 -0.103473954
-0.20165958 0.2781891 0.19771746 0.14186664 0.16047509 0.26307178 -0.12387586 0.27332336
0.22219066 0.26387742 0.17853172 -0.18904413 0.09104725 -0.19914573 0.16749913 -0.18283105

gru.bias_hh_l0 f4 [192]
00000000: 0dbd 6cbc 5977 573e 7818 303d 2297 b6bd
00000010: 2ad7 bb39 82ec d8bd 15c3 d23d 71fd 263d
00000020: b8d1 e63c b40e 66bd 4d07 c9bd 827c 953d
00000030: 1fdc 8f3d a047 483d 4184 bbbd 1a09 213e
00000040: 5591 333d 89c2 e23d 6757 533e b5ce b13d
00000050: 227d 8d3d 4313 54bd af74 683e dd71 f13c
00000060: ccbd 0a3d 3c10 9e3d 4145 ffbd 0e1a 0d3d
00000070: fca2 863c d4af e1bd bd40 9d3c df98 443d
00000080: 8306 98bc ca57 003e d9c0 da3c 51de 8d3e
00000090: 3016 493c 7487 acbd eba6 e43d b7c6 443e
000000a0: b0f3 503c 8ddb cfbc 7c97 b33d 3991 043e
000000b0: c600 563e be00 493e 8a98 3b3d 69e8 123d
000000c0: 60c6 963d 5dae a8bd 3c2b 0d3e 7b71 04be
000000d0: a9c0 433e 6857 faba ff9d 933b b6ed 723d
000000e0: 2289 743e 727f bcb9 983c 653e ecf7 3a3d
000000f0: 585f 2d3c 1d86 333d 19e7 273d 052e fabc
00000100: 40a7 26bd bdb4 093d a405 1cbe 5b2c 99bd
00000110: 7442 4cbe 484a 793e b549 fcbd aa1c 80bc
00000120: 5351 fbbd 2806 fabd d3a1 9e3e e567 bdbd
00000130: ff58 53bd a46f 9b3d 0bdc a23d a112 a0be
00000140: f3c7 ea3c eda6 2ebc 8fd0 d7bd 6458 d6bd
00000150: ecf2 613d 764c 7fbe 1050 aabd 77ef 613e
00000160: 1f87 bb3d 4d6c d9bd e801 9a3a ade8 423d
00000170: a392 86bd 5d2e 393c 4014 1bbe ec6d e33c
00000180: 0f36 30be 85a1 d6bc 103a 23bd 42d2 45be
00000190: 4da7 fc3d 243f 3cbe 80ba 36be bec2 5bbe
000001a0: 5cdc bd3e bb38 41bd 3a91 82bc 673f d1bd
000001b0: 9410 ed3d 0009 dcbc abdc f7bd e536 673e
000001c0: d2f3 b53d c08c 21be 51dc d13d 746d ff3d
000001d0: f9b1 b63c 9b57 41be 85f2 0b3e c504 4dbe
000001e0: 3592 d9bd 826d 01be 5641 56be c93a c13c
000001f0: 89f6 823d 990e 0ebd bd5c 92bd ec17 303d
00000200: 750b 5a3e 4b0f 25be 8885 263e e4a9 05bd
00000210: 75c6 3e3e 5279 98bd 5ecb 393e b7e1 42be
00000220: a017 cebd 0b3f 1bbe d735 193c d5d2 63be
00000230: ec46 5c3e 2b61 4b3e ff25 d5bd 4a0c 1c3e
00000240: f53a d3bd b5e0 383e 0c1f b23e 47cb 8a3e
00000250: b847 c3bd aeaa 763d f5e6 903e e378 0dbe
00000260: f587 35bd 2c1b 2b3e cb74 9dbd 4772 3abe
00000270: a40c 1dbe c0f7 94bd 5cc2 d7bd 21f1 f0bd
00000280: 9948 b03c 7c38 a1be 122c 1bbe 61d7 943e
00000290: d72a ebbd 8b09 c43d 346b 65be 5fda 493e
000002a0: 26a8 f83c 25d8 32bd 16af 27be a915 6fbe
000002b0: a52d d03d d6a2 383e d26f 183e cf73 40be
000002c0: f641 60be 6ee4 ad3d 079a 193e 346c ab3d
000002d0: 1b10 4b3e 920b 813e 1f7c acbd 9a78 273e
000002e0: 47d7 753e 9fe4 063e a5c8 7c3e f68a a7bd
000002f0: 7914 c43d 20e7 d1bd 4aa3 4c3e 960d 4fbe
-0.01444937 0.21041621 0.042992085 -0.08915545 0.0003582773 -0.10591985 0.10291115 0.040769044
0.028176174 -0.056166366 -0.09815846 0.072991386 0.07024407 0.048896432 -0.09156085 0.15726128
0.04383977 0.11072261 0.2063881 0.08682004 0.06908633 -0.051776182 0.22700761 0.02947324
0.03387241 0.0771794 -0.12464381 0.034448676 0.016435139 -0.11019865 0.019195909 0.04799735
-0.018557793 0.12533489 0.026703285 0.27708676 0.012273356 -0.08424273 0.111646496 0.19216429
0.012753412 -0.025373245 0.08769128 0.12946023 0.20898733 0.1962919 0.04579977 0.035866175
0.07362056 -0.08236382 0.13786024 -0.12933914 0.19116463 -0.0019099535 0.0045049186 0.05930873
0.23880437 -0.00035953108 0.22386396 0.045646593 0.010581814 0.043829072 0.040991876 -0.030539522
-0.040686846 0.03361963 -0.15236527 -0.07479163 -0.19947225 0.24344742 -0.12318746 -0.015638668
-0.12271371 -0.122082055 0.30982837 -0.09248332 -0.051598545 0.07589653 0.07952126 -0.31264213
0.028659796 -0.010659915 -0.10537826 -0.10466078 0.05516331 -0.24931511 -0.08316052 0.22064005
0.09156632 -0.1061636 0.0011749836 0.04758518 -0.065709375 0.011302558 -0.15144444 0.027762376
-0.17208122 -0.026200065 -0.039850295 -0.19318488 0.123365976 -0.18383461 -0.17844582 -0.21461007
0.37082183 -0.047173243 -0.01593839 -0.10217171 0.11575428 -0.02685976 -0.12102636 0.22579534
0.08884396 -0.15776348 0.102471 0.124720484 0.02230166 -0.18881075 0.13666733 -0.2002135
-0.1062359 -0.1263943 -0.20923361 0.023587601 0.06394679 -0.03468189 -0.07146595 0.042991564
0.21293433 -0.16119115 0.16261876 -0.032632723 0.18630393 -0.07445015 0.18143985 -0.19031416
-0.100631 -0.15160768 0.009351215 -0.22248395 0.2151143 0.19861285 -0.10407638 0.15239063
-0.103139795 0.18054469 0.34789312 0.27108213 -0.09535164 0.060221367 0.28301206 -0.13815646
-0.04431911 0.16709584 -0.07688292 -0.18207656 -0.15336853 -0.07273817 -0.10535118 -0.11764742
0.021518992 -0.31488407 -0.1515353 0.2907057 -0.114827804 0.09572133 -0.22404176 0.19712208
0.030353617 -0.043663163 -0.16375384 -0.23348106 0.10164956 0.18030867 0.14886406 -0.18794177
-0.21900162 0.08490835 0.15000163 0.083702475 0.19830362 0.2520414 -0.08422112 0.163546
0.24007903 0.1317315 0.24685915 -0.081808016 0.09574217 -0.10249162 0.19984165 -0.20220026

fc.weight f4 [256, 64]
00000000: 7992 f9bc 487e e33d 4aa1 62bb 229a 4b3d
00000010: 381e 7a3d 4264 6fbd dad7 933d 63f7 89bd
00000020: f450 31bd a246 423d 70c1 6abc 3a44 8a3d
00000030: 176d e2ba c415 c5bc 7ef4 6b3d 92d7 9ebd
00000040: 0d49 e2bc ee87 aabd 883f 8b3d 538d 5b3c
00000050: 1f9b 83bc 3d6d abbd 308f c6bd 669c 6dbd
00000060: 7506 813d 7a19 793d 66b0 a53d 6532 593c
00000070: 9dd0 a7bd cd84 29bd ff18 26bd 6da4 7a3d
00000080: 0868 5d3d 74a7 b93d bcf6 9fbb e99a 12bc
00000090: 528e 113d f82f 85bd cefb 8cbd fa93 4c3d
000000a0: 31f4 543d 33d2 543d 94a0 173d 75d0 503c
000000b0: 08c9 80bd ad62 8bbd a89a 67bc 2363 39bd
000000c0: f60d b1bd 9a6b 8b3d 03fa af3d bb5c 023d
000000d0: 7a52 983d ad0f 03bc 9dc3 b6bc 3396 c53d
000000e0: 5ba4 f73d 8df9 813d ea5e 87bd 849b 5d3d
000000f0: 6ab2 3f3d deb7 e7bc d4d8 66bd ee40 1c3b
00000100: d462 3e3c ebc9 d63b b4de bcbd 0c86 c1bc
00000110: 2e1e 62bd 244b b43d 7941 7dbd f4a7 60bd
00000120: 7824 923d b5ae 1fbd 98f8 a73c 1562 a83d
00000130: ab7e ccbd 5774 523d dadf 12bd acdb 4e3c
00000140: 36b1 98ba 6e2e 933d ab22 2ebd ba4b 7b3b
00000150: f472 26bd a974 f23c 81ac 7e3d 47b2 40bd
00000160: 19a1 b53c 80fa 2ebb 0f8f 583d f364 0ebd
00000170: 8666 4f3d e7c8 f8bc cf1b c8bd 5f4e 833d
00000180: c824 fbbc 6e1d 783d 6caf 44bd d6dd dcbd
00000190: fb1f a3bc bb50 bdbc 9191 44bc 31eb 7fbd
000001a0: 19ad ba3c 9fd9 a3bc 28c9 45bd e8b4 203d
000001b0: 40d3 3cbd 814e ddbd 006d cb3d 0962 b6bd
000001c0: 0847 80bd e018 883d 2761 553d cf8d 82bd
000001d0: d286 39bc 8c14 36bc 429a 85bd 9eb3 e3bc
000001e0: 4a32 de3c b192 d13d 8d82 993d 5602 e33d
000001f0: f118 5f3d 5d0a 8bbd dba2 3b3d 760d 4fbd
00000200: 9e05 553d 957f d2bc f779 b9bc ab5b 2b3b
00000210: 5703 7e3d d5ab 1dbd cd46 943c f609 9ebd
00000220: 842a 89bd 391e 2b3d 4879 07bd 92b0 1fbd
00000230: 5f63 0b3d d07e 8bbd 7e59 f83c 02d8 1f3c
00000240: 9b30 e8bb 085f fc3c ce4b c9bd 9652 fdbc
00000250: d856 a93b 7797 ec3c 951f f7bc 0e87 8b3d
00000260: e3fa 093d c9a4 1bbc 389a bdbc 3b8c 13bd
00000270: a8f1 acbd 170b 7ebd a09a 013e 9319 0c3d
00000280: df79 12bd 0337 f23c 5d8a 52bd f549 0ebd
00000290: 550c 49bd 6761 dabd aa58 62bd 6fd2 d7bd
000002a0: 86e5 c23a cc8e 6bbd e113 033d 8c58 173d
000002b0: 2a9e 80bd 1e92 32bd e76c 983d 012f 723d
000002c0: 5344 c9bd e8ea 863d 1762 b33d 785e b5bc
000002d0: b424 523c 34a2 cdbd 0d09 b43d 4e7a a43d
000002e0: 4d8d a3bd d554 103e 7b11 a5bc 3631 85bc
000002f0: 757f b8bc e327 a3bc 7ee6 e63b 611d 913c
00000300: 71a8 a43d 1575 1f3b b472 df3d ae1e 8dbc
00000310: 693f aabd e91e 52bd 61f5 92bd 8840 183d
00000320: 5559 8bbd f7ea e1bc 0003 13bd 463b 74bd
00000330: 8de4 50bd 014c 96bd ed2a b9bb 486d 92bc
00000340: 6534 95bd 481b 8e39 3fbb 55bd 1f69 8bbd
00000350: ea15 85bd 7505 02be d667 a7bd 8392 63bc
00000360: fe05 9c3d 5267 a23d 31b0 b3bd 43cf 6d3c
00000370: d7ed 3d3b 9274 223c 2aa4 6abd ccd0 d8ba
00000380: 82a7 5ebd 5e62 313b bc0a d7bc 2f52 6dbd
00000390: 11e7 0d3a 3432 da3c 98e5 6e3c 03ad 9abd
000003a0: 09ee b83c 0c11 173d 1064 43bc d34e fcbc
000003b0: c457 13bd 8d9c 99bd a0d1 dabb c7f8 18bd
000003c0: 8edb 603d 5069 813d a132 d3bc d1bb afbc
000003d0: e45c c0bc a14c 203d 9b24 3cbc c8cb 9f3d
000003e0: 420a ab3d 654a 013e da57 d73d 4c60 793c
000003f0: 7ad5 d33c 0237 30bd b478 4fbd a839 773d
-0.030465351 0.111080706 -0.0034581 0.04970754 0.061063975 -0.058445223 0.07218905 -0.067366384
-0.043290094 0.047430642 -0.014328346 0.067512944 -0.0017274943 -0.02405823 0.057606213 -0.077559605
-0.027622724 -0.08326708 0.06799227 0.013400394 -0.016065178 -0.08370445 -0.096952796 -0.05801048
0.0630006 0.060815312 0.08090286 0.013256644 -0.08194087 -0.041386414 -0.040551182 0.061191965
0.05405429 0.09065142 -0.004881708 -0.008948066 0.035536118 -0.0650329 -0.068839654 0.04994581
0.05199069 0.051958274 0.037018374 0.0127450125 -0.06288344 -0.0680593 -0.014135994 -0.04526056
-0.08645241 0.06807633 0.08592608 0.031826716 0.07437606 -0.007999343 -0.022310073 0.09647789
0.12091895 0.06346426 -0.066099 0.05410339 0.04680101 -0.028285917 -0.056359127 0.0023842412
0.011620242 0.006554832 -0.09222165 -0.023623489 -0.055204563 0.088033944 -0.061830018 -0.054847673
0.07135862 -0.038984973 0.02050428 0.08221833 -0.099850975 0.05138048 -0.035858013 0.012625616
-0.0011649493 0.0718659 -0.04251353 0.0038344697 -0.04063697 0.029596644 0.06217623 -0.04704502
0.022171544 -0.0026699603 0.052870806 -0.03476424 0.050634883 -0.030369235 -0.09770929 0.064114325
-0.030657187 0.06057494 -0.048018858 -0.10784499 -0.01991271 -0.023109784 -0.011997596 -0.062480155
0.022787618 -0.02000123 -0.04828754 0.039235026 -0.0460999 -0.10805989 0.099328995 -0.089054175
-0.06263548 0.066453695 0.052094605 -0.06374704 -0.011323648 -0.011113297 -0.06523563 -0.02779561
0.027123589 0.10233057 0.07495604 0.1108443 0.054467145 -0.06789086 0.045809608 -0.050549947
0.05200731 -0.025695601 -0.022641165 0.0026147168 0.062014904 -0.03849395 0.018100167 -0.07716744
-0.06697562 0.04177687 -0.033074647 -0.03898675 0.034030315 -0.06811297 0.03031611 0.00975609
-0.0070858723 0.030807033 -0.09828912 -0.03092317 0.0051678233 0.028880818 -0.030166427 0.06812869
0.03368653 -0.009499737 -0.023144826 -0.036022406 -0.0844453 -0.062022295 0.12656641 0.034204077
-0.035760757 0.029567247 -0.051401485 -0.0347385 -0.049084026 -0.10663109 -0.055260338 -0.10538184
0.0014869429 -0.05750923 0.03200138 0.03694968 -0.062801674 -0.04359638 0.074426465 0.059126858
-0.09827485 0.065877736 0.087589435 -0.022139773 0.0128261335 -0.100407034 0.08790789 0.0803114
-0.07985935 0.14094861 -0.020149937 -0.016258817 -0.022521714 -0.01991648 0.00704652 0.017714204
0.0803994 0.002433126 0.1091055 -0.017226543 -0.08312876 -0.05129901 -0.071757086 0.037170917
-0.06804148 -0.02757786 -0.035891533 -0.05962684 -0.050999213 -0.07338715 -0.005650869 -0.017874375
-0.07285384 0.00027104677 -0.052180525 -0.0680716 -0.064983204 -0.12697394 -0.08174102 -0.013889912
0.076183304 0.07929863 -0.0877384 0.014514747 0.0028980875 0.009915488 -0.057285465 -0.0016541719
-0.054358967 0.0027066688 -0.026250236 -0.057939705 0.0005413155 0.026635267 0.014581107 -0.075525306
0.022574442 0.03688149 -0.011925712 -0.030799305 -0.03597237 -0.07500563 -0.0066778213 -0.037346628
0.054896884 0.06318915 -0.025780978 -0.021451863 -0.023481794 0.03913558 -0.011483337 0.0780254
0.08351566 0.12626036 0.10514803 0.015220713 0.02585863 -0.04302121 -0.05065222 0.06035772

fc.bias f4 [256]
00000000: e41d a6bc a971 bcbd 8edf e73c f985 f73d
00000010: dbc0 d93d 0bad f93d b641 f73d 8226 34bd
00000020: 9477 6c3d b36a 913d e009 5e3e b50a 4c3e
00000030: 340d 983d e512 743e 9bd8 913e 2473 a13e
00000040: ee6e aa3e f0ea 713e 7486 883e af99 ae3e
00000050: ddf7 ae3e 70e8 143e e79b 323e 23c9 de3d
00000060: 6142 823e 0ea7 c13d 4a25 c03d 8851 333d
00000070: bc77 c63d 549e fa3d b2af 873d 7a10 373e
00000080: fd03 2f3e db81 253e 5759 403e 8ab4 3b3e
00000090: e8fe 7e3d 6760 df3d 01cd 91bd 4b07 f13d
000000a0: bad0 38bc 3494 953d ff76 27bd af5a 993d
000000b0: 2a56 7b3d 2485 973c 6d63 8abd 6435 0b3e
000000c0: c6a0 0a3e 43cf 813c bcbf 7b3c 568f 95bd
000000d0: a61d 803d 95fa 13bd e30e b43d 8e35 adbc
000000e0: 7674 d73d 9571 a6bd eff3 a73c 3c97 1a3e
000000f0: 5b4b 043e 37cf 7a3c 913f 963c ff88 393d
00000100: de02 b33d 3946 1a3e 2243 7f3d 0f1b 1f3d
00000110: 2a67 70bc 95ce 8abd a853 b83d 179a b2bc
00000120: 0daa 0bbd 1f61 d1bd 2786 dc3c f11f b03d
00000130: 1d0b 7cbd 9bed b0bd 1a35 fe3c 2b7d ac3d
00000140: e829 ddbd c6b7 04bc c323 a43d 7ca1 dbbc
00000150: 3d1b 293d e8d9 73bd 6c03 d03d b829 233d
00000160: 9e70 88bd 3c13 163d a5ed 863d f6a8 923d
00000170: 6735 263c 7183 f23d 8a6d fc3b 9610 cf3c
00000180: 815d 08be 4d9d 903c 0e27 8fbd 23e2 c33c
00000190: 4fb0 0b3d 44f2 a33d 5b2e 3c3d b4e2 dd3d
000001a0: 1dee febd e397 c8bd 4170 023d b1b2 7bbd
000001b0: 59a5 f8bd d7ab 6f3d 523e c53d b9e3 2b3c
000001c0: 1f55 2d3c 67de 0e3d a6a1 833d 11cb 6f3c
000001d0: e555 c63d 176f 93bd cc3f d13c 1340 13bd
000001e0: 8d7b 883d 0141 923d a930 953d 8b19 27bc
000001f0: 4ebe 043d d88e 443c 62bc e2bd 8d30 19bd
00000200: 6179 c23d 1102 8cbd c43b 4dbd 2b42 4c3d
00000210: 15b0 dc3d 8054 8fbd 2d5b f5bd 108d af3d
00000220: 6a24 f03d fc71 ee3d 4bc2 d13d c2f5 d63d
00000230: 5fb6 3b3d 38eb bcbb f825 ef3c f2da 5b3d
00000240: b82b f9bc f09e 9ebd 04f0 8a3a 93c6 34bc
00000250: ee93 cc3c 39f5 11bd 48d7 d1bd 0b99 b5bd
00000260: a434 753d 3ac2 c2bd 4447 bf3c a97f ff3b
00000270: 6740 26bd acd2 3c3c a15a c6bd 5046 993c
00000280: 1c0b ac3d d0ea 2e3d 9364 e53c 46cb 05be
00000290: 743b 9bbd 909d 65bd fec7 ca3c be93 b93d
000002a0: 5528 a3bb 1da5 9fbb 541a b93d 291b ddbd
000002b0: 4338 f3bc 5490 a63d 628f 943d 1a4f 95bd
000002c0: 463a b63d b7fd 8ebc b7f0 a8bd 95f6 8d3c
000002d0: e220 9a3d 47c4 513d 2bfb e3bd 7cfd 7f3d
000002e0: da97 c839 2e53 513c 103d 53bd 83c6 293d
000002f0: 7f1f b23d b39e 7fbd a8cc 9d3c 787d 89ba
00000300: d290 4f3c 4369 84bd d59d c83d 7fc7 bebd
00000310: 3bc0 a13c 85ff 603c a19e f3bb c010 a4bd
00000320: 17a5 5b3d e66f 2ebc 70a8 b43d 4d09 d0bc
00000330: 5966 20bd 853c 953c 5238 53bd 8cf5 d03d
00000340: 25f1 993d 5ca6 c4bd 06ef 613d 0a62 343d
00000350: f082 d6bc a92e 9ebc 0094 d8bd 2325 873d
00000360: 234d 98bc 5667 1a3d 41d4 803d 8e15 c7bd
00000370: 69c5 e7bd a25b 163d f063 9abc 3341 3b3d
00000380: 17a3 fc3c f68c 81bd 17af b0bd 6903 973d
00000390: 5860 cbbd e3ac 003d 8af7 2cba dd73 c9bd
000003a0: 02da 533d 1036 3abd f1c5 ea3c 1bf9 243d
000003b0: 1404 e83d 304b c9bd 1cfd 00bd 4680 96bd
000003c0: acd4 3d3b ba9d 783d 07a1 f3bd 1275 343d
000003d0: acd4 8b3c 1083 9bbd e643 ef3c aedb ce3b
000003e0: 2be2 5e3d c075 663d cb21 96bd e7f5 ba3c
000003f0: 1a67 c3bd b4c6 a1bd 8144 82bd 302f 373a
-0.020277925 -0.092013665 0.028304841 0.120861 0.106324874 0.121912085 0.1207308 -0.043982036
0.057731226 0.071004294 0.21683455 0.1992596 0.07424393 0.23835333 0.2848557 0.31533158
0.33287758 0.23624778 0.2666508 0.34101626 0.3417348 0.14541793 0.17442285 0.108782075
0.25441268 0.09455691 0.09382112 0.043778926 0.09690806 0.1223723 0.06625308 0.17877379
0.17091365 0.16162817 0.1878408 0.18330589 0.062254816 0.10907059 -0.071191795 0.11768969
-0.011280233 0.07303658 -0.040884968 0.07488 0.06136147 0.018496104 -0.06757245 0.13594586
0.13537893 0.0158459 0.015365537 -0.0730273 0.06255655 -0.036127646 0.08791902 -0.0211437
0.1052026 -0.08127133 0.020502059 0.15096754 0.12919371 0.015308193 0.018340858 0.045296665
0.08740781 0.1506585 0.062319882 0.038844164 -0.014673034 -0.06777684 0.09000331 -0.021801991
-0.03409772 -0.102236025 0.026919438 0.08599842 -0.061534036 -0.0863907 0.03103118 0.084223114
-0.107990086 -0.008100456 0.080146335 -0.0268104 0.041285742 -0.059533983 0.10156903 0.039834708
-0.06662105 0.036639437 0.06588296 0.07161133 0.010144568 0.11841477 0.0077034878 0.025276463
-0.13316919 0.017653132 -0.06989871 0.023911541 0.034103688 0.08005193 0.045942646 0.10834256
-0.1244776 -0.09794595 0.031845335 -0.06144971 -0.121409126 0.05851349 0.09631027 0.010491305
0.0105793765 0.03488007 0.06427316 0.014635817 0.09684352 -0.07198923 0.025543116 -0.035949778
0.066641904 0.07141305 0.07284672 -0.010198961 0.03240805 0.011996947 -0.110710874 -0.037399817
0.094958074 -0.06836332 -0.050105825 0.04986779 0.107757725 -0.06998539 -0.11980281 0.085718274
0.117256954 0.116428345 0.102421366 0.10496093 0.04582822 -0.005765345 0.02919291 0.0536756
-0.030416355 -0.07745159 0.0010600095 -0.011033672 0.024972882 -0.035634253 -0.1024614 -0.08867081
0.059864655 -0.09509702 0.023349412 0.0077972007 -0.040588763 0.011524837 -0.09685255 0.018710285
0.084005564 0.042704403 0.02800206 -0.13065824 -0.07579699 -0.056058466 0.024753567 0.09061383
-0.004979173 -0.004871978 0.09038225 -0.10796196 -0.029689914 0.08132997 0.072539106 -0.07290478
0.088978335 -0.017454965 -0.08249038 0.017329494 0.07525803 0.051212575 -0.11131891 0.0624976
0.0003826011 0.012776179 -0.051571906 0.04144908 0.08697414 -0.062407207 0.019262627 -0.0010489663
0.012668805 -0.064653896 0.09795729 -0.093153946 0.019744983 0.013732796 -0.0074346815 -0.08011007
0.05362424 -0.010646796 0.088211894 -0.02539506 -0.039160106 0.018217335 -0.051567383 0.10203084
0.07516698 -0.09602043 0.05515959 0.04403881 -0.026185483 -0.019309359 -0.10575104 0.0659888
-0.01859147 0.037696205 0.06290484 -0.09720908 -0.1131695 0.03670848 -0.018846482 0.045716476
0.030839486 -0.06325714 -0.08627146 0.07373697 -0.099304855 0.031414878 -0.00065981655 -0.09836552
0.05172158 -0.045461714 0.028658839 0.040276628 0.11328903 -0.09828794 -0.031491384 -0.07348685
0.0028965874 0.060697295 -0.11895948 0.04405696 0.017069183 -0.075933576 0.029207181 0.006312809
0.05441491 0.05626464 -0.07330664 0.022822333 -0.095411494 -0.07899228 -0.06360722 0.00069879275

ln.weight f4 [64]
00000000: 22cf b53f 41d1 b13f 6468 bb3f d962 b83f
00000010: 055a bb3f 2e21 ad3f 29d4 bc3f aad0 c63f
00000020: be11 b93f a0ff b43f 3c52 c93f 34ec b93f
00000030: f28c b93f c217 b93f 51ea c13f 9479 b23f
00000040: ffde b03f 07c4 be3f 0637 ba3f b1b1 bc3f
00000050: 0605 c63f 85b0 ba3f 0da1 c43f 4160 af3f
00000060: a6d4 ba3f b688 b93f fc7b b83f 1aef ae3f
00000070: a2d2 c23f eaa8 ba3f e896 b53f 8613 b33f
00000080: 0fe8 b93f be32 b93f 37a7 b03f cf09 b13f
00000090: 3b46 d53f 2052 b13f 27a3 c43f eda4 bc3f
000000a0: a694 b63f 5571 b63f f4ec be3f bc93 bb3f
000000b0: 1eaa aa3f 6b27 c83f 739d b83f 6152 ac3f
000000c0: f07e bb3f 6c75 bc3f a0e5 b33f 7cb3 c93f
000000d0: 3719 b73f e9a1 c73f ff7d bc3f b1e1 ba3f
000000e0: ecd5 b83f ec34 bd3f 657a ba3f 993b bb3f
000000f0: c80a d33f 1aa3 b13f a0f9 b23f 8a6b bc3f
1.4203837 1.3891984 1.4641232 1.4405166 1.4636847 1.3525751 1.4752246 1.5532429
1.445854 1.414051 1.5728221 1.4525208 1.4496138 1.4460375 1.5149633 1.3943353
1.3818053 1.4903573 1.4548042 1.4741727 1.5470283 1.458512 1.5361649 1.3701249
1.4596145 1.4494846 1.4412837 1.3666718 1.522053 1.4582798 1.4186678 1.3990333
1.4523944 1.446861 1.380103 1.3831118 1.6662058 1.3853188 1.536229 1.4737831
1.4264114 1.4253336 1.4916062 1.465446 1.3333166 1.563703 1.442305 1.346264
1.4648113 1.4723334 1.4054451 1.5757899 1.430457 1.5596286 1.4725951 1.4600126
1.4440284 1.4781775 1.4568602 1.4627563 1.6487665 1.38779 1.398243 1.4720318

ln.bias f4 [64]
00000000: 814c e43e 6c57 d5be 741f ed3e ffd0 e9be
00000010: 6a13 e43e a2ba d0be 1a15 ed3e b2dc 01bf
00000020: 6031 f2be 5ba7 ecbe e7c1 9dbd 3ea5 e8be
00000030: 3faf eb3e cc87 ef3e d963 0cbf 84e2 d73e
00000040: b8bb d9be b9cc f63e 7ceb ec3e 5ba4 ec3e
00000050: 9faf 03bf c908 eb3e 6ca0 0b3f 136f d8be
00000060: 3dab f1be 5001 ec3e a6b4 e7be 9534 d3be
00000070: 7672 09bf fb09 e9be 2f5a e3be db25 debe
00000080: 7a0f ea3e df5c eebe 0539 dbbe c87b d83e
00000090: 7c22 0bbf b293 d93e 66a2 ffbe 3b9d ed3e
000000a0: 4918 eabe 88d9 e4be 5975 f3be 15be ebbe
000000b0: d93f ce3e 81d8 043f 2e68 eb3e 1f93 d5be
000000c0: 6f1f f5be a6ef f43e eeaf e23e 6e15 ed3e
000000d0: e950 e63e 4d83 013f 6020 f5be 9176 ee3e
000000e0: 91d9 e43e bafc f33e 64aa f03e 803e edbe
000000f0: 33fc 033f 42d1 dcbe 54b2 dc3e 115b eebe
0.44589618 -0.4166826 0.4631306 -0.45667264 0.44546062 -0.4076739 0.46305162 -0.5072738
-0.47303295 -0.46221432 -0.077029996 -0.4543857 0.4603214 0.46783292 -0.54839855 0.42165005
-0.4252603 0.48203066 0.4627341 0.46219143 -0.5143985 0.4590514 0.5454166 -0.42272243
-0.47200957 0.4609475 -0.4525501 -0.41251054 -0.5369028 -0.45515427 -0.44404742 -0.43388256
0.45714933 -0.4655523 -0.4281694 0.42281938 -0.54349494 0.42495495 -0.49928588 0.4640902
-0.45721653 -0.44697213 -0.47550467 -0.4604346 0.40283087 0.5189286 0.4597792 -0.41713807
-0.47875544 0.47839087 0.4427485 0.46305412 0.44983605 0.50590974 -0.47876263 0.46574834
0.4469724 0.47653753 0.47004998 -0.46336746 0.515567 -0.431284 0.43104804 -0.46553853
