model.pth (torch, 122235 bytes, 8 tensors)

gru.weight_ih_l0 f4 [192, 3]
00000000: e624 f3be 438b 803c f48c 3ebd 71ff a13d
00000010: df65 1cbe e0c1 3dbc ab33 fe3d 1a11 ab3d
00000020: 30b2 2d3c 0951 373e 82f2 8fbe 9c1b 473d
00000030: 6a0c b53d 8db3 193e 2845 a23c 9852 b7be
00000040: 02c9 5b3e b44a 2b3d c03d 4f3e 3520 593e
00000050: 6898 11bd 0807 ffb9 8c7b fbbd 10f2 f43d
00000060: 4eae 43be 5c83 7cbb acf4 7abd c6ea ddbe
00000070: c330 973e f4a1 91bd 321c 58be 6eb3 003e
00000080: 74a1 c5bd 187e 3b3e b6f0 03be f094 a2bd
00000090: 5fdd 9dbe 61fd ec3c dc56 b7bd 7374 8f3d
000000a0: 7502 10bc a827 0abd f572 a2bd 5c64 873e
000000b0: 0ca6 70bd 5336 483e 852b 193e ecb3 6fbd
000000c0: 7779 f03d 9812 b33c a0e3 80bc 6915 93be
000000d0: eb17 0f3e 14c2 b1bd daa9 323e f977 8e3e
000000e0: aeeb 873d 6c06 6cbd 0921 4cbd 5831 efbc
000000f0: 46e5 56be 6f9b 923e 8034 883b 7d90 023e
00000100: 1d10 02bd 90fa d4bc e391 4abe bb3f 1ebd
00000110: 100f 38bd 5ca2 0abd 3093 02be 00e4 47ba
00000120: f683 e4bd 8633 b53d 6045 9c3d c5c2 733e
00000130: 61e4 893d 2cc9 51bd a124 f0be cba6 543e
00000140: e855 9d3d 2f62 403e e4cf 4e3e 7cb0 833d
00000150: b5f5 3d3d faed 80bd b41b a03d 481c 4d3d
00000160: d0ec f33e 8ae1 c2bd a570 f7be dbee 80be
00000170: 40e4 fbbb 08fb b83d 4d33 c8bd a65d b0bd
00000180: 1ca5 46ba e6ae 84bd 141d ebbd 609b 01bd
00000190: 4f35 d33d f23a cfbd 9760 08bf f574 483f
000001a0: e2a6 a93d ece2 46bd 4eaf 05bf 90f9 9ebc
000001b0: 10b1 e9bc b79d 43be e0b6 d03b 596c e43d
000001c0: b26b 87bd 805e 80ba fb4d 053d 3c92 53bd
000001d0: 3e64 853d 5c01 6fbc c56a 7dbe a83e b6bd
000001e0: 8ab8 e9bd 1a34 ba3b 9e71 f13d bf86 99be
000001f0: 5d97 e7bd b477 f7bd 4204 e0be a97f b5bc
00000200: 804f 6d3d 787d 76be bf24 bfbe 7027 fc3c
00000210: bbc6 08be 0593 853d 0860 8dbd f7f0 273e
00000220: 7280 77be 486a f23c 987b 113c d073 863e
00000230: c895 ecbd fbc4 ddbe 4e5b 943e d40c e3bd
00000240: 6ae4 61be 55ef 993d 94d5 923d 2bf1 073e
00000250: bf0e 8dbd ec5d 63bd a922 e53d 4d59 75be
00000260: c083 19bc ab11 1d3d 2797 a7bc e451 a03d
00000270: e9ae ee3d a6b4 a8be 8418 05bd 7682 c4be
00000280: 5786 80be f0bf b83c c28e e63c b11f 9d3e
00000290: e807 963d 51d7 a039 9fe2 543e 14e6 5a3d
000002a0: 1a66 5abd c4f1 003e 6e43 e13d 320d abbc
000002b0: b35a 3f3e 04be 913d b91c f3bc 08df 6fbe
000002c0: d043 853c d089 89bd 5e24 debd 181d ed3c
000002d0: 4bfc 03bc a48a da3d 587e b1bd 541b 0e3e
000002e0: 0160 b13d 220a bdbd 78ea c33b 5698 983e
000002f0: 8461 e2bd 609a 52be b96c 6e3d 0067 b5bc
00000300: 5512 24bd 54a0 033e f090 d43c e220 a3bc
00000310: f317 4dbe 4ab3 953d 779f c2bd a32e 3cbd
00000320: 5206 d83d 2f13 5ebd 0e5c ff3e cc3f 273d
00000330: 465f 47be 374c c8bd e040 f2bd 4fd1 b4bd
00000340: fa38 353e 5018 6fbd f6be 27be ec0a 703e
00000350: 96b3 cdbd b281 35be d483 d23d 10e0 dabc
00000360: c337 793a f9e1 e4bc 2a09 c53d 8727 b2bd
00000370: 403a 083f b8f7 223d 914c eabd 95db 53be
00000380: 5272 ca3d 4140 49be e364 113d 7076 68bd
00000390: cc07 473a 69e3 4dbe 941d 2fbd 5160 30be
000003a0: 173e 00be d055 1e3c 0eea 9abe 8bdc bc3e
000003b0: 5cb7 023d f467 933b c8d5 cabd a055 a73d
000003c0: 0964 1cbe 9614 44be 4cbc 963d 4504 e6bd
000003d0: bda0 af3d 0038 613a f9ef 25be 89e6 adbe
000003e0: dc88 d53d 9ac5 a3bc b6ad 7bbe 309c 343c
000003f0: b537 0abe e3d9 5d3c e076 bdbd 2f52 6abe
-0.4748909 0.015691405 -0.046521142 0.0791005 -0.15273236 -0.011581868 0.12412199 0.08352871
0.010601565 0.17902006 -0.28114706 0.048610315 0.088402584 0.150099 0.019808367 -0.35805202
0.21463397 0.04181929 0.202384 0.21203692 -0.035545737 -0.0004864263 -0.12279424 0.11960232
-0.1910946 -0.0038530445 -0.061268494 -0.4334318 0.2952939 -0.07110968 -0.21104506 0.12568447
-0.09649935 0.1830982 -0.12884793 -0.07938564 -0.30832955 0.028929414 -0.08952114 0.07004633
-0.008789648 -0.033729225 -0.079320826 0.26443756 -0.058752105 0.19551973 0.14958008 -0.058521196
0.117419176 0.021859452 -0.01573354 -0.28727272 0.13973968 -0.086795956 0.17447606 0.27825907
0.06636749 -0.057623312 -0.049836192 -0.029198334 -0.20985898 0.2863421 0.004156649 0.1275043
-0.031753648 -0.025998384 -0.19782214 -0.038634997 -0.04493624 -0.033846244 -0.1275146 -0.0007625222
-0.11157982 0.08847718 0.0763042 0.23804767 0.06733013 -0.051217243 -0.46902946 0.20766751
0.07682401 0.18787454 0.20196491 0.06430146 0.046376903 -0.062953904 0.07817784 0.0500758
0.4764161 -0.095156744 -0.48328128 -0.25182232 -0.0076871216 0.090322554 -0.0977541 -0.08611612
-0.0007577704 -0.06478672 -0.114801556 -0.031642318 0.10312902 -0.10118665 -0.53272384 0.7830346
0.082837835 -0.048556253 -0.5222062 -0.01940611 -0.028526813 -0.19103132 0.0063694566 0.11153478
-0.06612338 -0.0009793788 0.03254507 -0.05165313 0.0651326 -0.014587726 -0.2474776 -0.088986695
-0.11412151 0.0056824805 0.11789249 -0.29985616 -0.11308167 -0.120833784 -0.43753248 -0.0221556
0.057937145 -0.240713 -0.37332723 0.030780524 -0.1335706 0.065221824 -0.06903082 0.16400515
-0.24170092 0.029591694 0.008879565 0.26260233 -0.11552006 -0.43314347 0.2897591 -0.11086431
-0.2205979 0.07516352 0.07169643 0.13275592 -0.06887578 -0.055509493 0.111882515 -0.23959847
-0.009369791 0.038346928 -0.020457817 0.078281194 0.11654455 -0.32950324 -0.032494083 -0.38380784
-0.25102493 0.02255246 0.028144244 0.3068824 0.07325727 0.00030678 0.20789574 0.053442076
-0.053320028 0.12592226 0.10999189 -0.020880315 0.18686943 0.07116321 -0.029676782 -0.23424923
0.016267687 -0.06715739 -0.1084678 0.028944537 -0.008055757 0.10670975 -0.08666676 0.13877612
0.086608894 -0.09230448 0.0059788786 0.29803723 -0.11053756 -0.20566702 0.058209155 -0.02214384
-0.040056545 0.12854129 0.025948018 -0.01991314 -0.20028667 0.07309587 -0.09503072 -0.045942914
0.105480805 -0.054217514 0.4987492 0.040832326 -0.19469938 -0.09780162 -0.1182878 -0.08828985
0.17697516 -0.058372796 -0.1638144 0.23441666 -0.10044019 -0.17725256 0.102790505 -0.02671817
0.00095069053 -0.027939783 0.096208885 -0.086989455 0.5321388 0.039787024 -0.11440385 -0.20689233
0.09885086 -0.19653417 0.035496604 -0.056753576 0.00075924094 -0.20106281 -0.042752817 -0.17224242
-0.12523685 0.009664014 -0.30256695 0.3688701 0.031913146 0.004498476 -0.09904057 0.081706285
-0.15272535 -0.19148478 0.073601335 -0.11231283 0.0857558 0.00085914135 -0.16204824 -0.33964947
0.104264945 -0.019991685 -0.24577984 0.011023566 -0.13497813 0.013540718 -0.09251189 -0.22882913

gru.weight_hh_l0 f4 [192, 64]
00000000: cf21 293e 508b 563e 8221 df3d 3a51 e5bc
00000010: f02f 213e 0645 7ebe ec1a 753c a3eb 25be
00000020: 3405 66be bb77 68be 64f5 0bbe f2dc 22be
00000030: 2909 763e 594c 553e ffe9 66be 72cc 65be
00000040: 4b61 453e 8ca0 8bbd 6322 b43d 7dc8 4dbe
00000050: 7580 263d 329f 5abd 2f9c c5bd 48da f83d
00000060: 086e e23c 33f9 3bbe 9372 91bd 4695 543c
00000070: 4e1a 1bbe 1fbb b5bd e8c2 903e dba8 ccbc
00000080: 79cd 3a3d 7fcc 9dbd 85bd 123e e32b f13d
00000090: c630 1bbe 3e80 b33d a497 74be d976 61bd
000000a0: 8d0e e83c 4769 833e e143 12be c652 06be
000000b0: 984e 283e b233 5ebe d33a c23d 2873 1d3e
000000c0: 64b0 aabb a2fa d8bd fec0 dfbd 84a8 383e
000000d0: c00e 08be 2353 423e a860 1b3d 7433 75bc
000000e0: 51b9 4fbe ffe0 0ebd cf85 b83d 8725 993d
000000f0: 4114 d93c 469b 5d3e 3cc1 1dbd baa4 2ebd
00000100: 3c4f 023e a654 163e fc66 183e 17eb 893e
00000110: 62f9 0e3e 5fbd ffbd be75 85bd db7b c9bc
00000120: 2b54 00be c13c 2abe c9e6 30be 3708 2abe
00000130: 60df ac3d 7004 ac3d 3c2d 8ebe 81dd aabd
00000140: da03 cc3d 68d0 a5bc bf83 463b 802a 03be
00000150: 92ab c33d d8ce 673c fdb9 c5bd 03bb 793e
00000160: 453c 8b3d 29d9 d3bd 7156 13be 59e9 f6bd
00000170: 381f 47be 2a8f c6bc 3250 863e e0bd 81be
00000180: ffbd 8b3d 6768 943d 2a3f 583e e5b9 8b3e
00000190: 173d 28be 9758 7d3e 05f0 d7bd dbdd f7bd
000001a0: 1f3e 373e e59a 243e faa2 6abe 3a9c 87bd
000001b0: 4414 db3d 0bcd e1bd cfa7 573d 6134 493d
000001c0: 9edb 22be 64af 5bbe 8301 80be e2ed ff3c
000001d0: 33e5 7abe 3874 123e 9546 c33d 4da3 243e
000001e0: 7fcb 31be c247 46be 121a 1b3e 0149 3b3e
000001f0: 678e d63c a990 783e 88b1 82be c2eb 58be
00000200: a995 fa3d 642c 5e3d 1067 bd3c 5f60 bb3d
00000210: cfe2 fd3c 0b9c 2cbe 7393 58be 1377 caba
00000220: 54f4 21bd faa0 1bbd 04df a9bd 22f3 1bbe
00000230: de62 0e3e 4e62 413e 7c88 97bd f4bc 2abe
00000240: 9422 1f3e 5bfe 76be 1bca 5a3e c29c b1bd
00000250: fcb8 2c3d 34f9 073e e0cd 2abe 44cb 9f3d
00000260: f5be 443e 83a4 23be e087 0fbe 77e6 3cbd
00000270: 9b1f 1bbe 903c a6bd 48c7 f23d 7776 a8bd
00000280: 5a2e 833d c9f1 ce3d 1a9d 433e 3074 883d
00000290: 00b5 0fbe d18c b83d 1da8 13be 1687 98bd
000002a0: cbfa 763e 1890 663d 2cc1 b7bd 8ed3 64be
000002b0: 56fe 303e e10d 68bd 6745 dc3d 0f2e 393e
000002c0: df53 d2bd 665c 3cbe 7d90 8dbd 6c25 d83d
000002d0: 61f0 73be 5004 e83d d1ce 393d 5fd8 513e
000002e0: d85e d5bd 8cde 11be 43af 283e 1602 6d3e
000002f0: a5fb 833e d504 8e3e 0170 23be 60c0 d8bd
00000300: 938d 513d a238 553e 1d5f 093e 4543 453e
00000310: a292 543e 56cc 06be 1b12 3dbe 5d0b 2bbd
00000320: c3a1 cdbd 8ae4 afbb 7d17 08be 09c0 38be
00000330: 7a68 b63d ce7e 54bc 1148 4dbe e09c 30be
00000340: 9a46 033e 4eb3 703d f0d3 9d3d 8752 4ebe
00000350: 34ba 073e d3ad 2e3e 2ab4 f0bc 55a2 803e
00000360: dc74 253e 37ef 55be 29b2 16bd a328 35be
00000370: 6748 b8bd da8d cdbc 481b 643c 7906 06bd
00000380: e1e9 5f3e 140a e93d dd6a 083d 5fd1 193e
00000390: f4d3 debc d448 083e 32bb 5ebe 6234 63be
000003a0: de2b f1bb 81c0 123e 2f01 373d 6e24 05bd
000003b0: 8c24 3b3e f9e2 99bc e046 86bc 38fc 15bd
000003c0: cad4 35bd b2b3 26be ea71 31bd 7097 e63d
000003d0: 2dbe 85bc af3b 383e 3f5a 133e ea63 9c3b
000003e0: 8e52 08be bc0d 39be 12e1 a33d cdca 0f3d
000003f0: 8e44 aa3d 608b 943d 65e0 f7bd 1631 55bc
0.16516803 0.20951581 0.10895063 -0.027992833 0.15740943 -0.24831018 0.014960032 -0.1620317
-0.22462922 -0.22701924 -0.13667828 -0.15904596 0.24026932 0.20829906 -0.225502 -0.22441271
0.19275396 -0.06817731 0.08795621 -0.20096011 0.04064985 -0.053374477 -0.0964893 0.12151009
0.027640358 -0.1835678 -0.071019314 0.012975043 -0.15146753 -0.08873581 0.28273702 -0.02498286
0.04560611 -0.0770502 0.14330108 0.11775949 -0.15155324 0.08764695 -0.23885971 -0.055044983
0.02832725 0.25666258 -0.14283706 -0.13117513 0.16436231 -0.21699408 0.09483876 0.1537596
-0.0052090157 -0.105946794 -0.10925482 0.18033034 -0.13286877 0.18977027 0.037933975 -0.014965881
-0.20285536 -0.03488254 0.09009897 0.07477861 0.026498916 0.21641263 -0.03851436 -0.042637564
0.12725538 0.14680728 0.14883035 0.26937172 0.1396232 -0.124872915 -0.06516598 -0.024595192
-0.12532108 -0.16624738 -0.17275538 -0.16604696 0.08441043 0.08399284 -0.27768886 -0.0834303
0.09961672 -0.020240977 0.003029093 -0.12809181 0.09554209 0.0141484365 -0.09654615 0.24387746
0.06798605 -0.103441544 -0.14388444 -0.12056226 -0.19445503 -0.024238188 0.2623306 -0.25340176
0.06823348 0.07246476 0.21117845 0.27290264 -0.16429554 0.24740826 -0.10543827 -0.121028624
0.17894791 0.16074713 -0.22913733 -0.06621595 0.10697225 -0.11025437 0.05265027 0.049122218
-0.1590409 -0.21453625 -0.25001153 0.031241361 -0.24501495 0.14302146 0.09534947 0.1607792
-0.17362784 -0.19363311 0.15146664 0.18289568 0.02619095 0.24273933 -0.2552607 -0.21183684
0.12235577 0.054241553 0.023120433 0.09149241 0.03099194 -0.168564 -0.21149997 -0.0015446864
-0.03953965 -0.037995316 -0.0829449 -0.15229467 0.13904902 0.18885157 -0.07399079 -0.16673642
0.15540534 -0.24120466 0.2136616 -0.08672477 0.042168602 0.13278657 -0.16680098 0.07802442
0.1921347 -0.15980725 -0.14016676 -0.046118226 -0.15148775 -0.0811702 0.11854416 -0.082257204
0.06405325 0.101047106 0.19102898 0.06662786 -0.1403389 0.090112336 -0.14419599 -0.074476406
0.24119107 0.056289762 -0.089723915 -0.22346327 0.17284521 -0.05665386 0.10755425 0.18083976
-0.102699034 -0.18394622 -0.069123246 0.10554013 -0.23822166 0.113289475 0.04536325 0.20492695
-0.10418481 -0.14245051 0.16473107 0.23145327 0.25777927 0.27738062 -0.15960695 -0.105835676
0.051160406 0.20822385 0.13415189 0.19263943 0.20759061 -0.13163885 -0.18463938 -0.041758884
-0.10040619 -0.00536782 -0.1329021 -0.18042006 0.08906646 -0.012969686 -0.20047022 -0.17247343
0.12819901 0.05876475 0.077064395 -0.20148669 0.13254625 0.17058496 -0.029382784 0.2512385
0.1615786 -0.20892034 -0.036791 -0.17691283 -0.08998185 -0.025092054 0.01392252 -0.032721017
0.21866561 0.113788754 0.033305038 0.15021275 -0.027200677 0.13309032 -0.21751097 -0.22187951
-0.0073599657 0.14331247 0.044678863 -0.032505445 0.1827566 -0.018784987 -0.016391218 -0.036617488
-0.044392385 -0.16279486 -0.043321528 0.11259353 -0.016326034 0.17991517 0.14389895 0.004772653
-0.13312742 -0.18071645 0.08001913 0.035105515 0.08313857 0.07253146 -0.12103347 -0.013012191

gru.bias_ih_l0 f4 [192]
00000000: 695c 013d 3eb9 babd f29d 90bd e159 0fbd
00000010: a4ce b2bd b1a9 47bd 9498 42be 7d2c 433d
00000020: f30e acbd fd38 863d f440 52bd 99fc 7fbe
00000030: bc91 5fbe 82e5 56bc 8bd8 af3d e425 573d
00000040: 9ef2 3abe 1eab 4a3e 72cf 00be 7abf 92bd
00000050: 3bf3 01bd f746 77be f0b6 2abe ffb7 8cbd
00000060: 7141 223d 3c9c 29be a5d1 093e 3f74 ddbd
00000070: 877a 4bbe 5a1c 853d 641d 4b3d 9b67 8d3c
00000080: bd7f 1cbe 7919 3abe 48b6 453b d72e bcbc
00000090: 40da a73d b218 6cbe 1e59 0a3e 369e 29be
000000a0: b194 ebbc d6bd 47bd 57eb 95bc a6ba 133c
000000b0: 2278 323d 21fd 87bd d6cd 18be f9eb bdbd
000000c0: 2b74 f33d 08bc 0abe aa62 65be 08b1 c2bd
000000d0: aba7 bdbd 61b8 84be 3ec6 e0bd 7ae0 673d
000000e0: f7a8 553c 487d e0bd c55d 4cbe d989 5bbe
000000f0: b332 ba3d faf2 d63d b479 6abe 2c7a 68be
00000100: 3380 543e 5c73 26be eafb 873e 8f63 dc3d
00000110: 03cd e4bc 925f efbe b182 6fbd 158c c53d
00000120: 687a 2dbe 6782 bbbd f366 1ebe 8c4c 87bd
00000130: ea47 f8bd 1d9d c7bd c589 38be a34a 36be
00000140: 555a 1d3c e96d 96be 9ea0 1c3e 6fc7 73bd
00000150: 55e8 f9bd e768 acbd ed18 debc eca2 213e
00000160: d2fe 2fbe f5b2 97bd 4010 c1be 55df 2cbe
00000170: 3dd4 7fbd c160 6a3c bc21 1e3e 7458 9e3d
00000180: 6dc6 f6bc 6cdc 213e 6590 4bbe 2a27 043e
00000190: c8d4 613d 3a7d 03be 6da8 7fbd b9f9 39be
000001a0: e5ef 2c3e 243a 60be 5296 37be 2d7e 133d
000001b0: 6a7e 38bd 729e 92bd 50cc 84bc e361 913c
000001c0: 574f 19be fc66 77bc b6f1 a23c c3b4 b0bc
000001d0: 03a4 063e d5ae 233e 0643 2bbe ed56 d7ba
000001e0: 182e e7bd d989 29be 1ad3 033e e134 923d
000001f0: 01a0 25be b78d ecbd cb06 aabe 1293 09be
00000200: 0aff 03bc d1e6 1bbe 5716 ecbd c38c a53c
00000210: 0b71 04be 1722 503e add6 153e 3a8d 853d
00000220: c788 3a3e 4078 463e df5f 5c3e 763c 483e
00000230: cca4 bfbd a71d 18be e5b5 633e 64ef 0e3e
00000240: 466b 15be c8d5 1d3e f8dc a8bd 0d83 1f3e
00000250: 84fe 12be 0aab fdbd 36a0 083e 3e67 67bd
00000260: c70d ffbd 5f17 1c3e cd67 193e 42b3 ac3d
00000270: 117d 283e 1278 463e 0598 38bd 2650 8d3d
00000280: 77fc 47be dd05 263d 42d4 4bbe d33a e73c
00000290: 967b 7e3d e9a5 2abe 2309 b23d 029d 2b3e
000002a0: 424d 02be 6978 c2bd 24fa c63d c998 ab3d
000002b0: 7511 11be 181b 1b3e ad44 2dbe a713 66be
000002c0: 9ca4 173e b65b 2d3e a86c 223e 8024 2ebe
000002d0: 358d 9f3c 60f6 24be c87d ecbd 15b8 d8bd
000002e0: ca10 433e 993e 533e e173 12be a10a e7bd
000002f0: b3ff 87bd a167 06be 2a5c 463e cd7f 503e
0.03158227 -0.091173634 -0.07061376 -0.034997825 -0.0873082 -0.048745815 -0.19003516 0.04764985
-0.08401289 0.065538384 -0.051331475 -0.24998702 -0.21832937 -0.013116242 0.08586224 0.05252637
-0.18256614 0.19791839 -0.12579134 -0.071654275 -0.031726103 -0.24148165 -0.16671348 -0.06871032
0.03961319 -0.16563505 0.1345888 -0.10813188 -0.19870959 0.06499548 0.049588576 0.017261317
-0.15283103 -0.1817378 0.0030168463 -0.022971554 0.08195925 -0.23056296 0.13510558 -0.16564259
-0.028757425 -0.048765026 -0.018300695 0.009016668 0.0435716 -0.066400774 -0.1492227 -0.09273524
0.11887392 -0.1354829 -0.22400919 -0.09506422 -0.09260496 -0.2592192 -0.10975312 0.056610562
0.013040773 -0.109613955 -0.19957645 -0.21439303 0.09091701 0.10495563 -0.22897989 -0.22702855
0.20752029 -0.16254944 0.26559383 0.10761177 -0.027929788 -0.46752602 -0.058474246 0.09645859
-0.16941226 -0.09155732 -0.1546896 -0.06606397 -0.121230915 -0.09746764 -0.18021305 -0.17801909
0.009604056 -0.2938073 0.15295646 -0.059516367 -0.12202517 -0.08418446 -0.027111495 0.15784806
-0.1718705 -0.0740718 -0.3770771 -0.1688207 -0.062458266 0.0143052945 0.15442556 0.07731715
-0.030123914 0.1580674 -0.19879301 0.12905565 0.055134565 -0.12840739 -0.062416483 -0.18161668
0.16888388 -0.21897179 -0.17928436 0.036009002 -0.045042433 -0.07159127 -0.016210705 0.017746871
-0.14971672 -0.015100237 0.019890647 -0.021570569 0.13148503 0.15984662 -0.16724786 -0.0016429104
-0.112880886 -0.16556491 0.12873498 0.07138992 -0.16174318 -0.115504675 -0.33208308 -0.13435009
-0.0080564115 -0.15224768 -0.115276985 0.020208722 -0.12933747 0.20325504 0.14632674 0.065210775
0.18216239 0.19381809 0.21520947 0.19554314 -0.093576044 -0.14855061 0.22237356 0.13958508
-0.14591703 0.15413582 -0.082452714 0.15577336 -0.14354903 -0.12386139 0.13342366 -0.056494944
-0.124538 0.1524329 0.14981003 0.08432628 0.16453959 0.1938174 -0.045066852 0.06900053
-0.19529901 0.040532935 -0.19905189 0.028226292 0.06212958 -0.16664852 0.08693149 0.16759112
-0.12724784 -0.09495623 0.09715679 0.08378751 -0.14166816 0.15147054 -0.16920729 -0.22468434
0.14808887 0.16929516 0.15861762 -0.17006111 0.019476512 -0.1610961 -0.11547428 -0.10581986
0.19049373 0.20629348 -0.14302017 -0.11281324 -0.06640568 -0.13125469 0.19371095 0.20361252

gru.bias_hh_l0 f4 [192]
00000000: affb 73bc 8ee7 67ba 502d 2cbe 8378 e1bd
00000010: 1f23 68bd abf6 fd3d e114 533d 8342 bebd
00000020: 725c f4ba e134 8abd 08fd 42be d55f 4abe
00000030: b87b 37be 5c22 45be 8d47 e1bc b93c 0e3c
00000040: 9d01 babd 8ae7 123e 3d41 7dbd 80a3 40be
00000050: 3675 25be 5a5a 0bbe c19d 31bb cbd3 0abe
00000060: 177c bdbd 272f a4bd 1e48 3f3d a7dc 58bd
00000070: 0bf1 a3be 07b6 cebd c7fc dbbd a309 fc3b
00000080: c6b2 0abe 9571 1cbc b1fc f73b 80b7 433d
00000090: 96b9 5fbd 01f2 22bd 5cc4 5abd cc8f 3ebe
000000a0: e4aa 78be 207b 413d 481e b13d 397d 02be
000000b0: 98b0 d8bd ee6e 26bd f6bc 1dbd a866 163e
000000c0: c23e ffbd ad59 74be 6185 3bbe c6a3 44bc
000000d0: 8aee 40be db24 dbbd 8eb4 4c3d ced2 823d
000000e0: 1a3b 9dbd e012 c3bd 18f8 e4bd 7030 babd
000000f0: 6bb6 383e 94ec cdbc c658 87bd a012 52bd
00000100: 9307 813d 4380 50be b761 5a3e 4a47 5b3d
00000110: 2306 123d 8eb0 c4be 185c ae3d 3d2b 383d
00000120: f3ae abbd bed2 46be b072 7dbe 3e03 31bd
00000130: 3994 0c3d 1696 23be d226 01be 3a46 46bb
00000140: 8d4c a1bd e5ea a6be 346f 243e 7ecb d4bd
00000150: 9de0 a3be 500d b1bc 2bfa d9bd 8dda a23e
00000160: 09c0 14be 77ef df3d d455 bebe 838b 00be
00000170: f5de 97bc 6da7 863d 0015 71bc f9a0 993d
00000180: 4d2a 80be 4968 943e 3317 a3bd 7cbd 5f3e
00000190: 941d fabc c6a2 233c 76a6 22bd 8c60 03be
000001a0: 67fc 43bd 4f94 f6bd af07 39be 10e2 c13d
000001b0: 031c 5abe 6c06 bdbd c345 22be 4193 83bd
000001c0: 4852 2fbe 8333 5ebd 7a50 94bc 05ff 30be
000001d0: 12ab 103d d7be 103e f934 5bbe 8dcc bfbd
000001e0: 270a 4dbe 3777 a5bd b5a6 f93c e974 8e3d
000001f0: c717 10bd 810b 89bd 777c 41be db1c 7bbe
00000200: 74f2 babd 6573 0abe 12fd 56bd f649 acbc
00000210: 33d9 02be 95f9 653e 1549 113e 0eb5 0d3e
00000220: f7a0 023e a924 883e 63b8 023e e90a 853d
00000230: 2b61 b4bd 70cd 16be 1329 623e 5887 443e
00000240: 3128 9dbb c162 ac3e 2405 17bd 6743 b03d
00000250: c25a fbbd f307 243d 2504 683c a251 42bd
00000260: 5d80 a1bd 7f11 063e 4ad2 573e 7228 323e
00000270: ed26 11bc 4e96 033e 7773 abbd 4778 cd3c
00000280: f63f 81bd 59c9 223e 6eb3 b4be fec8 15be
00000290: 194b 313e 5a08 80bd f8e4 4b3e 5cf2 19bd
000002a0: ee4e b4bd e5f9 45be e51e a23e 89b2 953d
000002b0: 58c2 1bbe 71e2 133e 8976 e0bd f7c3 52be
000002c0: da60 1f3e d413 953d 52d6 8f3d fe9d fabd
000002d0: d868 0f3e ddfe 1ebc 9c2d 03be ff48 0dbe
000002e0: 7d1e 1b3e 6fb0 163e d60f a73b d25f 0cbe
000002f0: ada1 76be e627 7cbe a81c 953d baaf bb3d
-0.014891549 -0.0008846455 -0.1681416 -0.11009314 -0.05667412 0.12400564 0.051533584 -0.0929003
-0.0018643274 -0.06748367 -0.19041836 -0.1976312 -0.17918289 -0.19251388 -0.027499938 0.00868147
-0.09082339 0.14346138 -0.061829794 -0.1881237 -0.16157994 -0.13608685 -0.0027102085 -0.13557355
-0.09252184 -0.08016806 0.046699636 -0.052944805 -0.3201984 -0.10093313 -0.10741573 0.0076915785
-0.13544759 -0.009548564 0.007567965 0.04778242 -0.054620348 -0.039781574 -0.05340992 -0.18609542
-0.2428394 0.04723656 0.08648354 -0.12743081 -0.105805576 -0.040633135 -0.038510285 0.14687598
-0.12463142 -0.23862334 -0.18312599 -0.012001937 -0.18840995 -0.10700389 0.049976878 0.06387864
-0.07677288 -0.095250845 -0.11180133 -0.0909127 0.18038337 -0.025137223 -0.06608729 -0.051287293
0.06300273 -0.20361428 0.21326338 0.053534783 0.035650384 -0.3841595 0.08513659 0.04496311
-0.08382978 -0.1941633 -0.24750781 -0.043215983 0.034321044 -0.15975222 -0.12612465 -0.003025426
-0.07875929 -0.32601085 0.16058046 -0.103903756 -0.32007304 -0.021612793 -0.10643419 0.31807366
-0.1452638 0.10934346 -0.37174857 -0.1255322 -0.018538931 0.06574903 -0.014714479 0.07501406
-0.25032273 0.28985813 -0.07963409 0.21849626 -0.030531682 0.009987539 -0.03970953 -0.12829798
-0.04784813 -0.12040006 -0.18069337 0.09466946 -0.21299748 -0.092297405 -0.15846924 -0.06424571
-0.17121232 -0.054248344 -0.01810478 -0.17284782 0.035319395 0.141353 -0.21406926 -0.09365187
-0.20023404 -0.08079379 0.030475 0.069558926 -0.035178926 -0.06691647 -0.18895136 -0.24522726
-0.091282755 -0.13520582 -0.05248744 -0.021031361 -0.12778167 0.22458489 0.14188035 0.13838598
0.12756716 0.2659047 0.1276565 0.064962216 -0.08807596 -0.14726806 0.22085981 0.19192255
-0.004796051 0.33669093 -0.036870137 0.08606606 -0.1227317 0.040046643 0.014161144 -0.047441132
-0.078858115 0.13092612 0.21076313 0.17398241 -0.008859378 0.12850305 -0.083716325 0.025081767
-0.06311028 0.1589712 -0.35293144 -0.14627454 0.17313804 -0.06251593 0.19911563 -0.037584648
-0.08804117 -0.19333608 0.31664196 0.073094435 -0.15210855 0.1444185 -0.10960109 -0.20582567
0.1556429 0.072791725 0.070233 -0.12237166 0.14004838 -0.009704319 -0.12810367 -0.13797377
0.15148349 0.14715742 0.0050983233 -0.13708428 -0.24085112 -0.24624595 0.07280856 0.091643766

fc.weight f4 [256, 64]
00000000: 5695 d4bd c093 ce3d e5ec 5bbd 7756 a33d
00000010: ab01 b4bd defe ce3c 62cc 5a3d 62f4 ebbd
00000020: 9e1b 5f3d 56c7 9cbd feca a5bd c02d 2b3d
00000030: 5795 153d 0720 1cbd 1705 0ebd 88a9 51b7
00000040: 3dfd 9d3b c319 873d 8391 a7bd 9b45 51bc
00000050: df06 d83c 5b4a 683c 5a99 aabc ba73 0bbc
00000060: 3614 65bd 8a2d 2a3c a097 3dbd 97c3 c93c
00000070: b2a7 88bd 4d5a a43d ec83 5f3c 3bff 963c
00000080: a3c8 08be 7aaf f3bc 4521 b2bc e227 27bd
00000090: 22c9 0abd bd04 16bd dae6 6d3d 351d 9a3d
000000a0: 32f1 54bd 0c1c 1d3d 569e e33d 385c 0bbc
000000b0: a144 8bbd d5ac 93bb f1dc b03d e0e7 953c
000000c0: 7ef2 bbbc 229d 173d eb74 02bd 5a2f d23c
000000d0: 2eb6 a8bc 7ceb debc 9c81 c33c 089b e83d
000000e0: 8f5b bbbd 19e2 71bd 2d44 a0bd c847 0d3e
000000f0: 2891 7dbd 5f37 ccbd ff0d 91bd 07ac eebd
00000100: 787f 063c fa56 8bba 4620 26bc ed32 85bc
00000110: 2ae2 8fbb c986 973d 450c 51bb 09e9 ab3d
00000120: 7dd9 033e b6c5 b6bc 793d a33d 49a9 74bc
00000130: f6c2 9bbd 79ef e33d 447f eaba 9838 623d
00000140: e52b be3c 0072 d13c 89bb 7f3d 1ae9 663d
00000150: 136d c33d 2e06 81bd 38c7 d1bc 7020 4e3d
00000160: 2503 a63c 0277 5dbc 9f76 32bc 22e8 e6bd
00000170: 40ab a3ba f2f1 b63c e455 553d 5bee 20bb
00000180: 81ef 003d 8939 ac3d 2fb8 5c3c acef dd3c
00000190: 8de4 c3bd ee69 97bd cd76 c73c 5f60 713d
000001a0: 2e1c 68bc b321 3a3d f17b 493d 01d5 943d
000001b0: 97a7 74bd b6d9 88bd 152d 7f3d d84c 15bd
000001c0: 533f 0f3d 0578 c23d 543c 96bc 4a26 eebc
000001d0: daae 023d b69c 0e3d d3ba dcbd fc06 67bb
000001e0: 9b38 bebd 17f3 12bd f6de 7fbd 63b3 a13d
000001f0: d440 cc3c 6d95 f83b 4704 9bbd 065c b2bd
00000200: 4f3b 343c 23e3 cebd 9b0b 5f3d 3ecb 983d
00000210: d98d 24bd b317 cfbc 871d 90bd 4257 50bd
00000220: e8ff 3abd abec 593d 4b6a 85bd c48d c83d
00000230: 8bd3 88bd fcdb e23d c571 603c 984e d13d
00000240: 552d ab3d 8727 673c ac87 433c 926f a63d
00000250: 3fa7 30bd 83f6 70bd 5e6c 0dbe ffc3 eb3c
00000260: 93ca d8bd a261 d43c 7eb6 19bc ccd3 dc3d
00000270: 4559 a63d b4b0 8d3d 93db 7d3c 800c e33d
00000280: 001c d03c 08be 1bbd a3d1 2e3d f30d 003d
00000290: 9660 0a3c 0fc7 763c 17fe 833d 2151 bbbd
000002a0: 081e 8a3d 9290 d03d c746 d73d 1279 043d
000002b0: eb9b db3d 8e14 f5bd 4c26 88bc 0e2a 8cbd
000002c0: 0823 843d ebec 96bd 8c33 f03b 8752 973d
000002d0: 361d 173d 1b80 413c 500c 63bb b880 9c3d
000002e0: c8ea 9c3c d14a 40bc 2509 b4bd 4c68 97bd
000002f0: b007 ea3c e45f b5bd a8e6 003c a40b d6bd
00000300: 7eb8 99bd 4e6c bfbd 8a2a 2b3d 8e8f 92bd
00000310: 2535 0cba df83 8bbd 812d a2bd 00b1 be3d
00000320: cd40 963d 43d7 703c fe9e cfbb 169a 383c
00000330: bd34 33bd 71f3 04bd 1a14 853c 892b 043e
00000340: 61c6 73bd 7236 083c faec ac3c 5d8f 5fbd
00000350: b1b9 61bd 2fa4 5c3c a16c 55bd 18b0 c0bc
00000360: 86cd 273d 6c6e d3bc a7d9 5c3d 3955 8bbd
00000370: e81f 3ebd 78a7 2b3c 3bf7 3a3d bba4 c4bd
00000380: 8524 90bd 89a2 ce3d fe49 53ba 58fd fbbc
00000390: 850b b53d 2796 b83d 1aba 17bd 8a71 ac3d
000003a0: b29c 87bd 4b05 943d 51b2 41bd 1578 a13c
000003b0: 1862 903d 0ab4 a6bc 87d5 97bd 35fe f3bc
000003c0: e042 713d a0be 023e 9ff4 41bc 7a00 943d
000003d0: 2dde 7c3d a779 853d 492f d93c 69f5 d0bd
000003e0: 6678 6abd b3a7 bfbd 0638 c53d 1a09 c3bd
000003f0: 0b2d d53c 7590 a33d f4c6 bd3d 67c1 c4bb
-0.10380046 0.10086775 -0.053692717 0.07975476 -0.08789381 0.025268015 0.05341757 -0.11521222
0.054469697 -0.07655208 -0.08095358 0.041791677 0.036519375 -0.03811648 -0.034672823 -1.2496843e-05
0.004821448 0.065967105 -0.08182051 -0.012772943 0.026370464 0.014177884 -0.020825077 -0.008511478
-0.055927478 0.010386834 -0.04628718 0.024629397 -0.0667261 0.08025036 0.0136422925 0.01843225
-0.13357787 -0.02974676 -0.02174438 -0.04080952 -0.03388322 -0.036625613 0.058081485 0.07525102
-0.051987834 0.038356826 0.111141846 -0.008505873 -0.06800199 -0.004506687 0.08635891 0.018299043
-0.022942778 0.037015088 -0.031849783 0.025657345 -0.020594683 -0.027211897 0.023865514 0.11357695
-0.09148323 -0.059053514 -0.078255035 0.13796914 -0.06190601 -0.09971499 -0.07082748 -0.11653905
0.008209102 -0.001063078 -0.0101395305 -0.016259635 -0.0043909745 0.07398755 -0.0031898182 0.08394057
0.12875934 -0.022311073 0.07970709 -0.014932939 -0.07605545 0.1112966 -0.0017890711 0.055229753
0.02321429 0.025567055 0.062434707 0.056374647 0.09542289 -0.06300007 -0.02560769 0.050323904
0.020265171 -0.013517143 -0.010892539 -0.112747446 -0.001248695 0.022332165 0.052083865 -0.0024556133
0.03147841 0.084094115 0.013471647 0.027091824 -0.09565077 -0.07393251 0.02434864 0.058929797
-0.014166875 0.045442294 0.049190465 0.0726719 -0.05973014 -0.0668215 0.062298853 -0.036450237
0.0349725 0.09495548 -0.018339314 -0.029070992 0.031905033 0.03481742 -0.107778214 -0.0035251966
-0.092881404 -0.03587636 -0.06246849 0.078955434 0.024933256 0.0075861723 -0.07569175 -0.08708958
0.011000468 -0.10101917 0.054454427 0.0746064 -0.04017434 -0.025279855 -0.07036882 -0.050864466
-0.045654207 0.05320422 -0.065144144 0.09792665 -0.066809736 0.11077115 0.013699 0.10220069
0.08358256 0.014108545 0.011934202 0.08126749 -0.04312825 -0.058828842 -0.1381087 0.028779982
-0.10585513 0.025925461 -0.009381888 0.107825845 0.081224956 0.06918469 0.015494245 0.110863686
0.025403976 -0.038023025 0.042680394 0.031263303 0.008445879 0.015062108 0.06444948 -0.091463335
0.06744009 0.101838246 0.105115466 0.032342024 0.10723098 -0.11966811 -0.016619824 -0.06843959
0.06451994 -0.07369407 0.0073303636 0.07388788 0.036893092 0.011810328 -0.003464479 0.07641739
0.019154921 -0.011736588 -0.08790807 -0.0739294 0.028568119 -0.0885618 0.007867493 -0.10451439
-0.07505892 -0.09346829 0.041788615 -0.07156287 -0.00053484953 -0.06812262 -0.079188354 0.09311104
0.073365785 0.01469976 -0.006336092 0.011267206 -0.043751467 -0.032458726 0.016244937 0.12907232
-0.05951536 0.008313762 0.021109093 -0.05458008 -0.05510873 0.013466879 -0.05210555 -0.023521468
0.040967487 -0.02580949 0.053918507 -0.06803364 -0.046417147 0.010476939 0.045645934 -0.09601732
-0.070382155 0.10089595 -0.0008060037 -0.030760452 0.08840088 0.09013014 -0.037042715 0.08420093
-0.06621684 0.07227572 -0.047289196 0.01971058 0.0704996 -0.020349521 -0.07413774 -0.029784301
0.058901668 0.1276803 -0.011838107 0.072266534 0.06173532 0.06517344 0.026511805 -0.10203058
-0.057243727 -0.09358158 0.09629826 -0.0952322 0.026022455 0.07986537 0.09266463 -0.0060045007

fc.bias f4 [256]
00000000: f03f ddbd 75ee 333d 6676 9c3d 2927 13bd
00000010: 0fa9 063e 5dba 983d b316 b4bc e162 6d3d
00000020: cf13 2d3e 7212 e8bc e48e 6a3e 3620 603e
00000030: 3cb2 903e ecf0 9e3e c412 9e3e a065 9f3e
00000040: 3eaa 873e ff77 9c3e 7682 843e d7b3 3a3e
00000050: 543a b43e 9f99 223e 23b5 463e 8e60 7b3e
00000060: 75e7 da3d 8d6c c43d afea 833d d798 3b3e
00000070: 0678 073e f463 1d3e d573 063e fa15 d73c
00000080: 4d10 b03d b418 513d c800 6f3e 62c3 9fbc
00000090: 48d6 763d e5d2 7fbc 7753 fb3b 838a 9f3d
000000a0: ba30 2f3c e305 8bbb dcc6 09bc d432 163e
000000b0: 671a 043e a279 31bd 19a8 093e 4e21 8e3d
000000c0: e5a5 6abd df80 813d 4b26 67bd d0fd febc
000000d0: 8935 c83d 0fa5 fc3d 6cb1 893d ab70 103e
000000e0: 3883 74bd 7d36 983d 5d1e 823d 5784 9e3d
000000f0: 79f3 a83b 59f4 97bd 4771 9bbd 0d2e 9c3c
00000100: 1739 c7bd 57d6 d53d 3c3c 4a3c 6148 ca3d
00000110: 1a71 0d3e e141 9fbd 302e 113e 5310 dd3d
00000120: 399f 60bd ea5c 81bc 5777 163e b174 6bbc
00000130: 2e34 0b3c 8db6 8e3d 7095 1b3e 11f8 b13c
00000140: 45e3 67bd bb8d 063e 526d 46bd 34a6 1b3e
00000150: abcc 083e 4042 063c 2a3d 163d c415 fe3d
00000160: 1c36 acbc 4411 87bd 119f 2a3d 2b38 ecbc
00000170: 0d67 0a3e efb1 91bd dc8a c73d 78d0 153e
00000180: dc71 163e 05b9 1d3d 58bc c13d 8981 72bc
00000190: 9404 b6bc 9b45 e33d e103 64bc 4889 ea3d
000001a0: 224a 80bd fa61 83bc 58bd c33c 020e d73d
000001b0: 6dc3 98bc 3921 cabd 9866 d73c 75b6 d33d
000001c0: fd37 763d f36c 38bd f2ed b63d c350 433d
000001d0: ba69 b73d e5de 723d 45de 573d e8d7 cbbd
000001e0: 5880 e13d d32e f43d 88b2 9d3d ad73 913d
000001f0: b3bf 3f3c 36da 17bd bd10 043d 210a 073e
00000200: 3fad 3f3d b451 0cbd d60f 473d 6903 183e
00000210: fbc7 9abc 8b3b a3bb 18c8 c33d 5c55 e33d
00000220: 4daa 31bd cdd7 afbb 023a aebd f6b9 d8bd
00000230: ff1d d9bc 99fd b6bd 7b00 083e 3e52 643d
00000240: ae02 9d3d 0dad a03d 7f4d a4bd aa3c c53d
00000250: 48df 21bd a326 133e adef 01bc 534e 99bd
00000260: 4b10 073c afc0 ae3c 75a0 803d 1939 913d
00000270: 6698 f73d a75e 573d ad7d fe3d 79b1 563d
00000280: 5d60 bb3c c52b 91bc d199 aebc 82d9 4d3d
00000290: 7003 023e 7d32 19bc 6236 cebc bd4f 3c3d
000002a0: 541e 2f3d adda fc3d fdcf 233d 1309 c9bc
000002b0: c3b8 003e 7c4c bf3d 2356 f6bb cf69 af3d
000002c0: 1a58 35bd 326a 21bd 1773 c5bc d8b2 a53d
000002d0: dcc9 cb3d 872e 923d a680 84bd 0eaa 67bd
000002e0: 6ea5 b93d 2389 e43d 2521 db3d d30e 693c
000002f0: b291 aebd 64eb 4f3b 7707 a13d da5b aa3d
00000300: 7dad cabd f838 043e 500c 9e3d f6d9 283d
00000310: f71c 243d 7e7c f43d aa07 773d 591a 25bd
00000320: d557 a8bc 1fce d6bc a56e 44bd f863 cc3c
00000330: d805 683d cdc6 d83d 53f2 69bd 4591 523d
00000340: d879 36bd e4ee 27ba f245 003e 2cc4 c73c
00000350: 0d6c 7e3c 3849 8fbd 0327 8dbd 1041 b0bc
00000360: 6cee 85bd 46e6 563d 5b53 fd3d 9a11 eebc
00000370: 99a9 613d 5586 4d3d 9439 403d 2d1b a7bc
00000380: f0c9 1e3d d0ad 053e fd84 e4bb fdd0 bdbc
00000390: 6ef5 c33d 0c38 0a3d cb81 083e 6ded f43d
000003a0: 9af9 49bd 49e8 6dbd 7158 2d3d 55b0 8ebd
000003b0: 228f 98bd d3bd da3d 2ff4 b739 ce82 4bbd
000003c0: 12ec 013d 00f9 9ebb adf7 e73d 6cf9 a8bd
000003d0: 001f c2bc 37ab ca3d 821b bd3d 55e4 8abd
000003e0: c71f 003e 5558 82bd dcba 223e b8f5 4ebd
000003f0: b2e6 5dbd 6c7c 72bd 8595 5b3c 6f29 6abd
-0.10803211 0.043928582 0.0763977 -0.035926018 0.13150428 0.07457421 -0.02198348 0.057955626
0.16902088 -0.028329108 0.22906071 0.21887287 0.28260982 0.31043184 0.30873692 0.3113222
0.26497072 0.305603 0.25880784 0.18232666 0.3520075 0.15878914 0.19405036 0.24548551
0.10688678 0.09591017 0.06441247 0.18320023 0.13229379 0.1537016 0.13130124 0.026255596
0.08596859 0.05104895 0.23340142 -0.019502345 0.06026295 -0.015614246 0.007669862 0.07790091
0.01069277 -0.004242645 -0.008409228 0.14667827 0.12900697 -0.04332889 0.1344303 0.06939946
-0.057287116 0.06323408 -0.056433003 -0.031126887 0.09775836 0.1233617 0.06723294 0.1410548
-0.059695452 0.07432268 0.063534476 0.077400856 0.0051559773 -0.074196525 -0.07589965 0.019064927
-0.09727686 0.10441273 0.012343463 0.098770864 0.13812676 -0.07776237 0.14177775 0.10794129
-0.054839347 -0.015791375 0.14693962 -0.014371083 0.008496327 0.069684125 0.15193725 0.021724733
-0.056613225 0.13140003 -0.0484441 0.1520012 0.13359325 0.008194506 0.036679424 0.12406495
-0.021021895 -0.0659509 0.041655604 -0.028835377 0.13515873 -0.07114016 0.09743282 0.14630306
0.14691871 0.038506526 0.09459752 -0.014801391 -0.02221898 0.110972606 -0.01391694 0.114519656
-0.0626414 -0.01603793 0.023893997 0.10500719 -0.018647874 -0.09869618 0.026294038 0.10337535
0.06011199 -0.045025777 0.08932103 0.047684442 0.089557126 0.0592946 0.052702207 -0.0995329
0.11010808 0.119229935 0.07700068 0.071021415 0.0117034195 -0.037073337 0.032242525 0.13187458
0.04679608 -0.034257606 0.048599087 0.14845051 -0.018894186 -0.0049814633 0.09559649 0.111002654
-0.043375302 -0.0053663016 -0.08507158 -0.10582344 -0.026503561 -0.08935089 0.13281433 0.055742495
0.07666527 0.07845507 -0.08022594 0.096307114 -0.03951958 0.14370207 -0.007930678 -0.07485642
0.008243631 0.021332113 0.06280605 0.07090969 0.120896146 0.052580502 0.124263145 0.052415345
0.022873098 -0.017721066 -0.02131358 0.05025626 0.12696624 -0.009350416 -0.025172416 0.04597448
0.042753533 0.123463966 0.039993275 -0.02454046 0.12570481 0.0934076 -0.0075175925 0.08565103
-0.044273473 -0.039407916 -0.02410273 0.08090752 0.09950611 0.07137781 -0.0646985 -0.05655866
0.09064756 0.11158969 0.10699681 0.014224726 -0.08523883 0.0031725997 0.07862752 0.083183005
-0.098963715 0.12912357 0.07717192 0.04122349 0.040066686 0.119378075 0.060310043 -0.04030833
-0.020549694 -0.026221333 -0.04795708 0.024950013 0.056646198 0.10584793 -0.057115864 0.05140807
-0.044549793 -0.0006406142 0.12526682 0.024385534 0.015528691 -0.06996387 -0.068922065 -0.0215154
-0.06539616 0.0524657 0.123694144 -0.029061127 0.05509338 0.050176937 0.04692991 -0.0203987
0.0387668 0.13054585 -0.0069738613 -0.023170942 0.095682964 0.033744857 0.13330762 0.11959348
-0.049310304 -0.058082853 0.042320672 -0.069672264 -0.074491754 0.10680737 0.0003508641 -0.049685292
0.031719275 -0.0048514605 0.11326537 -0.082506984 -0.023696423 0.09895938 0.09233762 -0.06781832
0.12512122 -0.06364504 0.15891594 -0.050527304 -0.054175086 -0.05920069 0.013402347 -0.05716842

ln.weight f4 [64]
00000000: 3105 b23f f3de b53f 92bc af3f fa5b b43f
00000010: 05e4 b33f b944 c83f bb0b c03f b2eb aa3f
00000020: 7018 c33f b2aa ca3f 15bb c13f 5e08 bb3f
00000030: 85de b63f e359 bb3f 7d1e bf3f 6672 b43f
00000040: 3216 b43f 83d7 cb3f e67a b23f 0808 ab3f
00000050: 79d9 bf3f f9f5 b83f 645f b83f b270 b63f
00000060: 8f97 b73f f066 b43f 4d60 cb3f 13dd bc3f
00000070: 958c b63f 972e b53f afe6 c63f cc48 ae3f
00000080: e945 be3f bec8 ac3f 00e3 c63f 92ef d13f
00000090: ee65 b83f 6027 bb3f 3f61 bf3f 2ad7 bb3f
000000a0: 125e b53f 3290 be3f b8d2 c13f bccf cd3f
000000b0: 8dce c03f 599e b53f 8f58 b33f 320a c63f
000000c0: dcfa b43f 780c b23f 483d bd3f 383a bc3f
000000d0: dc9c d23f 685a c63f 4909 c93f 0f8d b63f
000000e0: 5c71 c43f fca9 bd3f 3151 c13f ece5 ac3f
000000f0: b211 ba3f ce77 bd3f e76b c13f 1282 b53f
1.3907834 1.4208664 1.3729422 1.4090569 1.4053961 1.5645972 1.500358 1.3353179
1.5241833 1.5833342 1.5135218 1.4611928 1.4286658 1.4636806 1.4931179 1.4097412
1.4069273 1.5925144 1.3943756 1.3361826 1.4988242 1.4450065 1.4404111 1.4253142
1.4343127 1.4093914 1.5888764 1.4754966 1.4261652 1.4154843 1.5539149 1.3615966
1.4865085 1.3498762 1.5538025 1.6401236 1.4406106 1.4621391 1.4951552 1.4675038
1.4169333 1.4887755 1.5142431 1.607902 1.5063034 1.4188949 1.4011401 1.5471861
1.4139056 1.3910055 1.4784327 1.4705267 1.645412 1.549634 1.5705959 1.4261798
1.5347095 1.48175 1.5102903 1.3507667 1.453665 1.4802186 1.5111054 1.4180319

ln.bias f4 [64]
00000000: 1b42 04bf 43c8 e6be 4e17 e0be d85f d9be
00000010: 2862 ecbe db15 0c3f 000e f63e 69a7 d03e
00000020: 82c2 043f 7b3e 073f 6491 f93e bfa5 f53e
00000030: cb60 06bf bbae f7be f67f 003f 3a60 e83e
00000040: 144e e8be dac3 143f a28e e7be f07f d63e
00000050: fe7f 03bf 08f4 eebe cace ed3e 6ec5 e8be
00000060: 7b3d eebe aaea ed3e 7547 173f a4f5 f73e
00000070: 6202 e73e 8fad e63e 7e2a 00bf f60d d63e
00000080: 1a83 00bf 0f0b aabe 6e18 13bf 5e85 f7be
00000090: 7e47 f03e 4eec f9be 4c42 fd3e a618 ea3e
000000a0: 6072 edbe 2c5d 01bf 0fc3 023f 3329 ff3e
000000b0: a424 03bf 8ee5 ea3e 2fc1 e0be fb53 03bf
000000c0: 936f e43e 5b21 e03e ca00 f63e 37a1 f9be
000000d0: f736 ec3e 6786 01bf 79aa 01bf 2e5d ecbe
000000e0: bccb 013f c788 f63e 9b8f f6be c567 dabe
000000f0: 4fb7 f8be d5d4 f6be f7b5 003f fe1f e73e
-0.5166337 -0.45074663 -0.4376778 -0.42455935 -0.46168637 0.5472085 0.48057556 0.40752724
0.51859295 0.5282971 0.48743737 0.47978017 -0.52491444 -0.48375496 0.5019525 0.45385915
-0.4537207 0.58111346 -0.45226008 0.41894484 -0.51367176 -0.46670556 0.4644683 -0.45463127
-0.4653128 0.46468097 0.5909341 0.48429596 0.45119005 0.4505429 -0.5006484 0.41807526
-0.50200045 -0.33211562 -0.5745915 -0.4834394 0.46929544 -0.488131 0.49464643 0.4572193
-0.46376324 -0.50532794 0.51078886 0.4983612 -0.51227784 0.4587826 -0.43897387 -0.5130002
0.44616374 0.43775448 0.48047477 -0.4875581 0.46135685 -0.50595707 -0.50650746 -0.4616484
0.507015 0.48151228 -0.48156437 -0.42657295 -0.48577353 -0.48209253 0.50277656 0.45141596
