model.pth (torch, 171429 bytes, 12 tensors)

rnn.weight_ih_l0 f4 [64, 3]
000000 21 dc fc bc 78 1c 07 bd 60 19 b3 3d 7a f3 bc bd
       -0.030866684 -0.032986134 0.08745074 -0.09226127
000010 03 cd 4f 3c 66 6c a2 3d 3c 9a 2b bc c0 09 a7 3c
       0.012683156 0.079308316 -0.010473784 0.020390391
000020 bc d1 78 bd a7 ea 67 3d df 55 43 3d d8 eb bd 3d
       -0.060746893 0.056620266 0.047689315 0.09273499
000030 f4 fb 65 3d 20 19 cd bc 22 49 a9 bd 0a 1d 26 bb
       0.056148484 -0.025036395 -0.08265902 -0.0025346898
000040 87 fc 93 bd 20 c2 e1 3b 60 ae 87 bd 98 a6 12 bd
       -0.072259 0.0068895966 -0.06625056 -0.035803407
000050 c4 40 6e bd 2a 12 84 3d 6b 95 a6 3d 00 64 c8 3a
       -0.058167234 0.06448777 0.08133968 0.0015288591
000060 38 17 9c 3d a1 4b a3 3c 30 28 b1 bd a8 75 f4 3d
       0.07621616 0.019933524 -0.08650243 0.11936504
000070 4a 44 56 3d 3c e1 50 3d 43 e2 73 bd a0 44 b2 3c
       0.05231122 0.05099605 -0.059541952 0.021761239
000080 30 2d 88 3d 2d 51 cd bc 85 00 c2 bc 0a 81 af bd
       0.06649244 -0.025063122 -0.023681888 -0.08569534
000090 08 60 f2 3c f3 ac 75 3d 90 c1 fe 3d 53 3c a2 bd
       0.029586807 0.05997939 0.12439263 -0.07921662
0000a0 96 76 58 bc 02 76 d2 3d 2f e6 82 3d 04 b7 49 bd
       -0.013211867 0.102764145 0.0639156 -0.049246803
0000b0 44 5c 9b bd 0a b4 6c bd f7 3c 0e bd 00 3b c1 3d
       -0.07585958 -0.057788886 -0.03472611 0.094350815
0000c0 f4 78 38 bd b7 aa e7 3a d8 27 df 3c 70 f5 9f 3d
       -0.045037225 0.0017674778 0.027240679 0.07810485
0000d0 d6 91 1a bd 5c f1 bd 3d 86 49 b2 3a a8 27 e1 3c
       -0.037736736 0.09274551 0.0013602234 0.02748473
0000e0 38 91 b7 bd 22 70 76 3d b7 db 39 bd 60 2c fc 3b
       -0.08963245 0.060165532 -0.045375552 0.0076957196
0000f0 08 63 8f 3d 2d 8e 71 3c 62 09 90 bd b7 39 e2 3c
       0.070013106 0.01474337 -0.0703304 0.027615411
000100 19 b1 00 bd b0 99 13 bd cd 0f 04 bd 74 c4 a9 3c
       -0.031418893 -0.03603524 -0.03224163 0.020723559
000110 40 b5 cf 3b b2 b7 93 bd 04 44 78 bc d4 37 6e bd
       0.0063387454 -0.072127715 -0.015152935 -0.05815871
000120 29 f0 ab b9 fb 61 81 3b b8 38 26 3d 0a 7a 44 3d
       -0.00032794595 0.0039484478 0.040581435 0.047967948
000130 18 61 1c 3d 3e 1a c1 bd 4f 21 8d 3d fb b7 55 bd
       0.038178533 -0.094288334 0.06891119 -0.05217741
000140 90 3d 6f bc 2c 50 44 bd 0b a9 e8 3c 96 56 db bd
       -0.01460208 -0.04792802 0.028400918 -0.10709874
000150 bd a6 f4 bd 62 6f 9a bd e8 b1 5c bd 33 36 95 3d
       -0.11945865 -0.07540776 -0.053880602 0.07285728
000160 e5 77 80 3c b0 45 8f bd 38 61 68 bc 12 1c 1b bc
       0.01568217 -0.06995714 -0.014183335 -0.009467142
000170 36 ec 97 bd 39 31 59 bc f6 02 23 3c 40 1e a3 3b
       -0.074181005 -0.0132563645 0.009949436 0.0049779713
000180 98 1b b8 3c 9b 30 4f bd c6 73 fe bd da 67 e0 bb
       0.022474095 -0.050583463 -0.12424426 -0.0068483176
000190 0f 4f 12 3d a8 66 ab 3c 8b 87 54 3d 37 0b 5e bd
       0.035719927 0.020922974 0.051887076 -0.054209914
0001a0 b8 7d 54 bd 86 18 e0 3c 2a df 2c 3d 7a 3a 97 3d
       -0.051877707 0.027355444 0.042205013 0.073842004
0001b0 13 05 72 bd f1 1e 5d bd c8 d6 a3 bc cc 0c b1 bd
       -0.05908687 -0.053984586 -0.019999877 -0.08645019
0001c0 11 2e 01 bd 00 94 6d bc f7 60 b0 3d 9a 72 5f 3d
       -0.031538073 -0.014500618 0.086122446 0.054552652
0001d0 28 47 aa 3c f4 54 bd 3d 75 f2 66 3c 52 46 ef 3d
       0.020785883 0.09244719 0.014095892 0.116833344
0001e0 01 2c d2 bb f7 74 c2 3c 0e 0c eb 3d 61 2a b1 bd
       -0.006413937 0.023737414 0.114769086 -0.08650661
0001f0 33 cc 27 bd 2e 0e cc 3d 6a 9b 45 bb 6d 3d 5c bd
       -0.040966224 0.09963642 -0.0030152448 -0.053769518
000200 68 a1 87 3d fa ac 04 3d 35 d6 5d bd ea 5f eb 3d
       0.06622583 0.032391526 -0.054159362 0.114929035
000210 d9 2f 49 3d 63 05 7c bd a0 8e d5 bd cf bd 93 3c
       0.049117897 -0.061528575 -0.10427594 0.018034844
000220 bb 64 89 3d cc 00 c2 3d 37 cf 22 bd c5 6e 24 bd
       0.06708666 0.09472808 -0.039748397 -0.0401447
000230 24 d4 c9 3d e5 f8 87 bd c0 a5 ff 3c 3e a8 ef 3d
       0.09854916 -0.0663927 0.031206965 0.117020115
000240 da 1f 49 3b 6d d3 cc 3c 40 84 51 bb 3f 31 1b 3d
       0.003068915 0.02500316 -0.0031969696 0.03788876
000250 f7 99 14 3d 58 ab 7d bd 5f c2 ad 3b 5a e7 3f bd
       0.036279645 -0.061930984 0.005302712 -0.046851493
000260 44 d9 f8 3d 5d 56 d3 bc cf 56 00 bd 7c eb 95 3d
       0.12150815 -0.025798017 -0.031332787 0.07320306
000270 39 12 a1 3c 22 e0 14 3d 60 fd c2 3d c8 27 9f 3c
       0.01966201 0.036346562 0.09520984 0.019428149
000280 22 67 93 3d a8 eb 50 bd 0d eb 52 3d 36 3d a6 bb
       0.071974054 -0.05100599 0.051493693 -0.005073215
000290 b4 97 2f 3d 5d 0a f0 bc 8d 82 9c bd 10 eb bb bc
       0.042869285 -0.029301817 -0.07642088 -0.022939235
0002a0 6f 83 af bd 4c ba 3d bc 24 14 16 bd 9d a2 c8 bd
       -0.08569991 -0.011580061 -0.0366403 -0.09796641
0002b0 c8 c6 db 3c bc d7 3e bd 5a 32 ca 3d 79 ab 91 bd
       0.026828185 -0.04659246 0.09872885 -0.07112784
0002c0 ea db f5 bd 80 ff 58 bd 10 0b 78 bd 8a aa c6 bd
       -0.12004836 -0.05297804 -0.060557425 -0.097004965
0002d0 92 7c 90 bd 9c e6 0c bd 70 43 f4 3d 72 3a f4 bc
       -0.0705501 -0.034399614 0.11926925 -0.029813025
0002e0 26 63 05 bd 34 7b 1e 3d 46 42 0e bd 03 90 63 3b
       -0.03256526 0.038691714 -0.034731172 0.003472329
0002f0 ca e1 82 3d 5f b4 07 3d f9 0b a7 3b 8c 52 c8 bd
       0.06390722 0.033131 0.005097863 -0.097813696

rnn.weight_hh_l0 f4 [64, 64]
000000 05 ed 28 3c 92 6f de ba a4 6a b5 bb 9f 08 40 bd
       0.010310416 -0.0016970506 -0.005536394 -0.04688322
000010 22 b3 78 bd f0 a4 15 be ba de 20 bc 28 2e 2d bd
       -0.06071771 -0.146137 -0.009818727 -0.042280346
000020 86 26 22 3d c4 ae ad 3d b4 4f 7c 3a c3 25 9f 3d
       0.03958752 0.084805995 0.0009624914 0.07770874
000030 01 0b 8b bd d2 da 00 be c4 3e 0d be 79 61 a2 bd
       -0.06789208 -0.12583473 -0.13793474 -0.07928748
000040 68 ee 3c 3c de ab 97 bd 25 80 00 be e9 0b ce bd
       0.01153145 -0.07405828 -0.12548883 -0.100608654
000050 02 c6 ca 3d fb 7c 0f be b8 ad 1a bc 84 b1 55 3c
       0.09901048 -0.1401252 -0.009440832 0.013042811
000060 36 7f 07 3e af 9c 3c 3d a0 7e 82 3d 73 c3 2a 3d
       0.13232121 0.046047863 0.06371808 0.0416903
000070 29 ab ef bd 29 cb 7a bd 47 4e 74 bd a7 45 39 bd
       -0.11702568 -0.061228905 -0.059644964 -0.04523244
000080 7f 6b 15 3d 75 0f 51 bd bc 31 55 3d bb 5a ac 3d
       0.03647947 -0.05104013 0.052049384 0.08415743
000090 4b d9 f5 3d 0e 16 74 bd 5b 60 e1 3c 15 cc e3 bd
       0.12004336 -0.059591345 0.027511766 -0.1112291
0000a0 45 b3 d7 3d 68 95 63 3d 83 df 92 bd 49 e9 8b 3d
       0.1053224 0.055562407 -0.07171538 0.06831605
0000b0 98 67 4a bd 9c 95 3f bd 35 7e 1f 3d f4 1f 2b bd
       -0.0494152 -0.046773538 0.03893872 -0.04177852
0000c0 cc 05 ce bd 73 d9 cd bd 4f 92 c8 bd 43 62 15 be
       -0.100596994 -0.10051241 -0.09793531 -0.14588265
0000d0 51 80 1c be e0 4f 52 bd 23 0b 29 bd 12 12 ef bd
       -0.15283324 -0.051345706 -0.041270386 -0.116733685
0000e0 23 07 fb bc b8 3b fe bd b2 7d d0 3c cc 8e 94 3c
       -0.030643051 -0.12413734 0.025450561 0.018134497
0000f0 08 1e 2e 3d 83 3b a6 bb 53 ff de 3d a5 70 a9 3d
       0.04250911 -0.0050730123 0.10888543 0.08273438
000100 06 5d c7 3d c5 a3 8a bd 1b ff 08 3e 91 fa b4 38
       0.0973454 -0.06769518 0.13378565 8.6297405e-05
000110 15 ee da 3d 89 12 05 3e 5d ee 00 bd 61 fe 92 bc
       0.10689942 0.12995352 -0.03147732 -0.017943563
000120 32 b0 f8 3d a2 9d 4b bd ea 75 cb bd 15 68 1e 3d
       0.121429816 -0.049710877 -0.099346 0.03867348
000130 48 64 2e bd 26 e8 d8 3c 56 76 fd 3b 7b c8 f0 bd
       -0.042576104 0.026477885 0.007735054 -0.117569886
000140 63 be d8 3d 1b e9 bd 3d fb 14 45 bd c3 87 5f 3d
       0.105831884 0.09272977 -0.04811571 0.05457283
000150 53 b0 9f bc 50 0d eb bb d7 52 a9 3d a7 94 aa 3d
       -0.019493258 -0.007173218 0.082677536 0.083291344
000160 5f 8e 74 3c 95 9a 3f bd 9e fa aa 3d 84 80 49 3d
       0.014926522 -0.04677828 0.08348583 0.049194828
000170 c0 2f af bd 29 0c e4 bd f1 09 bd 3c 01 f6 1f bd
       -0.085540295 -0.11135132 0.02307603 -0.039052967
000180 0e d3 f5 bc 72 e1 2c 3d a4 a3 69 3d 37 a7 7d bd
       -0.030007865 0.04220719 0.057040825 -0.061927047
000190 ed 5b b7 bd 1b 47 ba 3d fe b2 55 3d 16 29 dd 3d
       -0.0895308 0.090955935 0.052172653 0.10798852
0001a0 be 8d d3 3c 9b ef b6 bd db a6 8b bd 3a 52 de 3d
       0.025824424 -0.0893242 -0.068189345 0.10855527
0001b0 53 f9 8f 3d 76 c0 d9 bd de b4 4d bd 92 2c 44 3d
       0.07029977 -0.10632412 -0.050221317 0.047894068
0001c0 07 2a e1 3b 74 4f 5f bd 49 19 f0 bd 09 f7 d1 3d
       0.006871465 -0.05451913 -0.11723573 0.10252196
0001d0 2c e6 7d bc 40 3b 8d 3b 57 43 9b bd 56 de d9 bd
       -0.015496772 0.0043100417 -0.075812034 -0.1063811
0001e0 c7 a0 93 3d 1c 82 a5 3d 93 6d 5f bd cc bf c8 bd
       0.072084 0.08081457 -0.054547857 -0.09802207
0001f0 2d 32 5f 3d 26 00 37 bd ba a0 00 be ac c9 9a 3d
       0.05449121 -0.044677876 -0.12561312 0.07557997
000200 d6 ca 37 3d 93 57 90 3d f1 a0 7f bd 67 d1 ac 3d
       0.044871174 0.070479535 -0.062409345 0.08438378
000210 ee 2d f9 3c d8 94 77 3d 03 cd 18 3d bd 14 c6 3d
       0.030417409 0.060444683 0.03730489 0.09671924
000220 14 56 be bc 6b 16 06 3d 87 08 11 3c cd 96 9e 3c
       -0.023234405 0.032736223 0.008852131 0.019359017
000230 34 42 9b 3d 3a 24 ae 3c 1b 69 6d bd c5 8d 85 bd
       0.075809866 0.021257509 -0.057961565 -0.06521181
000240 45 ce ba bc 80 dd dd 3d 3a bc c2 3d 1a e6 51 bd
       -0.022803435 0.108332634 0.095085576 -0.051244833
000250 82 21 a1 bd 36 14 a1 bd d5 7b 22 3e 4a 88 95 bc
       -0.07867719 -0.07865183 0.1586755 -0.018253464
000260 0a df a6 bd 33 a2 23 bc 99 a2 dc 3d c9 52 04 3e
       -0.0814801 -0.009987402 0.107732005 0.12922205
000270 09 7a e5 3c d7 b1 f6 bc 29 06 c7 bd de fe 24 bd
       0.028012292 -0.030114098 -0.09717972 -0.040282123
000280 23 87 c7 bd 21 1a 09 bd b1 10 19 3d da a6 72 3d
       -0.09742572 -0.033472184 0.037369434 0.059241153
000290 a7 38 59 3d a5 d3 c9 bd c3 ee af 3b 80 92 dc bd
       0.053032544 -0.09854821 0.005369039 -0.1077013
0002a0 e1 29 90 3d 77 11 4b 3d e4 3b 00 be d3 a5 bf bc
       0.07039238 0.049577203 -0.12522846 -0.0233945
0002b0 10 a2 1e bd b5 7c 9f bd 19 d1 f4 3d 92 f7 97 3c
       -0.038728774 -0.07787458 0.11953945 0.018550668
0002c0 45 09 2a 3d ef ed 31 3d 4f 87 2e 3d 70 4d 31 3d
       0.041512746 0.0434398 0.04260951 0.04328674
0002d0 7e 87 39 3d 3d ca 8d 3d db 77 2f 3c df c7 1b 3e
       0.04529523 0.069233395 0.010709728 0.15212964
0002e0 f9 d5 b5 3c be ae ab bc 77 c6 77 3d 0c 5c 96 bd
       0.022196757 -0.020957347 0.060492005 -0.07341775
0002f0 3d 37 e5 3c b9 05 2a 3d f8 44 62 3d ca f4 d8 3d
       0.027980441 0.041509364 0.055241555 0.10593565
000300 d0 3f 48 bd d5 a1 00 3a 5f e5 52 bd 14 a4 f4 3c
       -0.04888898 0.00049069274 -0.051488277 0.029863395
000310 d6 a0 0d 3e 37 30 1d bd 1b 44 e7 bb 26 3e c0 bd
       0.13830885 -0.03837606 -0.0070576794 -0.09386854
000320 41 8a 3c 3d 09 5f 13 bd 36 69 87 3b cf 27 0e 3e
       0.046030287 -0.035979304 0.004132415 0.13882373
000330 ff fd 81 bc df 35 0e 3d eb 5d 52 3c 47 65 2e bc
       -0.015868185 0.034719344 0.012839775 -0.010644264
000340 89 81 9a bd 9c 8c d0 3d 8c 47 10 3d 6c ab c0 bb
       -0.07544238 0.10183069 0.035224482 -0.00587981
000350 6e e5 e1 bd 4f 42 52 bc c7 b0 ff 3d 6c cb c1 3b
       -0.11030088 -0.012833192 0.124848895 0.0059141424
000360 2a 7e 9d 3b c4 82 9e bd 8c 41 5d bb 93 cc 57 bd
       0.0048062997 -0.07739785 -0.0033760993 -0.05268533
000370 74 66 04 3e 1d 16 85 3d bc cc ca bd f3 7b c8 bd
       0.12929708 0.064983584 -0.09902331 -0.097892664
000380 b9 0e 16 bd 12 03 0f 3d d2 f7 88 3d 22 b5 68 bd
       -0.036635134 0.034915037 0.06687893 -0.056813367
000390 57 a5 b2 3c 2c 05 02 be 1d 8f 7c bc fc a3 b8 bd
       0.021807356 -0.12697285 -0.01541498 -0.090156525
0003a0 b5 80 b7 bd 6d e0 bc 3d d4 65 9e bc 9c b9 ff bd
       -0.08960096 0.09222493 -0.019335665 -0.12486574
0003b0 19 c6 28 3c 11 53 65 3d 04 49 68 bc b5 a1 49 3d
       0.010301136 0.05598742 -0.0141775645 0.04922648
0003c0 ed b1 18 bd 6c 4e 98 3d 34 3e c0 3b 2f 3f 27 bd
       -0.03727906 0.07436833 0.00586679 -0.04083174
0003d0 8c c2 cf 3d fd f2 16 bc 83 a5 ff bb 8b 5c a8 bd
       0.10144529 -0.009213206 -0.007801713 -0.08220776
0003e0 12 7d 83 bd 61 d3 a7 bc ea be 10 be 20 ab 13 be
       -0.0642034 -0.020486536 -0.14135328 -0.14420748
0003f0 4f cc 54 bc ce f0 89 3c b3 4f 18 3d 7a 0c d9 3d
       -0.012988164 0.016838457 0.037185382 0.10598083

rnn.bias_ih_l0 f4 [64]
000000 17 f0 cb bd 26 e0 79 3d 64 72 1b 3e 49 9d d9 bc
       -0.09957903 0.06100478 0.15180355 -0.026564257
000010 5d 2b cf 3d f5 bf b6 bc 92 e1 cb 3b b1 4f 62 bd
       0.10115693 -0.02230833 0.0062219584 -0.05525178
000020 c5 1a b8 3d 50 41 ef bd 65 ca 61 bd 26 b2 09 3d
       0.08989481 -0.11682379 -0.05512466 0.03361716
000030 02 72 6e 3d 8a 11 35 3d 4a 1a 68 3c 7b c3 2b be
       0.058214195 0.04420618 0.014166424 -0.16773789
000040 40 56 2c 3e b9 88 17 3e 7f 38 79 bc d8 5c 06 bd
       0.16829777 0.1479825 -0.015211224 -0.032803386
000050 01 d2 23 be f1 a6 39 3e 3d 89 22 3e e5 87 04 be
       -0.15998079 0.1813009 0.15872665 -0.12942465
000060 2e 14 24 be 21 10 2b bc 9d 92 d5 3d b5 2e 01 3e
       -0.16023323 -0.010440857 0.10428355 0.12615474
000070 2c 0f 03 3e 9c 42 19 3e f9 45 17 be 8c 60 45 be
       0.12798756 0.14966816 -0.14772786 -0.19275111
000080 3f 95 f1 bc 70 d8 a0 bd 4c 17 fc bd dc 8a 4d bd
       -0.029490111 -0.07853782 -0.12309131 -0.050181255
000090 d3 ac 42 be 98 04 37 bd 92 9a df 3d 43 1b a5 bd
       -0.1901124 -0.044682115 0.10918154 -0.080618404
0000a0 5f cf 3d bd 4d c9 21 bd b4 3a 82 bd 12 92 93 bd
       -0.046340343 -0.039498616 -0.06358853 -0.07205595
0000b0 ad ae 67 3d 6f dc 22 bd 7c bc ba 3c 34 d1 ae bd
       0.05656307 -0.039761003 0.022794954 -0.08535996
0000c0 33 e3 06 bd 1b 13 8f 3d d2 43 15 be 96 f2 9f 3d
       -0.032931518 0.06986066 -0.14576653 0.078099415
0000d0 d8 ca 41 3e 91 77 c8 3c 76 13 ea bd 0d ad 87 3d
       0.18925035 0.024471076 -0.11429493 0.06624804
0000e0 95 c3 60 bc 76 91 0b 3e fd f7 14 be 77 53 38 be
       -0.013718505 0.13629708 -0.14547725 -0.1800059
0000f0 28 43 bf 3b 75 23 ba 3d 8c f3 80 bd a1 59 1c 3d
       0.005836863 0.09088794 -0.06296453 0.038171414

rnn.bias_hh_l0 f4 [64]
000000 82 ca a0 bd 66 26 b5 3d bb 86 ee 3d 0d b6 2a 3e
       -0.07851125 0.088452145 0.116467915 0.1667101
000010 55 e1 c3 bd 7a 28 37 3d c9 f6 22 be a2 10 5a bd
       -0.09564463 0.044716336 -0.15914454 -0.05323852
000020 8d 62 fb 3d 16 16 69 bd 74 5d ca bd fb 6d 27 3e
       0.122746564 -0.05690583 -0.09881106 0.16350548
000030 5e 4a 2a 3e ea d7 9f 3d 73 73 26 3e 38 e0 26 be
       0.16629931 0.07804854 0.16254978 -0.1629647
000040 d7 3d 05 bc 00 27 2d bd 71 4e f1 3d 97 8c 03 bd
       -0.00813242 -0.04227352 0.1178254 -0.0321165
000050 6f da 05 bd 33 22 fd 3c 22 32 d9 3d 09 23 a1 bd
       -0.032679018 0.030900097 0.10605265 -0.078680106
000060 07 d8 97 bc 47 a8 3a be 10 81 21 3e ec 53 cf 3d
       -0.018535627 -0.18228255 0.1577189 0.10123429
000070 b9 a5 c2 3c 49 91 0d 3d f9 f3 5e bd 18 76 f2 bc
       0.023760663 0.034562383 -0.05443189 -0.029597327
000080 71 13 02 be fb c8 15 be 87 cd 83 bd c4 b4 1a be
       -0.12702729 -0.14627449 -0.064356856 -0.15108019
000090 1c ac d8 3b a5 a6 44 3d 67 d6 1a 3e b2 1e 25 3d
       0.006612314 0.048010487 0.1512085 0.040312476
0000a0 9e 2b e8 bd ae ec 34 3e 3b af 85 3c a4 05 88 bb
       -0.11336444 0.17668411 0.016318908 -0.004151063
0000b0 f8 52 b7 3d 49 c0 8a bd da 6a 84 3d 12 9c ea bd
       0.08951372 -0.06774957 0.06465693 -0.11455549
0000c0 e4 9c 5a bc 6b 00 20 3e d1 4d 16 be 3b 6e c5 3d
       -0.01334307 0.1562516 -0.14678122 0.096401654
0000d0 13 d9 ee 3d 93 36 76 bd 34 27 8a bd 55 d4 a2 3d
       0.11662497 -0.06011064 -0.06745759 0.07950655
0000e0 e8 c7 23 3e 01 4e 1b 3e 54 8c 61 bc 0c 6c 18 be
       0.15994227 0.15166475 -0.013766367 -0.14884967
0000f0 c6 3b 6f bc fb 63 18 3e 7c 28 44 be 44 78 23 3e
       -0.014601653 0.1488189 -0.19156069 0.15963846

rnn.weight_ih_l0_reverse f4 [64, 3]
000000 10 f2 06 3d 87 3a d7 3c e0 59 a3 bd 87 c8 70 3c
       0.032945693 0.026273025 -0.07976127 0.014696247
000010 b2 66 a8 bb b0 03 96 bc 7c 90 90 bd 11 bd 5c 3d
       -0.0051391954 -0.018312305 -0.07058808 0.053891245
000020 44 10 e3 bd 45 b7 91 3d 09 e1 8d bd 88 7d a1 3d
       -0.11087087 0.07115034 -0.06927688 0.07885271
000030 f6 54 85 3d df 86 ee 3c f0 43 63 bd ab 31 5b bd
       0.06510346 0.029117046 -0.055484712 -0.053514164
000040 29 ef 38 3d c0 1a 2b bc f3 62 55 bd 5e e0 4e bd
       0.045149956 -0.010443389 -0.05209632 -0.050506942
000050 36 a2 fa bd cb f2 bd bd 17 b8 a7 3d da 2b d8 bd
       -0.122379705 -0.09274825 0.08189409 -0.10555239
000060 3e 2d 9a 3d 3f 8f 56 3d a8 90 c5 3d 1e 1c 25 3c
       0.075281605 0.052382704 0.096467316 0.010077504
000070 a9 a1 32 bd 84 f6 0a 3d 31 c9 af bc e3 eb 70 3c
       -0.043611202 0.033926502 -0.02145824 0.014704677
000080 b0 71 78 3c 85 82 b4 bc c2 e8 0a bd 34 1b 9c bd
       0.015163824 -0.022034893 -0.03391338 -0.07622376
000090 e4 a7 32 3c 36 38 3e bd 5c 6b 7c 3d ab 10 ca 38
       0.010904286 -0.046440326 0.061625823 9.635215e-05
0000a0 48 f7 4b bd e2 59 a1 bd 28 16 49 3d b3 b3 77 3d
       -0.049796373 -0.07878472 0.049093395 0.06047411
0000b0 b0 92 fe 3d a3 86 82 bd 54 ad dd 3c b0 37 90 bc
       0.12430322 -0.06373336 0.027060188 -0.017604679
0000c0 66 5d a2 3b 4a 20 85 3c 28 72 39 3d 66 30 fd bc
       0.0049549816 0.016250748 0.045274884 -0.030906867
0000d0 ce 6d 0c bd 9c 07 01 3d c2 69 36 3d 10 ff 9a bb
       -0.034284405 0.031501397 0.044534452 -0.004730113
0000e0 80 23 3b bd c6 46 ad 3a 04 ee 57 3d c0 e5 27 3d
       -0.045688152 0.0013219945 0.052717224 0.04099059
0000f0 10 ea b3 3d f1 ec ee 3d e8 a1 37 3d 3f 05 cc 3d
       0.08784878 0.11666287 0.04483214 0.09961938
000100 3d 37 73 bd 2c 0f 57 3d 80 ab 08 3e a2 c4 94 3d
       -0.05937885 0.052504703 0.13346672 0.07264067
000110 68 d5 80 bd f5 84 b1 3d 6a 81 9b bd a0 a4 90 bb
       -0.06290704 0.08667938 -0.07593043 -0.004414156
000120 b8 0a 91 3d f9 34 45 3d 58 8d 5f bd 49 a3 25 3c
       0.070821226 0.04814622 -0.054578155 0.010109731
000130 43 9a 52 3b a4 be 3a bd bc 1a 97 bd 29 33 c2 bd
       0.0032135404 -0.045591965 -0.07378146 -0.09482414
000140 0e 04 f3 bd 40 66 43 bd 6a 88 0f 3b 56 f7 96 bd
       -0.11866008 -0.047704935 0.0021901377 -0.07371394
000150 ff 81 be bd 0b 91 7d 3d 50 d0 7f 3c f5 8d 09 bd
       -0.093021385 0.061905902 0.01561363 -0.033582646
000160 2b aa 56 bc 64 8b 04 3d 0c 7e 2e 3d ef 4b 30 3d
       -0.013102095 0.032359496 0.042600676 0.043041166
000170 1e a4 f1 bd 3e 2c 84 3c b3 61 a8 3c f0 b0 50 bc
       -0.11798881 0.016134378 0.0205544 -0.012737498
000180 a9 13 97 bd 3f cd aa bc 34 aa e3 3d d5 c6 97 3d
       -0.07376797 -0.020849822 0.11116448 0.07410971
000190 e3 e8 1d bd 60 7d 41 3d 5d cb 1a bd 1c f9 67 bd
       -0.038552176 0.047238708 -0.0377916 -0.056634054
0001a0 c0 e5 be 3b e1 2e d1 3d 92 74 dc 3c 70 84 22 bc
       0.005825728 0.102140196 0.026911054 -0.009919271
0001b0 f0 b3 8f 3c cd 11 da 3c b0 01 00 3d f4 29 57 3d
       0.017541856 0.026619816 0.03125161 0.052530244
0001c0 15 de 06 3d 40 a0 cb bc c1 bd 69 bd 8d b9 1f bc
       0.032926638 -0.024856687 -0.05706573 -0.009748829
0001d0 6c 54 42 3d 34 30 07 bd 77 47 11 bb 70 2a 64 bc
       0.047443792 -0.033004954 -0.002216784 -0.0139261335
0001e0 a6 6f 51 bd 42 b2 94 bd 7c 11 65 bd ff 5c f1 3d
       -0.051131867 -0.072605625 -0.055924878 0.11785316
0001f0 2a 30 82 3d 1c 8a 1c bd 92 a5 5c bd 88 1f a8 bb
       0.06356843 -0.03821765 -0.053868838 -0.005130712
000200 94 08 49 bd ac 35 f0 bc 4c 78 50 3d 38 e4 fb 3d
       -0.049080446 -0.029322468 0.050895974 0.12299389
000210 67 c6 d6 3c 51 c1 28 3c 80 d6 5f 3c 2c 90 3f bc
       0.026217652 0.0102999965 0.013661981 -0.011692088
000220 2a f2 50 bc aa 30 e9 3d 95 8b 89 bd 06 84 05 3d
       -0.012753049 0.11386235 -0.06716076 0.03259661
000230 08 f6 60 bd 65 8d 92 bd c6 ff 59 bd 30 76 f2 bc
       -0.054922134 -0.07155875 -0.05322244 -0.029597372
000240 34 0d a1 bc 02 bb ad 39 9a 91 fb bd 9b cc ff bd
       -0.019659616 0.00033136463 -0.12283631 -0.12490197
000250 e7 ab 11 bd 8a 76 d7 3d 65 cd 8a bd 88 4e 1e bd
       -0.03556433 0.105206564 -0.06777457 -0.038649112
000260 b8 8e d3 3d ef e8 b7 bb c1 d4 4f bd 48 53 5b 3d
       0.10329956 -0.0056124846 -0.050740007 0.05354622
000270 ea f6 16 3d 40 3a 8e 3a e8 72 98 3c 0d 08 3f 3c
       0.03685657 0.00108511 0.01860948 0.011659634
000280 a4 44 47 3d 60 41 ab bb cb fd 8f 3d bb 29 89 3d
       0.048649445 -0.005226299 0.07030829 0.066974126
000290 2e f0 a6 bd 72 2c 7a bd 7a 0c 51 bb 80 2c 7a bc
       -0.081512794 -0.061077543 -0.0031898306 -0.015269399
0002a0 cd 51 25 bc a7 7c a8 3c d0 5b 03 bd ef 11 d2 bd
       -0.010090304 0.020567251 -0.03206998 -0.10257327
0002b0 69 37 12 bb 48 d7 16 bd f1 a0 53 3d 31 51 90 3d
       -0.002231086 -0.036826402 0.051667158 0.07046736
0002c0 a0 11 e8 bd a0 58 68 bd fc 8c 30 bd 84 46 cf bd
       -0.11331487 -0.056725144 -0.043103203 -0.10120872
0002d0 01 4d b3 3d 04 bf 64 3d c8 9b 4a bd fc 27 c5 bc
       0.08754922 0.05584623 -0.04946497 -0.024066918
0002e0 a6 bd 90 3d 00 51 b1 ba d0 ed 80 3d cb 73 90 bc
       0.070674226 -0.0013528168 0.06295359 -0.01763334
0002f0 e0 ff ab 3b ad 92 52 3d 33 bd bf 3c d8 bf e9 3d
       0.0052490085 0.051409412 0.023405647 0.114135444

rnn.weight_hh_l0_reverse f4 [64, 64]
000000 96 cf 7f 3d 5a 07 47 bc d3 ed 82 bd f7 5d 99 bd
       0.06245383 -0.012147749 -0.063930176 -0.074886255
000010 96 70 06 3e 66 a9 1c 3d 5b 8a b5 3b a2 24 c5 bd
       0.13128886 0.03824749 0.005540175 -0.09626128
000020 e6 2a 8c 3d 7d cc 90 bd 54 5d 47 3b 7e f5 a6 bd
       0.0684412 -0.07070253 0.0030420618 -0.08152293
000030 bd 8f d2 bd 7e 72 a8 3d f4 b3 66 bd 12 74 95 3c
       -0.10281322 0.08224963 -0.05632396 0.018243823
000040 2b 74 b8 ba ad 0e 81 3c 7b ba 16 3e 74 59 87 3d
       -0.0014072707 0.015754068 0.14719574 0.06608859
000050 50 82 91 bd 59 f2 ea ba 2d 0e 00 3e 62 d2 87 3d
       -0.07104933 -0.0017925008 0.12505408 0.06631924
000060 c6 40 12 3d ac 69 22 3d a9 75 38 bd e1 35 59 3c
       0.035706304 0.039651558 -0.045034084 0.013257475
000070 05 72 ca 3d 0b a5 d5 bc 1b 76 9e bd 73 69 0a 3d
       0.09885029 -0.026079675 -0.077373706 0.03379197
000080 a2 49 a9 bd a5 9c e4 bc 71 a7 4d 3d 93 ff 88 bd
       -0.082659975 -0.027906725 0.050208513 -0.06689372
000090 69 5e 92 3d 1f cf db 3d 3b b5 1e be de 29 00 3e
       0.071469136 0.107328646 -0.15498821 0.12515971
0000a0 09 fe f4 bd a2 00 9a bd 50 de 84 bb be b5 a6 3c
       -0.11962516 -0.07519652 -0.004054822 0.020350333
0000b0 79 88 87 bd a3 48 0c 3e 0f 53 80 bc e9 80 10 bd
       -0.06617827 0.13699584 -0.015664605 -0.03527919
0000c0 71 8c c5 3c 6d 11 bf bd c7 aa 03 3d 5b 07 c8 3d
       0.02411482 -0.093294956 0.032145288 0.09767028
0000d0 d6 af 13 be d7 b4 33 3d e4 38 4d bc 0c d2 ad 3d
       -0.14422545 0.043873634 -0.012525771 0.08487329
0000e0 d5 28 af bd 4b 60 67 bd 55 7c d9 bd c8 ac 97 3d
       -0.0855271 -0.056488317 -0.106194176 0.07406002
0000f0 b4 c1 97 bd 77 94 ca bd eb 4b c2 bc 46 5a 41 3c
       -0.07409993 -0.09891599 -0.023717841 0.011801308
000100 48 98 b6 3c ef 69 26 bd c1 83 9b bd 7c 05 00 3e
       0.02228941 -0.04062837 -0.075934894 0.12502092
000110 38 44 9b 3d ef 34 21 bc ba 74 93 bd 1c 5c c6 3c
       0.07581371 -0.0098392805 -0.07199998 0.024213843
000120 3b 2c 36 bd a4 d8 67 3d 5c a3 28 bd af 21 bb bd
       -0.044475775 0.05660309 -0.041171417 -0.09137284
000130 29 f3 23 3d d4 7f 90 3d b3 96 8a bd c1 be cc bd
       0.040026817 0.07055631 -0.06767025 -0.09997321
000140 79 14 59 3c 3a 38 9a bc 17 5a 1b be b0 13 f0 bd
       0.01324951 -0.018825639 -0.15171085 -0.11722505
000150 39 9f f0 bc 31 3d 15 be 66 88 6b bd fa 9c 28 3d
       -0.029372798 -0.14574124 -0.057503127 0.04116533
000160 ca 71 f6 bc 38 12 46 bd fa f4 96 3b 88 57 cb 3c
       -0.030083556 -0.04835722 0.00460684 0.024822012
000170 a6 3e 8b bc a6 d1 73 3c b1 99 7a 3d 73 40 55 bc
       -0.016997647 0.014881527 0.061181728 -0.013015854
000180 fd 7c 10 be 7e 85 c9 bc f8 39 81 bd 48 7f 89 bd
       -0.14110179 -0.024599787 -0.06309885 -0.0671373
000190 2f 6b ce 3d 2e f7 e8 bc 3e 54 12 3d 05 da 08 be
       0.100790374 -0.028438177 0.03572487 -0.13364418
0001a0 a7 65 25 3d ae ce a5 bd b2 2d 87 bc 9e 50 f5 bb
       0.040380146 -0.08096062 -0.016501281 -0.007486417
0001b0 17 21 20 bd 62 31 e1 3b ab f8 f0 bc 2a 94 11 3e
       -0.039094057 0.006872342 -0.02941545 0.14216676
0001c0 f6 c5 73 3c c7 f0 0d be 36 15 22 3d f3 8a f5 bd
       0.0148787405 -0.1386138 0.03957101 -0.11989393
0001d0 de a8 a8 3d 2b 81 27 bd 15 2a 25 bd 58 1d 00 3d
       0.08235334 -0.04089467 -0.040323336 0.031277984
0001e0 9e 81 19 bc ee 95 03 bd 96 79 a2 bd ad 0b a1 3d
       -0.009369282 -0.032125406 -0.07933347 0.07863555
0001f0 f0 81 22 bc d5 3e c7 3c ad 7b ae bd ff df e1 3d
       -0.009918675 0.024321953 -0.08519683 0.11029052
000200 ae 41 3c 3d 7f b9 8b 3d 61 20 bc bd c1 32 ec bd
       0.045961075 0.0682249 -0.09185863 -0.11533118
000210 03 51 f1 3d 75 3e 47 bd 8d 03 8a bc 76 5a 76 bc
       0.1178303 -0.048643548 -0.016847396 -0.015036216
000220 87 5a 39 bd e7 b1 92 3c 46 3a 9b bd 7f 04 d6 3d
       -0.04525235 0.017907096 -0.07579474 0.10450076
000230 be 4a 66 3c c1 c2 8b 3d e0 c2 8f bd f2 2b 0a 3e
       0.014055906 0.06824256 -0.07019591 0.13493326
000240 1e f8 e4 bd b8 d6 80 3d dc 79 e7 bc 36 b4 5c 3d
       -0.11180137 0.06290954 -0.02825635 0.0538828
000250 43 39 82 bd 3a 4d 80 bd 67 d4 8e bd d3 54 10 3e
       -0.06358578 -0.0626473 -0.06974106 0.14094858
000260 95 2c 35 3d d4 3d 6a bd c6 fa fe 3c 81 f5 e3 3d
       0.04423197 -0.05718787 0.031125437 0.111308105
000270 79 c2 51 bc 94 fc aa 3d 5b fa 1b 3c 59 a6 ca 3c
       -0.012802714 0.08348957 0.009520139 0.024737524
000280 dd 50 01 3e 0e d2 c6 bd fa ca 88 bd 65 40 5d 3c
       0.12628503 -0.097080335 -0.0667934 0.013504122
000290 ee 30 1d bd e6 55 a3 bc a7 91 0a be 01 98 02 3e
       -0.03837674 -0.01993842 -0.13532124 0.12753297
0002a0 16 56 cb bd 42 be 63 bd d1 c4 97 bd f9 5e 2b bc
       -0.09928529 -0.055601366 -0.074105866 -0.010459655
0002b0 11 c4 03 bd 45 52 be bb 0a 01 25 3d fe 2b af bd
       -0.032169405 -0.005808147 0.040284194 -0.08553313
0002c0 cf 08 06 3d 3a 86 dc bd 41 c3 49 bd be ac b8 3d
       0.032723244 -0.10767789 -0.049258474 0.09017323
0002d0 e8 6b 19 3c 0b 0b 53 3d ca 56 f8 bd 2d 8d d5 3c
       0.009364106 0.051524203 -0.12125929 0.026068294
0002e0 45 e7 d0 bc 19 44 0a bd 7a db a2 bd 02 3d 69 3d
       -0.025500903 -0.03375635 -0.07952018 0.056942947
0002f0 d4 e2 49 bd cf ed 5c 3d 5f ae ec 3d a7 d8 74 3d
       -0.049288586 0.05393773 0.11556696 0.05977693
000300 a6 91 33 bd 5e 04 07 3e a2 ab c8 3c c5 c9 15 bd
       -0.043840073 0.1318526 0.024495903 -0.036569376
000310 6b 97 1e 3d eb 50 85 bd 6a 77 0d 3c d0 6d ac bd
       0.038718622 -0.065095745 0.008634428 -0.084193826
000320 51 dd 89 bd 41 72 9b 3b 84 f7 9a 3d bd 9f df bd
       -0.06731666 0.0047438447 0.07566741 -0.109191395
000330 90 5b a6 bd 3d e4 13 be 4e 5a e1 bc 42 9f 1c be
       -0.08122933 -0.14442535 -0.027508881 -0.15295127
000340 72 73 5b bd e6 7b a9 3d ef f8 64 bd 1f cf 84 3c
       -0.053576894 0.08275585 -0.055901464 0.016212044
000350 8a 44 14 bb 5f 85 8c 3d df e8 2d bd fe c9 88 bd
       -0.002262386 0.06861376 -0.04245841 -0.06679152
000360 20 c4 29 bd 2a de 9b bd 46 f7 f7 bd 8d 6d 48 bd
       -0.041446805 -0.07610734 -0.121077105 -0.0489326
000370 46 49 71 bd 16 3d e5 bc ed 41 bc 3d 11 2c 3a bb
       -0.05890777 -0.02798323 0.09192262 -0.0028407613
000380 9d b8 67 bd 52 a7 a7 bd 45 5e 00 3d 84 10 19 3d
       -0.056572545 -0.08186211 0.031339902 0.037369266
000390 57 01 fb bb 79 e2 7b bd a6 11 06 3e 2b f0 9b bd
       -0.007660072 -0.061495278 0.1309267 -0.07614168
0003a0 1e 40 1a 3d 9e bd b4 bd f1 d3 91 bd 78 24 4b 3d
       0.037658803 -0.08825229 -0.07120503 0.049595326
0003b0 be 77 a0 3d 0a 93 cd bd 0e 4e 74 3d ab d8 ca 3d
       0.07835339 -0.10037811 0.05964475 0.099046074
0003c0 a9 19 c2 3d 0f c0 1e be 07 68 03 bd cf b5 e6 3c
       0.094775505 -0.15502952 -0.03208163 0.028162865
0003d0 c9 b4 77 3d 27 ca 99 bc 64 4b 40 bd e3 f4 02 bd
       0.060475145 -0.018773152 -0.046946898 -0.031971823
0003e0 0f 81 e5 bd e9 9c 62 bd 78 60 87 3d 13 2c 93 3d
       -0.112062566 -0.055325422 0.06610197 0.07186141
0003f0 55 b9 a9 3d c2 a4 b2 3d 19 61 b3 3b 90 01 14 3e
       0.082873024 0.08722831 0.0054742214 0.14453721

rnn.bias_ih_l0_reverse f4 [64]
000000 5d 27 32 3e 55 48 21 be 21 54 b0 3c a1 68 6d bd
       0.17397828 -0.15750249 0.02152449 -0.05796111
000010 65 5c 52 3d 14 52 35 3e e8 3e 39 be 4f c2 01 3e
       0.051357646 0.17707092 -0.18090403 0.12671779
000020 37 3e b1 3d ab b2 b0 bc 4b 65 f4 3d 7f 4e 1f 3e
       0.08654445 -0.02156957 0.119333826 0.15557288
000030 3b 80 a6 bd c8 c8 26 3e f1 35 10 3e 44 af 1e 3e
       -0.08129927 0.1628753 0.14083077 0.15496546
000040 ee 2d 12 3d 71 68 d2 bc cc 45 af 3d 53 8e 34 3e
       0.035688333 -0.025684567 0.085582346 0.17632417
000050 b9 cf 95 bd da 27 7d 3d 77 02 da bc 81 07 e5 3c
       -0.073150106 0.061805584 -0.026612503 0.02795768
000060 1a cf 1c be 75 c9 8e 3c 49 6c d3 3d 30 68 1e 3e
       -0.15313378 0.017430047 0.10323388 0.15469432
000070 04 ff 96 3c f4 c3 12 be 5b cd 2c 3e d2 94 33 3d
       0.018432148 -0.14332563 0.16875212 0.043843098
000080 87 81 c2 3d d7 f5 85 3d 38 81 f7 bb 2c c9 28 bd
       0.09497362 0.06541031 -0.007553246 -0.041207477
000090 fd cd 07 be 90 c4 95 3d 26 27 9d bc 54 d6 05 3d
       -0.13262172 0.07312882 -0.019183706 0.032675102
0000a0 91 ce 12 be 82 76 d2 bb 31 dc cc bd 11 41 d8 bd
       -0.14336611 -0.0064228186 -0.10002936 -0.105592854
0000b0 68 6e be bd 9d 5b 5a 3e d4 cb 33 3e e7 02 3f be
       -0.09298402 0.2132401 0.17558223 -0.18653451
0000c0 51 fc f4 bd 3f 36 a4 3d d8 bd 13 3e 7b db 06 3e
       -0.11962188 0.08018159 0.14427888 0.13169663
0000d0 2c f6 28 be af e1 80 bd f5 d8 fe bb ed 00 2c 3e
       -0.16500157 -0.06293046 -0.007777328 0.16797228
0000e0 d6 40 27 3e 41 6d b1 3c 82 af 08 bd 62 cb d7 3c
       0.16333327 0.021658542 -0.033370502 0.026342098
0000f0 04 46 3c 3d 62 9f 8a 3d cc 90 48 3e a5 56 d9 bd
       0.04596521 0.06768681 0.19586486 -0.10612229

rnn.bias_hh_l0_reverse f4 [64]
000000 19 6a c9 3d 3b 8c a2 bd 96 2c d4 3d cd 4c 37 be
       0.0983469 -0.07936903 0.103600666 -0.17900391
000010 b9 a1 b7 3d 9d 85 5e 3d 60 f7 e6 3b 07 f7 08 3e
       0.08966393 0.054326642 0.0070485324 0.13375483
000020 9a df 84 bc 91 8a 2f 3e 67 d9 fe 3d 56 67 16 3e
       -0.016219903 0.17142703 0.1244381 0.14687857
000030 d2 a5 20 bc e1 ea 00 3e 2f 58 27 3e f6 1c fa 3d
       -0.00980516 0.12589599 0.16342233 0.12212555
000040 59 e6 06 be 91 df 2c 3e bb 02 17 3e 52 76 c4 3d
       -0.13173808 0.16882159 0.14747135 0.0959288
000050 9e c0 e5 bc cf 2d c1 bd 69 95 93 3d a8 77 c3 bd
       -0.028045949 -0.094325654 0.07206232 -0.09544307
000060 98 e9 82 bd 91 7a 9c bd 6f 94 79 bc 74 d3 10 3e
       -0.06392211 -0.07640565 -0.015233143 0.14143163
000070 d6 d3 04 3e 31 e5 90 3d 7d d6 50 3d aa 34 30 be
       0.12971434 0.07074965 0.050985802 -0.1720759
000080 86 0f 2c 3d 52 6a 2c 3e bd 6d 30 3e 76 50 31 bd
       0.04200699 0.16837433 0.17229362 -0.043289624
000090 38 12 dd bd d1 53 a5 3d 62 bf 9e bd 94 1a c7 3d
       -0.107944906 0.08072627 -0.07751347 0.09721866
0000a0 6a c6 75 3c e2 01 b4 bd ba 95 ac bd 61 d0 e9 bd
       0.015000919 -0.087894216 -0.084269956 -0.11416698
0000b0 40 5f 04 be a0 c2 78 3d 7d 79 c8 3d ee 86 e8 bd
       -0.1292696 0.060732484 0.09788797 -0.11353861
0000c0 39 d8 0e bd 20 71 36 3d 55 25 cc 3d 02 0d 28 3e
       -0.034874175 0.04454148 0.09968058 0.16411212
0000d0 dc dd c2 bd 4b 2f 1a be fb 78 36 be 1b e2 20 3e
       -0.095149726 -0.15057103 -0.17819588 0.15711252
0000e0 cd 4b f9 3d fd fe 7a bd fe f1 8b 3d 95 f2 dd 3d
       0.12172661 -0.061278332 0.06833266 0.108372845
0000f0 a1 8b 86 bc 91 ed db bc 08 73 fc 3d 02 ae 47 bd
       -0.016424002 -0.026846679 0.12326628 -0.04874993

fc.weight f4 [256, 128]
000000 d0 c2 95 3d 44 7a 92 bc ec 02 60 3d 9f e4 a3 3c
       0.07312548 -0.017880566 0.054690287 0.020006476
000010 64 55 62 bd fc 32 8c 3d 39 e3 0f 3b 95 02 9c 3d
       -0.055257216 0.06845662 0.0021955504 0.0761768
000020 c2 97 99 bd 26 57 22 3d 7b d8 54 bd a5 8b ba 3d
       -0.07499649 0.039633892 -0.051964264 0.09108666
000030 2f e0 b1 bd 5e d5 0d bd 5f 3b 77 3d 81 d9 79 3a
       -0.08685338 -0.03462731 0.060359355 0.0009531007
000040 89 a3 a8 bd 48 db 0f 3d 32 a7 b5 3c 69 0a 00 3b
       -0.08234317 0.035121232 0.022174452 0.0019537455
000050 2e 71 21 bd 00 64 8c 3c ee 9b 02 bd 99 3e 89 bb
       -0.039414577 0.017137527 -0.031886987 -0.0041883704
000060 99 a5 cc 3a 55 c3 fe 3c 5a 46 fe bb e5 e7 92 bc
       0.0015613317 0.031099001 -0.0077598514 -0.017932842
000070 7c 87 23 3d 9e a5 55 bd 1a 0d bd bd a1 e2 dc bc
       0.03992413 -0.052159898 -0.092310145 -0.026963534
000080 0a 21 42 bd 07 5f f1 bc f6 c0 08 3c 50 df a5 bd
       -0.04739479 -0.029464258 0.008346787 -0.08099234
000090 f5 de 8e bd 79 a4 7a bc 02 07 66 bd 35 c7 9a bd
       -0.069761194 -0.015298002 -0.056159027 -0.07557527
0000a0 ed 9d 1c bd ce ee ad bd 67 45 78 bc 2b 8f c2 bc
       -0.038236547 -0.08492814 -0.015153266 -0.023749908
0000b0 02 ee 6c bc 0c a3 23 bd f3 c2 08 bd 33 a1 e2 3c
       -0.014461042 -0.039950415 -0.033389043 0.027664756
0000c0 e1 28 91 3d f1 3b 8a bd c5 7e 85 3d 75 2c b3 3d
       0.07087875 -0.06749714 0.0651832 0.08748714
0000d0 60 07 cf 3c d1 78 a9 ba 45 96 5b bd 8f 1a 1e bd
       0.025272071 -0.0012929683 -0.053610105 -0.038599547
0000e0 6d c5 a7 39 6c 3e fa 3c 1f 46 7b 3d ff a4 57 bd
       0.00031999816 0.030547343 0.06134617 -0.052647587
0000f0 8a 53 91 bd 77 6b 70 bd 84 a6 87 3d ed e8 c9 3c
       -0.07096012 -0.058696236 0.06623557 0.0246472
000100 40 5f 81 bc 54 4d 65 3b 60 1e 27 3d 24 27 3c bc
       -0.015792489 0.0034988718 0.040800452 -0.011483941
000110 ab f8 3f bd 21 6f 82 bc ae 94 bd bc 53 47 8d 3d
       -0.046868008 -0.015922131 -0.023142185 0.0689837
000120 df b5 a6 bd a0 c0 ba bc 6c a9 e1 bc 85 45 cc 3c
       -0.08140158 -0.022796929 -0.027546607 0.024935493
000130 70 a4 bc 3d dd 08 3c bc f5 ec 22 3d 64 27 43 bd
       0.092110515 -0.011476723 0.03977676 -0.047644988
000140 82 26 8e 3c f8 2f 27 3c d2 02 25 bd f8 ea 80 3d
       0.017352346 0.010204308 -0.040285893 0.06294817
000150 7f ef 82 3d 1e f6 df b9 ec 76 b4 3d 1e 40 97 3d
       0.063933365 -0.00042717246 0.08811745 0.07385276
000160 e8 46 d5 3c 5c 56 b4 3c a3 43 3c 3d 07 0a 59 3d
       0.026034787 0.022013836 0.04596294 0.05298808
000170 60 e8 41 3d af f3 39 bb a5 a6 1f bc 70 d1 a8 bd
       0.04734075 -0.0028374007 -0.009744321 -0.08243072
000180 78 be 00 bd ae 93 48 bc 06 f1 58 3d b8 ef 71 bd
       -0.031431645 -0.012242241 0.052964233 -0.059066504
000190 f6 a0 0a 3b b3 25 a9 bd d8 f8 d8 bc e2 96 5c bc
       0.002115307 -0.08259144 -0.026485845 -0.013463708
0001a0 81 e2 9c bd 13 16 f8 3b bc 3f 40 bc d9 32 76 3d
       -0.0766039 0.007570991 -0.011733945 0.060107086
0001b0 77 1d 80 bd 7e 24 2b bd df ce 0b 3d 23 90 59 bd
       -0.0625562 -0.04178285 0.034132835 -0.053115975
0001c0 34 73 9e 3c 04 a7 7e 3d 82 05 ef 3c 0c 0f 4b bc
       0.019342043 0.062170997 0.029177431 -0.012393724
0001d0 9a 5a cc 3c 5e 9c 38 bd 84 77 8a bd 95 9a 45 bd
       0.024945546 -0.045071 -0.06761077 -0.048243124
0001e0 a5 b2 d7 3c 95 6b 98 3d a1 d3 8c bd bd 07 13 3d
       0.026330302 0.07442395 -0.068763025 0.03589605
0001f0 68 8b 67 bd 53 e2 93 3c d7 e5 8a bc 52 26 79 bd
       -0.056529433 0.018052256 -0.0169553 -0.06082756
000200 36 f1 27 3c fd 9b 02 3d d4 e1 6b 3c 69 01 ee bb
       0.01025038 0.031887043 0.014397103 -0.0072633517
000210 e0 e7 0c bd 73 12 07 bc 25 f1 d3 3c 95 71 58 bd
       -0.03440082 -0.008244145 0.025871823 -0.052842695
000220 88 a5 ff bc af 43 2a bd b1 3b 80 bc 72 e9 ab 3d
       -0.031206861 -0.041568454 -0.015653463 0.083941355
000230 52 d0 12 bd e5 75 2e bd 7d f0 e0 3a e6 76 a0 bc
       -0.0358432 -0.0425929 0.0017161515 -0.019587945
000240 39 2a 04 3d 89 eb 11 3d 5c 1e a4 bd 44 0b 2b bd
       0.03226683 0.035625014 -0.08013603 -0.04175879
000250 07 97 89 bc c2 e3 7c 3d 78 af 97 3d 74 a7 3a 3d
       -0.016795648 0.061740644 0.07406515 0.045569852
000260 6d b5 88 bc b8 39 48 bd 7d a0 0a 3d 2e 3d 28 bd
       -0.016688073 -0.04888317 0.03384446 -0.04107397
000270 00 26 9a 3d 9f 23 c0 ba d4 46 91 3d a3 0c b2 bc
       0.07526779 -0.0014659053 0.070935875 -0.021734541
000280 9c 54 04 bc 01 16 55 bc 0c d8 ae 3d 64 a5 a1 3d
       -0.008076813 -0.013005734 0.085373014 0.07892874
000290 1c ed 93 bb f5 6a 4d 3d a1 5a 97 3d d3 f0 a9 bc
       -0.0045143496 0.05015083 0.07390333 -0.020744717
0002a0 4e 27 6b 3d 31 f1 c3 3c 28 97 92 bd 1f e6 08 3d
       0.05741053 0.02391872 -0.07157737 0.033422586
0002b0 02 d6 9c 3d f4 fa 81 bd e4 d5 0b 3d 4e 9e 95 bd
       0.07658006 -0.06346694 0.03413953 -0.07305585
0002c0 2a 88 9b 3d 1e 5d 64 3c ce 04 d8 bc 7b 6d 06 bc
       0.075943306 0.0139382165 -0.026369479 -0.008204813
0002d0 d0 a3 99 3d 14 b2 dd 3b ee 04 1e 3d f2 57 2b bd
       0.07501948 0.0067656133 0.03857892 -0.041831918
0002e0 56 01 84 bc 32 a2 f7 bc 65 83 23 bd 64 4a f7 3b
       -0.016113918 -0.030228708 -0.03992023 0.00754671
0002f0 a5 cf 90 3d 13 54 f2 3a db 64 4a 3d 51 b1 5b bd
       0.07070855 0.0018488191 0.04941259 -0.0536359
000300 1f 48 71 3d 0c 45 86 bd 8d dd 51 3d 9e 71 47 3c
       0.05890667 -0.065561384 0.051236678 0.012173085
000310 f7 4a 0c 3d c2 cc 4e 3c a2 98 71 bc 0e 93 1a 3d
       0.03425118 0.01262206 -0.014745863 0.0377379
000320 d7 c8 98 3d 08 1a 16 bd 1c e6 4b bb a6 84 2f bd
       0.07460182 -0.03664592 -0.0031112498 -0.042851113
000330 c9 3a 85 bd 3b c2 21 bd 56 19 69 3b b0 0c ab 3d
       -0.06505353 -0.039491873 0.003556808 0.08352029
000340 5f 20 72 3d 96 8c 9d 3d 02 95 15 bd 2d d1 a9 3d
       0.059112903 0.0769283 -0.036519058 0.0829185
000350 d8 b9 b8 3c 0e cd 0d 3d a8 0f 14 bc 94 c5 8c bd
       0.022549555 0.034619384 -0.009036936 -0.068736225
000360 72 b5 9d 3d 75 d8 68 3d d4 00 0f 39 56 a9 38 3d
       0.077006236 0.056847055 0.00013637851 0.045083366
000370 59 36 a3 bd 8d 70 41 bc 60 f6 e1 3b 42 d6 9e bc
       -0.0796935 -0.011806619 0.0068958253 -0.019389275
000380 47 7b 44 bc 71 95 66 bd 18 27 45 bc 51 3c a8 bd
       -0.011992282 -0.056294862 -0.012033246 -0.082146294
000390 d7 57 26 bc 7a 63 2c 3d fa 4b 90 bd 2a 5e 96 bd
       -0.010152779 0.042087056 -0.070457414 -0.07342179
0003a0 01 7d 87 3d 5d d0 0f 3d 9d 81 de bc a9 42 3f 3c
       0.066156395 0.03511082 -0.027161414 0.011673608
0003b0 7c 53 30 3d e7 81 4c bd b2 b1 ec bc ec 23 52 3d
       0.043048367 -0.049928572 -0.028893325 0.05130379
0003c0 c6 83 7a 3c 20 0c 78 bd d6 24 03 3d d6 16 4c bc
       0.015290206 -0.06055844 0.03201755 -0.012456616
0003d0 28 87 d6 3b 57 75 88 bd 36 18 a8 3c ad ef ae 3d
       0.0065468736 -0.06663006 0.020519357 0.08541808
0003e0 33 8b 6d 3d 63 5f 12 3d b2 60 d9 bc 8d 7d 3a 3d
       0.05799408 0.0357355 -0.026535366 0.04552989
0003f0 e1 99 3b bd 82 7e 1c bd 77 a8 ae bd a6 91 00 3d
       -0.045801047 -0.038206585 -0.08528226 0.0313889

fc.bias f4 [256]
000000 79 b8 c1 bc 6d e1 72 bd c3 5f 69 bc b0 02 9c 3d
       -0.023647534 -0.059297014 -0.014244023 0.076177
000010 07 ff b6 3d b2 f1 e1 3c b8 78 63 bd c7 31 a7 bd
       0.08935361 0.02758107 -0.05553505 -0.08163791
000020 4b c3 34 bd 1d 77 34 3d 23 25 df bc f0 5c 8d bd
       -0.04413156 0.044058908 -0.027239388 -0.06902492
000030 00 4b 93 3c e2 4a 42 3d 22 b4 61 3c 8e c6 55 3d
       0.017980099 0.047434695 0.013775857 0.05219131
000040 a0 35 84 bc a9 4a d9 3d 37 12 8b bc 2f 98 af bc
       -0.016138852 0.106099434 -0.016976459 -0.021434871
000050 2b f9 eb bb 8e 00 a0 3c 2b d1 a9 39 4a c2 b4 3d
       -0.007201334 0.019531514 0.00032390034 0.0882612
000060 d7 6a 05 3e 44 03 3b bc 17 93 c2 3d 3d 20 96 3d
       0.13029037 -0.011414353 0.095007114 0.07330368
000070 4b af 0e 3e 1a 7f 4c 3e 6d 15 a0 3d 74 1d 39 3e
       0.13934056 0.1997036 0.07816587 0.18077642
000080 39 da 49 3e 11 78 68 3e 30 eb cf 3d 42 48 89 3e
       0.19712152 0.22702052 0.1015228 0.2681294
000090 f6 3c 68 3e 97 4e 56 3e 84 35 72 3e 25 52 11 3e
       0.22679505 0.20928417 0.23653227 0.14191492
0000a0 bc 18 51 3e ce fc 36 3e 51 5b 4a 3e 05 25 d7 3d
       0.20419592 0.17869875 0.19761397 0.10505108
0000b0 5a d9 6d 3e 6f fe f7 3d e4 98 e4 3d a0 f5 d9 3d
       0.23227444 0.12109076 0.11161974 0.106425524
0000c0 72 8b 2e 3e 01 16 68 3e 13 85 04 3e 31 f2 14 3e
       0.17045382 0.22664644 0.12941389 0.14545514
0000d0 60 5f e0 3d 82 46 ad 3d 1b 9e 28 3e de d9 b8 3d
       0.10955691 0.08460714 0.16466562 0.0902593
0000e0 8c 83 43 3e d6 db 16 3e ba d7 13 3e 99 40 8b 3c
       0.1909315 0.14732298 0.14437762 0.016998576
0000f0 b8 e2 c9 3c 95 57 52 3d 24 57 6d 3c 58 c3 9c 3c
       0.02464424 0.051353056 0.014486108 0.019136116
000100 01 32 8a 3d 88 75 00 3e c2 71 fa 3d 53 2a 15 3d
       0.06747819 0.12544835 0.12228729 0.036417317
000110 bf d4 aa 3d 12 f5 a2 3d 95 0f e0 3d a2 79 0a 3e
       0.08341359 0.079569 0.10940472 0.13522962
000120 84 32 f8 bc 1b 0a 03 3c 4f 1c e6 bc b7 4c a2 3d
       -0.030297525 0.007998015 -0.02808967 0.079247884
000130 ac b3 ab bc c1 a0 2e 3b f6 de 01 3e 1a aa c5 bc
       -0.020959698 0.002664611 0.12682709 -0.024128962
000140 02 99 0b 3e fc 95 05 3e 2b 3f 53 3d be 7f 2b bd
       0.13632587 0.13045496 0.051573914 -0.04186987
000150 17 55 60 3d 7f b7 c5 bc 81 43 f8 3d 40 17 17 3c
       0.054768648 -0.02413535 0.1212225 0.009221852
000160 c0 0f ab 3d 16 22 a5 bc c6 b9 15 bd a3 26 70 3d
       0.083526134 -0.020157855 -0.03655412 0.058630597
000170 22 3e 20 3d 3f 91 a0 bc 07 29 d1 3d c7 1e c1 3c
       0.039121754 -0.019600509 0.102129035 0.023574246
000180 40 65 9f 3d b6 4e cf 3b 61 34 b7 3d a6 67 d9 3b
       0.07782984 0.0063265217 0.08945537 0.0066346703
000190 b4 a9 d8 3d 2b c8 7f 3d a6 15 41 3d f7 ed 89 3d
       0.10579243 0.062446754 0.047139786 0.06734841
0001a0 ce f8 fc 3b 25 81 57 3c bf 6c 10 bd 1f f3 ee 3c
       0.0077200895 0.013153349 -0.03525996 0.029168664
0001b0 ac 25 a9 3d c2 8b 0c 3d 59 2d a7 bc a5 ba 99 3d
       0.082591385 0.03431297 -0.020407366 0.07506303
0001c0 b3 78 34 3d 99 b8 d4 3c 03 99 a9 3d 48 b2 27 3d
       0.04406042 0.02596693 0.08281138 0.040941507
0001d0 4e 74 a4 3c 42 34 33 bd 5d 3d 60 bd 09 1c d5 3c
       0.02007499 -0.04375101 -0.05474602 0.026014345
0001e0 e0 14 88 3d 4d bb b8 bc 17 00 73 3c 76 79 59 bd
       0.066446066 -0.02255025 0.014831564 -0.05309435
0001f0 9b b2 90 bd e0 3b 9c 3d f4 6a a7 3d 7b 23 8e bc
       -0.07065316 0.07628608 0.081746966 -0.017350903
000200 aa 01 03 bd 1c 3e b1 3d 02 29 42 bc 18 33 1c bd
       -0.03198401 0.086544245 -0.011850597 -0.038134664
000210 31 1d 32 bd f3 a2 04 bd 29 0f 88 bd 5e 8c 59 bc
       -0.04348487 -0.032381963 -0.066435166 -0.013278095
000220 27 32 2c 3d cf af 2c bd c4 0d 91 3d e6 ea 79 3d
       0.042040017 -0.04215985 0.07082704 0.061015032
000230 4f bf 86 3d b6 24 69 3b 78 7a c8 3c 53 ff 4d 3d
       0.06579458 0.003557486 0.02447246 0.050292324
000240 67 35 71 3c 2c 3f 0e 3b 33 c9 4c bd d6 12 76 bd
       0.014722205 0.0021705134 -0.049996566 -0.060076557
000250 f9 d3 31 3d a7 22 92 bd b5 03 8f 3d 2e 30 a5 3d
       0.043415044 -0.07135516 0.06983129 0.0806583
000260 99 e5 f9 3c d2 f5 93 3d a6 6b 2d bd 4d a8 f7 3b
       0.030504989 0.07224621 -0.04233899 0.007557905
000270 f6 2a b9 3b bb c8 9c 3d a2 c8 71 bc 0d 52 6a bd
       0.0056508733 0.07655474 -0.014757307 -0.057207156
000280 39 61 a4 3d 37 c7 28 3b c8 c3 01 3d 57 6d f0 bb
       0.08026356 0.0025753507 0.031680852 -0.007337253
000290 8a fd 00 3d 37 b7 64 3c 06 11 7d bd c5 97 b8 bc
       0.031491794 0.013959697 -0.061783813 -0.022533307
0002a0 e7 08 02 ba ae 06 d3 3c 54 63 b3 3d 1c 20 2d 3b
       -0.0004960433 0.025760021 0.0875918 0.0026416844
0002b0 c2 92 1c bd 0c cc b1 3c 34 64 70 bd c1 79 93 3a
       -0.038225897 0.021703742 -0.05868931 0.0011251495
0002c0 9c 06 b3 3d ec 0b 11 3b 6e e3 60 3d b7 b0 09 bd
       0.08741495 0.002213235 0.054904394 -0.033615794
0002d0 7d 19 55 bd ed b2 49 3d 29 22 a2 3d 88 ae b2 3d
       -0.05202626 0.049242903 0.07916672 0.087246954
0002e0 76 8c 91 bc 60 8e 8f bd ff 3d b0 3d ce a7 02 bd
       -0.017767172 -0.07009578 0.08605575 -0.031898312
0002f0 ad fb 34 bc f9 5c 24 3d 98 25 90 3d 17 fc 4a bd
       -0.011046332 0.040127728 0.070384204 -0.049556818
000300 5d 78 17 bc 96 ee 92 bd ae b7 4a 3d a0 7e 9d 3d
       -0.009245005 -0.07174413 0.049491577 0.076901674
000310 36 93 8f bc c1 ce 9e 3d 11 f1 3f 3c 3c 21 c9 3c
       -0.01752625 0.07754279 0.01171519 0.02455198
000320 44 e4 88 3d 72 36 6c bc 25 cc 82 bd 66 d0 8a 3d
       0.06684163 -0.014417278 -0.06386594 0.0677803
000330 cf 36 97 3d af 31 81 3d 62 21 87 bd ab 7b 30 bd
       0.07383501 0.063083045 -0.06598164 -0.04308669
000340 0b 8a 1b bd a3 81 64 bd 46 22 66 bd 14 49 c5 3a
       -0.037973445 -0.055787694 -0.05618503 0.0015051686
000350 a8 e8 80 3d 5d 83 02 ba c7 ba 79 3b 64 52 c9 3b
       0.06294376 -0.0004978681 0.0038105713 0.006143855
000360 24 f9 80 bc e6 81 fe bb fd d5 47 3d d8 0c ff 3a
       -0.0157438 -0.00776695 0.04878806 0.0019458784
000370 c9 d8 af bd dd 92 68 3d 6d 5c 3c bc f3 85 bc bb
       -0.0858627 0.056780685 -0.011496645 -0.0057532727
000380 1f de c1 bd 71 78 8b 3d 01 64 9e bd a4 f9 9f 3c
       -0.09466194 0.06810082 -0.07733918 0.019528218
000390 f7 23 03 3d 26 61 8a bc 82 20 14 3d 33 d6 d9 bc
       0.03201672 -0.016892027 0.036163814 -0.026591396
0003a0 d2 47 29 bd 86 71 64 bc cd b3 b6 bd 79 37 ff bc
       -0.04132826 -0.013943082 -0.08921013 -0.031154381
0003b0 de 62 4f bc 4b 38 3c bc 19 d8 d6 bc 6c f1 80 b9
       -0.012657849 -0.011488031 -0.02622609 -0.00024593936
0003c0 4b 25 16 3d 2d 5e f9 bc 9e 11 cc 3c e8 4c 6c 3d
       0.03665666 -0.030440414 0.024910744 0.05769053
0003d0 50 bf 87 bd f2 36 27 bc 1f cf e0 bb c1 da b2 3d
       -0.06628287 -0.010205971 -0.0068606283 0.0873313
0003e0 76 6d 49 3d 3c 2c 79 bd b5 47 6a 3d de 7a 8a bb
       0.049176656 -0.0608332 0.05719729 -0.0042260727
0003f0 c7 cd 92 bd c2 ac a2 3c 55 4d e8 3c 91 4b 07 bd
       -0.07168155 0.019857768 0.028357187 -0.03303105

ln.weight f4 [128]
000000 7f 66 9d 3f 1c b7 a2 3f 0d c9 a1 3f 98 a1 9d 3f
       1.2296904 1.271213 1.2639481 1.231494
000010 eb 51 a3 3f 4a 3d a0 3f 16 a0 9e 3f 34 be 9d 3f
       1.2759374 1.2518704 1.2392604 1.232367
000020 6d dd 9d 3f d5 3b 9c 3f 72 9c 9f 3f eb a1 9e 3f
       1.2333199 1.2205759 1.2469618 1.2393163
000030 fb 55 9e 3f e5 10 a2 3f 5f b8 9f 3f 0d d3 a2 3f
       1.2369989 1.2661406 1.247814 1.2720658
000040 67 5c 9c 3f 1f 7f 9d 3f d7 fe 9d 3f cb 77 a1 3f
       1.2215699 1.2304419 1.2343396 1.2614683
000050 53 cb 9d 3f 36 d5 a0 3f 01 29 a1 3f 0a fe a0 3f
       1.2327675 1.2565067 1.2590638 1.2577527
000060 cc 41 99 3f 5a 27 9c 3f 0f 0c a0 3f 59 a9 9d 3f
       1.1973205 1.2199509 1.250368 1.2317306
000070 ac fa 9d 3f 27 bd 9d 3f 6e 64 a1 3f 57 ff 9e 3f
       1.2342124 1.232335 1.2608774 1.2421674
000080 a1 5a a0 3f d0 d6 a1 3f 73 78 9d 3f fb f8 9d 3f
       1.2527658 1.264368 1.2302383 1.2341608
000090 22 0f a0 3f 3f 74 9e 3f 5a d2 9d 3f 6a d8 9d 3f
       1.2504618 1.2379225 1.2329819 1.2331669
0000a0 33 1a a3 3f 07 87 9e 3f d0 45 a2 3f cb 08 9e 3f
       1.274237 1.2384957 1.2677555 1.2346433
0000b0 cd 80 9e 3f 3b 8c 9e 3f ff aa 86 3f 52 ba 9c 3f
       1.2383057 1.2386545 1.0520934 1.224436
0000c0 7a 1e 9f 3f cd fd a0 3f 72 8f a2 3f 3e e3 a0 3f
       1.2431176 1.2577454 1.2700026 1.2569349
0000d0 5c e2 9e 3f 6b 54 a1 3f f6 86 9f 3f cd 8a 9e 3f
       1.2412829 1.2603887 1.2463062 1.2386109
0000e0 2f 40 a0 3f 7e 99 99 3f 9a b3 9e 3f 22 84 9d 3f
       1.2519587 1.1999967 1.239856 1.2305949
0000f0 d7 0f a2 3f f7 44 a0 3f d8 ce a0 3f 9f 4d 9d 3f
       1.2661084 1.2521046 1.2563124 1.2289313
000100 6d 9f a0 3f 47 ff a0 3f 70 79 9d 3f 64 f5 9f 3f
       1.2548653 1.2577904 1.2302685 1.2496762
000110 37 ff 9c 3f 37 f2 9d 3f fe 69 9e 3f 1c 21 9c 3f
       1.2265385 1.2339543 1.2376096 1.2197604
000120 21 d2 9b 3f 94 13 a0 3f fc 5f 92 3f 7a 94 a0 3f
       1.2173501 1.2505975 1.1435542 1.2545311
000130 5c 07 9c 3f e6 95 9a 3f a1 b3 9e 3f f4 eb a0 3f
       1.2189746 1.2076995 1.2398568 1.2572007
000140 8f 54 9e 3f d0 41 9d 3f 96 62 a0 3f 29 34 9e 3f
       1.2369555 1.2285709 1.2530086 1.2359668
000150 d9 a6 9c 3f 3b a9 a2 3f f2 fd 9c 3f 66 be 9c 3f
       1.2238418 1.2707895 1.2264998 1.2245605
000160 42 7c 9e 3f 7f 21 9e 3f df e3 9d 3f 59 9e 9e 3f
       1.238167 1.2353972 1.2335166 1.2392074
000170 97 48 9e 3f 71 c8 9a 3f bb 6f a0 3f 8c 4f 9c 3f
       1.2365903 1.209242 1.2534097 1.2211776
000180 06 77 9a 3f e4 d3 a0 3f 23 e8 9f 3f de c8 9f 3f
       1.2067573 1.2564664 1.2492718 1.2483175
000190 4c 96 9f 3f 56 b8 9c 3f ff 8c 9f 3f cd 50 9c 3f
       1.2467742 1.2243755 1.2464904 1.2212158
0001a0 1d 31 9c 3f 58 e4 a0 3f 40 ca 9e 3f 19 b2 9e 3f
       1.2202488 1.2569685 1.2405472 1.2398101
0001b0 e2 cb a0 3f a5 b2 a1 3f c3 8c a0 3f 62 34 9e 3f
       1.256222 1.2632643 1.2542957 1.2359736
0001c0 8e aa 9b 3f db 89 9d 3f e8 b5 9b 3f 6a c1 9c 3f
       1.2161424 1.2307695 1.2164888 1.2246525
0001d0 8c 8b a0 3f 56 1c 9f 3f ce 1e a1 3f 2e 18 9d 3f
       1.2542586 1.2430522 1.2587526 1.2273004
0001e0 b2 cc 9e 3f df aa a1 3f 91 cc a3 3f d2 05 9f 3f
       1.2406218 1.2630271 1.2796804 1.2423651
0001f0 e1 d7 9f 3f cc fa 9f 3f 40 2b a0 3f 9b 1e 9f 3f
       1.2487756 1.2498412 1.2513199 1.2431215
