model.pth (torch, 171429 bytes, 12 tensors)

rnn.weight_ih_l0 f4 [64, 3]
00000000: 4f73 d83d b278 293d 6c94 423d 298a 63bd
00000010: 9e92 e6bc 2aca 823d 319d 52bd 93b4 bfbc
00000020: dee4 83bd 7211 61bd 6a4f 38bc 4604 c8bd
00000030: 4803 bd3d 918c 333d 502f 763d 7c53 7bbd
00000040: ccd2 02bd 1a02 cabd 8876 9ebc 007c b1bc
00000050: f2d0 df3d c936 a73d a737 cc3c f481 7ebd
00000060: ad29 723d e68b b13c 2065 9b3c 8bf3 e2bd
00000070: 9c34 2cbd c0b0 85bb 7b72 383d 6f95 503b
00000080: eebe ecbd 37b1 513c 6679 c13b a495 e93d
00000090: d451 8dbd 2036 04bd 701d 3c3d 921f d83d
000000a0: 76f6 613d fe4d fa3d 4215 34bd 74b6 edbc
000000b0: ec55 babd 7604 9b3d f6f2 443d 500c 123d
000000c0: 6f50 1cbd cc3a c3bc cc5b 613d e1e0 b3bd
000000d0: 0788 32bc ceb4 bfbd 0d77 1e3c f52e b6bc
000000e0: 9c4c 423d f8ab 123c 76a8 dbbb 708d 753c
000000f0: a486 553d 1655 ad3b 8ecd 93bd 3c5d ccbd
00000100: d757 08ba 7ebe d53d cd43 48bc b8ef c53c
00000110: c02f 583b 7af4 eabc a201 8a3b 0afb be3d
00000120: 5250 cbbd 05de ffbc 4e6b 85bd e4ac 81bd
00000130: cbda c4bc e062 3e3c 0cec 0a3d f145 433d
00000140: c811 ca3c f1c3 d63c 2f07 97bc 1279 97bd
00000150: 61e4 863c 00a4 a63c 105b 043d 1357 e7bc
00000160: c4fe ed3c 00cd 4abc e466 8e3c 4c54 313c
00000170: 34fb 183d 429e 1e3d 121a 933c f244 f9bd
00000180: 2c8d 7b3c cb81 94bc 80db 483c 190f bfbd
00000190: 5265 74bd c09a 83bc a033 95bd 1cd4 05bd
000001a0: 588d f93d 2207 9fbc ff10 7e3b 903b 8ebd
000001b0: ac59 553d 52b2 ffbb ee09 dc3d 6a18 1ebd
000001c0: 9ce4 cdbb aca3 9a3d 3d27 243d 761a 643c
000001d0: de88 a5bd 8550 af3c e315 8aba 5cc3 aabd
000001e0: 4daf 1fbd 0af4 ecbc fe40 a63d dedf 94bd
000001f0: 2d6e bcbb 7c90 d5bd fe69 9bbc 8392 97bc
00000200: ca6b e63d b22c 3a3d 421b dc3c ba2d 823d
00000210: db26 41b8 d7a0 0cbc 44a9 56bd 56a2 bc3c
00000220: 09dd 933c 00bc 7b3c 8948 a93c b371 0d3c
00000230: 10ad c63c 5e1a 6f3d c963 f73c 6864 cbbc
00000240: 3be6 633d 5fcd f3bb 70e1 bebc 6d0b dfbd
00000250: 3faf 37bd 800b ad3c 8809 c13d ce50 683d
00000260: 940e 6abd c504 0cbd d620 eebb 3e5c ebbd
00000270: 9be3 2a3d 9f3d 083c d0e0 64bd 87a2 c63d
00000280: 09b8 fb3c 166c f8bd dc74 d13d 7fce 6e3d
00000290: 8044 1e3b 5248 8ebd e5b3 3abd 80a5 033c
000002a0: e798 b43d edd2 1d3d 8ed8 a13d 3c79 efbc
000002b0: 1844 87bc 98c5 d33d c149 1c3d 4907 24bd
000002c0: 686a d2bc a9c0 843c 28c3 65bc a8c2 bdbc
000002d0: efd8 73bb f895 1a3c 3066 6cbd a451 8abb
000002e0: 64d7 353c f8c1 23bd 5321 2b3d faf5 c3bb
000002f0: ecdb 00bd ff43 c6bb b4bb efba dce7 f3bd
0.10568868 0.04137487 0.047504827 -0.05555168 -0.028146084 0.06386216 -0.05141944 -0.023401534
-0.06440137 -0.054948278 -0.011249403 -0.0976644 0.092291415 0.043835226 0.060103714 -0.061358914
-0.031939313 -0.09863682 -0.01934363 -0.021665573 0.10928525 0.08164746 0.02492888 -0.06213565
0.059121776 0.021673154 0.018969119 -0.110816084 -0.04204236 -0.004079908 0.045031052 0.003182735
-0.115598544 0.012798599 0.0059043644 0.11405495 -0.06900373 -0.03227818 0.04592651 0.105528966
0.055166684 0.12221907 -0.043965586 -0.029017664 -0.090984195 0.0756921 0.048083268 0.035656273
-0.038162645 -0.023831747 0.055019185 -0.087831266 -0.010896689 -0.09360658 0.009671939 -0.022239188
0.04743634 0.008952133 -0.0067034317 0.014987335 0.052130356 0.005289684 -0.07216941 -0.099787205
-0.00052010774 0.10436724 -0.012223196 0.024162158 0.0032987446 -0.028681029 0.0042116204 0.09325226
-0.09927429 -0.031233797 -0.06514607 -0.063318044 -0.02403011 0.011620253 0.033916518 0.047674123
0.024666682 0.026216479 -0.018436043 -0.07396139 0.016466321 0.020341873 0.032313406 -0.028239762
0.029052146 -0.012377977 0.017383046 0.010823321 0.03734894 0.038725145 0.017956767 -0.121713534
0.015353482 -0.018128296 0.012259364 -0.093290515 -0.05966694 -0.016065001 -0.07285237 -0.032672986
0.12185162 -0.01941258 0.0038767455 -0.069449544 0.05208747 -0.00780324 0.107440814 -0.0385975
-0.006283356 0.07550749 0.040076483 0.013922324 -0.08082746 0.0214007 -0.0010535087 -0.08338043
-0.03898554 -0.02892496 0.08117865 -0.07269262 -0.0057504387 -0.10427949 -0.01897144 -0.01850248
0.11251028 0.04545278 0.026868466 0.06356378 -4.6050973e-05 -0.008583269 -0.052407518 0.023026627
0.018049734 0.015364647 0.02066447 0.008633065 0.024252445 0.058374755 0.030198948 -0.02482815
0.055639487 -0.0074402536 -0.023300856 -0.10890851 -0.044844862 0.021123648 0.09425646 0.056717686
-0.05714281 -0.034184236 -0.007267098 -0.11492203 0.041720968 0.008315473 -0.05587846 0.096989684
0.030727403 -0.12129991 0.10227367 0.0583024 0.0024149716 -0.06947388 -0.045581717 0.008035064
0.08818226 0.038531233 0.07902633 -0.029232614 -0.016511962 0.103404224 0.038156275 -0.04004601
-0.025685504 0.016205149 -0.01402358 -0.023164108 -0.003720816 0.009435169 -0.05771464 -0.004221158
0.011098716 -0.039979905 0.041779827 -0.0059802504 -0.031459734 -0.0060505862 -0.0018290193 -0.11909458

rnn.weight_hh_l0 f4 [64, 64]
00000000: 29b5 bd3c 79d3 35bd 843e e3bd 3285 c5bd
00000010: 2466 6f3d 870c 223c c8b2 53bd 08fa 1ebd
00000020: 5c43 f03c 25bc 643d 86c4 2a3d 3fe7 f83d
00000030: 9603 49bd 41ff c83d 6afa a8bd 51b2 d63b
00000040: 6b99 b2bd db51 c2bc 544e bf3d 9174 37bc
00000050: 487e 3a3d 27ad d23d 6de2 86bd baf7 d63c
00000060: db4b 853d 8868 a53d b5b4 593d 2a78 acbd
00000070: 2c74 8d3c f4e3 a8bd 6098 45bd 2817 1b3d
00000080: 689b b63d 83a5 c6bd 8202 54bc cd28 f6bd
00000090: 3023 5f3d c418 8c3c dbfd 40bd 3c70 d93d
000000a0: cd4a d2bd be10 553d b454 843c c201 aabc
000000b0: 459c f4bc 4be0 eebd c454 593d b468 e6bd
000000c0: 25d1 dd3c 153b afbd e63e 8dbd 2679 eb3d
000000d0: 4333 463d 403a 45bc 12b8 0d3d 84c7 603d
000000e0: e705 b9bd ab35 713c e582 06be 2f33 df3c
000000f0: e929 5dbd 54e1 8bbd d418 c43c 2d41 863d
00000100: 1f65 cd3d 0372 83bd 82bd 893d b40d b83d
00000110: 51af dfbd 2576 d63d 8f6d 203d 83a4 7d3c
00000120: 303a cabd 98fc b43d cdfd a8bd 27a5 e3bc
00000130: 5b9e f138 5e8f 1f3c 792f d03d c12c 8ebd
00000140: d389 bdbb 3352 32be 9fca 9fbd 1050 ccbd
00000150: 0b12 aabd 3bff 29be 4877 183d 97f7 80bd
00000160: d9f0 ac3d b1f6 533c 1d16 423d be17 fdbd
00000170: 707e a2bc aad2 353d bdc1 34bd 0b47 e83d
00000180: b8db 97bc 3c18 a63d 8b40 fbbd 5c1b c23d
00000190: f474 a7bd f042 243c 1396 743c c3f6 e7bd
000001a0: 14b8 a2bc 07f2 4abd 2ecc ef3d 9f3f afbd
000001b0: ec7f 77bd 1fc2 bd3d 16c9 3dba 5609 683d
000001c0: 5cf3 c83d 0d8e 83bc f682 9bbc f3c3 ad3d
000001d0: d60a 8fbd 7963 ad3c 00db 1a3d 7cfc dfbd
000001e0: 3a65 76bd a194 f13d 4238 073e 03f3 65bc
000001f0: fa7a 893d 8c82 b93d 81dc 363d 36c4 d23c
00000200: a436 c83c 6e99 d1ba 5e0e a13b 65c5 6c3d
00000210: 7a40 81bc 48ab acbd d193 403d f058 a63c
00000220: 843e 5abd ccbc a33d 6843 e73d c9be 4ebd
00000230: 8fbf bdbd 7ab9 0abd 785e fcbd e4d1 84bd
00000240: 28a3 f43d d423 c73d 6c84 cf3b b466 a63d
00000250: 73d7 043e c640 a73d cbb3 d2bd 814d ad3d
00000260: 67a1 66bd 5d38 02be 96ec 983d c4a3 d4bd
00000270: 6509 7b3c 3d01 d5bb a536 e9bd 208e d73c
00000280: f0bb ea3c 1bfa 2bbd ec85 f13d 195d f4bc
00000290: 9dbc 07bd 7e45 3c3d 7411 abbd 7699 bc3d
000002a0: 7088 5fbd a004 c3bc ae7c 29bd 3090 d5bd
000002b0: 13ad 10be 88d4 843d e2ff b03c ce20 cebd
000002c0: b310 863d 46b1 ad3d 68bd 473d 738d b5bd
000002d0: 568b 72bd ba60 c6bc 2396 dc3d 65bf fcbc
000002e0: 8ab0 8a3d d112 02be 2f94 64ba 683d 603d
000002f0: b71c b93d 75c3 c53d e0fa 2d3d 925d c6bd
00000300: df7e e03b 2d9e 263d 1722 923d 1a20 9a3c
00000310: c747 e43a 5630 e2bd 1b9a 1a3d 6816 aabc
00000320: 3a28 83bd 25ef f53d 54ad be3c fabf 5bbd
00000330: 1f0d ba3d ae1c cbbc c4f0 c83d 06bf 8ebd
00000340: a428 233c 8066 cdbd f2e0 ad3c a63e b1bc
00000350: 631b 4abd f41c a23d 28fb 40bd 1900 e93d
00000360: 9522 42bd 6bb5 d63c f937 9f3d 248a 9e3d
00000370: 1c93 07bd d8e7 61bd 6832 d33a 2d6e 73bd
00000380: 75df 863d b2fc 84bd 6b4d 253c 6e87 a13d
00000390: 1a67 aabd 8c3f 68bc 470c 093d eb03 a1bd
000003a0: 973e d53c f15b d4bd 2a36 afbd 21a8 9e3d
000003b0: 6c1b 493b 2928 34bd f438 45bd 6cd7 293d
000003c0: 62f1 7abd dd2c 103d d06c 023d aa0f 06be
000003d0: a3ac d0bc e4c5 bf3d a327 65bc 0136 943d
000003e0: aa0b 22bc d6ee 473d 9680 abbd 17db 8c3d
000003f0: 2681 11bd 780c aebd dd9a 51bd 4eae f03d
0.023157673 -0.04439113 -0.11095908 -0.096445456 0.05844702 0.009890682 -0.05168417 -0.038812667
0.029328994 0.05584349 0.041691326 0.12153482 -0.049075685 0.09814311 -0.08250888 0.0065520187
-0.087206684 -0.023720672 0.09341112 -0.011197225 0.045530587 0.102869324 -0.06586156 0.026241172
0.06508609 0.080765784 0.05315085 -0.08421357 0.01726731 -0.082466036 -0.04824102 0.03786388
0.0891636 -0.096995376 -0.012940051 -0.12019501 0.054476917 0.017101653 -0.047117095 0.1061711
-0.10268173 0.05201792 0.01615367 -0.020752791 -0.029859671 -0.11663874 0.053059354 -0.11250439
0.027077267 -0.08556191 -0.068967625 0.114977166 0.04838873 -0.012037814 0.03459937 0.054877773
-0.09034329 0.014722268 -0.1313587 0.027246086 -0.053995047 -0.06830087 0.02393762 0.065554
0.10029053 -0.064182304 0.06725599 0.08986989 -0.10922111 0.10471753 0.039166983 0.015481117
-0.0987438 0.08837241 -0.08251534 -0.027788712 0.000115212715 0.009738771 0.10165305 -0.0694213
-0.005784252 -0.17414169 -0.07802319 -0.09976208 -0.08304223 -0.16601269 0.03722313 -0.06297224
0.084443755 0.012937234 0.04738437 -0.12358044 -0.01983568 0.044390358 -0.044130076 0.11341675
-0.018537387 0.08110091 -0.1226817 0.09477875 -0.08176604 0.010025725 0.014928359 -0.11326363
-0.019863166 -0.04954722 0.11708866 -0.08557057 -0.06042473 0.09265541 -0.0007239742 0.05664953
0.09812042 -0.016058946 -0.018983345 0.0848464 -0.06984489 0.021165596 0.03780651 -0.109368294
-0.06015513 0.11795927 0.13205054 -0.014034989 0.06712909 0.09058103 0.044643883 0.025728326
0.024440117 -0.001599116 0.004915043 0.057805438 -0.015777815 -0.08431107 0.04701597 0.02030608
-0.053282276 0.079949945 0.112921536 -0.050474916 -0.092650525 -0.03386829 -0.12322706 -0.06485346
0.11945182 0.097236305 0.0063329246 0.08125058 0.12972812 0.081666514 -0.10288199 0.08462048
-0.05630627 -0.12716813 0.07467 -0.10382798 0.015322064 -0.0065003918 -0.11387376 0.026312888
0.028654069 -0.041986566 0.11793122 -0.029829549 -0.03313886 0.04596471 -0.08352938 0.09208958
-0.054573476 -0.023805916 -0.04137867 -0.10427892 -0.14128523 0.064858496 0.02160639 -0.10064851
0.06546154 0.08481078 0.048764616 -0.0886487 -0.059214912 -0.024216045 0.10770824 -0.030852983
0.067719534 -0.1270249 -0.0008719591 0.05474606 0.0903868 0.09656421 0.04247558 -0.09685816
0.0068510617 0.040678192 0.07135408 0.018814135 0.0017416411 -0.110443756 0.037744623 -0.020762637
-0.06404157 0.12008504 0.023276009 -0.05364988 0.09084534 -0.024793949 0.098115474 -0.069700286
0.00995842 -0.10029316 0.021225426 -0.021636318 -0.049342524 0.079156786 -0.04711452 0.11376972
-0.04739626 0.026209554 0.07774348 0.07741192 -0.03309928 -0.055152744 0.0016113045 -0.059431244
0.0658559 -0.0649351 0.010089259 0.07887159 -0.08320446 -0.014175307 0.033458974 -0.078620754
0.026030822 -0.10369099 -0.08555253 0.07746912 0.003068651 -0.043983612 -0.048150018 0.041465208
-0.061265357 0.035199035 0.031842053 -0.13091913 -0.025472945 0.093639165 -0.013986501 0.07236863
-0.009890476 0.048811756 -0.08374135 0.068777256 -0.035523556 -0.08498472 -0.05117308 0.11751996

rnn.bias_ih_l0 f4 [64]
00000000: 4d57 aebd 3d60 f6ba 2cab 1abd d90c b93c
00000010: 5aad 8b3d 6413 a4bd a592 30be df69 313e
00000020: 761e 11be d043 183d 6ccf 31be 8a23 b8bd
00000030: 8c5c 09be 0d6f a83c 9ded 763d fa41 0bbd
00000040: b570 1ebe 345b 15bd a575 12be 29ac ffbd
00000050: e3aa e2bd cb56 58bd b214 1f3e e6e5 af3d
00000060: 6386 cf3d 4d01 233e ee3f af3a b890 ddbd
00000070: 8198 e33d 1ddf 943d f0f6 2c3e f248 333e
00000080: b62b 2dbe 46a4 c83d e920 e8bd 6e25 03bd
00000090: c39f 683d b1f6 05be 302b 073e 8194 993d
000000a0: 95ed 1b3e cbe3 fc3d 608c 5ebd 8055 db3d
000000b0: 9528 bebc 9927 1abe 33ab 0d3e 65aa 16be
000000c0: 3776 c5bc d41d f33b 55b6 3d3d 6759 8bbd
000000d0: 516b 1e3c 6500 b4bd 0f07 e8bd e551 0fbe
000000e0: ed8e 14be c20c 703d 4cc9 9fbc 8908 313c
000000f0: e07a 323e 3dc1 16be 0429 c0bd 06d9 0c3e
-0.08512745 -0.0018796992 -0.0377609 0.022589134 0.068201736 -0.08011511 -0.1724344 0.17325543
-0.14171776 0.037174046 -0.17364281 -0.089911535 -0.1341421 0.020560766 0.0602852 -0.033998467
-0.15472682 -0.03646393 -0.1430269 -0.12484009 -0.1106775 -0.052817147 0.15535238 0.085887715
0.10133054 0.15918465 0.0013370493 -0.108186185 0.11113072 0.07269118 0.16891074 0.17508295
-0.16911206 0.09796958 -0.11334402 -0.032018118 0.056792986 -0.13082387 0.13200068 0.07499028
0.15227349 0.123481356 -0.05433309 0.10709667 -0.02321271 -0.15054168 0.13834839 -0.14713438
-0.02410422 0.0074193273 0.046316464 -0.068041615 0.009669141 -0.08789138 -0.11329471 -0.13996084
-0.14507647 0.058605917 -0.019505166 0.010805258 0.17429686 -0.14722152 -0.09382823 0.13754663

rnn.bias_hh_l0 f4 [64]
00000000: ab98 e0bd 45fd 2a3e 7e72 dabd 934c 3b3e
00000010: 8f1c ba3d 4ae8 dfbd 990a 803b c1d6 383d
00000020: 0412 24bd 4946 0f3e 425d 753b 5ac3 01be
00000030: a4f3 d0bd 1558 31be b15a 9c3d eadb 5cbc
00000040: b4c5 80bd aac2 09bb 5313 09be a346 f7bd
00000050: d550 19be f329 ad3d 4d82 13bd 29c9 c33d
00000060: 6ba0 a73d 2b83 433d c663 04be 4774 04be
00000070: d034 f93d 067d 253d 8f4e 483d ba2f ac3c
00000080: 9aab f8bd 6c37 b9bc 70e8 1bbd f5ae 01be
00000090: 3804 a53c 5371 11be 0af3 da3d 85b6 943d
000000a0: 1c88 cd3d 4604 44bd 2766 bdbd 7a29 a43d
000000b0: aed5 393d deb7 00be 5104 4f3d 1dc0 60bd
000000c0: 913c 153e a121 e73d b678 02be aba0 0cbe
000000d0: f7b2 06be e5f7 9dbd 7ab2 bcbc 6af3 c4bd
000000e0: 6332 9dbd d840 3b3e 835f f33b 231f f93d
000000f0: 3314 be3b f29d 77bd e3ac b0bd 40d1 c43c
-0.10966619 0.16698177 -0.10666369 0.1829093 0.09087478 -0.109329775 0.0039075133 0.04512668
-0.040056244 0.13991655 0.003743962 -0.12672177 -0.10202721 -0.17318757 0.076344855 -0.013480166
-0.06287709 -0.002102057 -0.13386278 -0.1207402 -0.14972241 0.08455267 -0.036012936 0.09559853
0.08184894 0.047732513 -0.12928686 -0.12934981 0.12168276 0.040402435 0.048903044 0.021018852
-0.121421054 -0.022609435 -0.038063467 -0.12664397 0.020143613 -0.14203386 0.10690887 0.07261375
0.100357264 -0.047855638 -0.09248 0.080157235 0.045369796 -0.1257014 0.050541226 -0.054870714
0.14573886 0.11285711 -0.1274136 -0.13733165 -0.13154207 -0.07713298 -0.023034323 -0.0961674
-0.07675626 0.18286455 0.0074271574 0.12164142 0.005800748 -0.060453363 -0.086267255 0.02402556

rnn.weight_ih_l0_reverse f4 [64, 3]
00000000: 9ec5 c1bd 1a2a 85bc 20fb 863c d2c8 bfbd
00000010: 3c01 aabc d4c5 2dbd d13a 053d 2935 dc3c
00000020: 5206 f8bd 280f 55bd 380b e3bc 94d0 b4bd
00000030: 7fb9 883d 2f52 ad3c 1c78 9abd 17c3 6f3d
00000040: 494b ed3c 82d1 923d 6090 92bd 2378 5337
00000050: 0463 cf3d 370c 083c e2e2 803c 6878 50bd
00000060: 5f53 bfbd e109 e1bc 30d2 493c 0036 aabd
00000070: 4108 083d 4801 e83c ec62 51bd 8da8 4ebc
00000080: 00b3 f13c 854c 3cbd de2c 4a3c 3ac8 bc3d
00000090: f076 6a3d dff6 353c 90d9 b73c 1477 afbc
000000a0: 7f8b 36bc b8a2 2abd 6e2d 28bd b4ca 643c
000000b0: e215 f73d be05 863d ebe8 dc3c 10a8 d6bd
000000c0: 61e8 553d e757 e93c a449 f4bd 7c84 a6bc
000000d0: 8937 ecbb b6b6 a9bd 2c2d 73bd bed2 0dbd
000000e0: c85b 72bd e3ba 003d e9f8 703c 586e dd3c
000000f0: b832 92bc ac71 353b 64f8 6cbd 565c 33bd
00000100: efbc babc 46b5 ef3d ee34 863b 1600 7dbb
00000110: c04f f83d 0aa6 84bb 2885 2ebc de78 ab3d
00000120: b536 143d c991 1a3c 58df dabd 3728 ddbb
00000130: d14a e0bc 98fe 80bc ca00 babc 3be0 f5bc
00000140: b829 613d a491 acbd a080 5dbd e87f 85bd
00000150: 7b56 83bd acf3 48bc 6066 e43d c357 34bd
00000160: a53f a9bb a07c 163d 3e22 11bd 6ccd b53b
00000170: 847e 84bd bf17 6abd 3529 14bc 4c5a 493d
00000180: e6e1 eabd 8d39 42bd 4099 393d 19b2 39bd
00000190: ca39 f23c 60b3 96bc 8b98 913d 8415 5c3c
000001a0: 5a1f a7bd 74d6 ad3d 0db8 763d 96b4 dd3d
000001b0: da7f febd fdb9 74bc 22bb 9ebd 9cc2 233c
000001c0: 8243 c43c 4441 b63d e6f0 40bd 77fe e2bc
000001d0: c867 0f3d d39c bb3d 228c 1d3d 8af4 f53d
000001e0: ea14 ba3d 0c4c 023c 5c62 193d b7ed b1bc
000001f0: 8e9b b2ba 585f cd3c 5796 5cbd 3245 f6bc
00000200: 1012 0f3c 880d acbd 2437 26bd 30cf 263c
00000210: 8880 a63d d8dc 4a3d b49f 0bbd f024 d1bd
00000220: 0468 58bd 5c70 20bd e7c6 afbd 5b66 18bd
00000230: d8af bb3d 1f18 b03c 8276 25bc 5ccd f4bd
00000240: 2933 293d a04a 263d 424b 82bd a587 84bd
00000250: fe08 f2bc 7e8b afbd c76d 963d f153 343d
00000260: b022 4b3c c5d3 b83d e46e 143d 40fe c43c
00000270: eb81 babc 9bb0 5bbc 5c77 8b3d 95c8 82bd
00000280: 8bfb 123c e6fc 9ebd ba6d 123d 4e6b 153c
00000290: 60c9 0abd 17bf e63a 5390 56bc f2b9 88bd
000002a0: cfbb 403d 37e8 3d3d 70e8 41bc 5d96 bcbd
000002b0: 83d2 90bd a8a7 e03d fe7c b7bd 4e48 78bd
000002c0: 92fb fcbd e3ff d2bd bc03 b6bc 022a babd
000002d0: b2c8 2c3d c3d8 e4bb 00aa 64bb 0a9d 4bbd
000002e0: 403b 0cbd ce9f c0bd f2ad 803d 619a d03c
000002f0: f03b e0bc 65b3 84bd 3ce9 8dbc f0fa 7dbc
-0.094615206 -0.016255427 0.016477168 -0.09364475 -0.020752542 -0.04242499 0.032526795 0.026880817
-0.121105805 -0.052016407 -0.02771531 -0.088288456 0.066760056 0.021157352 -0.0754244 0.05853566
0.028966563 0.07168867 -0.071564436 1.2604552e-05 0.101263076 0.0083036935 0.015733186 -0.05089608
-0.09342074 -0.027470531 0.012318179 -0.08311081 0.033210997 0.028320923 -0.05111973 -0.012613428
0.0295043 -0.045971412 0.012339799 0.09217878 0.057242334 0.011106222 0.02244261 -0.021419086
-0.011141657 -0.041659087 -0.04105895 0.013964344 0.12064721 0.06544064 0.026966533 -0.10481274
0.052223567 0.028484298 -0.11928108 -0.020326845 -0.0072087687 -0.082868025 -0.05936925 -0.034624808
-0.05916956 0.03142823 0.014707782 0.027030155 -0.01784645 0.0027686162 -0.05785407 -0.04378923
-0.022795169 0.11704497 0.004095665 -0.0038604788 0.12124586 -0.0040481137 -0.010651864 0.08372663
0.036184985 0.009434172 -0.10687131 -0.0067491787 -0.027379425 -0.0157464 -0.022705454 -0.030014148
0.054971427 -0.08426216 -0.054077744 -0.06518537 -0.06412979 -0.012265127 0.11152339 -0.04402901
-0.0051650577 0.036739945 -0.035433047 0.00554817 -0.064694434 -0.057151552 -0.009043028 0.04915838
-0.11468868 -0.047418166 0.045312166 -0.045335863 0.029568572 -0.01839608 0.071091734 0.013432864
-0.08160277 0.08488169 0.06023412 0.1082546 -0.124267295 -0.014936921 -0.077505365 0.009995129
0.023957971 0.08899167 -0.04710474 -0.027709229 0.035011083 0.09160771 0.03846372 0.12009533
0.0908602 0.007952701 0.03744732 -0.021719797 -0.0013626681 0.025069878 -0.053854313 -0.030062292
0.008732334 -0.084010184 -0.04057993 0.010181233 0.08129984 0.04952702 -0.03408785 -0.102121234
-0.052833572 -0.039169654 -0.085828595 -0.03720699 0.09164399 0.021495877 -0.010099055 -0.11953232
0.041308556 0.04059851 -0.063620105 -0.06471185 -0.029545303 -0.08571528 0.07345157 0.044025365
0.012398407 0.09024767 0.036238566 0.024047017 -0.022767028 -0.013408805 0.06809875 -0.06385914
0.008971105 -0.0776308 0.035749175 0.009119822 -0.033883452 0.0017604557 -0.013095933 -0.06676091
0.04705411 0.046364035 -0.011835203 -0.09208367 -0.07071402 0.10969478 -0.08959387 -0.06061583
-0.12352671 -0.10302713 -0.022218578 -0.090900436 0.042183585 -0.006983848 -0.0034891367 -0.04971031
-0.034236193 -0.0940548 0.062831774 0.025464239 -0.02737233 -0.06479529 -0.017323129 -0.015501723

rnn.weight_hh_l0_reverse f4 [64, 64]
00000000: 364f 413d 7912 ca3d 2845 a8bd 6320 96bc
00000010: 73e7 1a3d b594 03bd e4ba 323d 9ce8 d0bd
00000020: 781b 77bc c459 46bd 8a1e e2bd af14 663d
00000030: eac3 9d3d b5fc 4b3d b4ad 4a3d 22d7 00be
00000040: 88bd adbd 4bb7 a23c 85f9 133d 7681 b2bd
00000050: 3688 34bd 6270 50bc 72fc 89bd 35c8 193d
00000060: a8e7 723d 338b af3d e42a 2d3d 9a32 b1bb
00000070: 8594 fdbb 6b68 df3d c551 19bd 1d6e 1fbd
00000080: 4994 0ebc c333 04be c86b fb3c cb5f 923d
00000090: 49ba 5f3b d542 193d caa2 97bd 9931 ffbd
000000a0: ffb7 29bb 8600 48bd 32cc 9f3d 208d d2bd
000000b0: cf56 27bc 3abc a2bd 38bd dfbc 8d07 bcbd
000000c0: 4eba 6bbd 37d2 3a3d 967e d53c f829 37bd
000000d0: 9f72 babc 44c4 9f3d bc1d ba3d af65 ae3d
000000e0: 3f64 9a3d 1d98 1dbc acc3 a3bd b758 f8bd
000000f0: 7c9e 073d ce1b 3fbd 9567 a7bc cae9 febd
00000100: 846f cfbd 12d6 b53d 2332 0b3e 519f cbbc
00000110: 2047 45bd 5d73 a73d 1670 b6bd 45d1 0b3e
00000120: 9c4d 353d 959a de3c 0762 793d d91e 7c3d
00000130: fb68 183d 23f8 41bc 12c7 92bc 9027 8cbd
00000140: 6888 173d 0672 dabd ac82 433b 0813 dcbd
00000150: 05c0 9dbc 70b4 893d 9c19 f7bd e055 dd3d
00000160: 3320 6a3c ad7a d63d f1da 873d b134 b33c
00000170: d969 703d 43c0 96bd 09bb b1bd f375 28bd
00000180: 1fb0 c6bd c542 edbd 88fa 303c b356 6b3d
00000190: 9f20 8c3d fc69 923c 18fb e9bd 1308 b2bd
000001a0: c172 ca3d 8f89 b23d 5e1f 79bc 9a87 d23d
000001b0: 668d b1bc 5f69 fd3c eb78 b7bc 9e55 9e3c
000001c0: 22ce 0e3d cd91 193d 0aaa 7b3d 33be 063e
000001d0: c9a8 a9bb 3e26 223d 39fc 183d a9b1 e03d
000001e0: 7356 183e 1ab5 b23d 467e 9d3c 47e5 0abd
000001f0: dceb 33bd 81c0 4bbd dff9 82bd 599d 96ba
00000200: ec47 28bd 4a9e 8d3d e69c eb3d 17df 4cbd
00000210: 7435 62bd cb8f 3abd eab3 aabd 4f68 43bc
00000220: 8f6b 46bd 7526 423c 7960 593d 5f02 57bd
00000230: 58fc 95bc 558b 87bd c20f b9bc 243b f03d
00000240: 5924 683c 6722 6c3d f273 7b3d 8030 86bc
00000250: 85cd bdbc 2b85 93bd 747c 8abb 05ad f43d
00000260: ef46 cd3d 1605 e43d 7944 17bd d930 c9bd
00000270: d46d 083d 82b1 993d dd1a b23d 2d70 bc3c
00000280: bf2d 213d 706b 69bd f18c df3b 5fc4 a83d
00000290: 05bf ca3d 3168 34bc 876c 8b3c 4713 55bc
000002a0: c29e c1bd 1226 2abd d4f2 db3c f50a bf3c
000002b0: f56f 983c d08b debd 5e95 213c a00e 833d
000002c0: db00 9d3d 32a3 853d 5656 a13d 5ec2 84bc
000002d0: 9a8e 03bd aac8 ac3c d9da 043c 4528 01be
000002e0: 6289 143e db10 d03d d77e 963d ca7d 8cbd
000002f0: e25c 4ebd 3cd3 f23d 1dd7 973a e077 11bb
00000300: d1b2 15be 7b0b 91bd e101 b53d 2366 2e3d
00000310: cdb2 4c3c 3539 a03b f097 753d 8fb9 27bd
00000320: 0112 c13d d010 963d 7f65 49bb cd0a 9bbc
00000330: 7fbe 0cbd c710 903d c1e0 75bd 6aa5 21bd
00000340: 18b3 b0bd b616 69bc 69c7 ec3d 16de 1f3d
00000350: b45a ccba fb79 08be 9fbf 8bbd 786d e5bd
00000360: ba62 343d 971a ef3d b0b7 7dbd 3bca 2fbd
00000370: 89db 1c3d c295 a1bb c9e2 f03d 0617 54bc
00000380: 0a34 72bd 71fa a73d 7a0a c23c 6748 9ebd
00000390: df15 06be d49c dbbc 9472 56bd 7d2c 373d
000003a0: ced7 82bc d114 5f3d 6cf3 c1bb 1118 923d
000003b0: a553 c9bd 247a e2bc b128 43bd 4182 aa3d
000003c0: fc6c 073d d88d 9dbd 3531 9b3d 94b7 09be
000003d0: ff55 6f3d 9267 303e 00a6 a1bb 6914 963d
000003e0: 749c e73d 8796 763d bd24 423d 6dfa 9f3d
000003f0: 90cb f73d 832d ba3d a9b5 1fbd 6180 23bd
0.047194682 0.09866805 -0.082163155 -0.01832599 0.037818383 -0.03212424 0.043635264 -0.10200617
-0.015082233 -0.04842545 -0.11040981 0.05617207 0.07703383 0.049801547 0.049482062 -0.12582067
-0.08483416 0.019862792 0.036126632 -0.08716099 -0.044075213 -0.012722107 -0.06737603 0.037544448
0.059302956 0.08571472 0.04227723 -0.0054076435 -0.007738652 0.10908588 -0.037431497 -0.03892337
-0.008702346 -0.1291037 0.030691043 0.07147177 0.0034138134 0.03741725 -0.074040964 -0.12460632
-0.0025897024 -0.048828624 0.07802619 -0.10280824 -0.010213568 -0.079460576 -0.027311906 -0.09181128
-0.05755072 0.045610633 0.026061337 -0.04471776 -0.022759734 0.078011066 0.09087703 0.08515488
0.07538652 -0.009618786 -0.07996306 -0.12126296 0.033110127 -0.046657376 -0.020435134 -0.124469355
-0.10128692 0.08878721 0.13593344 -0.024856241 -0.048163533 0.08176301 -0.089080974 0.13654049
0.044263467 0.02717332 0.0608845 0.061552856 0.037209492 -0.011838946 -0.01791719 -0.068434834
0.03699532 -0.106662795 0.0029832525 -0.107458174 -0.019256601 0.06723869 -0.120654315 0.10807395
0.014289903 0.10472617 0.06633557 0.021875711 0.058694694 -0.0736089 -0.08678252 -0.04112811
-0.09701561 -0.11585001 0.010801919 0.05745573 0.068421595 0.017872803 -0.114248455 -0.08692946
0.09885169 0.087176435 -0.015205232 0.1027977 -0.02167387 0.030934034 -0.022396525 0.019327935
0.034864552 0.037492562 0.06144146 0.13158493 -0.0051775915 0.03958725 0.037349913 0.10971386
0.14876728 0.08725949 0.01922525 -0.033910062 -0.043926105 -0.049744133 -0.063953154 -0.0011490985
-0.041084215 0.06914957 0.115045354 -0.050017443 -0.055226758 -0.045547288 -0.08335097 -0.011926725
-0.04844242 0.011849989 0.05307052 -0.052492496 -0.018308803 -0.06618372 -0.022590522 0.1173003
0.014168822 0.057649996 0.06138987 -0.016380548 -0.023169288 -0.07203134 -0.0042262617 0.11947063
0.10023295 0.111337826 -0.036930535 -0.0982377 0.033307865 0.0750456 0.0869653 0.023002708
0.039350267 -0.056987226 0.0068222214 0.0824058 0.09899715 -0.011011169 0.017019523 -0.013005084
-0.09454109 -0.041540213 0.026849188 0.023320654 0.018608073 -0.10866511 0.009862272 0.06399274
0.07666179 0.06525268 0.078777954 -0.016205963 -0.032118417 0.021091778 0.008108818 -0.12613018
0.14505532 0.10159465 0.073484115 -0.0685993 -0.05038155 0.11856696 0.0011584494 -0.0022196695
-0.14618994 -0.07082268 0.08838249 0.042577874 0.012493801 0.004889632 0.059959352 -0.040948447
0.09427262 0.073274255 -0.0030730662 -0.018926049 -0.03436136 0.0703445 -0.060028795 -0.03946439
-0.086279094 -0.014226606 0.11561472 0.039030157 -0.0015590996 -0.13327782 -0.06823658 -0.1120252
0.044039465 0.116749935 -0.061942756 -0.04291747 0.038295303 -0.0049311826 0.11762006 -0.012944942
-0.05913166 0.08202065 0.023686636 -0.077286534 -0.1309428 -0.02680818 -0.052355364 0.04472016
-0.015972044 0.05446321 -0.0059189107 0.071334966 -0.09830407 -0.027646132 -0.04764623 0.08325625
0.03306292 -0.0769307 0.07577745 -0.13448936 0.05843162 0.17227009 -0.004933119 0.07328112
0.11309138 0.060202148 0.047398318 0.07811437 0.12099373 0.09090712 -0.038991604 -0.039917354

rnn.bias_ih_l0_reverse f4 [64]
00000000: d592 17bd 1b0b eabc c610 ca3d aabe 223e
00000010: 9c93 613d 6b03 afbc 613e 5dbd 4d5b 93bd
00000020: 7ff2 083c 8c54 50bd 9922 bd3d 2cd7 b03c
00000030: 8407 e7bd ea8c f33d edb7 fc3d 8141 0bbe
00000040: 3673 3dbd 131c 07be ab90 a83d 4078 d13d
00000050: ab40 5a3d 1b0b 193d dee6 91bd f474 d23d
00000060: 6601 bc3d a51f e1bb 0bbe e33c 0132 4ebd
00000070: 611a 173d 16cb 063e 3068 cbbd d8f4 1e3d
00000080: 0d1d 68bd 433f 3c3e e5d4 883c 8e45 07be
00000090: ce2a 94bb a2c8 9c3d 6cef d4bd 4ff3 18be
000000a0: 408e d6bd edc4 333b d231 c2bd ff4d f73d
000000b0: 471b 613b d3d7 233e 58f9 873d c97a e73c
000000c0: 0776 02be 798a d53d 6556 2d3e 7f8a 213d
000000d0: 2afb abbd 427b e33c 521e 0d3d 5358 01be
000000e0: fe83 28bd 77ad ed3d c02e adbc 07dd e9bb
000000f0: fa47 6fbc 9175 c73c 0db7 e53d 2a1f dfbd
-0.037005264 -0.028569749 0.098664805 0.15893045 0.055072412 -0.021363935 -0.054014567 -0.071951486
0.008358597 -0.05086188 0.092351146 0.021586977 -0.1128073 0.118921116 0.123397686 -0.13599207
-0.04625245 -0.13194303 0.08230718 0.10228014 0.05328433 0.037364107 -0.071241125 0.10276213
0.09179954 -0.0068702274 0.02780058 -0.050340656 0.03689039 0.13163409 -0.099319816 0.03880772
-0.05666833 0.18383507 0.016703079 -0.13210127 -0.0045217043 0.07655455 -0.103972286 -0.14936565
-0.10476351 0.002743061 -0.09482159 0.120754234 0.0034348534 0.16000299 0.066393554 0.02825679
-0.12740336 0.10426802 0.16927488 0.03943872 -0.08397515 0.027768735 0.034452744 -0.1263135
-0.041141503 0.116053514 -0.021140456 -0.007136944 -0.014604563 0.024348052 0.11216555 -0.10894616

rnn.bias_hh_l0_reverse f4 [64]
00000000: eb88 2d3e 946c f73d d2c6 333e d968 9e3d
00000010: a846 bb3d 5c9c 13be 7658 db3d 7495 133c
00000020: 2977 213e 30f5 013e 7806 e33a 06f6 893d
00000030: 1162 babd abd3 e43d 2d9a 93bc 148e f2ba
00000040: ff9a 80bd a30e 2cbd 5793 083e af8b f63d
00000050: 3010 103e 06c1 273e ca88 20be 6263 8b3d
00000060: fe20 d23d 4eb9 953c 8ad1 d8bd a073 153e
00000070: d165 303e 6491 bb3d 1cb2 cabd 9f00 38be
00000080: 0119 2abe 911f 56bd 2e62 df3d ba7e 06bd
00000090: 1466 ef3d 63b3 9a3d 85cc f9bd 511f 9bbd
000000a0: 67c0 bbbd ce02 30be fa44 b93b db1b 5a3d
000000b0: 0b30 d03d ddf9 1f3d 3394 223e 3fc2 a2bc
000000c0: 34e2 32bd 692b a53d 352b a63d ef37 313e
000000d0: 4e96 14bd 1887 65bc bfee 3b3e 3316 17be
000000e0: 92bb 853d 9e72 cd3a 48f9 b43d 433b d23d
000000f0: e720 20be e697 44be 6c60 df3d ddc2 3abe
0.16946761 0.120812565 0.17556313 0.07734842 0.09144336 -0.14415115 0.10710232 0.0090078
0.15768112 0.12691188 0.0017320653 0.06736378 -0.09100736 0.11173185 -0.018017853 -0.0018505477
-0.06279563 -0.042006146 0.13337456 0.12038361 0.14068675 0.16382226 -0.15677181 0.06806065
0.10260199 0.018276837 -0.105868414 0.14594889 0.1722634 0.091585904 -0.09897253 -0.17968987
-0.166111 -0.052276198 0.10907398 -0.0328357 0.11689392 0.075537466 -0.12197212 -0.075743325
-0.09167557 -0.1718857 0.0056539746 0.05324922 0.101654135 0.039056648 0.15876846 -0.019868014
-0.043672755 0.080649205 0.0811371 0.17306493 -0.036276154 -0.01400926 0.18352793 -0.14754562
0.06529917 0.0015674417 0.08836609 0.102652095 -0.15637551 -0.1919857 0.10907063 -0.18238397

fc.weight f4 [256, 128]
00000000: 9ea5 1fbd 89dc 05bc 4013 843d 2009 743d
00000010: 6ac8 43bd 8b13 3e3d fbda d7bc b54f e43c
00000020: 79e5 a53c 0004 523d c141 90bd b42e bdbd
00000030: aa27 883b 0e2e 7dbd bc33 e2bb 36da 9c3c
00000040: 2690 31bd 8741 c83c 3dae f7bc 204c 3abd
00000050: aa48 963d bf0b 5d3d e49c 853b 22d6 46bd
00000060: 55ed 41bd 43d7 88bd 2432 40bd 3632 233d
00000070: 96d7 3ebd 8d8e 2dbc d3b0 de3d 1c01 583c
00000080: f801 99bc 6342 7c3d 8758 883d b43f fa3b
00000090: 0b24 72bd c6bc 533d e888 463c 241e 85bc
000000a0: 1b17 963d fa2c 68bd 8edd 1ebc 63cc b93b
000000b0: f765 1c3d b17c 323d 2446 46bd 60a5 f43b
000000c0: db75 bd3d d556 b13c ba16 84bd dd3a 803d
000000d0: 0c3d bcbb 763f 1e3d 2e89 a03d 1e1d 4a3d
000000e0: 6e9c 633d a9e8 c6bc d4ed e7bc dd67 22bd
000000f0: 16b9 903d cc0f 543d bba6 ebbb b49c 8bbc
00000100: f611 2c3c dc0e a03c 6940 533c 3582 883d
00000110: 218b d03c f853 84bd a541 793b 115f 96bd
00000120: 6b44 4e3d e179 a4bb b52f 02bb 6f1d 213d
00000130: ca7e 633d 60ae 79bd e352 8b3d 2e02 443d
00000140: 11d8 693d c141 95bc 5630 27bc 46cf c6bc
00000150: 2bc7 bdbb b6f2 29bd b12c 3ebd 16e1 023d
00000160: 42c6 393d f616 823d b61c dabc 6d3d 80bc
00000170: afd9 9bbd d01e 983c 660a 00bd cac5 a33d
00000180: 498f 933d 575a a6bd ab84 b13c 01af 6c3d
00000190: 86c2 213c 6604 af3d 3a63 15bd 2a26 0ebd
000001a0: a475 fbbc ec75 2dbd dcf9 60bd 17e0 0c3d
000001b0: b375 08bd f2f5 18bd 95c5 21bd 3253 073b
000001c0: 1356 69bd 1102 81bd 85cb 2c3d 1494 ec3c
000001d0: 0efe 8ebd e9ee db3c a4d2 a03d 893d 8bbd
000001e0: c033 cbbc ced8 0ebc 3a72 3cbd 3f0b 82bd
000001f0: 5f9b 6f3b 4150 7a3d c594 dabc a6bf 56bd
00000200: b726 603d a54d a13d 38c1 a63d 52a4 d0bc
00000210: 415e 923c e787 86bd c81e 4cbd 35af 4cbc
00000220: d7ca 693c 7e33 453d 0281 623d fd21 e33c
00000230: 4a16 433d f77e bbbc 6b78 033b 695d 11bd
00000240: 370d 313d 8d87 44bd 1c98 5dbd 0db4 0a3b
00000250: b434 54bb e026 593d a6bb 41bd afae 853d
00000260: e3f5 7e3d 5fef 3e3d ddda 0f3d 02e2 efbb
00000270: 03b5 66bd 8760 89bd a3dc 8fbc 168e 9f3d
00000280: 9152 f33c 27e3 e6bb 3171 24bd c808 f43c
00000290: c542 45bc b9fd 9a3d 04ef 383d a1ec 49bc
000002a0: 9087 a8bc c168 823d edbd 7cbc a0dc 88bb
000002b0: 3be8 d73c b218 73bd 4ae9 303c 533e 693d
000002c0: 41e1 473d 4854 573d db8b afbc d6ac 8c3d
000002d0: 32d7 0abd f221 a63d d295 11bd 8dda 65bd
000002e0: 86da a63c ef20 a4bb cd76 f4bc e24d 813c
000002f0: 8d0a 853d 8879 27bd f520 41bb 7fbb 7f3d
00000300: e3b9 95bd 7da0 16bc 8131 03bd d3f1 9cbc
00000310: 18f0 d43c 31d0 c0bc 28a1 583d 84b8 5ebd
00000320: fdc2 7fbd e62c ff3b 0d45 583d d933 9cbd
00000330: cfb6 c9bc ba60 41bc fff2 08bc b388 8ebd
00000340: 93e7 9e3d 519b a23c 266c b9bc 943e a6bc
00000350: 64c6 09bc c223 943d e63e 5a3d cf32 b33d
00000360: 3866 05ba 19ae 71bd 7183 adbc 5406 7f3d
00000370: b244 3a3d d2c3 833d 7d7e 803d 96d5 933d
00000380: 4cab 49bd c95f d23c 426d 55bd 35fe 1e3d
00000390: a5c6 973c 7aac c23c 0baa 7ebd 8d09 54bd
000003a0: e8d1 cb3c 19db a6bc 8c22 74bd 7039 e8bc
000003b0: 6c7d 263d 16ee 86bc 21e1 d8bc 08b3 283d
000003c0: d07a 703d 0b1a 78bd 983b 3a3b f0b6 a4bd
000003d0: 31d2 8cbb 7d17 a63d b490 c03c 8ef3 94bd
000003e0: cfc4 8ebc b9b3 f9bc 6ccc 863d bfc3 febc
000003f0: 5958 063d 43ea b63d dd8b 023d 7180 3cbd
-0.038976304 -0.008170255 0.06448984 0.059579015 -0.04779855 0.046405356 -0.026349535 0.027870039
0.020251023 0.051273346 -0.070437916 -0.092374235 0.004155119 -0.0618115 -0.00690314 0.01914702
-0.04335036 0.024445308 -0.03023445 -0.045482755 0.07338078 0.05396628 0.0040775407 -0.048544057
-0.047345478 -0.06681683 -0.046922818 0.039842807 -0.046592318 -0.010593069 0.1087357 0.013183858
-0.018677697 0.06158675 0.0665751 0.0076369885 -0.059116405 0.0516937 0.012117602 -0.016249724
0.07328626 -0.056683518 -0.009696377 0.0056701167 0.03818318 0.043575946 -0.048406735 0.0074660033
0.09250995 0.02164785 -0.06449647 0.06261227 -0.005744582 0.03863474 0.07838665 0.049344175
0.055569105 -0.024280863 -0.028311647 -0.039649833 0.07066552 0.051772878 -0.0071915067 -0.017042495
0.010502329 0.019538336 0.012893775 0.0666546 0.025456967 -0.06461328 0.0038033512 -0.07342351
0.050358217 -0.005019412 -0.0019864861 0.03933471 0.055540837 -0.060957313 0.06802919 0.04785364
0.057090823 -0.01821983 -0.010204395 -0.024268758 -0.005791565 -0.041491233 -0.04642934 0.03195294
0.04535509 0.06352036 -0.026625019 -0.01565429 -0.07609879 0.01856938 -0.031259917 0.0799671
0.07205064 -0.081227 0.021669706 0.057784084 0.009873038 0.08545761 -0.036471583 -0.034704365
-0.030695744 -0.042348787 -0.054925784 0.034393396 -0.03331537 -0.037343927 -0.03949507 0.0020648954
-0.056966852 -0.06299222 0.04218628 0.028879203 -0.06982051 0.02684732 0.078526765 -0.06798846
-0.02480495 -0.008718682 -0.046007372 -0.06349801 0.0036561114 0.061111692 -0.026682267 -0.052428864
0.05472442 0.07876138 0.08142322 -0.025468979 0.01786721 -0.0656889 -0.049834043 -0.0124929445
0.014269552 0.04814481 0.055298813 0.027726168 0.04762868 -0.02288769 0.0020060788 -0.035489473
0.043225493 -0.047980834 -0.05410014 0.0021164448 -0.0032380046 0.05301559 -0.047298096 0.06527459
0.062246215 0.046615 0.035120834 -0.0073206434 -0.05632497 -0.06707864 -0.017561262 0.077907726
0.029702457 -0.0070461216 -0.04014701 0.029789343 -0.012039845 0.07567925 0.045149818 -0.012324483
-0.020572454 0.063676365 -0.015426141 -0.004176691 0.026355853 -0.059349723 0.010797808 0.056944203
0.048798803 0.05257061 -0.021428993 0.06868903 -0.033896632 0.08111943 -0.03554327 -0.05611663
0.020367872 -0.005008809 -0.029841805 0.015784208 0.06496153 -0.040887386 -0.0029469107 0.06243467
-0.07310846 -0.009193537 -0.032029632 -0.01915828 0.025993392 -0.023536773 0.052888066 -0.054375187
-0.062441815 0.0077873347 0.052800227 -0.07627077 -0.024623303 -0.011802847 -0.008358716 -0.06959667
0.07759013 0.019849451 -0.022634577 -0.020293511 -0.008409116 0.07233383 0.05328264 0.08749925
-0.0005088779 -0.059003923 -0.02118084 0.062261894 0.04547567 0.06433834 0.06274126 0.07218473
-0.049235627 0.02568044 -0.05210615 0.03881665 0.018527338 0.023763884 -0.062173884 -0.05176692
0.024880365 -0.020368146 -0.05960326 -0.0283477 0.040646955 -0.01647095 -0.026474537 0.041186363
0.058710873 -0.06057171 0.0028416868 -0.08042705 -0.0042975177 0.08109949 0.0235065 -0.07273017
-0.01742783 -0.030481206 0.06581959 -0.031099198 0.0327991 0.089314006 0.031871665 -0.04602093

fc.bias f4 [256]
00000000: b346 b23b 7388 a3bd ebba 073d 7446 8e3d
00000010: 38af 8dbb 8473 a6bd d6df a93d c4a8 9a3c
00000020: f126 d33c 3d14 61bd ecb2 7cbd 5081 8bbc
00000030: d0d4 403d df38 4a3b e7ea 1b3d 63df 5e3c
00000040: 6691 a33d 2fdb 48bd cd5d db3d 749d 333d
00000050: 7515 d43d 1b49 b53d 8dcd 823b 235e e63d
00000060: 55a5 d5ba 6f1f 313d 9530 0f3e dd45 cd3d
00000070: 4c11 9a3d 3674 683e c0a4 373e 2d69 743e
00000080: 5f47 423e 8c6e 8a3e a6da 3b3e 099b 8e3e
00000090: ff0c 903e e22f 3f3e 372d 433e 45f5 023e
000000a0: c0d6 943e fd81 093e d43b 063e 962f 783e
000000b0: 65bf 4e3e 6ca7 263e 11f4 493e b620 093e
000000c0: 5dd6 0b3e 4888 fc3d f4d4 3e3e d665 c93d
000000d0: b9b8 4f3e 35d4 413e a8ad 273d e076 b93c
000000e0: 174f 693c 3543 b03c e260 083d 0c11 ae3d
000000f0: 419e df3d ada1 743c fc5e 763d 91f2 ba3d
00000100: 8fab f43d 683f 203d 5c38 5d3a b626 dd3d
00000110: 8e86 e43d c4d3 df3d 9d07 9f3d a9ed aabc
00000120: fcc9 b73d e06c 0d3e d065 bd3c 484c f23d
00000130: 49e9 053d 6d4f 8c3c 2cfc 933d fa11 8fbc
00000140: e4e1 963d 023d f13d 3180 753d a4d8 8c3d
00000150: 88be c03d ada7 503b 91b2 403c e7cc 07bd
00000160: d2f6 8a3d 0add 273d 776a ce3d fe9b 6d3d
00000170: a413 213d 4b26 d63d 0130 c33d 0234 1b3d
00000180: f246 95bc cfe7 763c d5e4 be3d 41f5 54bb
00000190: 592f 513d 6bd3 e4bc 41f6 dc3d 9b7c 433d
000001a0: 3dfd 8d3d 3868 bd3d 2c09 d33d daf1 7abc
000001b0: 38af 34bd 2157 0abd 7932 c43d 4eab 3abc
000001c0: 2466 4d3d a568 9b3d f1c6 f83c 8ba6 81bd
000001d0: 7195 9d3d 461c ae3d c48f 57bc b66a ee3c
000001e0: 8166 dfbc f01d 053d 6b15 b03d f344 59bc
000001f0: 03c5 dc3d 01ba f1bc a343 37bc dc96 a53c
00000200: d96c fb3c 69df d63d a71b 44bd d703 32bd
00000210: 7f7a a8bc 3b17 23bd 0661 973c dd66 c23d
00000220: 9743 713d 2d08 9c3d da7f 1abb a038 5dbd
00000230: e385 a53c 894c c73c 7ad3 32bd 4eb6 3e3d
00000240: 1a8a 3dbd d57f 603d 9b30 bc3d 3206 073d
00000250: 7e89 033d 60b9 8bbd 2123 273d 3f39 873d
00000260: eab0 63bd 3603 bc3d 1e8d 3ebc 4c15 7e3c
00000270: a386 90bd 1a13 b33d 8dfe e63a c8b5 ffbc
00000280: bec6 90bc 86c7 5f3d 3c35 9abd 7b96 ce3c
00000290: 47b9 183c aed5 bd3d 7f23 f7bb 3200 493d
000002a0: 27d5 0cbc 2d5d 09bd 1475 3d3d 00d8 51bd
000002b0: f0ac b2bd 8b3c bf3d 7eaf 91bd 4ecf 453d
000002c0: 2124 dd3a 4d87 cb3d c604 803d 1600 763d
000002d0: 037f 143d 930e 7abc efa8 eabc 97bf 59bd
000002e0: a191 9fbd 0dd4 b33c 44b4 5e3c 66ef 62bd
000002f0: 82fd 853d b3f9 043d d382 bf3d e2ab f0bc
00000300: 78b2 a0bd 3a1e 433d c6f6 19bd 285d c7bc
00000310: 687f 853d e034 903d 25f1 3f3c d675 823d
00000320: b6bb 923d fe6c b4bd f93a 563d 5015 aabc
00000330: 2f82 0bbd e22f 68bd 9cf1 33bd 6ae6 2a3c
00000340: 775f 0fbd e5a6 acbd ed30 13bd 3c92 3f3d
00000350: ab1c 36bc 33d8 7bbd 631c c53b 79e0 233a
00000360: ed80 82bd 0355 c9bc 175c a3bc 3742 11bd
00000370: 944f 41bd cc33 7c3d eab0 5c3d 863c e3bc
00000380: 00c7 7d3d 0b6b 8ebd aad4 853c f4ac 953d
00000390: d770 833b b2dc b8bc 8865 83bd 479f fe3c
000003a0: eda5 1fbd bf18 7f3d 9a3f b0bd ff2a 56bd
000003b0: 0b74 cf3b 284e a63c 6d3a 883d 73d2 543d
000003c0: e0d6 b8bc e263 8bbd c403 b73c 2f6c 04bd
000003d0: 346c e8bc 539c ef3b 285a a0bc 5687 8e3d
000003e0: e7e6 95bd c3a8 2cbc a3f2 0fbd 4057 b33d
000003f0: f43b 54bd 23c5 333d 3da5 03bc 2aad 39bd
0.005440557 -0.0798501 0.033137243 0.069470316 -0.004323866 -0.081275016 0.082946464 0.018879302
0.025775405 -0.05495094 -0.06169407 -0.017029434 0.047077954 0.0030856652 0.038065817 0.013603064
0.07986717 -0.049037155 0.107112505 0.04385133 0.10355655 0.088518344 0.0039917887 0.11248424
-0.0016299883 0.043242868 0.13983376 0.10023091 0.0752283 0.22700581 0.17933941 0.23868246
0.18972538 0.27037466 0.18345127 0.27852657 0.28134915 0.1867061 0.19060217 0.12788875
0.2907009 0.13428493 0.1310876 0.24236903 0.20190199 0.16274804 0.1972201 0.13391384
0.13655992 0.12330681 0.18635923 0.09833877 0.2028531 0.18928607 0.040937096 0.022639692
0.014240048 0.021516422 0.03329552 0.08499345 0.109188564 0.014931125 0.060149178 0.09128297
0.11946785 0.03912297 0.0008438879 0.10798399 0.11158477 0.10929063 0.07765124 -0.020865278
0.08974072 0.13811064 0.023119837 0.11830956 0.03269318 0.017127717 0.07225832 -0.017464627
0.07367304 0.117792144 0.059936706 0.068772584 0.09411341 0.0031838224 0.011761324 -0.033154394
0.067853585 0.040982284 0.100789 0.058010094 0.03932537 0.104565226 0.095306404 0.037891395
-0.018222306 0.015069916 0.0932099 -0.0032494816 0.051070545 -0.027932843 0.10789157 0.047726255
0.06933067 0.09248394 0.10304484 -0.015316451 -0.044112414 -0.0337745 0.095799394 -0.011393381
0.050146237 0.07588319 0.0303683 -0.06330594 0.07694519 0.085014865 -0.013156835 0.029103618
-0.027270557 0.032499254 0.08597835 -0.013261068 0.107797645 -0.029507639 -0.011185559 0.020213537
0.030691551 0.10491831 -0.047877934 -0.043460693 -0.020566223 -0.039817076 0.018478882 0.09492276
0.05890235 0.07618747 -0.002357474 -0.05400908 0.020205444 0.024328487 -0.04365871 0.046560578
-0.046274282 0.05480941 0.09188958 0.032964893 0.032113545 -0.06822467 0.040804986 0.06602716
-0.05558864 0.091803 -0.011630325 0.015508007 -0.0705693 0.08743878 0.001762347 -0.03121461
-0.017672893 0.05463364 -0.07529685 0.025218239 0.009321517 0.09269272 -0.0075420733 0.049072452
-0.008595741 -0.033536125 0.046254233 -0.051231384 -0.087243915 0.093377195 -0.071135506 0.048293404
0.0016871729 0.09937916 0.062509105 0.060058676 0.03625394 -0.015262264 -0.028645007 -0.05316123
-0.077914484 0.0219517 0.013592783 -0.05540409 0.065424934 0.032464694 0.093511246 -0.029378835
-0.0784654 0.04763625 -0.037588857 -0.024336413 0.065184414 0.07041335 0.011715208 0.06370132
0.07164709 -0.08809851 0.052302334 -0.020762116 -0.0340597 -0.05668629 -0.04393159 0.010430912
-0.03500315 -0.0843027 -0.03593533 0.04677032 -0.011115233 -0.06148548 0.006015347 0.00062514056
-0.06372247 -0.02457667 -0.019941373 -0.035463538 -0.047195032 0.061572835 0.053879656 -0.02773882
0.06195736 -0.069540106 0.016336758 0.07308379 0.0040112543 -0.022566173 -0.0641585 0.031081809
-0.0389766 0.06227946 -0.08605881 -0.052287098 0.006330972 0.02030094 0.06651769 0.051958513
-0.022563398 -0.068061605 0.022340663 -0.032329734 -0.028371908 0.0073123365 -0.01957424 0.06959407
-0.07319432 -0.010538283 -0.035143506 0.08756876 -0.05181499 0.043889176 -0.008035001 -0.045331158

ln.weight f4 [128]
00000000: 6d8f a23f af96 9e3f 108c a13f 8c52 a43f
00000010: 2970 9e3f d177 a13f e006 9f3f b6c7 9f3f
00000020: 87c5 a23f 798b a13f 9627 a03f d68c a03f
00000030: 9c45 a23f 0bf9 a33f 1930 a03f 1775 9e3f
00000040: 9b8e 9e3f 44e0 a03f f15c 9e3f 1b18 a33f
00000050: 7892 9e3f 9d8d a23f e808 a43f 04e3 903f
00000060: f7b1 a03f f0f2 9c3f a2f8 a23f a96f a43f
00000070: 4591 9e3f c8c3 a13f c135 a03f 728a a23f
00000080: 36f4 a33f bae9 9f3f 0736 9b3f c946 a13f
00000090: f452 9e3f c623 a13f c800 9a3f efe1 a23f
000000a0: b5fc 9b3f 2a67 a43f 36cc 9f3f 1f1a 9f3f
000000b0: b197 9b3f 99ec a13f 2778 9e3f 43f6 a13f
000000c0: 8fe2 a23f f9fe a23f 6853 a03f 9580 9f3f
000000d0: 5592 9f3f 4273 9f3f 0f9f a03f ca4c a03f
000000e0: 27c8 a03f 1a41 a33f baf2 a23f 58bf a03f
000000f0: da15 9e3f 7e12 9f3f 7599 9f3f a5d7 a43f
00000100: 3c7b a33f 5d2e a33f 0b25 a13f 7833 9d3f
00000110: 9bc6 a03f adeb a03f 6c60 9e3f 62f1 a33f
00000120: 4fc0 9f3f 3541 a33f cc22 a03f 2eba a43f
00000130: 9008 a13f f19a 9e3f d5f8 a33f f51e a03f
00000140: 3016 a13f dcba 9f3f d645 a03f 6a2b 9f3f
00000150: a0b7 a23f 7940 a03f 230f a03f 1ff1 9e3f
00000160: 693c 9f3f 69ca a33f 4dc2 9e3f 92ad a43f
00000170: 7ae6 a23f e6a1 a13f b01a 9f3f cb40 9d3f
00000180: e2d7 9c3f 7ac5 a23f 5d88 a23f 6e3f a13f
00000190: 93e2 a33f db8a a43f f796 a03f 7e34 9d3f
000001a0: 8ada a43f 7dc3 9f3f 44eb a03f 4804 9d3f
000001b0: 5248 9e3f 1f97 a33f d116 a13f b096 9e3f
000001c0: 82f6 9f3f d6c0 9f3f e78d 9c3f 114f 9c3f
000001d0: befa 9d3f f7f8 9f3f 848f 9c3f 915f a13f
000001e0: e649 a23f 2880 a03f 22c9 9f3f f3ae a03f
000001f0: 6bcf a03f d0a2 a03f 7dd4 9f3f c4be a03f
1.270002 1.2389735 1.2620869 1.2837691 1.2377979 1.261469 1.2423973 1.2482822
1.271653 1.2620689 1.2512081 1.254298 1.2677493 1.2810377 1.2514678 1.2379483
1.238727 1.256844 1.2372113 1.2741731 1.2388449 1.2699467 1.2815218 1.131928
1.255431 1.2261639 1.2732127 1.2846576 1.2388083 1.2637873 1.2516404 1.26985
1.2808902 1.2493203 1.2125863 1.2599727 1.2369065 1.2589042 1.2031488 1.27252
1.2186495 1.2843983 1.2484195 1.2429847 1.2155668 1.2650329 1.2380418 1.2653278
1.272539 1.2734061 1.2525454 1.2461115 1.2466532 1.2457049 1.2548541 1.2523434
1.2561082 1.2754242 1.2730324 1.2558393 1.2350419 1.2427518 1.2468706 1.287831
1.2771983 1.2748524 1.258943 1.2281332 1.256061 1.2571923 1.2373176 1.2808039
1.2480563 1.2754275 1.2510619 1.2869318 1.2580738 1.2391034 1.2810313 1.2509447
1.2584896 1.24789 1.2521312 1.2435124 1.2712288 1.2519675 1.2504619 1.2417334
1.2440311 1.2796146 1.2403046 1.286547 1.2726586 1.2627532 1.2430019 1.2285398
1.2253382 1.2716515 1.2697865 1.2597482 1.280352 1.2854875 1.2546071 1.2281644
1.2879193 1.2481533 1.2571797 1.2266932 1.236582 1.2780493 1.2585088 1.2389736
1.2497103 1.2480724 1.2230805 1.2211629 1.2342145 1.2497853 1.2231297 1.260729
1.2678802 1.253911 1.2483256 1.255339 1.2563299 1.2549686 1.2486721 1.2558217

ln.bias f4 [128]
00000000: 2784 83be 9379 7d3e 1558 82be b217 8f3e
00000010: e278 843e 5081 88be c992 7cbe f76b 873e
00000020: 42f9 85be b069 823e 64bc 82be b09f 84be
00000030: a852 88be 0a80 81be 5acb 803e 3ad2 7dbe
00000040: 7044 7abe 1997 843e 9f04 80be e16e 88be
00000050: e23b 7ebe 3f61 883e 15e9 913e 0800 583e
00000060: 0024 833e 2af3 743e 6df8 84be 2170 8cbe
00000070: 1d14 833e 4e21 8d3e 48f2 823e 33ba 8d3e
00000080: 5240 8abe 0215 803e 977b 6fbe 78a0 87be
00000090: c1f1 7f3e 4d66 83be 06b0 773e 3561 883e
000000a0: 3590 753e d6b4 8a3e 77da 81be a932 813e
000000b0: 2bb9 8abe e86d 86be a4bd 7e3e fd46 80be
000000c0: b2c3 8a3e 0d87 883e 9cc5 7fbe 87fc 80be
000000d0: 0233 73be b4c9 79be 408a 7ebe 7a80 85be
000000e0: 8b0f 81be c28f 873e 1dfe 8cbe 244f 883e
000000f0: 5993 803e 69c4 80be 6ff3 7fbe 4a8c 8d3e
00000100: 3d45 863e c9ef 863e e927 863e 62ed 803e
00000110: 9bdf 823e 86a5 80be 5865 7b3e 676f 8ebe
00000120: 0755 813e cb71 883e c0ec 803e 05d7 8f3e
00000130: 0d35 81be 2751 7b3e 5f5f 8e3e 038a 82be
00000140: 6163 7cbe 4af5 7fbe cae5 7e3e 070b 843e
00000150: 84bf 873e a189 833e 3e5a 80be 48cd 843e
00000160: 93bf 833e 31f5 8dbe 7d28 81be 932c 903e
00000170: e748 873e 5d6b 863e 352c 82be 8856 7cbe
00000180: b9b5 72be 8690 893e 873c 853e 2bc6 77be
00000190: 6568 893e c68a 8e3e 25ce 80be a4ce 79be
000001a0: 98de 88be 2e1b 7fbe 839b 85be 3f9d 773e
000001b0: 112e 833e 681f 833e becf 823e cb02 853e
000001c0: ae78 7abe 3f67 803e 8b4e 843e bfd4 773e
000001d0: c135 78be e2c1 85be 3e45 803e 894f 85be
000001e0: 35c4 87be 7291 7b3e a567 7c3e 7ed6 823e
000001f0: 6640 82be 58de 85be c294 843e 52db 87be
-0.25686762 0.24753408 -0.25457826 0.27947766 0.25873476 -0.26661158 -0.24665369 0.26449558
-0.2616673 0.25471258 -0.25534356 -0.25903082 -0.26625562 -0.25293 0.25155145 -0.24787226
-0.2444017 0.25896528 -0.25003526 -0.26647094 -0.24827531 0.26636693 0.2849814 0.21093762
0.25613403 0.23920885 -0.25970784 -0.27429298 0.25601283 0.27564472 0.2557547 0.2768112
-0.27002198 0.25016028 -0.2338699 -0.26489615 0.24994566 -0.25663987 0.24188241 0.26636663
0.23980792 0.27091092 -0.25361988 0.25233963 -0.27094397 -0.26255727 0.2487703 -0.2505416
0.2710243 0.26665536 -0.24977726 -0.25192663 -0.23749927 -0.2439335 -0.24857426 -0.26074582
-0.2520717 0.26476866 -0.27537623 0.2662288 0.25112417 -0.2514985 -0.24995206 0.27646095
0.262247 0.26354817 0.26202324 0.2518111 0.25561222 -0.25126284 0.24550378 -0.27819368
0.25260183 0.26649317 0.25180626 0.28093734 -0.25235787 0.24542676 0.27807137 -0.2549592
-0.24647285 -0.24995914 0.24892345 0.25789663 0.26513302 0.2569094 -0.2506885 0.25937867
0.25732097 -0.2772613 -0.25226203 0.28159007 0.26422808 0.26253787 -0.25424352 -0.24642384
-0.23702134 0.26868075 0.2602274 -0.24196689 0.2683746 0.2784025 -0.25157276 -0.24395233
-0.26732326 -0.24912712 -0.2609521 0.24181078 0.25621083 0.256099 0.2554912 0.25978693
-0.24460098 0.2507877 0.25841174 0.2420225 -0.24239255 -0.26124483 0.25052828 -0.26037243
-0.26516882 0.24567202 0.24648912 0.2555427 -0.25439757 -0.26146197 0.25894743 -0.26534516
