model.pth (torch, 76187 bytes, 12 tensors)

fc1.weight f4 [64, 3]
00000000: 1ab7 a33e ea1e f1be ca17 10be efd3 b1be
00000010: b11f be3e 00f4 abba c251 8d3e 8a32 da3e
00000020: d638 6bbe 696a fd3e f245 9c3e c4bd 64be
00000030: 6832 3fbe a07b 133f 9888 b2bd 0532 4fbd
00000040: 7ceb e1be 6015 0e3e ae19 d0be 2e62 113e
00000050: 12f0 07bf bfc4 70bc 2574 6a3e 80ca b4bc
00000060: 3440 d13e 23e4 273d 4ce7 d7bd 20cc fa3e
00000070: 50f4 19ba 5cc7 0d3f f75a a73c 4ad8 223f
00000080: a97d 86be f90e 36be 09a9 83be 4a43 08bf
00000090: a41f 9bbe 82c7 fd3e ccba 6bbe 0eab c43e
000000a0: 5956 e0bd 262c 06bf 1c06 7d3e 08a8 eabd
000000b0: 74ea 003e ed37 e43e 3e35 4e3e 2e0d b4be
000000c0: cb2a 0a3f 6f82 223d f63e d13e 85cb d63e
000000d0: 1fc1 533e 3477 013e 5e45 133f 7e83 813e
000000e0: 9fbc 8abe ff8c 09bf 1c11 dfbd e028 bf3e
000000f0: c52e 093f b729 1e3d a4f1 ce3e b71e 8e3e
00000100: 8c14 d93e ca4e c5be 4d1d 953e 7f47 f2be
00000110: c4d5 0bbf 83f8 bf3d 1a6c 98be cc02 5a3e
00000120: 51c4 b23e f980 a8be 2530 cabe bdc9 04bf
00000130: 7575 91be 5806 12bf 34c4 5dbe 9acb 0a3f
00000140: 11bb ecbe 62b9 a3be 64a2 14bf 11ae b8be
00000150: f38d 8abe 7168 9cbe 6e24 06be 65e9 5dbe
00000160: 2e63 cf3d c278 a93e f4e0 3d3e 9046 023d
00000170: c4ff 03be 3727 00bf 2bcf 67be 50ad f83e
00000180: e676 f73e 65f2 5a3e b010 08bd b30c ba3e
00000190: 1fc1 a73e 907f f43e 14de 663c 7200 503e
000001a0: 3012 b23e 3803 bfbe eae9 01bf 38b3 b9be
000001b0: 00cf 8bbe a839 353e 221a c73e f497 d4bd
000001c0: 763e 2e3e 1672 e1be 8054 4bbe 6230 db3e
000001d0: 14fd 5e3e 3f4d 783e 2dd6 03bf 2e72 73be
000001e0: ae6c 1d3e b5a3 f5be 2071 01bf 60c6 e5bc
000001f0: 346e 1d3e 3c6c bf3e 6260 053f e676 15bf
00000200: f625 4ebe 8834 15be 8a43 cb3e fc60 babe
00000210: de8e e13e 8ac4 a1be 4ca8 f53e f0c9 453f
00000220: cf4b dfbd 10c8 e2be a81d a13e 69a9 5dbe
00000230: 5bff 0cbf db85 2b3e 7909 073f f0e5 193e
00000240: 1fc3 9a3e 0288 a4be 66ee ebbe 0f2e 003f
00000250: 90b4 5dbe ea97 b9be 056e 383e 18e9 cbbe
00000260: f0a6 dd3e 00c0 81be 4b68 cb3e d28f 1cbe
00000270: f69f 91be 4386 a13e c0d2 e93e 4748 97bd
00000280: b1a5 a8be 50db cf3e 2f03 f63e 492f a3be
00000290: 06d4 eebe afdf 21bf a004 afbe a0c6 c83c
000002a0: 37a5 0cbf d088 d53e a0d3 92bc f745 383e
000002b0: d13b 1d3e a8ea 783e 2b74 9dbe a4d0 f53e
000002c0: e425 f03e 8b53 b53e b69b 643d 5291 6dbe
000002d0: c879 e63e 7d65 193f 78a9 7ebe 770a bc3e
000002e0: 87ab dbbe b88a ffbe 6854 ed3d d8b4 40be
000002f0: 746a a23e b1cb d2be 2bea f83e 6e1d 043f
0.31975633 -0.47093898 -0.14071575 -0.34732005 0.37133554 -0.0013118982 0.2760144 0.42616683
-0.229709 0.49495247 0.30522114 -0.22338015 -0.18671572 0.5761051 -0.087174594 -0.05058481
-0.44124973 0.13875341 -0.40644592 0.14197609 -0.53100693 -0.014695345 0.22895868 -0.022069216
0.40869296 0.040989053 -0.10542163 0.4898386 -0.0005872892 0.55382323 0.020429118 0.6361128
-0.26267746 -0.17779149 -0.257149 -0.53227675 -0.30297577 0.49566275 -0.23020476 0.38411754
-0.109539695 -0.52411115 0.24709362 -0.11457831 0.12589437 0.44573918 0.20137498 -0.35166305
0.53971547 0.039675172 0.40868348 0.41952148 0.20679139 0.12643129 0.5752772 0.25295633
-0.2709703 -0.5373077 -0.10891935 0.37335873 0.5358699 0.038614 0.40418732 0.2775781
0.4239849 -0.38536674 0.29123917 -0.47320172 -0.54623055 0.09373572 -0.29769975 0.2129013
0.34915403 -0.32910898 -0.39489856 -0.5187033 -0.28409925 -0.5704093 -0.21656877 0.5421692
-0.4623647 -0.31977373 -0.5806029 -0.36070302 -0.27061424 -0.30548432 -0.13099834 -0.21671064
0.10126339 0.33099943 0.18542844 0.031805575 -0.12890536 -0.5005984 -0.22637622 0.48569727
0.483329 0.21381529 -0.03321904 0.36337814 0.32764527 0.47753572 0.0140910335 0.2031267
0.347795 -0.37307143 -0.5074755 -0.36269546 -0.27306366 0.17697775 0.38887125 -0.10380545
0.17016014 -0.44032353 -0.19856453 0.4281035 0.21776229 0.24248217 -0.5149868 -0.23774025
0.1537349 -0.4797646 -0.5056324 -0.028048694 0.1537407 0.37387264 0.52100194 -0.5838455
-0.20131668 -0.1457082 0.39699966 -0.36402118 0.44054312 -0.3159526 0.47979963 0.7726126
-0.10903131 -0.4429326 0.31467938 -0.21646656 -0.5507714 0.1675028 0.5274883 0.1502912
0.3022699 -0.32135016 -0.4608032 0.5007028 -0.2165091 -0.36248714 0.18010719 -0.39826274
0.43291426 -0.25341797 0.39728007 -0.15289238 -0.28442353 0.31547746 0.45668602 -0.07386833
-0.32938913 0.4059701 0.48049304 -0.31872013 -0.46646136 -0.6323194 -0.34183216 0.024508774
-0.549396 0.41705942 -0.017923176 0.1799544 0.1535485 0.24308264 -0.30752692 0.48010743
0.46903908 0.354153 0.05581256 -0.23199967 0.45014787 0.59920484 -0.24869335 0.36726734
-0.42904302 -0.49910522 0.11588365 -0.18818986 0.31721842 -0.4117103 0.48616156 0.51607406

fc1.bias f4 [64]
00000000: b731 d73e f499 f73e ed3b 6abd 0e6c 8a3d
00000010: ea46 f5be d1c1 bbbe 5f85 02bf a125 cd3e
00000020: 95d7 513e 5cec a3bd 0d48 793e d825 d63e
00000030: d465 f7be 7cd9 bdbe 3c08 93be f4fe 613e
00000040: 6170 ebbe 00ea df3d 2b9c 0a3f a789 5d3e
00000050: fc29 933e d1b3 f7be dcfa e33e ab92 8e3d
00000060: fb53 e03e 8cf7 a33e 01b7 c5be 4f00 aa3c
00000070: 7482 a9bb 9b71 813e 683e d4be 2ffd 7bbe
00000080: cde6 e93e e397 00bf 9893 b0be dd2f 78be
00000090: c92d 063f 6ed8 923e 463e 2bbe fd2c f0be
000000a0: 894c ec3d 78fa c6be 3471 c4be db0b 273f
000000b0: da63 983e 9088 c13e 14c7 953d 83c9 2bbe
000000c0: 56ee a23e c818 1cbf fb5c 153e a0c4 a93e
000000d0: 9ad7 673d a387 12bf b7a5 19be b1e5 10be
000000e0: ffd4 333d 71eb 1abf 9685 56bd 6e4d 78be
000000f0: 2fde d6be f124 d43e 14ed 0cbf 51f3 ebbe
0.42030117 0.48359644 -0.057186056 0.06758891 -0.47905666 -0.36671308 -0.5098476 0.4006777
0.20492394 -0.08004066 0.24343891 0.41825747 -0.48319876 -0.3707999 -0.2871722 0.22069913
-0.45984176 0.10933304 0.54144543 0.21634541 0.2874297 -0.48379377 0.44527328 0.069615684
0.43814072 0.320248 -0.38616183 0.0207521 -0.005173022 0.25281987 -0.41453862 -0.246083
0.456839 -0.5023176 -0.34487605 -0.24237008 0.5241361 0.28680748 -0.16722974 -0.46909323
0.115380354 -0.38862967 -0.38367617 0.65252465 0.2976368 0.377995 0.07313362 -0.1677609
0.3182246 -0.60975313 0.1458625 0.33157825 0.056602098 -0.57238215 -0.15004621 -0.1415012
0.0439043 -0.60515505 -0.05237349 -0.24248287 -0.41966388 0.41434434 -0.5504925 -0.46084073

bn1.weight f4 [64]
00000000: 9d54 743f 113b 183f d238 833f 0120 333f
00000010: 6b4c 803f ff3d 933f 2bdf 823f d6bd e13e
00000020: 3ab2 703f 64f8 8c3f b741 823f afaa 453f
00000030: eea6 903f a7ba 803f 3d5c 8d3f fc98 563f
00000040: c839 4e3f a077 593f 607c 613f c2aa 5c3f
00000050: f882 223f 411a 663f 0543 5a3f d4c8 683f
00000060: 4cff 4c3f 8bdb 673f 50da 883f c57d 8a3f
00000070: f36e 6d3f e075 393f 0000 803f 869a 6f3f
00000080: e2ab 563f a8a7 493f 85d9 813f 81f0 653f
00000090: d5ef 1d3f 4ea7 1c3f dbe3 913f 101f 793f
000000a0: 4170 793f 0000 803f 7363 893f 4f88 ee3e
000000b0: dfde 703f d23f 623f 278d 823f b675 7c3f
000000c0: 20f3 293f 0bc0 7a3f 7df4 723f 40b6 323f
000000d0: 214c 643f e929 ae3f c661 7e3f f450 483f
000000e0: 0195 743f 9398 873f 1918 893f b626 6a3f
000000f0: e057 7e3f 88a4 693f 0000 803f 3bfc 8a3f
0.9544161 0.5946513 1.0251715 0.6997071 1.0023321 1.1503295 1.0224355 0.44090146
0.9402195 1.1013303 1.0176305 0.7721357 1.1300943 1.0056962 1.1043774 0.83827186
0.8055692 0.8494816 0.88080406 0.86198056 0.6348109 0.8988381 0.85258514 0.9093144
0.8007705 0.9056937 1.0691624 1.0819632 0.9274742 0.7244549 1.0 0.9359516
0.8385602 0.7877145 1.0144507 0.89820105 0.6169408 0.61192787 1.1397661 0.9731302
0.9743691 1.0 1.0733474 0.4658837 0.94090074 0.8837863 1.0199326 0.9861711
0.66386604 0.97949284 0.9490431 0.6980934 0.89178663 1.360654 0.9936794 0.78248525
0.9553986 1.0593437 1.0710479 0.9146532 0.99352837 0.9126668 1.0 1.0858225

bn1.bias f4 [64]
00000000: 26cf 9abd 8663 0ebc 5f74 b2bc a50b f9bd
00000010: fe7f 4cba fa8d 943d 855f 24be 5113 ea3d
00000020: e4ce fd3c 1a91 4f3e 98f7 603d da21 c0bc
00000030: c8ce 0c3e 36b1 d33d afea a73d da4e fb3d
00000040: 66d3 403e 973f f3bd 9e40 89bd 3094 d2bc
00000050: 2794 dc3d 040f 6a3e 03c7 d13d 708e 8eba
00000060: baa6 9e3e 9e68 23bd 16be c83d 4c9a 7ebe
00000070: 6a97 7bbd d947 8f3d 234d 89bd bf7d 273e
00000080: 12bb 62bd fcab 273e ef43 a83c 4e4c 42be
00000090: ae8b 9f3c bae0 1b3e 3b81 663d 0124 bdbd
000000a0: 62a4 383e b80d 8bbc f2fb aabd 89af 4dbe
000000b0: 9e2d 62bd 6184 b9bd 3e47 8d3d 34ae f1bc
000000c0: 286e 5c3c 9d30 82be 0721 4dbd 0228 253d
000000d0: 8bb7 1c3d 7e67 683e 9e91 41bd 3474 d6bd
000000e0: 08cf c3bd b4d2 393d 690e a93b 4bef afbb
000000f0: 7b36 c1bc d7dc 68bd 94ec fc3d ba36 f9bc
-0.07559042 -0.00869072 -0.021784006 -0.12160424 -0.0007801055 0.072536424 -0.16052063 0.114294656
0.030982442 0.20270196 0.054923624 -0.023453642 0.13750756 0.10336535 0.08199059 0.12270899
0.18830642 -0.11877363 -0.06701778 -0.025705427 0.10770445 0.2285729 0.102430366 -0.001087619
0.30986577 -0.039894693 0.09801881 -0.24863547 -0.061423697 0.06996126 -0.06704166 0.16356562
-0.055354185 0.163742 0.020540206 -0.1897442 0.019475784 0.15222445 0.056275588 -0.09235383
0.18031457 -0.016974315 -0.08348836 -0.20086493 -0.055219285 -0.090584524 0.06898354 -0.029502012
0.013453998 -0.25427714 -0.050080325 0.040321358 0.038260978 0.22695729 -0.047258012 -0.10471383
-0.095609725 0.045366958 0.0051591885 -0.005369102 -0.023585549 -0.056851234 0.12349811 -0.030421603

bn1.running_mean f4 [64]
00000000: b267 f03e 5cf3 0f3f 34bf 623e f0de a13e
00000010: a8bd d43d 3b46 243d ae81 953c 829d dd3e
00000020: 454c a03e f509 393e 26d1 f33e 5688 c43e
00000030: 7c98 ae3d 07a2 1b3d b5ee a13c 04f6 bc3e
00000040: a003 873d c068 923e caa2 2a3f 662f a23e
00000050: dbbf d73e 1c86 7e3d b5ba f63e abab 1c3e
00000060: 4186 ee3e 6232 c23e edbc f73d d87d 723e
00000070: 3e19 0a3e 579a 8a3e 0000 0000 1ff6 d23d
00000080: 13d7 0f3f d955 413d aaf5 883a bcb6 fb3d
00000090: 41a8 093f 85ee 9e3e 5e54 173e ed2f 7f3d
000000a0: 1159 7e3e 0000 0000 42cd 1f3e f663 343f
000000b0: 4d1c c63e 5c98 113f 26fb 423e b1f9 4e3e
000000c0: 45cd b93e 073c 0d3d 7fa3 773e 3b27 e03e
000000d0: 3542 623e cc97 d039 3f25 2b3e 7d05 463e
000000e0: 2157 a53e 0400 0000 f657 743e 24af 763d
000000f0: e8e2 373e ada4 ef3e 0000 0000 f712 d83d
0.46954113 0.5623071 0.2214325 0.316154 0.103877366 0.04010604 0.018250313 0.4328423
0.3130819 0.18070205 0.47620505 0.38385266 0.08525178 0.03799632 0.019767145 0.36906445
0.06592488 0.28595543 0.66654646 0.31676787 0.42138562 0.062139615 0.4818932 0.15299861
0.46586803 0.37929064 0.120965816 0.23680818 0.13486192 0.27070877 0.0 0.1030085
0.5618755 0.04720101 0.001044919 0.12290713 0.5377236 0.3104135 0.14778277 0.062301565
0.24838664 0.0 0.15605643 0.7046503 0.38693467 0.56873107 0.19041118 0.20212437
0.3628942 0.034481075 0.24183463 0.4377993 0.22095568 0.0003978595 0.16713427 0.19338031
0.32293037 6e-45 0.2386168 0.06022562 0.17957652 0.46805325 0.0 0.10550492

bn1.running_var f4 [64]
00000000: ccaa 4d3e 0b40 453e ec1e 883d 163d f63d
00000010: cbd4 073d 57f6 043c 7122 853b fa83 3f3d
00000020: 5638 c03d 4b0d 803d 3c8a 3e3e f677 8c3d
00000030: 0281 fd3c decd 083c 194a 4d3b f974 f53d
00000040: 9437 953c 58be b63d e294 883e cd0c 063e
00000050: c750 2a3e eb82 7d3c b5df 4a3e 814e 143d
00000060: 264a 293e b968 283e 9449 2c3d b0f9 ec3d
00000070: 411f 2e3d c0b2 3d3d 0400 0000 62cc 163d
00000080: 016b 413e d6be 543c ba2d eb37 e154 633d
00000090: fc8d ce3d 387d 103d 5b51 463d e8f4 b63c
000000a0: e2b4 c23d 0400 0000 fded c53d abfb 253e
000000b0: 3a0d 2d3e f1ef ad3e fdee 753d 1459 6b3d
000000c0: e4f9 fa3d 46eb 2a3c 013c a83d 4cbd 113e
000000d0: c81f 9b3d 853f 8e37 0972 9b3d 41e1 cc3d
000000e0: 3d21 353e 0400 0000 fef8 d63d 7377 553c
000000f0: c99a 973d b0c5 4d3e 0400 0000 2ddb 423d
0.20084685 0.19262712 0.06646523 0.1202337 0.03316192 0.008115373 0.0040629436 0.046756722
0.09385745 0.062525354 0.1860742 0.06858818 0.030945305 0.008349864 0.0031324683 0.119852014
0.018214978 0.08923024 0.2667609 0.1309082 0.16632377 0.015473108 0.198119 0.03620768
0.16532192 0.16446199 0.042062357 0.115710616 0.042510275 0.046313047 6e-45 0.03681601
0.18888475 0.012984952 2.8035476e-05 0.05550087 0.10085675 0.035275668 0.04841743 0.022333577
0.09507157 6e-45 0.09664533 0.16209285 0.16899577 0.33972123 0.06004237 0.057458
0.12254694 0.01043207 0.0821457 0.14232367 0.07574421 1.6957298e-05 0.0759011 0.10003901
0.1768846 6e-45 0.1049671 0.013028967 0.0740257 0.20094943 6e-45 0.047572304

fc2.weight f4 [256, 64]
00000000: 5931 d5bb 5e2a bb3d 6bac a0bd 607f aa3d
00000010: 27c0 ddbd aca9 10be b096 00be 104d 9c3c
00000020: 0087 d4bc 4f3a 8c3c cc83 debc 4aba 0ebd
00000030: 3528 d8bc a596 b2bd 81f3 17be 60aa b23d
00000040: 5043 89bd b383 0abd dbeb 513d 1ad8 033e
00000050: d086 1abc 3cf7 04be 9887 a33b edf0 30bd
00000060: 3cda eebd 4476 993c 56d9 9d3c f0e1 1c3e
00000070: 935c 0abd be56 b9bd 0134 873d 76a8 7a3d
00000080: 413b 65bd f6ee cc3d e572 74bc c888 11bd
00000090: 8a94 74bd 189a cdbb 8633 5a3d dc4d a0bd
000000a0: f8f7 d63c 7c37 c7bd a316 283e 2eea 9fbc
000000b0: eb9b e1bc 1195 35bd 81ad 3b3e a54d 60bd
000000c0: 5ef1 c03c 422e c2bc 91bd 323d fc97 783d
000000d0: a690 943d 3532 833d f755 473e f8f6 6f3d
000000e0: 0358 4a3d f360 d23d 3b43 233e ba71 e63d
000000f0: 73b5 bd3d 0e0d 483d adee 563d 6858 793b
00000100: 67c7 8bbd 26fe 03bd eb5d c83c bf22 e33d
00000110: 0149 00bd b4b3 89bd 7ba9 5f3d 51c7 6fbc
00000120: b5f4 943b 46c5 9bbd 14b4 dfbc 73b8 1abe
00000130: 8d64 06be fcc5 163b 5a2f 60bd 2c99 ddbd
00000140: 52db a1bd 727d dabd 4e69 b63d 31b6 9939
00000150: cf2a 94bd ca80 ecbd 37b8 02bd 75c9 cf3c
00000160: 7e54 56bd 56ba 663b 0df1 20bd edd8 fb3c
00000170: 8b7a 1f3e 2940 1abd 0cd6 813d 1d75 963d
00000180: ca30 113e c3e8 0ebd 4c21 66bd 44a1 b6bc
00000190: a0f2 07be db14 813b 43d8 c5bb 950a 3bbc
000001a0: 7543 2abd 186d 29bc 0931 c23d 1017 a6bd
000001b0: 3316 283e 3903 d73d eb3c 963c 0710 07be
000001c0: 79df a5bc 5fe3 3c3d 4ab0 7a3d ea11 953d
000001d0: 5ab6 38bd ed1a 083e 487e 26bd 70b7 5d3d
000001e0: e9cf 493e 66c6 a0bd 5ed1 e43d a4ad ad3d
000001f0: d4bb 4f3e 6aae 60bd 7d2f de3d b89a a93c
00000200: 5919 0c3d 6ca9 37bd ca1b 46ba 7e26 383d
00000210: d7d8 253c 4e8f 68be aaeb d5bd 1333 f4bc
00000220: 9a10 243c 44f6 1ebd 9093 4cbc 65d0 d9bc
00000230: 265d 02be 1e9a 3bbd ae03 3a3d 04e5 a63d
00000240: 78b5 12bd 6f19 9bbd 9c68 7dbd 86f3 dbbd
00000250: 1f43 513e 4868 013e 4cd5 bebd 144f 3bbd
00000260: fd3f a3bd 7ef9 afbd 0559 46bd 6c86 463e
00000270: a142 cd3d 5e86 423e abc7 82bc 9ec7 0a3c
00000280: a30d 54bd 9376 033e ee0b 11be 503f 3c3c
00000290: 17c0 1c3d ea3f b53d 3c05 b83d a9a5 2dbe
000002a0: 481e 3c3e ebcb eabd e552 ec3d e27e f8bd
000002b0: 2997 48bd d3ec 933d dbed c2bd 4825 0bbd
000002c0: 3754 543d 76c9 8f3d 7f11 933d d9dd 65bd
000002d0: 0a50 ac3d 2aff 0f3d 1573 043e 0c54 163d
000002e0: 9656 34bd 51cd 32bd 165e 743d 66fe 2bbe
000002f0: a160 14bd e986 8f3d a254 f93d 1206 ef3d
00000300: 2e11 70bc 5fe7 12bc 9d1f c03d 06df 1fbe
00000310: c45a fe3d 7bd6 d6bd 2cd1 e8bc 1f32 c7bc
00000320: 7ace 14b8 da12 e2bd 0c42 16bd 1c27 193b
00000330: cb23 93bd 03a9 e33c 7368 5d3d 54a0 6bbc
00000340: 5f05 3d3d 6047 14be 2403 eb3c 8256 b8bc
00000350: d4a4 303e ed08 71bc 957d eb3c f57a 52bd
00000360: b131 fdbd 1291 ffbc a07d 7cbd 6ceb 6d3e
00000370: 3eb3 bc3c bf6f 28bd 83a1 86bd 656a b83d
00000380: 27ef d43d 20e5 73bb b32b 8dbd 657c 11bd
00000390: 502e 6bbc 0d5a b93d 64d6 1d3e 1425 10be
000003a0: bc51 8cbd 912c fabd 43d1 c03d 3eef 0bbc
000003b0: 58bc bd3d 8499 33bd 7ede b73c f500 99bd
000003c0: c07d 083e df08 a93c 7127 973d e632 0bbc
000003d0: f54c a4bc 5923 063e 5598 b6bc f6bc 17be
000003e0: ae20 343d f4d2 b13c 6aa4 27be 0a85 9cbc
000003f0: 1140 f53d 11b2 e0bd 8caa ff3d 6fd3 913d
-0.006506127 0.0913894 -0.07845386 0.08325076 -0.10827666 -0.14127225 -0.12557483 0.019079715
-0.02594328 0.017117647 -0.027162455 -0.034845628 -0.02638636 -0.087201394 -0.14838983 0.08723903
-0.06702292 -0.033817004 0.05125032 0.12875405 -0.009431556 -0.12984937 0.0049905293 -0.043198515
-0.11662719 0.018733151 0.019268673 0.15320563 -0.033779692 -0.09049748 0.06601716 0.061195813
-0.055964712 0.10006516 -0.014919971 -0.035530835 -0.05971197 -0.006274473 0.053271793 -0.078273505
0.026241288 -0.0972738 0.16414885 -0.019520845 -0.027540168 -0.044331614 0.18327905 -0.054761548
0.023552593 -0.023703698 0.043637816 0.06069182 0.07254152 0.064060606 0.19466387 0.058585137
0.04940034 0.10272398 0.15943615 0.1125216 0.09263124 0.048840575 0.052473713 0.003804708
-0.06825142 -0.032224797 0.024458846 0.11090612 -0.031319622 -0.06723729 0.05460499 -0.014634923
0.004545773 -0.07605986 -0.027307548 -0.15109424 -0.13124295 0.0023006191 -0.054732658 -0.10820231
-0.0790316 -0.10668458 0.08906804 0.00029318177 -0.072347276 -0.11548002 -0.031913962 0.025364617
-0.05232667 0.003520628 -0.039292384 0.030743087 0.1557409 -0.037658844 0.06339654 0.07346556
0.14178768 -0.034889948 -0.056184098 -0.022293694 -0.13276148 0.0039392537 -0.0060377433 -0.011416097
-0.04156824 -0.010340951 0.09482009 -0.081098676 0.16414718 0.104986615 0.018339595 -0.13189708
-0.020248162 0.046115275 0.06120328 0.072788075 -0.04509578 0.13291521 -0.040647775 0.054130018
0.19708218 -0.078503415 0.11172746 0.08480385 0.20286494 -0.054853834 0.108489014 0.020703658
0.03420386 -0.044839308 -0.00075572415 0.044958584 0.010122499 -0.22710916 -0.1044534 -0.02980951
0.010013724 -0.038809076 -0.0124863535 -0.026588628 -0.12730846 -0.045801274 0.045413665 0.0814915
-0.035817593 -0.075732104 -0.06186734 -0.10739808 0.20435761 0.12637436 -0.09318027 -0.04572971
-0.07971189 -0.08592509 -0.04842474 0.19387215 0.10022474 0.1899657 -0.01596435 0.008470444
-0.051770817 0.12838201 -0.14164707 0.011489704 0.03826913 0.08850081 0.089853734 -0.16957726
0.18370926 -0.114646755 0.115392484 -0.12133576 -0.048972283 0.07222905 -0.095180236 -0.0339711
0.051838126 0.070208475 0.071810715 -0.056119774 0.08413704 0.035155453 0.12934525 0.036701247
-0.044027887 -0.043652836 0.05966004 -0.16796264 -0.036224965 0.07008154 0.121743456 0.1167108
-0.014652533 -0.008966296 0.0938103 -0.1561242 0.12419656 -0.10490128 -0.028420053 -0.024315892
-3.5478246e-05 -0.11038752 -0.03668408 0.0023369258 -0.07184561 0.027790552 0.05405469 -0.014381487
0.0461477 -0.14480352 0.028688021 -0.022502188 0.17250377 -0.014711601 0.028746406 -0.051386792
-0.123629935 -0.031197105 -0.061643243 0.23234338 0.023034688 -0.041122194 -0.06573775 0.09004668
0.10397177 -0.0037215427 -0.068931006 -0.035519022 -0.0143543035 0.09050379 0.15413815 -0.14076644
-0.06851527 -0.122155316 0.094149135 -0.0085409265 0.09264439 -0.043847576 0.02244496 -0.07470886
0.1332922 0.020634113 0.0738057 -0.008496022 -0.020056227 0.13099422 -0.022289434 -0.14818177
0.04397648 0.021707036 -0.16371313 -0.019106407 0.1197511 -0.109714635 0.12483701 0.07120406

fc2.bias f4 [256]
00000000: 2300 f2bd c653 9b3d a555 4dbd 5558 36bd
00000010: b8be 823d 10a9 c93d 2b03 383d 004a 963d
00000020: ce0c 823c ec47 9bbd 74b4 1cbc 27b9 b33d
00000030: 1adc febc 9d1f 653d e01b bfbb eb1b b33d
00000040: 66d8 993d c9b5 9f3d ca26 c23d ad7c 84bc
00000050: 0893 663a caaa c8bc bb9e d33c 4fcf d0bc
00000060: 94fb 9bbd cd21 b03d 2854 513c 39eb 55bd
00000070: 8b0d f43d eae0 c7bc ca39 8c3b ee3c 42bc
00000080: 66cb cd3d 213b bebd 3b72 eabc 70b1 863d
00000090: 45a6 f8bd 389a 8d3d 6a21 a13c cf7a 03bd
000000a0: 0a47 53bd 0098 22be 4585 ce3d ed11 f43d
000000b0: 640f 00be 4913 09be 340c 40be c3e3 e3bd
000000c0: 5085 473d 90b8 9bba d9b8 c3bd f22f 103d
000000d0: 0d01 1e3e de71 003e 4a12 533e b737 683d
000000e0: 9817 3a3e 9742 cebb a332 bb3c 57e8 2e3a
000000f0: bf96 40be ffb9 5ebd 4c3e a63d abe1 bcbc
00000100: 7c82 81be ace1 753e fd96 19be 147f 9b3c
00000110: 9c15 0abe dbd0 09bc d1fb 143e 4567 4d3e
00000120: 2022 7ebd 5084 2fbe 2b57 9d3d 8121 ca3d
00000130: 4dc9 15bd f08b 4bbd 2799 a33d 8c94 2b3e
00000140: 4534 ce3d 43f9 433e 7b95 6dbd c992 b03d
00000150: 533b 7a3d f3a4 783d c7d0 8d3c f412 cabe
00000160: 39d5 433d 9e56 6b3e e84a 323e 1805 e8bb
00000170: 9add 5d3e 503e 28be 22b3 82bb faae 8f3c
00000180: 05e3 adbc 36e1 ddbd c224 183d 78ac 6bbe
00000190: 13da 483e 5060 a7bd 3d6e 3fbe c48a 7d3d
000001a0: 4b8a 353d 3d5f 693d 5fa4 c0bd cf4e c7bd
000001b0: b08e e0bd cb02 193e a267 ed3d 69c1 36bc
000001c0: 9f06 8cbd 8133 163e c7ce 8abd 4ad2 ebbc
000001d0: df91 06be a7fa 8c3d 89e9 f2bd 7d93 073e
000001e0: 18ca a03d 9b75 703d c232 1ebe 3819 313d
000001f0: df50 8c3b b37d 2bbb 23fb 14be cea4 39bd
00000200: ecb5 373c 374c 183e dae8 2a3e eabc 1c3e
00000210: 267b abbd 37b4 5f3c 4109 8c3d 78ee be3a
00000220: 84a8 863c 22a2 b1bd d17b 303e 81ee 01be
00000230: 9016 a1bd 8f6f ca3d 477e acbc f079 8cbd
00000240: 21eb acbd be0b 433d e97c 3cbd a8fd 0b3e
00000250: 13f7 d83c 4886 84be cd83 cbbc b965 c0bd
00000260: 7f01 d43d 376d 53bc cabb 12be b717 873d
00000270: 0b37 0abd e807 cb3d 41c5 5fbe f1a4 e7bd
00000280: 0fe5 b53d 0d33 9d3d 2dd7 d53c f5ae 093d
00000290: 839e 6b3e e2df 47bd 9637 2bbe a342 45be
000002a0: 2c2e 08be 2b84 9ebd 665c 763d 5d1b 49bd
000002b0: b347 7b3d d3f4 78bd 9784 ab3d 1f0c 7fbd
000002c0: 50f0 213e 70d9 973d dfe2 e13d 441b 023e
000002d0: 36dd 94bd 283f b4bd ddb4 ff3b f635 9e3d
000002e0: 385f 033e c2ee 65bb f51d 123e 0db3 98bd
000002f0: 5351 703d ec3c 2dbe 33f8 9bbd e629 b83d
00000300: 2c8d 82be d668 7a3e 6303 01bd cadb 5abd
00000310: 2025 9d3c a592 263d 8b5e 103e 01ee d33d
00000320: a4a0 4a3d 27ce 393e 2e42 5cbd e311 a23d
00000330: 6d69 fe3d e6d9 bbbb 11a8 65be 8ac6 653c
00000340: c990 19be c193 27bd 2328 10be 32b3 e1bd
00000350: 0e6a 5ebd 0ac9 53bd 7e99 0cbd d58b eebc
00000360: ed60 cc3d 24e3 7fbd b643 8c3e 93e2 4a3e
00000370: 5622 37be 46b1 0bbc 7069 b7bd 97e4 82bb
00000380: 6bd8 3e3d d0a1 14be f62f 853d 2a16 4dbe
00000390: 8406 a03d 6f3b bd3c afb2 923d 8a21 ce3d
000003a0: 938e b43d 6872 aa3d 478b 42bd 3ccb 0b3d
000003b0: 0f4a d93c 82aa 7e3d 9b6a 1fbe 7c26 cb3c
000003c0: f974 6d3d 2549 d2bd ede8 153c 9a90 d3bc
000003d0: 5798 80bc 1cd2 90bc bade e1bd 18d0 9d3d
000003e0: e9be d93d d969 25bd 89cd 323e dc5d 893d
000003f0: 5140 163c 360f 723d 601d 38bc fbbd 0b3d
-0.11816432 0.07584338 -0.050130505 -0.044517834 0.06384033 0.09846699 0.044924896 0.07338333
0.015875246 -0.075820774 -0.009564508 0.087755494 -0.031110812 0.055938352 -0.0058321804 0.08745559
0.07511978 0.07798345 0.09480055 -0.016172731 0.0008795713 -0.024495501 0.025832525 -0.025489477
-0.07616344 0.08600197 0.012776412 -0.05222628 0.119166456 -0.02439924 0.00427935 -0.011855347
0.10048561 -0.09288622 -0.028618922 0.06576812 -0.121410884 0.069141805 0.019669253 -0.03209954
-0.05158142 -0.15878296 0.10084013 0.119174816 -0.12505871 -0.13386263 -0.18754655 -0.111274265
0.04871112 -0.0011880565 -0.09556741 0.035201974 0.15430088 0.12543437 0.20612445 0.05669376
0.18173063 -0.006294559 0.022851294 0.00066721946 -0.18807505 -0.0543766 0.08117351 -0.023056826
-0.25294864 0.24011868 -0.14999004 0.018981494 -0.13484806 -0.008411611 0.14549185 0.20058925
-0.062044263 -0.17140317 0.076826416 0.098696716 -0.03656893 -0.049694 0.07988196 0.16755885
0.10068563 0.19138055 -0.058003884 0.08621747 0.061091732 0.060704183 0.017311467 -0.39467585
0.047810767 0.2298226 0.17411387 -0.0070806853 0.21666566 -0.1643002 -0.0039886395 0.01753949
-0.021226415 -0.10833971 0.03714443 -0.2301501 0.19614439 -0.08172667 -0.18694396 0.061899915
0.04432134 0.056975592 -0.09406351 -0.097318284 -0.109647155 0.14942472 0.11592032 -0.011154511
-0.068372004 0.14668085 -0.06777721 -0.028786797 -0.13141583 0.06883746 -0.118609495 0.13239856
0.07851046 0.058705907 -0.1544905 0.04323694 0.0042821015 -0.0026167452 -0.14548926 -0.045323186
0.011212807 0.14872824 0.16690388 0.1530644 -0.08373098 0.013653806 0.068377025 0.0014566919
0.016437776 -0.086735025 0.17234732 -0.12688638 -0.078656316 0.09884559 -0.021056307 -0.06859195
-0.08443285 0.04761862 -0.04601756 0.13670981 0.026485002 -0.25883698 -0.024843121 -0.09394402
0.10351848 -0.012904457 -0.14329448 0.0659632 -0.0337439 0.09913617 -0.2185259 -0.11310757
0.0888158 0.07675753 0.02610358 0.033614118 0.23009686 -0.048797496 -0.16720423 -0.19263701
-0.13298863 -0.07740053 0.06014671 -0.04909836 0.061347675 -0.060780358 0.08374899 -0.06226742
0.15814328 0.0741452 0.110296 0.12705714 -0.07268755 -0.088011086 0.007803543 0.07725136
0.12829292 -0.0035084938 0.1426924 -0.07456026 0.058671307 -0.16917771 -0.076156996 0.089923665
-0.2549833 0.24454054 -0.03149737 -0.053432263 0.019182742 0.040667195 0.14098565 0.1034813
0.049469605 0.18145047 -0.05377405 0.07913568 0.12422452 -0.0057327626 -0.22427393 0.014024386
-0.14996637 -0.040912393 -0.14077811 -0.11020507 -0.05430036 -0.051705398 -0.03432607 -0.029119411
0.099794246 -0.062472478 0.2739541 0.19812994 -0.17884192 -0.008526152 -0.089556575 -0.003994535
0.04659311 -0.14514852 0.065032884 -0.20027986 0.07813743 0.02309963 0.071629874 0.10064991
0.088162564 0.083226025 -0.047496106 0.034129366 0.026524572 0.062174328 -0.1556801 0.024798624
0.057972882 -0.102678575 0.009149772 -0.025825787 -0.015697641 -0.017678313 -0.1102881 0.07705706
0.10632116 -0.040384147 0.17461218 0.067073554 0.009170608 0.059096538 -0.011237472 0.034116726

bn2.weight f4 [256]
00000000: 49be 4b3d 3e42 453d 7d49 863d fce3 9d3d
00000010: cf39 8e3d c18f 5b3d 2043 cb3d 598c dc3d
00000020: 4f6c af3d 6b5e fe3d 53ee 0c3e ebca 2c3e
00000030: ab9a f83d 1f85 3a3e 1d3a 5b3e 3adf 773e
00000040: aaa0 8e3e 96f0 a83e acbb 9a3e 6a01 e83e
00000050: 7e4b e83e f2c4 063f fb71 213f e75e 3a3f
00000060: de67 743f 88cb 713f f05f 833f aeab 9b3f
00000070: 36a5 b23f e6c4 c23f f2b8 df3f 2bd3 ed3f
00000080: 5841 0440 2515 0d40 35df 1340 27a8 1e40
00000090: bb3b 2f40 c7f6 3740 7dcf 3c40 e87b 4340
000000a0: 25a9 4d40 1dee 5140 658b 5640 0ba7 5940
000000b0: ea8a 6040 8372 6640 2d95 6440 33b9 6640
000000c0: 045d 7240 79e3 7540 3327 7440 2328 7940
000000d0: e318 7c40 02f0 7c40 f7c2 8240 8937 8240
000000e0: dcd9 8140 e6f2 8540 454d 8840 effa 8a40
000000f0: fcf7 8940 733f 8c40 dce5 8b40 5e61 8e40
00000100: 4f3d 9440 680e 9340 91f0 9440 c50f 9b40
00000110: cbd7 9840 050c 9a40 9a24 9f40 c17b a140
00000120: 1e23 a040 a41c a140 76e5 a240 862d a740
00000130: 3f2f a540 1cfe a340 f8d2 a640 dd5f a240
00000140: 5e0f a540 dce7 a540 af48 a440 b894 a840
00000150: ed26 a240 2b8a a340 bdcb a540 d325 a140
00000160: c1a1 9f40 f9e1 a440 7123 a040 2d5a a040
00000170: ae61 9c40 d4ed 9e40 ed46 a040 dbc1 9d40
00000180: 6698 9f40 72e5 9c40 dc9e 9c40 2d31 9b40
00000190: 31e7 9a40 12fe 9740 804b 9a40 567a 9840
000001a0: e325 9540 4cde 9340 54f9 9540 6f28 9840
000001b0: 92b0 9440 dbdf 9640 d853 9a40 2303 9740
000001c0: 8c80 9440 3c6a 9940 36ee 9b40 7d76 9540
000001d0: e8cc 9940 b746 9840 4dd2 9740 bbb5 9a40
000001e0: 4fc2 9b40 5c1c 9740 4514 9d40 88b0 9640
000001f0: e107 9540 c72f 9840 72b8 9640 2589 9a40
00000200: fb49 9940 bd8d 9840 9ceb 9540 f266 9540
00000210: ee14 9640 6465 9640 4f73 9440 8468 9340
00000220: 44f0 9140 a156 8f40 f98e 8e40 f87e 8d40
00000230: bee2 8e40 722b 8a40 2cdc 8740 b6c3 8640
00000240: 9a65 8640 1f60 8340 2c78 8240 9b1b 8040
00000250: cb71 7e40 d4b0 8140 1f7b 7b40 6e20 7840
00000260: b369 7740 5f74 7640 b035 7440 d0f2 7340
00000270: 96e0 7140 6033 6940 53b9 6d40 6809 7240
00000280: 3e4a 7140 19bf 6c40 d112 6640 1222 6840
00000290: dd02 6940 1396 6a40 46db 6740 8f6d 7040
000002a0: 099a 6640 caf2 6d40 6cc8 6140 52bc 6b40
000002b0: 3e29 6f40 2313 6c40 d83b 6740 e045 6a40
000002c0: c46f 6b40 7f06 6540 2a75 6840 6ecc 6140
000002d0: b0fd 5440 5433 5f40 e001 5840 3ffc 5b40
000002e0: d56a 5140 fb04 5a40 54aa 5840 a195 5940
000002f0: 17ac 5040 e9ee 5140 d6ce 5040 bc99 5340
00000300: 2384 4a40 6a7e 4c40 2b43 5240 c3a2 5040
00000310: d8d6 4d40 a863 5640 a2c5 4e40 8fe2 4d40
00000320: 8ae0 5240 a1ad 5340 1da2 4940 6f4b 5240
00000330: d6de 4640 2ff7 4740 1104 4d40 1b0b 4a40
00000340: 6c82 4b40 a4b9 4d40 eb7a 4b40 0885 4940
00000350: ee18 5740 5b19 5040 ea5d 5140 5293 4a40
00000360: a3e2 4240 282f 4840 107e 4e40 273b 4c40
00000370: e041 4d40 f4fc 4940 f0c6 5040 b75b 4a40
00000380: 3f6e 4e40 77c5 4a40 f473 4840 4997 4e40
00000390: 94fe 4740 9b43 4440 a26f 4340 0c22 4540
000003a0: eea6 3d40 14b3 3b40 9846 4440 027e 3b40
000003b0: a288 4340 0c85 4440 3b35 3840 0be4 3940
000003c0: 88fe 4440 2335 3a40 5226 4140 910e 3640
000003d0: e049 4040 2cca 3d40 e6bb 3840 447b 3b40
000003e0: 66ee 3f40 095c 3e40 4d74 3340 9bc8 3b40
000003f0: 91e2 4140 7e04 3f40 fbdd 3b40 932f 3a40
0.049742017 0.048158877 0.065569855 0.077095 0.0694462 0.05360389 0.099249125 0.10768957
0.0856558 0.124203525 0.13762788 0.16874282 0.121388756 0.18214844 0.21408887 0.24206248
0.27856952 0.32996053 0.30221307 0.4531358 0.45370096 0.52644265 0.63064545 0.7280106
0.9547099 0.9445119 1.0263653 1.2161767 1.3956668 1.5216339 1.7478316 1.8580068
2.0664883 2.2044156 2.3104985 2.4790132 2.7380207 2.874437 2.950164 3.0544376
3.2134488 3.2801583 3.352258 3.4008205 3.5084786 3.6007392 3.571605 3.6050537
3.7869272 3.8420088 3.8148925 3.8930748 3.939019 3.952149 4.0862994 4.069279
4.057844 4.1859007 4.2594323 4.3431315 4.3115215 4.3827453 4.371809 4.4493856
4.632484 4.5955086 4.654366 4.845675 4.776342 4.813967 4.973218 5.0463567
5.004287 5.034746 5.0905104 5.224307 5.1620173 5.124769 5.213253 5.074202
5.158126 5.184553 5.1338725 5.268154 5.0672517 5.110616 5.1811204 5.035867
4.9884953 5.1525846 5.0043263 5.011008 4.886924 4.9665318 5.008658 4.929914
4.9873533 4.9030085 4.894392 4.849753 4.8407216 4.7497644 4.8217163 4.7649336
4.660875 4.620886 4.6866856 4.7549357 4.646554 4.714826 4.822735 4.719133
4.6406918 4.794218 4.8728285 4.670714 4.806263 4.758632 4.7444215 4.834684
4.8674693 4.722212 4.9087243 4.709049 4.657212 4.755832 4.7100153 4.8292413
4.790281 4.767302 4.685011 4.6688166 4.690055 4.699877 4.6390758 4.6065083
4.5605793 4.479325 4.4549527 4.421749 4.4651785 4.3178034 4.2456264 4.2113905
4.1999025 4.1054835 4.0771694 4.00337 3.9756954 4.0528355 3.9293897 3.8769794
3.8658264 3.8508527 3.8157768 3.811695 3.7793326 3.6437607 3.7144363 3.781824
3.7701564 3.6991637 3.5948985 3.6270795 3.6407998 3.6654098 3.6227584 3.756687
3.6031516 3.7179437 3.5278578 3.6833692 3.7368922 3.688668 3.6130276 3.6605148
3.6786966 3.5785215 3.6321511 3.5281024 3.3279839 3.4875078 3.3751144 3.4372709
3.2721455 3.406554 3.385396 3.3997576 3.2605035 3.280207 3.2626243 3.3062582
3.164315 3.1952157 3.2853496 3.2599342 3.216238 3.3498325 3.2308125 3.216953
3.2949548 3.3074725 3.1505196 3.285854 3.1073508 3.124462 3.2033732 3.1569278
3.1798353 3.2144556 3.1793773 3.1487446 3.3608966 3.2515476 3.271357 3.1652417
3.0450828 3.1278782 3.2264442 3.1911104 3.2071457 3.156064 3.2621422 3.1618478
3.225479 3.1683023 3.1320772 3.2279837 3.1249132 3.0666263 3.0536885 3.080203
2.9633136 2.932805 3.0668087 2.929566 3.0552144 3.0706205 2.878249 2.9045436
3.0780354 2.9094932 3.017964 2.844639 3.004509 2.9654646 2.8864684 2.9293985
2.9989257 2.9743674 2.8039734 2.934119 3.0294535 2.9846492 2.9354236 2.9091537

bn2.bias f4 [256]
00000000: b29a 123e 371f 253e 7b6e 4a3e c8a3 2f3e
00000010: dd97 443e 3461 423e d96e 5f3e fc6e 633e
00000020: 055b 543e 4937 843e 5640 8e3e 1231 9a3e
00000030: 21d2 9e3e aa0c b33e 56a6 9f3e 0177 c53e
00000040: aee5 e83e 685d fc3e bb4d f23e 4641 113f
00000050: 71a7 253f 0aad 2b3f 409a 463f 09d9 583f
00000060: c14a 813f fa11 873f 6061 933f 5415 a93f
00000070: 6cde c73f 803f d63f ef5b f33f 91e5 0040
00000080: 2d29 1040 cbb6 1a40 ec22 2c40 44b9 3b40
00000090: d922 4640 f526 5340 583d 5d40 564c 6740
000000a0: d5b6 6f40 e386 7640 6714 7e40 0e4a 8240
000000b0: ba5e 8440 62d5 8640 6bc6 8840 c376 8a40
000000c0: 2a98 8c40 7ed7 8d40 547b 8f40 cd21 9140
000000d0: 0009 9240 8688 9340 a810 9540 6c68 9640
000000e0: 4bb0 9740 de39 9940 4b0c 9a40 082c 9b40
000000f0: 4e3a 9c40 2888 9d40 7a85 9e40 8f78 9f40
00000100: 16c4 a040 88e2 a140 9cb8 a240 ff03 a440
00000110: fd43 a540 f244 a640 aa51 a740 8a57 a840
00000120: 2a52 a940 3d89 aa40 a686 ab40 586b ac40
00000130: e943 ad40 00d7 ad40 7ba0 ae40 2dff ae40
00000140: c68b af40 7dca af40 2d07 b040 154f b040
00000150: ee7c b040 a6b9 b040 2dc4 b040 d4ff b040
00000160: a711 b140 8108 b140 9d79 b140 178a b140
00000170: 36a4 b140 09e1 b140 e4fa b140 193e b240
00000180: b52a b240 3172 b240 3790 b240 70ae b240
00000190: 34bd b240 cbbe b240 30a4 b240 4ccc b240
000001a0: cda1 b240 3872 b240 1e89 b240 1555 b240
000001b0: ac3e b240 69e9 b140 62db b140 a3be b140
000001c0: 6a95 b140 f29e b140 eb7f b140 ff40 b140
000001d0: bbf0 b040 ff05 b140 a203 b140 3fab b040
000001e0: 6ce7 b040 e250 b040 2f50 b040 a338 b040
000001f0: ead1 af40 c5af af40 e7df af40 5b72 af40
00000200: 71e7 ae40 5c2c af40 92a4 ae40 6a26 ae40
00000210: d9e4 ad40 b7a9 ad40 b849 ad40 40c7 ac40
00000220: 4f53 ac40 b61f ac40 febb ab40 d50b ab40
00000230: fdd8 aa40 ce8c aa40 51ab a940 1d49 a940
00000240: 1252 a940 ce23 a940 beca a840 f0c1 a740
00000250: b981 a740 839b a740 dece a640 f03e a740
00000260: da8c a640 573e a640 61cf a540 5e77 a540
00000270: f2a2 a540 f8e7 a440 d837 a540 15d3 a440
00000280: a447 a440 ef1b a440 3966 a340 de32 a340
00000290: 3013 a340 c4f8 a240 aa3b a240 e360 a240
000002a0: 25d0 a140 ce95 a140 db52 a140 ca5c a040
000002b0: 0772 a040 dd3b a040 817c 9f40 405a 9f40
000002c0: 8aba 9e40 81ed 9e40 c6dd 9d40 11d2 9d40
000002d0: 2aad 9d40 16f9 9c40 d553 9c40 d5f4 9b40
000002e0: 6645 9c40 a0da 9a40 96a1 9a40 aa31 9a40
000002f0: 73e8 9940 d4db 9940 f7f7 9840 bb5c 9840
00000300: 1c5a 9840 e55f 9740 88e3 9640 6862 9640
00000310: 6791 9640 8e0e 9640 42ae 9440 054f 9440
00000320: 1d5e 9440 8796 9340 4648 9340 c883 9240
00000330: da59 9240 47cf 9140 353e 9140 b107 9140
00000340: 5cdf 8f40 f22a 8f40 f6f2 8f40 cc12 8f40
00000350: b881 8e40 d692 8d40 0690 8c40 3e38 8c40
00000360: d33d 8c40 db55 8b40 21c2 8a40 8943 8a40
00000370: 72b3 8940 9d68 8840 52de 8840 98ec 8740
00000380: 5818 8840 725e 8740 a959 8740 a8ac 8540
00000390: 1796 8540 806f 8540 2c55 8540 9c22 8440
000003a0: 8580 8440 523e 8440 b27d 8440 32a7 8240
000003b0: 0675 8340 310c 8440 81f7 8140 b9c7 8140
000003c0: 4a21 8140 8feb 8040 b3b6 7e40 a9de 7c40
000003d0: a426 7f40 b01a 7f40 42f2 7b40 3c41 7a40
000003e0: ca47 7940 e6ec 7740 78a3 7740 a902 7640
000003f0: 2198 7740 8c85 7440 b586 7340 ae2d 7240
0.14316824 0.16125189 0.19768707 0.17152321 0.19198556 0.18982393 0.21819629 0.22210306
0.20737846 0.2582343 0.2778346 0.30115563 0.3101969 0.349706 0.31181592 0.38567355
0.45487732 0.49290013 0.4732493 0.56740224 0.6470862 0.6706091 0.77579117 0.8470617
1.0100938 1.0552361 1.1514091 1.3209634 1.5614753 1.6738129 1.9012431 2.0140116
2.2525132 2.4174068 2.6896315 2.9331827 3.095877 3.2992527 3.4568691 3.6140342
3.7455342 3.8519828 3.9699953 4.07154 4.1365633 4.2135477 4.274221 4.3269973
4.3935747 4.432555 4.4838047 4.535376 4.5635986 4.6104155 4.658283 4.700247
4.74027 4.788314 4.8140006 4.849125 4.8821173 4.9228706 4.9537935 4.9834666
5.0239363 5.0589027 5.0850353 5.125488 5.1645494 5.195916 5.2287188 5.260686
5.29128 5.3292527 5.3601866 5.3881035 5.41454 5.432495 5.45709 5.4686494
5.485812 5.493468 5.500876 5.5096536 5.51525 5.522662 5.5239472 5.531229
5.533405 5.532288 5.5460954 5.5481067 5.5512953 5.55872 5.5618763 5.5700803
5.5677133 5.5764394 5.5801044 5.5837936 5.585596 5.58579 5.5825424 5.5874386
5.582251 5.5764427 5.579238 5.572886 5.5701504 5.5597425 5.55803 5.554521
5.549489 5.5506525 5.546865 5.539184 5.529386 5.531982 5.5316935 5.520904
5.5282497 5.5098734 5.509788 5.5069137 5.4943743 5.4902062 5.496082 5.4827094
5.465752 5.474165 5.457589 5.442189 5.4341855 5.426967 5.415249 5.3993225
5.3851695 5.378871 5.3666983 5.3451943 5.338988 5.329688 5.3021626 5.290175
5.2912683 5.2856207 5.274749 5.242424 5.2345853 5.2377334 5.2127523 5.226433
5.204694 5.19511 5.181565 5.170821 5.176141 5.1533165 5.163067 5.150767
5.133745 5.12841 5.1062284 5.0999594 5.096092 5.092867 5.069783 5.074327
5.0566583 5.0495367 5.041364 5.011327 5.0139194 5.0073075 4.983948 4.979767
4.960271 4.966492 4.933322 4.931893 4.927388 4.905406 4.8852334 4.8736367
4.8834715 4.8391876 4.832225 4.8185625 4.809625 4.8080845 4.780269 4.7613196
4.7609997 4.730456 4.715275 4.6995125 4.7052493 4.6892767 4.6462717 4.634646
4.6364884 4.612125 4.6025724 4.5785866 4.573468 4.5565524 4.5388436 4.532189
4.4960155 4.4739923 4.4984083 4.4710445 4.453335 4.4241743 4.392581 4.3818655
4.382547 4.3542304 4.3361974 4.320744 4.303155 4.26277 4.2771387 4.247631
4.2529716 4.230279 4.229695 4.177326 4.1745715 4.169861 4.166647 4.129225
4.1406884 4.1326075 4.1403437 4.0829096 4.108035 4.126488 4.061463 4.05563
4.0353136 4.0287547 3.979901 3.95109 3.9867334 3.9860039 3.9366612 3.9102316
3.8950067 3.8738341 3.8693523 3.8439124 3.8686602 3.820651 3.8050969 3.784038

bn2.running_mean f4 [256]
00000000: f94c 3bbe 6719 c7bd 174a a6bb 9dba 06bd
00000010: 8c42 cb3b 35b9 24bd 29ce 9a3d dfbc 4b3d
00000020: 36ed 11be 5a58 2fbc c8e1 b63c d23d 1b3e
00000030: f452 0f3c 8350 9c3d e8fe 983d ac9e 463e
00000040: 60fd 273e 2286 343e 6055 0b3e 982c 9c3d
00000050: bbf3 fe3d a760 f73c 9bb3 4e3e a148 083e
00000060: 4f81 ac3c d292 3a3e 024c ef3b a8ff ea3d
00000070: bd35 583e f5ea 273e 6a10 c33d f6ba 2a3e
00000080: 87df 843e 19de ab3c 872d 853d 3693 7a3e
00000090: 8a3b b03d 8e4b 223e 6736 2c3e 4ff3 9c3d
000000a0: 72aa f13c 240f e0bc fee8 713e e0d3 993e
000000b0: 6a9c 59bd 48e0 013d 0195 f63b bd3f 403d
000000c0: 5706 653e 3476 083e e602 a23c db13 223e
000000d0: 8c34 8f3e 8487 543e 0a2e 8e3e ac84 e43d
000000e0: bc7e 9b3e 519b ba3c 1c2d 9b3d f5a8 293d
000000f0: 3751 25be 9cc5 52bd 5884 bf3d 4c3e 613d
00000100: d22b 96be b435 b43e cfe4 36be 5a66 ab3c
00000110: 5475 fbbd 1eaf 0a3d a773 003e ed5b 943e
00000120: 61c9 73bd 2851 1ebe 896f bb3d e8fd f43d
00000130: c590 433d 4115 4cbd a988 a03d 6efb 583e
00000140: d339 b93d fc4a 563e d5f7 dfbc b986 bd3d
00000150: 465f 283e c6f4 a63d 6109 703d 963a acbe
00000160: e1f7 193e 551e 9e3e 7186 8e3e 7802 963d
00000170: 5b5c ae3e cf4b e13a 1f38 083e c078 e73d
00000180: 9d8d 983d a56b e0bd 402d 223e 2a6a 2fbe
00000190: 86a9 b53e 71e3 683d fa41 d3bd 10d9 5a3e
000001a0: 27f5 143e d1c4 613e a4a9 63bd 6cb5 7abd
000001b0: 055d abbd 768b 853e ddee 563e b796 04bd
000001c0: 85a0 96bd 46dc c13d aa59 36bc b0b8 dc3b
000001d0: d7e0 563b 7773 df3d 9af7 f5bd b7ce 703e
000001e0: d5a8 033e 080a d43d ccdb 33be 7bcc a4bc
000001f0: 8607 f9bb 6637 4abd 5257 46be 6ab7 233c
00000200: 9819 81bd 1bf0 293e 0830 b33d 7397 dd3d
00000210: 7571 91bd 1d15 f6ba d0ef 923c ce32 bebd
00000220: 1777 d7bc 60f4 babd de43 373e fdd2 25be
00000230: c240 06be 520d e83c 25fa bbbd fbd7 d0bd
00000240: 6861 2abe 0298 60bd 1474 73bd 0431 e23c
00000250: ec26 14be a181 ccbe 8e3e babd 5278 a4be
00000260: ca2d 36bd ebe3 18be 8f67 9cbe 4235 bfbd
00000270: 9481 11be 55b3 8ebd c6a4 e1be 1618 86be
00000280: 7c0f b3bc 254f 11bd 24c8 17be 86fc 3bbe
00000290: 6440 0b3e a3a6 54be 9977 d5be fd53 ccbe
000002a0: 2b10 65be 29f3 5cbe 3a18 28bd 2e1b 3bbe
000002b0: cd18 57bd bd64 64be 9811 f0bd 6756 99be
000002c0: 8c40 3cbd ec7a 17be c033 24be e7a4 b7bd
000002d0: b02f d4be 12dc c8be d843 adbe f654 56be
000002e0: 6d03 86bd 0085 86be c1f0 a9bd b2c1 96be
000002f0: b3b0 85be 8add ffbe 168d b5be c042 88be
00000300: 0cde 15bf f2eb babd 957d babe ec47 c4be
00000310: 52c6 a5be 5959 82be 38c4 30be 76f0 19be
00000320: 3abb 42be 6971 1bbe 43bd c3be a8f9 56be
00000330: 60ee 39be 9b14 98be d6c1 05bf 1fb4 9cbe
00000340: 0862 f7be 61b2 e6be edea cfbe 04e9 e3be
00000350: abb4 c2be ec51 a2be 4ffc b0be 5cee a4be
00000360: 1ed2 53be 1a50 b3be e408 f13c 2a4b cdbd
00000370: 2527 f4be f900 85be fa22 f8be 71ad 86be
00000380: d3ad 60be ea51 e5be 3ac5 70be 5fe4 bdbe
00000390: d0c7 88be 1498 7fbe bd1f 2dbe 5b89 20be
000003a0: 2314 28be f6cb 14be 9016 a2be a672 9abe
000003b0: bc4c 91be 9f4c 5ebe 7ea3 eabe 3d60 a5be
000003c0: 384b 8cbe 145c e6be 122a 89be cf90 97be
000003d0: 48bc 7fbe 6043 c1be 64d8 adbe 7dfb 67be
000003e0: 5c37 0cbe d38d b3be 3ccc 5bbd c7f8 21be
000003f0: 5149 54be e72a 53be 66bc 89be 4b84 4dbe
-0.18291081 -0.09721642 -0.00507475 -0.032892812 0.0062030014 -0.04021569 0.07558853 0.04974067
-0.14250645 -0.010702217 0.022324458 0.15160301 0.008747805 0.07632544 0.074704945 0.19396466
0.16405249 0.17629293 0.13606787 0.07625693 0.12448832 0.030197455 0.20185702 0.13308956
0.021057753 0.1822007 0.007302762 0.11474544 0.2111425 0.16398223 0.09524615 0.16672882
0.25951788 0.020979928 0.06502824 0.24470219 0.08605106 0.15849134 0.16817628 0.07663595
0.02950022 -0.02735097 0.23624036 0.3004446 -0.053127684 0.031708032 0.007525087 0.046935786
0.223657 0.13326341 0.019776773 0.15827887 0.27969778 0.2075482 0.277695 0.11158118
0.30370128 0.022779139 0.07576963 0.041420896 -0.16144262 -0.051457986 0.093514144 0.05499105
-0.29330307 0.35197222 -0.17860721 0.020922828 -0.12278238 0.03385841 0.12544118 0.28976384
-0.05951822 -0.15460646 0.09152133 0.11962491 0.047745485 -0.049824957 0.07838566 0.21189663
0.09044232 0.20927042 -0.027339855 0.09254212 0.16442594 0.081521556 0.058602694 -0.33638448
0.15035965 0.30882517 0.27836946 0.073246896 0.34054837 0.001718873 0.13302658 0.11302328
0.074488856 -0.109580316 0.15837574 -0.17130342 0.354809 0.05685753 -0.103153184 0.21371865
0.14546643 0.22047736 -0.055581704 -0.061208174 -0.083673514 0.26082963 0.20989557 -0.032370295
-0.073548354 0.09465842 -0.011129776 0.0067358837 0.0032787824 0.10910695 -0.12010117 0.23516355
0.12857373 0.10353476 -0.17564315 -0.020117035 -0.007599774 -0.04936924 -0.19369248 0.00999246
-0.0630371 0.16595499 0.087493956 0.10819902 -0.07101718 -0.0018774603 0.017936617 -0.09287034
-0.026301904 -0.09128642 0.17896983 -0.16193767 -0.1311064 0.028326664 -0.09178571 -0.10197445
-0.1663872 -0.054832466 -0.059436873 0.027611263 -0.14467973 -0.3994265 -0.090939626 -0.32123047
-0.04447726 -0.14930694 -0.3054776 -0.0933633 -0.14209586 -0.069677986 -0.44071025 -0.2619025
-0.02185797 -0.03547587 -0.14822441 -0.18358049 0.13598782 -0.20766692 -0.41692808 -0.39907828
-0.22369449 -0.21577133 -0.04103873 -0.18272087 -0.052513886 -0.22304054 -0.11722106 -0.29948732
-0.045959994 -0.14792985 -0.16035366 -0.089669995 -0.41442633 -0.392304 -0.33840823 -0.20930848
-0.06543622 -0.26273346 -0.08297873 -0.29444653 -0.26111373 -0.49973708 -0.35459203 -0.26613426
-0.5854194 -0.09127034 -0.36423936 -0.38336122 -0.3237787 -0.25458792 -0.17262352 -0.15033135
-0.19016734 -0.15179981 -0.38230333 -0.20993674 -0.18157339 -0.2970322 -0.52248895 -0.3060617
-0.4831698 -0.45057967 -0.40608922 -0.44513714 -0.38028464 -0.31703126 -0.34567496 -0.32213104
-0.20685622 -0.3502205 0.029423185 -0.10024102 -0.47686115 -0.25977305 -0.48464185 -0.263042
-0.21941309 -0.44789058 -0.23512736 -0.37088296 -0.26714945 -0.24960357 -0.16906638 -0.15677397
-0.16413932 -0.1453093 -0.3165784 -0.30165595 -0.28378856 -0.21708916 -0.4582786 -0.32299986
-0.27401137 -0.44992125 -0.2678991 -0.29602668 -0.24974167 -0.37746716 -0.33954155 -0.22654529
-0.13692993 -0.3506914 -0.05366157 -0.15817557 -0.20731093 -0.20621835 -0.2690155 -0.20069997

bn2.running_var f4 [256]
00000000: 4053 973d e493 693d 8e10 853d de4f b23c
00000010: 4885 343d b52e 6f3d 0f09 443d 050e 1f3d
00000020: 68ce 323d 438b 983d c423 8d3d f789 af3d
00000030: 42cf 7b3d 2f3e 623d 5ca5 883d 980c c73d
00000040: 5b00 d43d 9332 d13d bd18 ae3d 2506 0c3e
00000050: dbce b53d 3c60 c73d 7372 093e 2040 f53d
00000060: ee2f df3d b52e e93d 5717 ff3d 0739 2e3e
00000070: 4656 183e 22bc 313e e37e f33d 57ba 263e
00000080: 5864 0d3e e161 133e ae29 493e cd04 1a3e
00000090: e3e2 213e ed01 0f3e 4a91 053e d8e8 3c3e
000000a0: 7929 043e e272 0b3e 6ba9 303e 21ea 1b3e
000000b0: 714b 2b3e d648 203e 58ad 393e d764 283e
000000c0: 0b28 1f3e 8381 073e d0e8 093e 21eb 0c3e
000000d0: c8f6 0f3e e632 083e 0788 0b3e be8c dd3d
000000e0: 5ed2 e83d c513 d63d 3f6a cc3d 923d c93d
000000f0: 087d c13d 2488 ac3d 0c72 cf3d 3719 c33d
00000100: 9c0c 8c3d 4bfc a53d 9670 813d e596 4c3d
00000110: ca9c 573d 7183 793d 6fe4 453d 48a8 5c3d
00000120: 8917 443d 9560 353d 86b7 2b3d 4923 f73c
00000130: ebc3 093d d0e7 193d e6f8 0b3d ddb6 223d
00000140: c6a5 2e3d 5d7b e63c f58b 413d 4b5c 343d
00000150: 1977 253d 9c4a 823d c2ab 303d 7441 453d
00000160: ffda 673d 904e 203d a099 4c3d e961 483d
00000170: efbc 7d3d 53b6 673d 283d 5c3d 5462 4d3d
00000180: 5db7 4b3d 4a70 833d dd8c 8d3d 5623 b63d
00000190: 6ff0 853d 7604 ad3d 9166 813d 5699 973d
000001a0: 63a5 b93d b05d 983d 4daf 8f3d c80f 6e3d
000001b0: 6df5 b63d 85df 9f3d abc2 5c3d 6df1 ad3d
000001c0: 63da a13d 7f68 8c3d f11b 593d 4845 7c3d
000001d0: 9ad8 563d b4e4 8b3d 91f1 6b3d d46b 853d
000001e0: 6490 5a3d 6bd2 713d 58f7 733d 87f7 783d
000001f0: e216 6e3d c6b0 5c3d 1cbe a03d 0311 583d
00000200: 3a79 663d b591 8e3d dbf4 853d d2f7 793d
00000210: 5e61 7e3d dc0b 413d e5e5 553d bc70 573d
00000220: 60e5 383d 1ef0 783d f638 273d 89f4 723d
00000230: e29e 5c3d 248e 6c3d fdd2 753d 6759 273d
00000240: 0654 6c3d 92da 613d e950 673d 1e9a 643d
00000250: 5237 683d 5b67 3b3d 5b14 753d 1078 a83d
00000260: 2890 813d 1d55 3d3d 7527 883d 9e05 863d
00000270: 71bc a03d 4181 af3d d55a 823d 48f9 853d
00000280: f5a8 643d 44e3 683d a319 9a3d 8a86 ae3d
00000290: 9f58 413d 842f cf3d f0be af3d 903f 823d
000002a0: c9be 9b3d 947c 9e3d 250b c83d 29b1 8e3d
000002b0: afff 853d 77d6 893d 3ed9 8e3d a1b4 a03d
000002c0: f356 873d 8f2f 953d 42c9 903d dfee 893d
000002d0: 2ae9 cb3d 62de 963d 11cd 953d 1730 8d3d
000002e0: 6697 9b3d 961e 573d aec8 a13d 5f0c 7a3d
000002f0: d285 a93d dc24 ac3d cf65 933d 8dc5 753d
00000300: 1a6a 853d 6ace 953d 8ac0 913d c593 8f3d
00000310: e23f 4d3d e418 533d a935 5c3d fb2e 3f3d
00000320: 2bfa 303d 7f16 393d ffd8 843d 7d12 803d
00000330: 4220 8d3d f3b7 6f3d ffa2 613d a4e0 473d
00000340: 3f12 6f3d 8cad 463d 976a 683d f3b4 3e3d
00000350: 18a0 073d 0353 683d ad1f 513d c177 3d3d
00000360: a5a7 603d e1ad 2f3d 5ff1 4d3d c91f 433d
00000370: 036f 663d 58f0 2c3d 0d80 3d3d de8e 3e3d
00000380: e192 433d 5cca 593d f4fc 453d 1fa3 2d3d
00000390: 3b95 3d3d 55b3 433d 3d56 4f3d 7283 6b3d
000003a0: 5536 7d3d f705 7f3d 59d3 2b3d 63c4 3c3d
000003b0: a027 5b3d 265c 4b3d 945e 633d 50da 843d
000003c0: 8525 3b3d 47c3 653d 32de 743d 513f 4f3d
000003d0: e722 3b3d 7f96 3c3d 7e42 5d3d a5f9 2e3d
000003e0: 8d5c 433d 4618 483d 02f2 663d 4039 543d
000003f0: 3974 2f3d 8f04 533d 188f 653d 73bf 523d
0.073889256 0.057025805 0.06497298 0.0217666 0.04407242 0.058394153 0.0478602 0.03883173
0.043653876 0.07448437 0.068915874 0.085712366 0.061476953 0.055235084 0.06672165 0.09719199
0.1035163 0.102147244 0.08500812 0.13674219 0.08877345 0.09735152 0.13422565 0.119751215
0.10897814 0.11385862 0.124556236 0.17013942 0.1487666 0.17356923 0.11889436 0.1628202
0.1380781 0.14392807 0.19644806 0.15040894 0.15809207 0.13965578 0.13043705 0.18448198
0.12906446 0.13618043 0.17252128 0.15226032 0.16727997 0.15652785 0.18132532 0.16444717
0.15542619 0.13232999 0.13467717 0.1376157 0.14058983 0.13300666 0.13626109 0.1081786
0.11368249 0.104529895 0.09981202 0.09826197 0.09447676 0.08424404 0.101291746 0.09526294
0.068383425 0.08104762 0.06320302 0.04994859 0.05263976 0.060916368 0.048313554 0.053871423
0.047874007 0.04428156 0.04192307 0.030168192 0.033634108 0.03757459 0.034172915 0.039725173
0.042638563 0.028134996 0.047252614 0.04403333 0.040396784 0.06361887 0.04313255 0.048158124
0.056605335 0.039137423 0.049951196 0.0489215 0.06194776 0.056570362 0.05376926 0.0501426
0.049735416 0.06417902 0.06911633 0.088934585 0.0654 0.084481165 0.06318391 0.074022934
0.09064748 0.074397445 0.07015858 0.05812052 0.0893353 0.07806305 0.053896587 0.08493314
0.07902982 0.068558685 0.053005163 0.06158951 0.05245266 0.06830731 0.057603423 0.06514707
0.053360358 0.05903856 0.059562057 0.060782935 0.05812729 0.05387952 0.078487605 0.0527506
0.056267954 0.06961385 0.06540843 0.061027355 0.062104575 0.04713045 0.052221198 0.052597746
0.045140624 0.06077587 0.040825807 0.05931524 0.05386246 0.057752743 0.060015667 0.040856745
0.05769732 0.055140086 0.056473646 0.05581104 0.056693383 0.045752864 0.059833866 0.08226025
0.06326324 0.04622375 0.06648151 0.0654404 0.07848442 0.08569575 0.06364981 0.06541687
0.055825192 0.056857362 0.07524421 0.08521755 0.047203656 0.10116485 0.0858134 0.0635978
0.07604749 0.07738605 0.09767751 0.06967384 0.065429084 0.06730359 0.069750294 0.07846952
0.06608381 0.07284462 0.07069637 0.06735014 0.09956582 0.07366635 0.07314504 0.06893938
0.07597236 0.052519403 0.07899605 0.061046954 0.08277477 0.08405468 0.07197153 0.060002852
0.06514378 0.07314761 0.07116802 0.07010607 0.05010975 0.05153741 0.05376211 0.046675663
0.04320733 0.04518747 0.06486701 0.06253526 0.06890918 0.058525037 0.055087086 0.04879822
0.05836701 0.04850535 0.056742277 0.046559285 0.03311166 0.05671979 0.0510556 0.046256784
0.05484738 0.042890433 0.050279018 0.047637735 0.056258213 0.042221397 0.046264697 0.046522968
0.047747497 0.0531715 0.048336938 0.042391893 0.046284895 0.047778446 0.050619353 0.057498403
0.061819393 0.062261548 0.041949604 0.046085726 0.053504586 0.049648426 0.05551012 0.06486952
0.04569008 0.056094434 0.059782214 0.050597493 0.045687582 0.04604196 0.05401849 0.04271855
0.047695685 0.048851274 0.05638314 0.05181241 0.042835448 0.05151802 0.056044668 0.05145211
