model.pth (torch, 76187 bytes, 12 tensors)

fc1.weight f4 [64, 3]
000000 6c 8d 95 be 43 79 04 bf 7d e0 c7 be 63 0b a1 be
       -0.2920946 -0.5174753 -0.39038458 -0.31454
000010 dc fb 05 3e d0 a7 8b bd 30 14 17 3f de 22 d6 be
       0.13084358 -0.06819117 0.5901518 -0.41823477
000020 d0 4a e2 bd b6 01 1d 3e 40 e4 ad 3e 50 16 3b bd
       -0.110494256 0.15332684 0.33963203 -0.045675576
000030 58 3c fd 3e 5f 66 0a 3f a4 83 f5 3e 0a a0 41 be
       0.494601 0.54062456 0.47951996 -0.18908706
000040 2c 3f ed 3e 1c 34 d0 bd 31 a7 0a 3f 0b cc c5 bd
       0.4633726 -0.10166189 0.54161364 -0.09658059
000050 86 03 fa be 4d 40 cc be de a0 c9 3e 9c 97 af be
       -0.48830813 -0.39892808 0.39380544 -0.34295356
000060 76 9b b7 bd e5 d5 88 3e ad 1e 04 bf bc 85 ae 3e
       -0.08965199 0.2672569 -0.5160931 0.34086406
000070 f6 f5 01 be 3c 19 0a be db 54 b5 be 32 5c 30 be
       -0.12691483 -0.13486189 -0.35416302 -0.1722267
000080 f8 5a ff 3e e1 4b 83 be 74 d8 a3 39 95 a9 03 bf
       0.4987409 -0.2564383 0.00031251053 -0.51430637
000090 46 ce 1c 3e f3 06 29 be de c9 b2 be 20 62 bc 3e
       0.15313062 -0.16506557 -0.34919637 0.36793613
0000a0 b5 0f cd 3e 10 e9 be bd d4 cc 58 3d bd f5 d1 3e
       0.40051046 -0.09321797 0.052929714 0.41007796
0000b0 44 6e 95 3e 5c 0f d1 bd dc 52 7c 3e 72 df 99 3e
       0.29185688 -0.10208008 0.24640983 0.30053288
0000c0 d4 0e 16 be 8d 44 b0 3e a0 4b f7 3e 0b 0e 84 3d
       -0.14654094 0.344273 0.48299885 0.06447991
0000d0 e7 06 82 3e bc 0b ec 3e b2 08 df 3e 39 c8 06 3f
       0.2539589 0.46102703 0.43561321 0.52649266
0000e0 b0 12 30 3d 6a ee ef 3e b2 14 07 3f e3 ac 87 be
       0.04298657 0.46861583 0.52765954 -0.2649909
0000f0 1b 34 bf 3e e3 4b f7 3d 40 7b 49 3d 21 24 4f be
       0.3734444 0.12075021 0.049189806 -0.20228626
000100 93 fb 98 3e 72 f2 7a be e8 be 5b be d5 36 97 be
       0.29879436 -0.24506548 -0.21459544 -0.2953402
000110 82 e2 94 3e d4 c4 8f be 2e c6 9e 3d 3c 0d d4 3e
       0.29079062 -0.28079855 0.077526435 0.41416347
000120 52 2f e7 3e 16 b8 01 bf 7c ef 51 3e f8 04 0c bf
       0.4515329 -0.5067152 0.20501512 -0.5469508
000130 5d 0f 06 bf 24 de e5 3e 4a 56 99 be f2 24 ce bd
       -0.5236719 0.44896042 -0.29948646 -0.100656405
000140 98 1a 59 3e 4d 4c 0a 3f 8d 7e e2 3e 4c 3d ea bd
       0.21201551 0.54022676 0.44237176 -0.11437473
000150 2c 5e 0c be da ae 89 be 62 ee ca 3e de 94 3a be
       -0.13707799 -0.26891214 0.39634997 -0.18220851
000160 66 4c 45 bd 42 1d 8c be ad 5e d1 3e 80 df f6 3a
       -0.048168562 -0.27366072 0.40892544 0.0018834919
000170 4b 96 f1 be 97 e1 83 bc bf 0d 77 be ec 4d e7 3e
       -0.47184977 -0.01609878 -0.24126337 0.45176637
000180 9d bc a3 be d5 cc e2 be 64 1a 54 3e a2 c9 09 3f
       -0.31979838 -0.442969 0.20713192 0.5382329
000190 d8 6a 83 bd 00 60 98 b8 d8 d6 08 3e 13 68 25 3e
       -0.06416863 -7.265806e-05 0.13363206 0.16152982
0001a0 14 dc 10 bf de 76 8c be 10 ab c8 be 56 e3 08 bf
       -0.5658581 -0.27434438 -0.3919301 -0.5347189
0001b0 38 24 c1 be 3d 4b c1 3e 78 ff ca 3e b7 18 08 bf
       -0.37722945 0.37752715 0.39648032 -0.5316271
0001c0 b8 f1 f2 3e 64 3c 19 be f4 a7 b4 3e 49 45 26 3e
       0.47450042 -0.14964443 0.35284388 0.16237368
0001d0 48 a8 d3 3d 5f f7 1a 3f 52 8f db 3e 28 de 0b 3e
       0.103348315 0.6053371 0.42882782 0.13658965
0001e0 eb cd 02 3d 00 f5 d3 3e 84 80 01 bf 40 43 83 3e
       0.03193466 0.41397858 -0.50586724 0.25637245
0001f0 c9 e9 cf 3d b4 34 02 3e 67 49 58 be 84 22 63 be
       0.10152013 0.12715417 -0.21121751 -0.22181135
000200 a4 43 f4 3e 04 7e fd be 84 67 e2 3e a4 e4 98 3e
       0.47707856 -0.49510205 0.442196 0.2986194
000210 33 5e ae be b0 cf 10 3f a0 2d f9 3e f9 29 e3 be
       -0.34056243 0.56566906 0.48667622 -0.4436796
000220 30 3b 96 3e 50 fd e3 3e 40 da 28 3e 9b c8 c8 be
       0.2934203 0.445292 0.16489506 -0.3921555
000230 a0 ac 07 3d 79 db 74 be eb ac 2f 3e 74 d9 98 be
       0.033123612 -0.23911847 0.17155807 -0.29853404
000240 f8 de 00 bf ee 55 0d 3c 6e 91 b7 3e 14 b1 13 bf
       -0.50340223 0.008626444 0.35853142 -0.57692075
000250 51 b4 72 be d4 0b e9 be a4 14 f2 be 38 eb 89 3e
       -0.23701598 -0.45516837 -0.47281373 0.2693727
000260 80 d1 13 3e c4 7a 02 be f6 a0 23 3f f4 e7 39 be
       0.14435387 -0.12742144 0.6391748 -0.1815489
000270 dc dc bc 3e 1b 35 5f 3e d6 6f a5 3e 18 34 bf 3e
       0.36887252 0.21797602 0.32311887 0.37344432
000280 7a 31 b7 be b4 54 98 3e 27 df f1 3e 8a 89 af 3e
       -0.35779935 0.29752123 0.47240564 0.3428462
000290 68 a7 02 3f 67 e3 38 be 59 ff 12 3e fa 12 9a 3e
       0.5103669 -0.18055497 0.1435522 0.30092603
0002a0 58 81 c0 be 4d f0 be 3d 1a d6 d1 3e 77 50 67 3e
       -0.3759868 0.093231775 0.4098366 0.22589289
0002b0 d3 e1 80 3e 24 1d 34 3e d0 8d ac 3e 1a fe 92 3d
       0.2517229 0.17589241 0.33701944 0.07177372
0002c0 99 48 90 be 57 a4 36 3f c5 58 68 3e 63 23 ba be
       -0.28180388 0.7134451 0.22690113 -0.36355123
0002d0 e4 3e d3 be fe df bb 3e 30 4e 76 be fd 51 7d be
       -0.4125892 0.3669433 -0.24053264 -0.24738307
0002e0 ae 1e 8d be b6 67 00 3f d1 f0 f4 3e de 41 a9 bd
       -0.2756247 0.5015825 0.47839978 -0.08264516
0002f0 b0 9e 04 3f 54 06 39 be 56 82 c2 bc d8 47 13 3e
       0.5180464 -0.1806882 -0.02374379 0.14382875

fc1.bias f4 [64]
000000 e0 82 90 be bf 03 f0 be d0 d4 73 3e 08 d9 0f 3f
       -0.2822485 -0.46877858 0.2381165 0.5619054
000010 52 9c e7 3b 00 0e 27 3b 8c 8e f8 3e 67 24 ea 3e
       0.0070681954 0.0025490522 0.48546255 0.45730898
000020 c5 37 ab 3d be 07 0a 3f 2e 6d f3 be 6b 4d e9 3e
       0.083602466 0.53918064 -0.47544235 0.45566878
000030 7d 09 72 3e 1b 45 67 3b 5d 11 03 3f 39 a5 5c 39
       0.23636432 0.0035288993 0.5119837 0.00021042385
000040 cb 02 9d 3e 83 4e 9b bd d3 03 80 be 70 f5 db bc
       0.30666193 -0.07583334 -0.25002918 -0.026850432
000050 af 8f c7 3e af a8 42 3e b0 e0 9c 3e f0 45 09 bf
       0.3897681 0.1900966 0.30640173 -0.5362234
000060 79 c0 cd bd ab da 0b bf ce 88 ae be 8e 0c 8a be
       -0.10046477 -0.54630536 -0.3408875 -0.26962703
000070 07 87 9c be 67 bb 4e be be 23 f4 3e 90 4e e1 be
       -0.30571768 -0.20188676 0.4768352 -0.4400525
000080 db 28 e9 3e 9f 9d f3 3d 09 23 fc 3e 08 ce 9a be
       0.45538983 0.11895298 0.4924548 -0.30235314
000090 2a 66 15 bf 17 ae ed be 5e 97 d6 bd 71 bb 13 3f
       -0.58359015 -0.46421883 -0.1047809 0.5770789
0000a0 98 85 96 3e 1e e1 1b 3f 3e ff 02 bf 62 88 dc be
       0.293988 0.60890377 -0.5117072 -0.43072802
0000b0 cb f4 0d 3e bf e2 55 3e c9 28 c7 bb 7a 10 5b 3e
       0.13862912 0.20887278 -0.00607786 0.21393004
0000c0 c9 b1 09 3f b3 7a b9 be f9 fd 9b 3e 60 35 5f 3e
       0.53786904 -0.36226425 0.30467203 0.21797705
0000d0 78 50 8f 3e 8b 4a db be 8c bc f1 3e fd ca c6 be
       0.2799108 -0.4283031 0.47214162 -0.38826743
0000e0 4f fa 05 3f 7a c1 79 bc 3b 19 27 3d 4a 53 aa bc
       0.52335066 -0.015243882 0.040795546 -0.020791668
0000f0 47 82 b9 be 6d f4 ab 3c a2 0e 29 be cb 36 0e 3f
       -0.36232206 0.020990575 -0.16509488 0.5555236

bn1.weight f4 [64]
000000 99 a3 6e 3f bd fb 5c 3f b4 5d 69 3f e4 1f 5d 3f
       0.9321838 0.8632162 0.91158605 0.86376786
000010 62 f5 51 3f 9b dc 80 3f 5c 8f 57 3f fe fa 63 3f
       0.8201505 1.0067323 0.84203124 0.8905486
000020 8d 13 58 3f d5 58 24 3f 49 bb 4c 3f b3 62 87 3e
       0.8440483 0.64198047 0.79973274 0.2644249
000030 36 08 65 3f c6 ec 6a 3f e9 dc 25 3f 45 da 7a 3f
       0.89465654 0.9176754 0.6479021 0.979893
000040 55 19 6d 3f 66 73 95 3f ca 23 5f 3f 51 13 7b 3f
       0.9261678 1.1675842 0.87163985 0.9807635
000050 2f 46 57 3f 6d 7a 56 3f 6f c2 7c 3f de 6a 87 3f
       0.84091467 0.83780557 0.9873418 1.0579488
000060 ca 7d 43 3f 34 cf 80 3f f2 01 91 3f 69 20 79 3f
       0.76363814 1.0063233 1.1328719 0.9731508
000070 cd 8a 8a 3f 62 76 82 3f 4e 5b 58 3f 1a 65 97 3f
       1.0823609 1.0192378 0.8451432 1.1827729
000080 62 30 73 3f 35 0c 82 3f a7 82 0a 3f 2b be 53 3f
       0.949957 1.0159975 0.5410561 0.8271205
000090 63 a1 9f 3f b0 52 78 3f 22 37 8f 3f 43 5d 5f 3f
       1.2471126 0.9700117 1.11887 0.8725168
0000a0 8e 2d 6b 3f 35 04 38 3f 83 03 78 3f 67 b0 65 3f
       0.91866386 0.7188142 0.9688036 0.89722294
0000b0 c8 97 5f 3f 4e 73 51 3f 0e 3e 82 3f c3 45 4f 3f
       0.87340975 0.81816566 1.0175188 0.8096582
0000c0 6d f8 6e 3f 3c 4d 90 3f b6 8d 71 3f bb 1f 46 3f
       0.9334782 1.127357 0.9435686 0.77392167
0000d0 a1 f8 2c 3f 41 c8 87 3f b0 d1 4e 3f 7e 1f 9d 3f
       0.6756688 1.0607988 0.8078871 1.2275236
0000e0 06 45 67 3f b1 f6 7a 3f 18 7e 89 3f a7 18 86 3f
       0.90339696 0.9803267 1.0741606 1.0476273
0000f0 f5 3d 80 3f 15 e1 81 3f d6 cf 82 3f 0f ab 1c 3f
       1.0018908 1.0146815 1.0219676 0.61198515

bn1.bias f4 [64]
000000 e4 40 50 be f1 f2 10 bc 2a 2d 08 be a0 3a a0 bc
       -0.20337254 -0.008846984 -0.13298479 -0.019559205
000010 ba 4a 8f 3c 3b 67 00 be 86 14 e6 bc 0a d4 c1 3d
       0.017491687 -0.1253938 -0.028085958 0.09464271
000020 80 cf 59 3d 57 41 b5 bd 2e 20 02 3e 57 ec 8b 3d
       0.053176403 -0.08850353 0.12707588 0.068321876
000030 b6 92 0f bd 48 54 68 bc 47 7f 5c be a9 ee 35 be
       -0.035052024 -0.0141802505 -0.21532927 -0.17766823
000040 0a e6 14 bb 3d 08 37 bd c3 bf 24 bc e9 63 02 3d
       -0.0022720122 -0.04468559 -0.010055485 0.031833563
000050 2a b9 87 bd 05 c7 a0 bb b5 a0 3f 3d 98 41 ea 3d
       -0.06627114 -0.0049065375 0.04678412 0.11438292
000060 b6 a7 e6 3b 55 8f 9e bc b1 f1 aa 3d 12 9f d9 3d
       0.0070390357 -0.019355455 0.0834688 0.106260434
000070 75 3b d7 3d 00 fe e1 bd 09 83 63 bd 4c 99 c3 bc
       0.105093874 -0.11034775 -0.055544887 -0.023876809
000080 65 ce ef 3d 35 75 8d bc 03 f8 4d bc 26 a9 3c bd
       0.117092885 -0.017267803 -0.012571338 -0.04605975
000090 ab 9e be 3d 7f 92 0d be e9 14 e5 3d 17 5b b6 3d
       0.09307607 -0.13825415 0.11185629 0.08904093
0000a0 5e fa 07 be 04 4a 19 3e d6 dd c3 3d 98 f9 f3 bd
       -0.13279101 0.14969641 0.09563796 -0.119128406
0000b0 9f 72 ec bc 2d 0a 0a bd 6a 6c cf bc a5 41 31 3e
       -0.02886325 -0.03370111 -0.02532025 0.17310198
0000c0 8b 72 6d 3d 36 47 e0 bc ff 9d 22 3e 7c 3f 71 bb
       0.057970565 -0.027377706 0.15880583 -0.0036811521
0000d0 8c 96 bd 3d da 1b bb be 69 b6 74 bd 22 dc 29 3e
       0.0925723 -0.36544687 -0.059744272 0.1658788
0000e0 9f 64 39 3d e0 45 62 bd f0 7a f9 bc 98 0c 92 3e
       0.045261975 -0.05524242 -0.030454129 0.28525233
0000f0 b3 92 b3 bd 98 e5 b9 3d c0 f6 25 bd 42 69 6f bd
       -0.08768215 0.09076995 -0.040518522 -0.05844999

bn1.running_mean f4 [64]
000000 d0 b5 02 3e 54 60 55 3c 52 66 d9 3e 84 1c 0d 3f
       0.12764668 0.013023455 0.42460877 0.55121636
000010 5c 0c 8d 3e 7b 2e 5a 3e a4 48 06 3f f7 69 0c 3f
       0.27548492 0.21306793 0.5245459 0.5484919
000020 f4 83 29 3e 04 7c 07 3f 46 df a9 3c c8 02 f2 3e
       0.16554242 0.5292361 0.020736348 0.47267747
000030 6a 48 7e 3e 9b be 50 3e 24 ca 03 3f 56 4e e7 3d
       0.24832311 0.2038521 0.5148032 0.11294238
000040 81 ce b5 3e 16 2e 93 3d 2c c6 1c 3e 54 a3 7f 3e
       0.35509112 0.071865246 0.15309972 0.24964648
000050 0a 3b cd 3e 9c 01 8b 3e f4 88 ba 3e d0 34 d8 3a
       0.40084106 0.27149665 0.36432612 0.0016495232
000060 00 6a 6a 3e 69 78 e0 3d 52 cb cf 3c 66 e6 1d 3e
       0.22891998 0.109604664 0.025365505 0.15419921
000070 53 5c ab 3c 08 e8 7e 3c 3d 86 f4 3e 04 00 00 00
       0.020918047 0.01555825 0.47758666 6e-45
000080 0e d2 0a 3f d7 e6 94 3e 2a 32 f6 3e d3 d2 a0 3d
       0.5422677 0.29082367 0.48085147 0.078527115
000090 6a be 2c 3d e6 e4 06 3e 18 15 dd 3d 3e 1e 21 3f
       0.04217378 0.13173255 0.10795039 0.6293677
0000a0 23 3c af 3e 9d 13 17 3f f8 d3 54 3b 68 84 fc 3d
       0.34225568 0.590143 0.0032474976 0.12329942
0000b0 cf 41 b8 3e 49 27 bc 3e e3 ff 30 3e 6b 41 8a 3e
       0.35987708 0.36748722 0.17285113 0.27003035
0000c0 ae ae 19 3f e2 61 08 3e 58 34 e0 3e dd 12 c9 3e
       0.60032165 0.1331859 0.43789935 0.39272204
0000d0 b4 c4 a7 3e 13 81 83 3d 33 16 02 3f b6 59 92 3b
       0.3276726 0.06421103 0.50815123 0.004466261
0000e0 88 ff 0d 3f a5 16 f3 3d ca d7 25 3e c8 1b 96 3e
       0.55468035 0.118695535 0.16195598 0.2931807
0000f0 6c 8e cf 3d 83 08 2e 3e d0 02 0c 3e d8 f6 10 3f
       0.10134587 0.16995434 0.13672948 0.56626654

bn1.running_var f4 [64]
000000 f6 4b 52 3d 11 90 18 3b e4 e6 84 3e 7d c4 f6 3d
       0.051341973 0.002327923 0.25957406 0.12049196
000010 0a 06 2c 3e c3 28 ac 3d e7 6b 72 3e 25 e1 6f 3e
       0.16799179 0.08406212 0.23673974 0.2342573
000020 dc 12 15 3d 62 ea 09 3e cc 5c 7e 3b be dd 91 3d
       0.03639494 0.13468316 0.0038812635 0.07122372
000030 db 52 2a 3d 31 fa bc 3d 17 f1 12 3e 69 df c2 3c
       0.041582923 0.09227408 0.14349781 0.02378817
000040 ff a8 ce 3d 49 26 45 3c ad 2c ac 3d b7 bc 15 3e
       0.10090827 0.012033054 0.08406959 0.1462277
000050 19 ec fa 3d f6 58 9d 3d 1b c5 b3 3d 0b 67 94 38
       0.12252063 0.076829836 0.08777829 7.076383e-05
000060 31 53 06 3e 0a 6f 6b 3d 65 8a 6d 3b 09 d5 b0 3d
       0.13117673 0.057478942 0.003624582 0.08634383
000070 14 67 6a 3b 61 2f a2 3a 37 bd 1b 3e 04 00 00 00
       0.0035767006 0.0012373739 0.15208898 6e-45
000080 3e 90 48 3e ce 27 00 3e 81 c2 28 3d b7 f7 d0 3c
       0.19586274 0.12515184 0.04120112 0.025508745
000090 ae 43 7f 3c ca 69 94 3d 16 5d 01 3d eb d4 ba 3e
       0.015580101 0.0724674 0.031582914 0.3649057
0000a0 37 79 de 3d fc 80 9e 3d 2e 2c b9 39 c4 90 81 3d
       0.10862964 0.077394456 0.00035318866 0.0632644
0000b0 a8 2c 45 3e 51 8f 21 3e e3 43 6d 3d f6 84 80 3d
       0.19255316 0.15777327 0.05792607 0.0627536
0000c0 45 64 71 3e b2 f1 50 3d 27 98 44 3e 02 d1 4a 3e
       0.23573406 0.05101175 0.19198667 0.19806293
0000d0 2c 89 e6 3d b7 6f b0 3c 4b 5f 6b 3e a6 54 ce 39
       0.11256632 0.021537645 0.2298557 0.0003935445
0000e0 29 d8 20 3e 2d 89 08 3d d9 a8 33 3d 5b b8 2d 3e
       0.15707459 0.033333946 0.043862198 0.16964857
0000f0 be a8 30 3d 5d ac 42 3d 1d 94 2e 3d 65 62 10 3d
       0.043129675 0.04752766 0.04262172 0.035250086

fc2.weight f4 [256, 64]
000000 04 9e 4a 3d 6f 34 a9 3d ef f6 17 bd 20 98 78 bd
       0.0494671 0.08261954 -0.03710073 -0.060691953
000010 87 e5 4f bc 2a 1c 33 3d 53 28 58 3d 2a 10 ee bd
       -0.012689001 0.04372803 0.05277283 -0.11624177
000020 69 e3 2f bc 26 63 6f bc 5b b4 0b bd f1 b5 96 3a
       -0.010735371 -0.014611041 -0.034107547 0.0011498315
000030 dc 5f d8 bc 7d a3 fd bd f9 4e bd 3b f8 c4 6a 3d
       -0.026412897 -0.123846985 0.0057772365 0.05731675
000040 95 0a 9b bc 00 ee eb bc 58 41 8c 3d 60 80 c6 3b
       -0.018925944 -0.02880001 0.06848401 0.006057784
000050 24 07 cf bc d5 a4 9a bc d2 ec b8 3d 28 0a 2c 3d
       -0.02527196 -0.018877426 0.09029545 0.042001873
000060 f8 2f 2e bd 3f 9b 02 be 0f 36 60 bd c3 60 d2 3d
       -0.042526215 -0.12754534 -0.054739054 0.10272362
000070 b6 58 1e bd 1f b4 9b 3d 31 8e 9c 3d 8d 6c a0 bd
       -0.03865882 0.07602715 0.07644308 -0.078332044
000080 bd f6 82 bd 17 17 8c 3d 9d 2a ae 3d 14 2f d1 3d
       -0.06394718 0.068403415 0.085042216 0.102140576
000090 a7 cb 75 3e db f8 23 3d aa 18 79 bd f7 c1 35 be
       0.24003468 0.04003225 -0.060814537 -0.17749773
0000a0 cf 3e 2c 3e d2 9f af bd 12 21 55 3d 4f 46 ba bd
       0.16820835 -0.08575405 0.05203349 -0.090954416
0000b0 c2 14 d4 3c 7a 9f e8 bd 3c ba e3 3b 41 59 de bd
       0.025888804 -0.11358543 0.006949691 -0.108568676
0000c0 2b a6 81 bc c2 bd 50 bd 62 f0 f5 3b e7 10 c6 3d
       -0.015826305 -0.050962217 0.0075054625 0.096711926
0000d0 76 09 36 3c 70 62 48 bd 1a 13 d0 bd 75 0b 11 be
       0.011110654 -0.048922002 -0.10159893 -0.14164527
0000e0 cb 5e 4b 3d 36 bb 3a 3d 86 b9 d9 bd f9 83 4c 3d
       0.04965095 0.045588695 -0.10631089 0.049930546
0000f0 1b 62 7d bd 96 7e b5 3b 6d 63 8b 3d bc b9 04 be
       -0.06186114 0.005538772 0.06806073 -0.12961477
000100 36 a0 b4 bd 58 61 a2 3e 69 d1 7c 3d 59 d1 3d 3c
       -0.0881962 0.31714892 0.061723147 0.011585557
000110 af 98 18 be 56 b4 d6 3c 6c 73 bd bd 65 c0 a0 bd
       -0.14901994 0.026209038 -0.092505306 -0.07849196
000120 f3 9f 2d bc 4b 9e a7 3b f4 6f 7b bd c5 86 e8 3d
       -0.010597217 0.0051153055 -0.061386064 0.1135383
000130 78 c2 9c 3c a5 70 c2 bd 9f 45 75 3d 6e 4b f9 3d
       0.019135699 -0.094941415 0.05988085 0.1217259
000140 6b e1 d9 3a 46 32 22 be 88 f8 db 3d 33 40 ac bd
       0.0016622966 -0.1583949 0.10740763 -0.084106825
000150 7b 34 57 bd 24 36 22 be 8d 7d 18 3c 85 1a a4 bc
       -0.052540284 -0.15840966 0.009307277 -0.020032177
000160 44 84 04 bd e8 10 a9 3c ba 7f 92 3d 75 d1 45 3c
       -0.0323527 0.020637944 0.07153268 0.012073864
000170 3c 08 86 3d bf ba 08 3e 1b 34 46 bc 29 ac b3 bd
       0.06544539 0.13352488 -0.012097384 -0.08773071
000180 19 65 45 3d dd e3 2d bd 9a cd 0f bc e0 80 e6 3d
       0.048192117 -0.042453635 -0.008777047 0.1125505
000190 31 ca c8 bc 4a 12 64 bd 00 5f 33 3e ef 34 a8 3d
       -0.024510475 -0.055681504 0.17516708 0.08213221
0001a0 26 5c 6f 3e 8f 5e 92 3d a3 e8 cc bc e1 10 3c 3d
       0.23374996 0.07146942 -0.025013274 0.045914534
0001b0 54 ee 0e bd 65 00 40 bd 73 4f 25 bd 40 79 f9 3c
       -0.034895256 -0.046875376 -0.04035897 0.030453324
0001c0 33 a0 cf bd 08 37 3a be a3 cc 46 3b bd 30 e4 39
       -0.101379775 -0.18185055 0.0030334375 0.00043523862
0001d0 9b 6f 67 bd 00 d7 16 3d 7a 3c ef 3d 8e 67 1e be
       -0.05650292 0.036826134 0.11681457 -0.1546919
0001e0 47 ec c5 3d c7 5f 24 bd 68 9d d7 bd 5b ea d1 3c
       0.09664207 -0.040130403 -0.1052807 0.025624445
0001f0 4e 3f 31 bb a5 07 0a 3b 47 52 89 3c fe 70 0a bd
       -0.002704579 0.0021061685 0.016762866 -0.033799164
000200 ab b7 42 3c a5 a6 a3 3d 37 b1 96 3d 39 5b e4 3d
       0.01188461 0.07990769 0.0735802 0.11150212
000210 6b 76 a8 bd 0c fc ff 3d d3 f0 0b bd cc 92 c6 bd
       -0.082257114 0.12499246 -0.034165215 -0.09695968
000220 20 13 59 bd 4a 84 be 3d a5 50 03 be b9 e6 e0 bd
       -0.052996755 0.09302576 -0.12823732 -0.10981507
000230 6c af 1e 3d 73 11 69 3c 64 13 e7 bd 49 70 21 3e
       0.038741514 0.014225352 -0.11282995 0.1576549
000240 2f 66 fa 3d 09 70 81 bc 7d d8 0c bc 53 7f 05 3d
       0.12226521 -0.015800493 -0.008596537 0.03259213
000250 87 ff de 3d 03 8c 62 bd f9 74 bc 3d bc b4 ae bd
       0.10888582 -0.055309307 0.09201998 -0.08530566
000260 63 84 b1 bd 40 a7 4b be 1c 07 36 3e 90 81 14 bd
       -0.08667829 -0.1988802 0.1777615 -0.036256373
000270 4a 7a e7 3b 2c 28 cb 3d 13 db 7d 3d d0 f4 3b be
       0.0070641385 0.099197716 0.061976504 -0.18355107
000280 46 ff a1 3d e1 46 1d bd 33 20 14 3e 5c 1d 05 3e
       0.07910018 -0.038397674 0.14465408 0.12999481
000290 f9 42 ed bc c7 5d 9f bd fc f6 b0 3d 92 3d b2 3d
       -0.0289626 -0.077815585 0.086408585 0.0870315
0002a0 e5 99 88 bc e2 33 2f bc f2 49 0e bd 0a 14 74 3c
       -0.016674945 -0.010693522 -0.03473849 0.014897356
0002b0 45 b1 03 3e 57 ef 93 bc ae 42 57 3d e3 ce 54 3c
       0.12860592 -0.018058462 0.052553825 0.012988779
0002c0 d6 56 ca 3d 5b ea 02 3c 31 9b e3 3c dd 99 28 bd
       0.09879844 0.007990445 0.027783962 -0.04116236
0002d0 40 35 64 bd 72 b8 93 bd 4b cc ae 3d ef e6 1b bd
       -0.055714846 -0.072129145 0.085350595 -0.038062032
0002e0 8d 8a 86 3c 1e 78 83 bd ef e8 71 be 50 12 67 3c
       0.016423488 -0.06419395 -0.23624013 0.014103487
0002f0 a4 c7 43 bd 25 56 a1 bd 09 98 b0 3d 1e db 0b be
       -0.047797814 -0.07877759 0.086227484 -0.13657805
000300 d5 10 be bd 92 9f 2d 3c 1f 79 9f 3d e2 b2 d7 3d
       -0.09280554 0.010597127 0.07786774 0.10532166
000310 d4 2f 72 bd 92 f0 13 3e 4f 1d 04 3e 5b 2d 03 bd
       -0.059127644 0.14447239 0.12901805 -0.032025676
000320 67 7b 00 bc 00 6d 14 3d 28 02 38 3d c9 73 89 3d
       -0.007841921 0.036236763 0.04492393 0.067115374
000330 1b 73 95 bd bf 6a 6e 3d bc 09 87 bd b4 6e 74 3d
       -0.07297345 0.05820727 -0.065936536 0.059675887
000340 65 bf 8f 3c 03 e3 bf 3b 52 fe ca bc 54 a7 1c bd
       0.017547319 0.0058559193 -0.024779473 -0.038245514
000350 0b fd 1f bd 0d 1c 55 bd c8 2b db bc da f4 14 be
       -0.03905968 -0.052028704 -0.026754275 -0.14546528
000360 9d 9f 61 3d da 0a d1 bd 9b 94 1e 3d aa fa 12 3e
       0.05508386 -0.10207148 0.03871594 0.14353433
000370 0f 07 0f bc a4 b9 d5 bb ab 1f 90 bc ca ea 11 be
       -0.00872971 -0.006522374 -0.017593225 -0.14249721
000380 4e ff 81 3d a6 5c 1b bd 28 20 1b bd b5 9c 2e 3d
       0.06347524 -0.037930153 -0.037872463 0.042629916
000390 4f 8d c7 bd 8d 31 c6 3c aa c7 4a 3d e1 a7 40 bd
       -0.09743749 0.02419355 0.04950682 -0.0470351
0003a0 7c 91 c6 bd 33 ed 93 bd 90 18 06 3e ec 30 e0 bc
       -0.09695718 -0.072229765 0.13095307 -0.027367078
0003b0 d8 e0 1c bb 86 23 08 be 5d 93 f9 3d c4 5e 14 be
       -0.0023937728 -0.13294801 0.121863104 -0.14489275
0003c0 80 5a 67 bd 5c 5d 7f b9 c6 e5 55 bd 47 1e 15 bd
       -0.056482792 -0.00024353474 -0.052221082 -0.036405828
0003d0 20 d3 7a bb b8 f4 67 be 8c 5b 83 3d b1 50 91 3c
       -0.0038272813 -0.22651947 0.064139456 0.017738672
0003e0 71 9d 68 3d b7 2a e8 bd dd 17 82 3d 02 38 d0 bd
       0.056790773 -0.11336272 0.06352208 -0.10166933
0003f0 bb 76 47 3e ea 47 9d bd 42 6f e2 bd 2e 04 ec 3d
       0.19478886 -0.07679732 -0.11056377 0.11524235

fc2.bias f4 [256]
000000 7c 34 a9 bd 3e c5 ad 3d 80 88 b4 3d 75 05 47 3d
       -0.08261964 0.084848866 0.08815098 0.04858919
000010 1c 54 b9 bd 4e 3f a8 3d 59 3e ec 3d fc 3c 2a bc
       -0.09049246 0.082151994 0.11535329 -0.010390516
000020 11 96 61 bb 7f 63 f1 bd 20 6d a7 3d 7e b6 a2 bd
       -0.0034421722 -0.117865555 0.08175111 -0.07944964
000030 cd af f1 3c 62 77 5b 3d 62 a9 cb 3d 3c 72 c0 bc
       0.029502774 0.05358065 0.099444166 -0.023491971
000040 71 43 d3 bc 02 b2 1f 3d 3a 42 74 3d b9 24 e5 bd
       -0.025788995 0.03898812 0.05963347 -0.11188645
000050 43 e2 85 3d 26 67 8b bd b0 37 ef bc 0f ed 7d 3d
       0.065372966 -0.068067834 -0.029201359 0.061993655
000060 23 59 2e bd 48 d4 f6 bd 83 22 14 3d 9a 7c 97 bc
       -0.042565476 -0.12052208 0.036165725 -0.018492032
000070 3a 86 4d bd 56 ce ae bd b5 9e 05 3d e4 74 3c bd
       -0.050176837 -0.08535449 0.032622058 -0.046009913
000080 4b 57 ba bb 0b bb dd 3d 9b 9a a4 bd 65 09 b4 3d
       -0.0056866757 0.10826691 -0.08037301 0.08790854
000090 0f 56 9d bd 13 fe 72 bd e3 a9 ce bd 3e 1d ee bb
       -0.0768243 -0.059324335 -0.10090997 -0.0072666695
0000a0 a2 2d be bc 27 21 4e 3c f2 90 e9 3c 67 57 f6 3c
       -0.023215119 0.012581146 0.028511498 0.030070974
0000b0 ee 23 a3 bd f3 06 1c bd 18 08 aa 3d 70 86 c7 3d
       -0.079658374 -0.038092565 0.08302325 0.09742439
0000c0 d5 09 b2 bd 7e 01 0f bd 92 7d 11 3e 21 03 8c bd
       -0.086932816 -0.034913532 0.14208058 -0.06836534
0000d0 82 79 a0 bb 1a b3 cb bd be ee 02 bc 73 10 b4 bd
       -0.0048972974 -0.0994627 -0.007991491 -0.087922
0000e0 84 2e cc 3d e0 32 76 3d 76 06 29 be 04 00 f2 3d
       0.0996981 0.060107112 -0.16506371 0.11816409
0000f0 f0 2c b8 3d 56 c1 f7 bc 57 01 8b bd dc 6d 76 3d
       0.08992946 -0.030243557 -0.06787365 0.060163364
000100 64 e9 72 bd dd 8f f6 3d a1 41 4c be e2 36 c6 bc
       -0.05930461 0.120391585 -0.1994691 -0.024196092
000110 71 f0 be 3d fb cc bd bc 7b 23 c5 bd 6e 65 14 be
       0.09323204 -0.023169031 -0.09625908 -0.14491817
000120 71 59 91 bd 3b 71 bf 3d fc a4 7d bd 44 cb 84 bd
       -0.07097138 0.09347769 -0.06192492 -0.06484082
000130 fd 88 ae 3d 28 d8 7d 3c 39 dc 4b bc 5f 56 9d bd
       0.08522222 0.01549343 -0.012442642 -0.076824896
000140 48 93 1a 3e 8f 3f e4 3d 92 04 95 bd c1 66 9f 3d
       0.15095246 0.11144935 -0.07276262 0.077832706
000150 4b d1 aa bc d1 ee 46 bd cd b5 3f bc d7 94 e1 bd
       -0.020851752 -0.048567597 -0.0117010595 -0.11014717
000160 a5 94 a7 bc fc 98 94 bd 0c 5a c8 bd 97 bb 8e 3d
       -0.020456621 -0.07255742 -0.097828 0.06969374
000170 1e f4 b9 3a 7b 05 a2 3d fb f8 3f bd 63 bb b2 3c
       0.0014187132 0.079112016 -0.046868306 0.021817869
000180 83 0a 9c 3d 06 d9 42 be 6a f6 b3 bd b3 d3 6d 3d
       0.076191925 -0.190281 -0.08787234 0.05806322
000190 e9 62 10 3c d4 d0 1a be 07 6c 1b 3e ed d5 f2 b9
       0.0088126445 -0.15118724 0.15177928 -0.00046317224
0001a0 67 82 97 3c b8 b6 61 3d 2e 0c 34 bd 7a 8c a4 3c
       0.018494798 0.055105895 -0.043956928 0.020086516
0001b0 66 af 72 3d 5e 02 21 be 30 0e 89 3d d5 e4 ef ba
       0.059249304 -0.1572356 0.06692159 -0.001830245
0001c0 e5 75 e5 bd 44 a3 06 bc 5a a9 2f bd 5f 6e 40 bd
       -0.11204127 -0.0082176365 -0.042886116 -0.046980258
0001d0 98 4d 3b bd 31 9e 1c be 45 0d 1c be af f0 55 be
       -0.045728296 -0.1529472 -0.15239437 -0.20892595
0001e0 e9 c9 e2 3d e7 ea 3a 3e 86 3a 0a be 95 c5 8e 3d
       0.110736676 0.1825367 -0.13498887 0.069712795
0001f0 0b 9a 5b 3d 45 4a 38 be 68 ec 02 be 6f a4 57 bd
       0.053613704 -0.17997082 -0.12785494 -0.05264705
000200 eb 12 b8 3d a1 f8 6b 3d 55 9f 3a 3d aa 67 15 be
       0.08987983 0.057610158 0.045562107 -0.14590326
000210 56 42 d8 3d 8a 75 64 3d 70 a2 db bd d1 5f d0 bb
       0.105595276 0.055776156 -0.10724342 -0.0063590785
000220 f7 f0 f6 3c eb 3f ce ba 79 19 b8 bd 6f c8 06 be
       0.030144198 -0.0015735602 -0.089892335 -0.13162397
000230 26 7a d5 3c 86 6e 9f 3d f8 38 7c bd ff 3f cb bc
       0.026059221 0.077847525 -0.061577767 -0.02481079
000240 dc de a0 bd 15 a2 b8 bc 4d 82 e1 bd ba 3f 0d 3e
       -0.07855007 -0.022538224 -0.11011181 0.13793841
000250 60 0b 81 3d 46 57 d4 bd 30 b3 3c bd a2 6c a7 bd
       0.06300998 -0.103682086 -0.046069324 -0.08175017
000260 4f d5 db bb 3b f2 d0 bd 0c 93 e0 bd 0a c7 dc 3a
       -0.006708778 -0.10202452 -0.10965547 0.0016843986
000270 1c dc 36 bc 94 fe e5 bc 9e 12 6e 3d b0 31 0c bd
       -0.011160877 -0.028075494 0.058123223 -0.034227073
000280 04 ff 1f 3c 1f ed ac 3d df d8 ac 38 5b c9 99 3d
       0.00976539 0.08443665 8.2419945e-05 0.07509109
000290 27 79 e5 3d f5 7c ee 3b 6e f6 a9 bb 53 57 d3 3d
       0.112047486 0.0072780796 -0.0051868474 0.1031939
0002a0 f5 7d e5 3d dc 45 e6 bd 86 9b e1 bd d2 8a 8c 3d
       0.11205665 -0.11243793 -0.11015992 0.068624154
0002b0 b6 68 da 3d 17 71 3e 3c 43 84 4a 3d 4f e1 c2 3c
       0.10664503 0.011623642 0.04944254 0.023789076
0002c0 0e c5 85 bd ae a5 b5 bd 2d c2 68 bc 24 53 d1 bd
       -0.06531726 -0.088694915 -0.014206451 -0.10220936
0002d0 aa 4c fb 3d 62 75 ce bc 8c 30 a8 3d a1 52 67 3d
       0.12270482 -0.025202457 0.082123846 0.056475285
0002e0 a9 1f 7a 3c 76 a7 c5 bd b6 11 bc bc 11 5c 9d 3b
       0.015266337 -0.09651081 -0.022957664 0.004802235
0002f0 79 3a 8c bd 69 1b 1b 3c 45 4d 81 bd ea bf d2 bc
       -0.0684709 0.009466984 -0.06313566 -0.025726277
000300 84 6c 5e 3d bf c5 98 bd 0b c8 01 3e 8c c9 35 bd
       0.054302707 -0.07459592 0.12673967 -0.044381663
000310 de 16 de 3d 47 05 94 3a 91 80 e2 bd 7c 6e c6 3d
       0.10844205 0.0011293077 -0.11059678 0.09689042
000320 69 12 7f 3d 39 46 05 3e 76 91 7f bd 56 0b c9 bd
       0.062273417 0.13015069 -0.06239458 -0.09816615
000330 cd 3b b5 bd 4c 4e 8f 3d 13 7d f5 bc c2 4e fc 3c
       -0.08849297 0.06997356 -0.029966867 0.030799273
000340 e2 6f 14 bd 14 c1 5b 3d 6a 0b b8 3d d4 92 93 3b
       -0.036239512 0.05365093 0.08986552 0.0045035873
000350 c2 cb 97 bd dd 86 51 bd 7f 62 b1 3c 6d eb 08 bc
       -0.074119106 -0.051154006 0.021653412 -0.008356911
000360 2b 6a 1b 3d 1b dd 07 bd 58 54 b3 bd 00 b9 f6 3d
       0.037943047 -0.033169847 -0.08756322 0.12047005
000370 b9 46 95 3b ec 36 bf 3c 27 0b bc 3d c8 68 de 3c
       0.00455555 0.023341618 0.09181815 0.027149573
000380 a0 9a af 3d d2 83 52 bc 33 66 3c 3c b6 d6 bf bd
       0.08574414 -0.012848811 0.011498976 -0.09367125
000390 44 c0 f1 3d e7 f2 2e bb 02 12 93 3d 7e e5 ca 3c
       0.1180425 -0.0026695074 0.07181169 0.024767634
0003a0 a2 c5 af bd a8 17 93 bd 89 c5 32 bc 5a 66 2e bd
       -0.08582617 -0.071822464 -0.010911354 -0.04257808
0003b0 5a 44 d3 3d 9c 98 57 3d fe a5 d2 bd ec 80 0c 3d
       0.103157714 0.052635774 -0.10285567 0.034302637
0003c0 d6 4f f1 3c 70 9c 65 3d 54 0e 84 bd 28 88 ec bd
       0.029457014 0.056057394 -0.064480454 -0.11549407
0003d0 24 56 ca 3d 8e 5f e1 bd fe 5e 5d bd 61 dd cc 3d
       0.09879711 -0.11004554 -0.05404567 0.10003162
0003e0 cd fa b8 bc 54 f6 9c 3d e1 57 8d bd 12 93 ed 3d
       -0.022580529 0.07664171 -0.06901527 0.11600317
0003f0 83 cf fc 3d ea da 5d bd cf ca 84 bb 99 c8 f1 3c
       0.12344267 -0.05416385 -0.004052497 0.029514598

bn2.weight f4 [256]
000000 7d 1c 03 3d e3 52 41 3d 36 ae 61 3d 4e 73 90 3d
       0.03200959 0.047198188 0.05509778 0.070532426
000010 81 bb 8a 3c 46 d0 ec 3c cf f6 90 3d df a6 94 3d
       0.016935112 0.028907906 0.07078325 0.07258391
000020 ec f5 a3 3d 58 f4 71 3d f1 9d b1 3d 65 e7 c2 3d
       0.0800589 0.059070915 0.08672703 0.09516791
000030 8f e5 ba 3d 96 0e bd 3d dd 3e e8 3d 7d 67 d6 3d
       0.09125816 0.09231298 0.11340115 0.104689576
000040 6b 64 0f 3e 35 c4 23 3e cb bd 27 3e d6 50 3e 3e
       0.1400315 0.15992816 0.16380994 0.18585524
000050 d8 66 3a 3e 65 7d 4b 3e 52 a6 7a 3e c3 5f 75 3e
       0.18203294 0.19872053 0.24477509 0.23962311
000060 49 fa 86 3e 50 0b 98 3e 71 69 b4 3e 85 7b ba 3e
       0.26362827 0.2969613 0.35236695 0.36422363
000070 f5 bb bd 3e 01 9b e4 3e e7 70 04 3f 38 1f 0b 3f
       0.37057462 0.4464951 0.51734775 0.5434451
000080 69 d2 17 3f 8b f0 1c 3f 96 81 3b 3f ff 7d 59 3f
       0.59305435 0.6130454 0.7324461 0.8495788
000090 08 d5 6d 3f 4e 4c 64 3f 04 7e 74 3f c3 15 90 3f
       0.92903185 0.8917893 0.95504785 1.1256641
0000a0 ad 59 a2 3f 83 24 9c 3f 41 97 b7 3f a1 f2 bb 3f
       1.2683617 1.2198642 1.4343034 1.468342
0000b0 cb 05 c3 3f e8 ac db 3f b3 05 e3 3f 24 36 f2 3f
       1.5236143 1.7162142 1.7736114 1.8922772
0000c0 99 8a fd 3f cf e0 01 40 92 c2 04 40 a4 35 0a 40
       1.9807922 2.0293462 2.0743756 2.159524
0000d0 7c 97 16 40 49 b3 11 40 90 74 18 40 55 8d 1f 40
       2.3529959 2.2765677 2.3821144 2.4930012
0000e0 fc 70 24 40 8a 91 31 40 65 84 3b 40 96 4e 43 40
       2.569396 2.774508 2.9299557 3.0516715
0000f0 dd bd 44 40 7d fd 40 40 7b 77 50 40 17 8d 48 40
       3.0740883 3.0154717 3.2572925 3.1336114
000100 5a d0 54 40 c9 a9 5a 40 97 df 54 40 88 15 5b 40
       3.3252168 3.4166129 3.3261468 3.4231892
000110 b5 77 58 40 be 83 5f 40 c2 57 5c 40 39 b3 5d 40
       3.3823063 3.492416 3.4428563 3.464064
000120 68 f6 6a 40 ab 83 6a 40 ca 6f 65 40 0e f4 6a 40
       3.6712894 3.6642864 3.584948 3.671146
000130 a3 ef 6c 40 2b cb 62 40 8d 13 69 40 7b f4 67 40
       3.7021263 3.5436504 3.6418183 3.624297
000140 f0 bc 67 40 91 97 5f 40 17 a2 60 40 8d 0b 63 40
       3.6209068 3.4936259 3.5098932 3.54758
000150 22 04 64 40 0e c5 5e 40 09 17 68 40 e7 31 5e 40
       3.5627522 3.4807773 3.626406 3.4717958
000160 10 99 5c 40 f7 95 55 40 ad fc 4d 40 4e de 50 40
       3.4468422 3.3372781 3.218547 3.2635684
000170 b7 4e 51 40 25 8e 47 40 bd e5 3e 40 b3 34 43 40
       3.2704294 3.1180508 2.982772 3.0500915
000180 8a f7 42 40 ab 31 46 40 b1 9b 31 40 73 c3 40 40
       3.0463586 3.0967815 2.7751276 3.0119293
000190 5f 6d 35 40 4f 3e 39 40 e5 ed 39 40 a1 ab 3f 40
       2.8348005 2.894428 2.905145 2.9948504
0001a0 7f 37 3a 40 2d 69 39 40 b7 db 31 40 72 ed 33 40
       2.9096372 2.8970444 2.7790353 2.8113675
0001b0 1f 8b 37 40 20 6f 39 40 dd 44 36 40 c8 b2 33 40
       2.8678663 2.8974075 2.847953 2.807787
0001c0 ae 88 2f 40 dd 59 2b 40 2a 22 30 40 0b e2 2a 40
       2.7427173 2.6773598 2.7520852 2.6700466
0001d0 f9 f9 28 40 f4 f7 37 40 43 70 24 40 fe 13 2d 40
       2.6402571 2.8745089 2.569352 2.7043452
0001e0 b8 70 22 40 66 c9 1b 40 a0 c2 1d 40 d2 65 1a 40
       2.5381298 2.4341674 2.465004 2.4124646
0001f0 32 ca 20 40 cd 92 18 40 5e 50 1d 40 ba 69 1c 40
       2.512341 2.38396 2.4580302 2.443953
000200 ea 58 1e 40 9c f2 16 40 e3 00 12 40 82 cd 06 40
       2.474177 2.3585577 2.2813041 2.1062932
000210 54 77 08 40 9d d6 0a 40 27 e3 04 40 f8 a2 04 40
       2.1322832 2.169349 2.0763643 2.0724468
000220 c3 fb 01 40 02 44 02 40 de b5 f5 3f 53 2f 02 40
       2.0309913 2.0354009 1.9196126 2.0341384
000230 c8 e3 f4 3f 17 bf f9 3f 2d b2 e8 3f 9e d4 f1 3f
       1.9132013 1.9511441 1.8179375 1.8893011
000240 83 bc eb 3f d7 24 dc 3f ec 78 dd 3f 7c 37 c9 3f
       1.8416904 1.7198743 1.7302527 1.5720057
000250 c1 9f c7 3f 1e 60 d0 3f 2c 30 d9 3f db 8d d0 3f
       1.5595628 1.6279333 1.6967826 1.6293291
000260 a4 c3 cd 3f ec ad cf 3f 9c b5 c4 3f 98 ab c0 3f
       1.607533 1.6224952 1.5367923 1.5052366
000270 ce 30 c3 3f b7 bc bd 3f e2 53 bd 3f 49 85 af 3f
       1.5249269 1.4823216 1.4791224 1.371255
000280 00 6c b2 3f 40 43 b5 3f a4 11 b4 3f f8 9c af 3f
       1.3939209 1.4161148 1.4067883 1.3719778
000290 3c 56 ab 3f 62 11 b7 3f 31 9e a8 3f 6c f9 a2 3f
       1.3385692 1.430218 1.3173276 1.2732368
0002a0 ec 9f 98 3f f4 d3 a2 3f 81 37 99 3f e7 fc 91 3f
       1.1923804 1.2720933 1.1970063 1.1405305
0002b0 63 bb 95 3f 50 eb 91 3f ec 4d 8c 3f cc 5c 94 3f
       1.1697811 1.1399937 1.096128 1.1590819
0002c0 b8 19 87 3f 48 fc 8f 3f a4 2c 90 3f 92 16 8b 3f
       1.0554724 1.1248865 1.1263623 1.0866263
0002d0 09 19 88 3f b8 68 85 3f 05 c0 74 3f 87 04 74 3f
       1.063264 1.0422583 0.956055 0.9531941
0002e0 50 56 93 3f 24 db 83 3f 0e b3 87 3f 7a 15 71 3f
       1.1510715 1.0301251 1.0601518 0.94173396
0002f0 4d 77 81 3f cf 0b 78 3f e2 44 55 3f ab 04 6b 3f
       1.0114533 0.9689302 0.8330823 0.91804
000300 44 c3 5e 3f fd a7 64 3f 24 9d 57 3f 11 9f 36 3f
       0.870167 0.8931883 0.8422415 0.71336466
000310 10 64 3a 3f 8d 4a 4d 3f eb cf 55 3f 33 f0 5a 3f
       0.72808933 0.8019188 0.8352038 0.85522765
000320 08 f9 3c 3f 93 c2 3a 3f 61 1b 35 3f 76 16 2b 3f
       0.7381749 0.72953147 0.707449 0.6683115
000330 aa e6 35 3f a6 58 29 3f 03 58 2f 3f 12 d0 27 3f
       0.7105509 0.6615089 0.6849367 0.65551865
000340 f1 63 22 3f aa 9c 24 3f 87 d6 30 3f e7 3e 22 3f
       0.6343375 0.6430155 0.6907734 0.6337723
000350 63 7d 0d 3f 8f a5 1d 3f 3f 03 1b 3f ff da 2a 3f
       0.5526945 0.6158075 0.6055183 0.6674041
000360 b8 ea 15 3f 9b 19 14 3f c0 6b 0f 3f 68 0d 22 3f
       0.5856128 0.5785157 0.5602379 0.63301706
000370 78 8c 12 3f 25 77 0a 3f f6 d4 05 3f f4 17 07 3f
       0.5724559 0.5408805 0.5227808 0.52770925
000380 fc b2 10 3f 7b a1 08 3f 0d 99 03 3f fb 50 07 3f
       0.5652311 0.533714 0.5140541 0.5285794
000390 1b b9 13 3f e6 c6 cc 3e 96 ba e2 3e 78 8d cf 3e
       0.57704324 0.39995497 0.4428298 0.4053762
0003a0 e2 4b e7 3e e4 2e e0 3e 00 ac e4 3e ed 3d df 3e
       0.45175081 0.43785775 0.44662476 0.43601933
0003b0 bd d2 e3 3e 07 c3 d5 3e 7c d2 e6 3e 69 73 d4 3e
       0.44496718 0.41750357 0.45082462 0.414943
0003c0 61 00 c2 3e 8d 6c d5 3e f7 e9 cf 3e b4 f7 c8 3e
       0.37890914 0.4168438 0.4060819 0.39251482
0003d0 ce 1d bc 3e 97 c4 a8 3e 9c 96 a8 3e 7a 19 a4 3e
       0.3674149 0.32962486 0.32927406 0.32050687
0003e0 2d d9 b0 3e da cd ba 3e 88 27 a7 3e 40 a7 8e 3e
       0.34540692 0.36485177 0.32647347 0.27861977
0003f0 26 2f a1 3e 6b 6c 97 3e 5d 62 a1 3e 79 6d 90 3e
       0.31481284 0.29574904 0.31520358 0.2820852

bn2.bias f4 [256]
000000 f4 cc 0b 3e 6f 6d 17 3e 16 86 3d 3e 83 10 28 3e
       0.13652402 0.1478784 0.18508181 0.16412549
000010 ae 39 32 3e d8 e5 45 3e 82 be 57 3e 3c 76 60 3e
       0.17404816 0.1932596 0.21068767 0.21920103
000020 c7 cb 81 3e 95 56 82 3e f6 d4 7a 3e d0 68 95 3e
       0.25350782 0.25456682 0.244953 0.29181528
000030 ac 81 99 3e 18 59 94 3e 03 43 9b 3e d4 99 a9 3e
       0.29981744 0.28974223 0.30324563 0.33125174
000040 ce 62 b4 3e e0 ff c2 3e 10 ce ea 3e 33 43 fb 3e
       0.35231632 0.38085842 0.45860338 0.49074706
000050 9e cb fe 3e 21 37 04 3f 4f d8 0e 3f 6e e7 1c 3f
       0.49764723 0.5164662 0.5579881 0.61290634
000060 b5 b5 1e 3f d2 1f 36 3f 75 a1 41 3f 26 dd 55 3f
       0.6199601 0.71142304 0.7563699 0.8354057
000070 c5 72 53 3f cf 76 67 3f 89 06 89 3f f9 25 8e 3f
       0.82597 0.9041566 1.0705119 1.1105338
000080 d1 1d a0 3f 99 e0 a1 3f af 2d bb 3f ec 73 cd 3f
       1.2509099 1.2646667 1.4623317 1.6051002
000090 24 59 d4 3f 76 5f e3 3f 84 60 f8 3f 20 2a 0a 40
       1.6589704 1.7763507 1.9404454 2.158821
0000a0 4c 44 0d 40 4e 05 19 40 11 51 24 40 22 ce 2c 40
       2.2072935 2.3909488 2.567448 2.7000813
0000b0 ec 6f 37 40 fe e0 43 40 7e 82 4b 40 05 f3 58 40
       2.8662062 3.0606074 3.1798396 3.3898327
0000c0 11 3a 60 40 d4 50 6a 40 e3 95 72 40 0f bf 7a 40
       3.503544 3.6611834 3.7903984 3.9179113
0000d0 d7 c1 81 40 ed 36 86 40 61 0b 89 40 90 77 8d 40
       4.054912 4.194205 4.282639 4.420845
0000e0 5a 7a 90 40 f2 72 93 40 1f 37 97 40 43 6c 9a 40
       4.5149355 4.6077814 4.7254786 4.8257155
0000f0 65 12 9c 40 69 f0 9d 40 91 6d a0 40 4a ad a2 40
       4.8772454 4.935597 5.013375 5.0836535
000100 94 92 a3 40 db ae a4 40 d4 bb a6 40 bc 61 a7 40
       5.111643 5.1463447 5.210428 5.2306805
000110 e7 86 a8 40 be f4 a9 40 07 7b aa 40 66 95 ab 40
       5.2664676 5.3111258 5.327518 5.361987
000120 97 8e ac 40 46 4d ad 40 98 f7 ad 40 46 4c ae 40
       5.392406 5.415683 5.436474 5.4468107
000130 d1 96 af 40 cf 0f b0 40 3d 90 b0 40 26 bf b0 40
       5.48716 5.5019298 5.517607 5.5233335
000140 ca 84 b1 40 1d 60 b1 40 cd fd b1 40 6a 5a b2 40
       5.5474596 5.5429826 5.5622315 5.573537
000150 51 4d b2 40 27 d3 b2 40 ed 34 b3 40 43 8e b3 40
       5.571938 5.5882754 5.6002107 5.611116
000160 4e ba b3 40 6f 78 b3 40 58 80 b3 40 1d bb b3 40
       5.6164923 5.6084514 5.609417 5.616591
000170 22 7d b3 40 e5 43 b3 40 e5 b0 b3 40 ca 24 b3 40
       5.609025 5.602038 5.6153436 5.598241
000180 af 1e b3 40 c1 2e b3 40 7b 28 b2 40 58 c6 b2 40
       5.5974956 5.5994573 5.5674415 5.586712
000190 3c 32 b2 40 25 0c b2 40 3f 34 b1 40 39 07 b1 40
       5.568632 5.5639825 5.5376277 5.5321317
0001a0 b9 d5 b0 40 56 1c b0 40 ae c4 af 40 0f d1 af 40
       5.526089 5.503459 5.4927588 5.49427
0001b0 b6 97 ae 40 8f 37 ae 40 4b 10 ae 40 22 11 ad 40
       5.4560194 5.444282 5.439489 5.4083414
0001c0 5d 17 ad 40 d2 3b ac 40 fa da ab 40 7c c3 aa 40
       5.409102 5.3823023 5.3704805 5.336363
0001d0 59 e5 a9 40 ab 6b a9 40 be 9f a8 40 f0 7f a8 40
       5.3092465 5.294393 5.2695 5.2656174
0001e0 2f 81 a6 40 fb d9 a5 40 dd 29 a4 40 61 b6 a4 40
       5.2032695 5.182859 5.1301103 5.147263
0001f0 91 24 a3 40 28 cb a1 40 d0 4f a1 40 bf 1d a1 40
       5.0982137 5.0560493 5.0409927 5.034881
000200 0b a9 9e 40 86 89 9d 40 ba 5f 9c 40 77 c8 9a 40
       4.958135 4.9230375 4.8866854 4.836971
000210 b6 17 9a 40 22 26 98 40 14 7d 96 40 d5 16 96 40
       4.8153944 4.754655 4.7027683 4.690287
000220 d9 9b 93 40 91 83 91 40 5d 6b 8e 40 da 3e 8f 40
       4.6127744 4.5473104 4.450606 4.4764223
000230 44 26 8d 40 22 ae 8a 40 f1 67 88 40 67 cf 87 40
       4.410921 4.3337564 4.262688 4.2440677
000240 f6 54 86 40 83 4b 84 40 c9 9c 80 40 db 43 7e 40
       4.197871 4.1342177 4.019139 3.9728916
000250 37 06 7a 40 6a 46 78 40 d5 08 76 40 86 d8 6f 40
       3.9066293 3.8792977 3.844289 3.7475905
000260 98 e6 67 40 d5 54 6a 40 f4 19 61 40 7b 48 63 40
       3.6234493 3.6614277 3.517209 3.5512989
000270 77 f9 5c 40 92 61 58 40 49 2e 55 40 eb 04 50 40
       3.4527261 3.3809552 3.33095 3.2503002
000280 62 32 4a 40 c9 96 4b 40 36 8f 43 40 a0 20 42 40
       3.1593251 3.1810782 3.055616 3.0332413
000290 a0 cf 40 40 c6 23 43 40 4e 34 33 40 9a 80 31 40
       3.0126724 3.0490584 2.8000674 2.7734742
0002a0 4c 04 30 40 74 f2 2a 40 43 13 32 40 b8 5f 27 40
       2.7502623 2.6710482 2.7824256 2.6152172
0002b0 73 48 21 40 f2 ed 20 40 f8 51 1b 40 2e f9 18 40
       2.520047 2.514523 2.426878 2.3902087
0002c0 27 08 17 40 6f 40 15 40 ee c6 13 40 db 20 12 40
       2.3598726 2.3320577 2.3090167 2.2832553
0002d0 ac f4 0c 40 78 e2 0b 40 9d 82 09 40 b9 66 02 40
       2.2024336 2.1856976 2.148597 2.0375197
0002e0 dd dc 05 40 19 76 f7 3f 7b 07 02 40 69 ec f5 3f
       2.0916054 1.9332916 2.0317066 1.9212772
0002f0 a2 ea f3 3f 84 a9 e5 3f d8 84 e4 3f dc 38 e2 3f
       1.9055979 1.7942357 1.7853041 1.7673602
000300 3d bf e1 3f bd 48 d6 3f 8a 3b d6 3f 32 77 d0 3f
       1.7636486 1.6740948 1.673692 1.6286376
000310 16 a3 ca 3f a4 83 c7 3f ed 13 c6 3f 3e ca c4 3f
       1.583102 1.5587049 1.5474831 1.537422
000320 5d 85 b5 3f fc 3c b1 3f 25 2c af 3f 3d 82 af 3f
       1.4181324 1.3846736 1.3685347 1.371162
000330 9d 6f b3 3f 6f 70 a6 3f b2 8f a4 3f 97 c3 9f 3f
       1.4018437 1.3003062 1.2856352 1.2481564
000340 0c 25 9b 3f 28 c2 94 3f 69 32 95 3f 09 47 96 3f
       1.2120681 1.1621752 1.1656009 1.1740428
000350 8e ac 8c 3f 25 0c 94 3f 2e 0e 93 3f 3b 0f 90 3f
       1.099016 1.1566206 1.1488702 1.1254648
000360 70 2e 8a 3f 8c 67 84 3f 7f ba 71 3f 9e fb 86 3f
       1.0795422 1.03441 0.94425195 1.0545537
000370 6f 52 7a 3f e0 88 76 3f a5 e1 6d 3f 44 0c 69 3f
       0.97782034 0.96302605 0.9292243 0.9103434
000380 e5 5c 54 3f fd 68 52 3f 4d ef 58 3f 02 d1 58 3f
       0.82954246 0.8219145 0.84740144 0.8469392
000390 e2 4f 4f 3f 39 50 3d 3f 91 8e 48 3f 30 26 3b 3f
       0.80981266 0.73950535 0.7834254 0.73105145
0003a0 72 7a 41 3f 8f 85 36 3f b7 ef 40 3f dc 61 2c 3f
       0.7557746 0.71297544 0.75365776 0.6733682
0003b0 61 95 31 3f 73 45 28 3f 54 20 24 3f e5 86 25 3f
       0.6936856 0.6573097 0.6411183 0.6465896
0003c0 98 ef 16 3f 50 16 1e 3f 20 60 1f 3f cc e1 16 3f
       0.5895934 0.61752796 0.6225605 0.5893829
0003d0 cc f4 03 3f b9 70 05 3f 4e 62 0c 3f 33 16 03 3f
       0.51545405 0.52125126 0.548375 0.5120575
0003e0 3f 07 0b 3f 01 56 f9 3e bb 8c 01 3f ab 3c ef 3e
       0.5430793 0.48698428 0.5060536 0.46725973
0003f0 90 63 f5 3e ef b4 ea 3e 1e 6a f0 3e 9f 12 f2 3e
       0.47927523 0.45841166 0.4695596 0.47279832

bn2.running_mean f4 [256]
000000 51 be 0b be 30 a2 12 3d bd 93 73 3d 9b a9 77 3d
       -0.13646819 0.035799205 0.059467066 0.060464483
000010 1d 26 f6 bd 5e 66 12 bd 9c 6b 83 bc 20 f0 13 be
       -0.12018988 -0.035742156 -0.016042523 -0.14447069
000020 3d 89 ab bd 4f e3 fc bd c1 88 00 3e ce e7 ea bd
       -0.083757855 -0.12348043 0.12552167 -0.114699945
000030 b4 3b 7d 3d c3 ea 04 3d 56 d7 b8 3d 70 23 d3 bd
       0.061824515 0.03245045 0.09025447 -0.103094935
000040 9c 68 ce bd ed 16 95 bc 4f 21 10 3d 6c a2 40 be
       -0.100785464 -0.018199408 0.035188016 -0.18811959
000050 7b e3 a4 3c ac f4 24 be b2 a7 71 bc 0f ff 1c 3c
       0.020128002 -0.1610896 -0.014749454 0.009582295
000060 e0 53 10 be 77 a2 53 be 9d 42 31 3b f4 c1 86 bc
       -0.14094496 -0.20667444 0.0027047761 -0.016449906
000070 28 f0 18 bd cb 56 29 be 8e b2 99 3d af 09 a2 bd
       -0.037338406 -0.16537015 0.0750476 -0.07912003
000080 40 15 69 bd 5d da 82 3d 2c ff de bd 5d fb c8 3d
       -0.05690503 0.06389306 -0.10888514 0.09813569
000090 71 c7 4f be 54 80 ad bd 78 76 26 be 8d 71 7b bd
       -0.20290925 -0.08471742 -0.1625613 -0.061387587
0000a0 0b 9a 49 bb 2e 4a b6 bd 70 c2 44 bc c2 5a e3 bb
       -0.0030761983 -0.089008674 -0.012009248 -0.0069383094
0000b0 5f 80 0c be 8c cb d8 bd 02 db 69 3d 71 c5 cc 3c
       -0.13720845 -0.105856985 0.057093628 0.024996491
0000c0 e2 9e e2 bd 4c c4 ef bc 6c a1 d7 3d 1c 91 06 be
       -0.11065461 -0.029268406 0.10528836 -0.13141292
0000d0 6e 98 e2 bd ec 84 e7 bd a8 45 76 ba 40 47 ff bd
       -0.1106423 -0.1130465 -0.0009394535 -0.12464762
0000e0 97 31 25 3e 47 9a 2e 3d 97 6e 4d be c5 ab f3 3d
       0.16132198 0.0426276 -0.20061718 0.11897997
0000f0 0f ce 9f 3d d6 76 70 3b 93 31 7a bd bc 4e 99 3d
       0.078029744 0.0036691925 -0.061082434 0.074857205
000100 58 2b c3 bc 0e 4d 42 3e f5 90 2e be 04 b4 e4 3c
       -0.023824379 0.18974707 -0.17047484 0.02791787
000110 de 6d 34 3e 98 39 14 b9 bf b6 a3 bd 28 14 eb bd
       0.17620036 -0.00014135835 -0.079938404 -0.11478454
000120 a8 d3 7d bc 2b 68 00 3e 48 15 b0 3d 21 9e 38 3c
       -0.015492357 0.12539737 0.08597809 0.01126817
000130 e2 83 31 3e 32 3c 16 3e 9b 3f 9f 3d a2 5d 91 bd
       0.17335466 0.146714 0.07775804 -0.07097937
000140 ab e6 83 3e 7a 9c 55 3e d7 36 18 bc 2b b9 12 3e
       0.25761923 0.20860472 -0.009290419 0.14328448
000150 b9 49 6e 3d bb 32 b5 3d b6 1b e7 3d 00 65 f3 bc
       0.058175776 0.08847567 0.11284582 -0.029711246
000160 69 a5 06 3e 34 fe be bc f1 bf ff 3c 6f fb a7 3d
       0.13149036 -0.023314573 0.031219454 0.08202254
000170 76 1e 63 3d cc f5 56 3e b7 f6 2f 3d 39 37 c6 3d
       0.05544897 0.20992202 0.042959895 0.09678502
000180 09 a8 e0 3d 6e 6f 21 be 47 e0 9d bc 76 7f df 3d
       0.1096955 -0.15765163 -0.019271983 0.10912983
000190 64 e3 ad 39 71 32 02 be 38 c8 47 3e 75 27 83 bd
       0.0003316655 -0.12714554 0.19509971 -0.0640401
0001a0 77 a7 f9 3d d8 39 ad 3d ac 08 57 bd 6b 9c 0e bb
       0.121901445 0.084582984 -0.052498505 -0.0021760713
0001b0 df a0 96 3d eb b4 33 be 06 70 89 3d 35 2b 1a bd
       0.073549025 -0.17549483 0.0671082 -0.03763886
0001c0 d2 05 1a be 3e 8d eb bc b2 75 fe bd d5 b8 8e bd
       -0.15041283 -0.028753873 -0.12424792 -0.06968848
0001d0 b3 6e eb bd 10 ae 32 be 54 8f 7f be 59 20 8b be
       -0.114957236 -0.17449212 -0.24957019 -0.27173117
0001e0 94 2b 2d bc f6 9b 00 3e 47 f7 42 be 40 3d 84 3c
       -0.010569472 0.12559494 -0.19039641 0.016142488
0001f0 26 08 16 3c a9 fe 81 be 4d 15 67 be 33 35 25 be
       0.009157216 -0.25389603 -0.2256672 -0.16133575
000200 aa 18 35 3d e2 e0 ca bd a7 41 c4 bd 9f 70 4c be
       0.044212975 -0.09906174 -0.09582835 -0.19964837
000210 fe 0e 96 bc 7a c7 3c bd 56 43 0c be 1d 02 cb bb
       -0.018317696 -0.046088673 -0.13697562 -0.0061953203
000220 6e 69 5f bb 97 35 a4 bd 4f eb d3 bd dc 59 0c be
       -0.003408994 -0.08018034 -0.10347616 -0.13706154
000230 a5 88 1f bd 91 0a ac bc 22 ff b7 bd 76 29 09 be
       -0.038948674 -0.021001132 -0.089842096 -0.13394722
000240 a1 f2 31 be 94 a3 5b bd 4a b6 f2 bd 64 76 d4 3d
       -0.17377712 -0.053622797 -0.11851175 0.10374144
000250 e6 65 25 bc 49 66 21 be 49 8c fc bd ec ef 48 be
       -0.010095095 -0.15761675 -0.12331445 -0.19622773
000260 2d 20 f9 bd 70 71 1d be b0 50 70 be ca cf 60 bd
       -0.1216434 -0.15375304 -0.2346828 -0.054885663
000270 30 f8 87 bd fd 62 16 be 8d 89 20 bc f2 70 0d be
       -0.06639135 -0.14686199 -0.00979842 -0.13812616
000280 56 42 e4 bd be 34 ec bb 34 a5 af bd e2 8c 2d bd
       -0.11145465 -0.007208436 -0.08576432 -0.042370684
000290 e7 13 c1 3d f1 ad bd bd 72 58 cb bd 5a 69 a7 bc
       0.09427624 -0.09261692 -0.09928979 -0.020435978
0002a0 77 39 0a bd 9e 7e 67 be 30 7c 2f be 92 15 6f 3d
       -0.03374621 -0.22606894 -0.17137218 0.05837018
0002b0 9c 21 37 3c 54 d3 0e bd 1b 09 88 bd d2 0c 1e bd
       0.011177447 -0.034869507 -0.06642362 -0.038586445
0002c0 db d8 0f be 7b c1 33 be 3a 9d 45 be b7 6e 79 be
       -0.14047568 -0.17554276 -0.19298258 -0.2435864
0002d0 0a 9b e4 bc e3 4a fd bd 28 d0 2f 3d 4d 14 a9 bd
       -0.02790596 -0.12367799 0.042923123 -0.08255825
0002e0 43 57 d2 bd e0 26 5e be b6 e7 33 be 81 8a 7c bd
       -0.1027055 -0.21694517 -0.1756886 -0.061655525
0002f0 c3 89 09 be 84 cc 0f be 95 3e b8 bd 8d a4 27 be
       -0.13431458 -0.1404286 -0.089963116 -0.16371365
000300 38 11 6e bd a3 0b 07 be 1a 9b d5 bc 61 e1 25 be
       -0.05812189 -0.13188033 -0.026074935 -0.16199256
000310 fb 69 9f bc 01 51 18 be d6 a9 75 be 2e a7 e7 ba
       -0.019459715 -0.1487465 -0.23990569 -0.0017673725
000320 c1 03 33 bd 4c 12 9b 3c f6 0f 30 be 8f 78 62 be
       -0.043704752 0.018929623 -0.17193589 -0.22116302
000330 15 57 fb bd 83 88 8d bb 97 88 22 be 44 dd e3 bd
       -0.12272469 -0.004319252 -0.15872417 -0.111261874
000340 94 32 57 be b5 ea b6 bd c0 34 a2 bd ba 67 e7 bd
       -0.21015388 -0.089314856 -0.079202175 -0.11299081
000350 7c d9 2b be 8d 39 1c be 77 71 4f bd 36 94 fa bd
       -0.16782182 -0.15256329 -0.050645318 -0.122353
000360 0b 2d d8 bd 90 53 33 be 52 84 78 be df 07 58 bc
       -0.10555466 -0.17512345 -0.24269226 -0.01318547
000370 e8 72 96 bd 4b 5a 79 bd b0 6d 71 3c 42 03 73 bd
       -0.073461354 -0.060877126 0.014735624 -0.05932928
000380 bf 69 c2 bc de 5d e1 bd 50 8b 4e bc 16 c5 34 be
       -0.023732064 -0.11004232 -0.012606457 -0.17653307
000390 78 15 92 bb b2 0c 9f bd 7c d5 8d bd bc 25 36 be
       -0.0044581257 -0.07766093 -0.069254845 -0.17787832
0003a0 d9 61 6a be e4 7e 74 be c1 40 c9 bd 8a b8 ea bd
       -0.22888888 -0.2387653 -0.09826804 -0.11460979
0003b0 1c 17 84 3d dc bc 4e bb f6 48 2a be c1 42 99 bd
       0.0644972 -0.0031545674 -0.16629395 -0.074834354
0003c0 cf df 58 bd b3 c3 b5 bc 3a 62 16 be e8 b5 78 be
       -0.052947816 -0.022188043 -0.14685908 -0.24288142
0003d0 57 19 3d bd 6e 3f a3 be 09 53 4d be bc 56 b5 3c
       -0.046166744 -0.3188433 -0.20051207 0.022136085
0003e0 62 30 19 be 56 0f f7 3c b4 b2 35 be 96 ff 51 3d
       -0.14959863 0.03015868 -0.17743951 0.051269136
0003f0 4c f5 85 3b ee 25 32 be f4 95 1c be c7 9a dd bd
       0.0040880796 -0.17397282 -0.15291578 -0.10820537
