model.pth (torch, 68947 bytes, 4 tensors)

fc1.weight f4 [64, 3]
000000 90 1b 13 bf e0 33 5c 3e d0 34 cf be c1 24 ea 3e
       -0.5746393 0.21504164 -0.4046998 0.45731166
000010 77 07 e9 bc f0 eb 02 3f b6 f9 93 3e 86 56 1b bb
       -0.028445942 0.5114126 0.28901452 -0.0023702695
000020 f8 97 d3 be bb 34 aa 3e 79 c6 38 3f 00 69 1e 3b
       -0.4132688 0.33243355 0.72177845 0.0024171472
000030 be c9 0c bf de 18 84 be 6e 04 b2 be 6a c5 9e 3c
       -0.54995334 -0.25800222 -0.34769005 0.019381244
000040 e9 f9 08 bf 1f 55 ed be 2f 53 34 bf 8d f5 5f be
       -0.5350633 -0.46354005 -0.7043943 -0.21871014
000050 18 0c 37 3e 0c b3 03 3f 5d f7 ee 3e 33 bc 06 bf
       0.17875707 0.5144508 0.46673098 -0.5263092
000060 c1 f6 5d bf 7a 16 15 3e 60 cd f4 3e a2 4a 10 bf
       -0.8670464 0.14559355 0.4781294 -0.5636388
000070 66 8e e9 be 48 7c 5d 3e 5a ce 2c bf 82 59 a3 be
       -0.45616454 0.21629441 -0.6750237 -0.31904227
000080 34 84 5c 3e bb 05 0f 3f 49 d3 09 3f 94 aa 1d 3e
       0.21534806 0.5586812 0.5383802 0.15397102
000090 a1 e1 d1 3e 45 e4 25 bf 80 f3 f4 be 3f 24 f4 3e
       0.40992454 -0.64801437 -0.47842026 0.47683904
0000a0 da 7d 2e be 94 bc 09 3e 04 33 88 be 2e ea 0c bf
       -0.17040196 0.13450843 -0.26601422 -0.5504483
0000b0 00 74 ae ba 5a 29 28 3e ba 07 bc be e0 c4 97 bc
       -0.0013309717 0.16422024 -0.36724645 -0.018526495
0000c0 e9 ac ec be 97 b4 d8 3d a0 49 a2 3d 78 ca 4b 3f
       -0.4622567 0.1058132 0.07924199 0.7960582
0000d0 b7 e2 95 3e 78 3e 06 3e c1 84 f4 be c8 89 ac 3c
       0.29274532 0.13109767 -0.47757533 0.021061793
0000e0 fa 00 8c 3e 1f 82 a8 bd c8 d6 e4 be 56 0f 0b 3f
       0.27344495 -0.08227944 -0.44695115 0.54320276
0000f0 8a 0f 2e 3c 72 9e dc be bc 79 f9 3e 88 15 29 bf
       0.010623822 -0.43089634 0.48725688 -0.6604848
000100 39 5e 00 3f 80 96 93 3d 85 cf 33 be fb 5b 9d be
       0.5014377 0.0720644 -0.17559631 -0.30734238
000110 48 34 82 be 6b 7e 1f bd 91 8b 10 3f ae 4d 94 3e
       -0.25430512 -0.03893892 0.5646296 0.28965515
000120 37 f4 56 bf a0 f5 bb 3c 80 a1 64 3e 48 41 0a bf
       -0.8396639 0.022944272 0.22327232 -0.5400586
000130 13 48 f0 3e 27 23 01 bf 6a 47 8e 3c 84 4b fb be
       0.46929988 -0.50444263 0.017368037 -0.4908105
000140 84 19 81 3e 52 77 11 3f b7 c0 58 3e 69 3e 90 be
       0.2521478 0.56822693 0.21167265 -0.28172615
000150 2b 76 fc 3e 58 68 6c be 88 a0 e1 3d 6e 19 0e bf
       0.49308905 -0.23086679 0.11016947 -0.5550755
000160 70 94 1f bf 28 fa 37 3e 13 e2 3a bd a6 35 37 bf
       -0.6233587 0.17966521 -0.045625757 -0.71566236
000170 c8 01 ae be b3 e3 b6 be 84 3f 40 bf 42 f2 04 be
       -0.33985734 -0.35720596 -0.7509692 -0.12983039
000180 18 59 44 bf 83 4f 26 3e 60 1b 06 be f9 fb da be
       -0.76698446 0.16241269 -0.1309638 -0.42770365
000190 35 9d 55 be 46 13 a2 3e c6 5a 90 3e 1d a0 1d 3f
       -0.20860751 0.3165533 0.28194255 0.6157244
0001a0 1e 53 c4 3e e0 96 8e 3f 6b ec 67 3e 78 0e 8c be
       0.38344663 1.1139793 0.2264878 -0.2735479
0001b0 ac f2 03 bf 8d 16 87 3e 8c 12 b1 3e b7 06 25 bf
       -0.5154216 0.26384392 0.34584463 -0.6446337
0001c0 00 9e c5 be ac 66 c6 3e ab 6e d6 bb 70 71 20 bc
       -0.38597107 0.38750207 -0.0065439544 -0.009792671
0001d0 e1 ad bb be 58 49 04 3f b0 fe 02 bf ae c2 0a be
       -0.36656097 0.51674414 -0.5116987 -0.13550827
0001e0 ff 61 ce 3e ca 15 7e bf 78 e1 e0 bd 08 b1 8b be
       0.4030914 -0.99252 -0.10980505 -0.27283502
0001f0 c6 c3 be 3e 60 91 f8 3e 5b dc ea bd fb e4 0a bf
       0.37258738 0.48548412 -0.11467811 -0.54255646
000200 ac 6e 6c 3e 8e 11 53 3d 87 06 d7 be 48 ff 78 3e
       0.23089093 0.051530413 -0.41997167 0.24316132
000210 f8 08 5e bf a4 7e de be cc 16 10 3e 28 e4 14 bf
       -0.86732435 -0.43455994 0.14071196 -0.5816064
000220 55 e0 c3 3c d2 e3 a6 3e b9 3d a1 be c6 e7 57 3f
       0.02391068 0.32595688 -0.31492403 0.84338033
000230 42 fb e9 be 0d d7 a1 3d 71 7f 21 bf d9 2d 84 be
       -0.45699507 0.07902346 -0.63085085 -0.2581623
000240 e0 1f 65 3d 18 5f 7c 3e 66 a3 0c 3f 45 89 25 3e
       0.0559386 0.2464565 0.54936826 0.16165645
000250 5d 89 a9 be 40 97 82 3d 4e 98 68 3d 81 81 05 bf
       -0.33112612 0.06376505 0.056785874 -0.5215073
000260 50 92 3a 3e e6 36 85 3e bb 92 fb be ba ce c7 be
       0.18219876 0.26018447 -0.49135384 -0.39024907
000270 c5 5c 9f 3e 60 b0 bb 3e e2 f1 80 3e ee f7 6a bf
       0.31125465 0.36658 0.25184542 -0.9178456
000280 c2 07 ea be b0 99 14 3e fc 9d b2 be d7 41 92 be
       -0.45709044 0.14511752 -0.34886158 -0.28565857
000290 40 a6 02 3e e6 69 99 be 11 bd 8b be 9c 24 3a 3e
       0.12758732 -0.29963607 -0.27292684 0.18178028
0002a0 83 2d 41 3f f2 27 8c 3e 68 4e bd 3d 58 0a d0 bd
       0.7546007 0.27374226 0.092434704 -0.10158223
0002b0 d8 9f 11 be 28 f4 ae bd 7c 9e 5d bf 9c 66 45 3e
       -0.14221132 -0.08542663 -0.8656995 0.19277424
0002c0 e2 dc 72 be bf cb b7 bd 30 14 fe be 22 43 a0 3e
       -0.23717073 -0.08974408 -0.49624777 0.31301218
0002d0 39 83 09 bf 14 f9 90 3e 36 2b 0a 3f 88 4c 0a 3f
       -0.53715855 0.28315032 0.53972185 0.5402303
0002e0 56 f7 48 3e 8d 2d 8e be e6 2b 15 3f e6 1a 9e 3f
       0.19625601 -0.27769127 0.5827011 1.2351959
0002f0 70 dd 53 be 73 3e f3 be ea f9 80 3e f4 04 5c 3e
       -0.2068994 -0.47508582 0.2519067 0.21486264

fc1.bias f4 [64]
000000 57 83 7d 3f 18 68 08 3f 23 61 f7 3e fb 9f 5c 3f
       0.99028534 0.53283834 0.48316297 0.8618161
000010 6c d2 15 3e 8e 5b 48 3f 76 56 09 3d 80 9a 39 3f
       0.14631051 0.782647 0.03352972 0.72501373
000020 11 4e 9f 3f 17 84 d1 be 48 dc 73 3e 4c 14 21 3f
       1.2445699 -0.4092109 0.238145 0.62921596
000030 58 f8 67 3e b9 7b 8d 3f 2e 35 86 3f cf c1 60 3f
       0.2265333 1.1053382 1.0484979 0.8779573
000040 9b 6b 2d 3f 6f b2 5a 3f cf 0a 1e 3f 0f 01 12 3f
       0.6774232 0.8542852 0.6173524 0.57032865
000050 d7 a4 5d 3f c7 53 c0 3e ff 9c 21 bf 06 ec 8c 3f
       0.8657965 0.37563917 -0.6313018 1.1009529
000060 81 1b 8a 3f d1 60 cb bc 6e ac 37 3f e6 bd 1b 3f
       1.0789644 -0.02482644 0.7174748 0.6083664
000070 35 46 59 3f e1 6e b0 be 89 d4 77 3f da aa 28 3e
       0.8487275 -0.34459594 0.9680868 0.16471425
000080 d2 4f af bd 1e 99 56 3f 01 a8 3b 3f 5f b2 dd 3c
       -0.085601464 0.8382739 0.7330323 0.027062593
000090 de 46 0c 3e 40 51 1a bf 5f 72 8b 3f a4 e4 0d 3e
       0.13698909 -0.6028023 1.0894278 0.1385675
0000a0 14 de b2 be e0 84 9f 3d c9 70 2c 3f 5a b5 88 3f
       -0.34935057 0.07789016 0.67359596 1.0680344
0000b0 b4 9f be 3e 4c 36 40 3f 3b a0 0d 3e 1b dd 87 3f
       0.3723122 0.7508285 0.13830654 1.0614351
0000c0 17 ce 0f bf 97 e4 4d 3f 93 c2 5e 3f f2 7d 1b 3d
       -0.56173843 0.80426925 0.87015647 0.037961908
0000d0 0f ea fb 3e ff f7 b8 3e 33 f7 3e 3f 2a 05 85 3e
       0.4920201 0.36126706 0.74595946 0.25980502
0000e0 a3 1a 4f 3f 7c b9 43 3f dd de af bd 51 f5 21 3f
       0.8090002 0.764549 -0.0858743 0.6326495
0000f0 5e fb 1f 3e 22 5b 14 3f 97 34 55 be 2b 51 0d 3e
       0.15623233 0.5795156 -0.20820843 0.13800494

fc2.weight f4 [256, 64]
000000 84 6d 3a 3d 5e 85 5d 3c b5 cd 90 bc ff cb 5b bb
       0.0455146 0.013520567 -0.017676214 -0.003353834
000010 27 97 a2 3d 75 de 3e 3d 1c f6 a0 3d ff 7b d3 3c
       0.07938986 0.04659887 0.07859442 0.025815962
000020 0b c3 81 bd 8c 13 04 bd 67 d4 aa 3d b4 03 de bd
       -0.063360296 -0.032245204 0.08341294 -0.1084055
000030 05 c6 fa 3d a9 f1 f4 bd 95 1a 27 bd e8 c1 16 bc
       0.122448005 -0.119601555 -0.040796835 -0.009201504
000040 4f ce 2a 3d a7 9a ff bd 63 30 28 bd e8 15 1b bd
       0.041700657 -0.124806695 -0.04106177 -0.03786269
000050 6c d0 b8 3d b5 f0 2e bd 33 b1 32 bf 48 5f 80 bd
       0.09024128 -0.042710025 -0.69801635 -0.062681735
000060 1a 37 9a 3d a0 4c 2b 3b a3 c1 52 bd 7b b5 e8 3d
       0.07530041 0.0026138201 -0.051454198 0.1136274
000070 3e ff eb bb 51 33 b1 3c 11 9d 85 bd a5 4b 23 bd
       -0.007202058 0.021630915 -0.06524099 -0.039867062
000080 2d 2c 9c bd 0d 02 a0 bc 53 7c a0 3c 52 e1 8c 3b
       -0.07625613 -0.019532228 0.019590532 0.004299321
000090 d6 0b 83 3d 76 8b 51 be d3 1d 47 3c 8b a6 7c bd
       0.06398742 -0.20463356 0.012153107 -0.061682265
0000a0 63 22 59 bd 09 42 2c 3e dd 49 c2 3c 52 b8 22 3d
       -0.05301131 0.16822065 0.023716861 0.039726563
0000b0 6d 25 05 3d 90 e3 1f bc 86 21 23 3d 08 b9 39 3d
       0.032506395 -0.009758845 0.039826892 0.045342475
0000c0 e2 18 d8 bd 19 db a9 3d 2d 6e 6d 3d 33 d2 9e bb
       -0.10551621 0.08293743 0.0579664 -0.004846835
0000d0 58 03 d0 3d 90 cc e2 bd c9 27 fb bc dc c8 e6 3c
       0.10156888 -0.110741735 -0.03065862 0.02817195
0000e0 96 ec 6f 3c d7 af 91 3d c5 14 97 3d 63 11 1d bd
       0.014643809 0.07113617 0.07377008 -0.03834666
0000f0 ba 92 15 bd a0 e8 a4 3d 24 55 18 3d 73 ff 2e be
       -0.036516882 0.08052182 0.03719057 -0.17089634
000100 4c 48 0d 3e e9 76 ab 3d f8 1a 31 bd 75 90 8a 3d
       0.1379711 0.0837229 -0.04323861 0.06765834
000110 19 77 34 3d 0a 43 c0 3a a7 85 0c 3d b3 fc 2b bc
       0.044058893 0.0014668417 0.03430715 -0.01049726
000120 87 4f 0f bd b7 7e 7e bc 25 a3 82 bb 4a c2 5a 3d
       -0.034987953 -0.015533141 -0.0039867335 0.053407945
000130 43 d0 a0 3d 23 ca 62 3c 71 ae a7 3d 16 7b 4d bc
       0.07852223 0.013842138 0.08187569 -0.012541553
000140 dc c0 e5 3b 15 46 b3 3d 71 d6 ee 3d b2 fa b5 3d
       0.007011516 0.087536015 0.11661995 0.08885707
000150 ce 39 d0 3c b5 2f da 3c 16 3b c0 3e b0 30 11 bd
       0.025418188 0.026634077 0.3754508 -0.035446823
000160 e6 e9 5d bd d7 67 85 bc 09 df a2 bd 16 b3 6b bd
       -0.05417814 -0.016284866 -0.07952697 -0.057543837
000170 0a 8c 29 bd 8d 42 37 bd a1 71 b0 bd 34 ae d1 bd
       -0.041393317 -0.044741202 -0.08615423 -0.10238305
000180 3f 16 0d 3d c2 7a 28 bd da 8a f3 bb 5a 43 95 bd
       0.034445044 -0.041132696 -0.007432324 -0.07288237
000190 3b 14 7b bc 99 3f 9b 3d 43 0c a3 bd 58 db b4 3d
       -0.015324648 0.0758049 -0.07961323 0.08830899
0001a0 f4 fc 67 3d 01 c5 91 bd 73 5e 27 bc 4b 4d 99 3d
       0.05663772 -0.07117654 -0.01021539 0.074854456
0001b0 9a 8f 52 bb 08 ac 25 bc b8 12 a0 bb 16 98 a7 bd
       -0.003212905 -0.010111816 -0.004885044 -0.08183305
0001c0 60 3f 58 3c 59 99 8e 3c 39 f9 b7 bd 58 96 ef bc
       0.0131987035 0.017407106 -0.08983082 -0.029246494
0001d0 2f f1 44 bd 77 d9 e2 3d 6d 7e d5 3d db ea e7 3d
       -0.048081573 0.110766344 0.104245044 0.11324092
0001e0 f4 d9 9d 3d e8 ca e4 3c 98 4a d7 bd 2e fb 9b bd
       0.07707587 0.027928784 -0.105122745 -0.07616268
0001f0 40 bc 8d bc 45 38 55 3d 44 a1 bf bd 83 91 e9 bd
       -0.017301679 0.052055616 -0.09356931 -0.11404707
000200 33 55 81 3d ad bb e7 3d 12 11 09 3d fd e4 24 bd
       0.063150786 0.11315093 0.033463545 -0.040257443
000210 7b ca 3b bd df a9 8d bc 51 85 5d 3d 44 da 72 3d
       -0.045847397 -0.017292915 0.05408222 0.059290186
000220 10 2a 93 3d 65 dd 17 3c 4b 6f bf bc 27 2c 0a be
       0.07185757 0.009269093 -0.023368498 -0.13493405
000230 47 a6 06 3b 15 fc f4 bb 0b 9c b7 3d 1e 45 b0 3c
       0.0020545886 -0.0074763396 0.0896531 0.021517333
000240 d1 75 9e 3c 59 ef 2d 3e 9a 4f a2 3d 37 e3 16 3d
       0.019343289 0.16985835 0.07925339 0.036837783
000250 8f 42 22 bc e5 c5 8d bd 23 f8 1a be cf 27 d8 bd
       -0.009903564 -0.06922511 -0.15133719 -0.10554468
000260 aa 64 38 3c 11 ef 9c 3d 1c e1 6c bd d3 02 be 3d
       0.011254469 0.07662786 -0.05783187 0.092778824
000270 7a 2e cc bd c1 08 30 3d dd 31 f7 bc ea 55 ec bb
       -0.09969802 0.0429771 -0.030175144 -0.00721239
000280 b8 fa 96 3c d8 cd b5 bd 8d d5 d6 3c 11 4a 91 3b
       0.018430099 -0.08877152 0.026224876 0.004433878
000290 13 50 98 3c bf fe 2f bc 83 36 04 3d a8 2f 57 bd
       0.01859287 -0.010741889 0.03227855 -0.052535683
0002a0 8b 5a 7d 3d cc 9d 30 3d 0b 5c 0a 3e 67 a6 c0 ba
       0.061853927 0.043119237 0.13511674 -0.0014698029
0002b0 1a 15 02 bd 07 54 2e 3d b0 c9 9f 3c 5b 02 2b be
       -0.031758405 0.042560603 0.019505352 -0.16700117
0002c0 b0 d8 d0 3d e1 6e 2d 3d a3 d4 43 3b 52 94 5f bc
       0.1019758 0.04234207 0.002988138 -0.013646202
0002d0 d6 dc 81 bd 1d 44 cf bc 29 22 e9 3d d1 24 9a bd
       -0.06340949 -0.025301034 0.11383469 -0.075265534
0002e0 a1 2d 0e bc 52 5f 47 3d d0 9e 3d bd fb 36 c7 bc
       -0.008677871 0.04867489 -0.046294034 -0.024318209
0002f0 af 60 aa bd 5b aa 2b 3d 23 1c c6 3b e6 fe 26 3d
       -0.08319222 0.04191051 0.0060458346 0.040770434
000300 b0 02 2e bb 21 32 0d bc 2a 66 49 bc f7 0a b0 3a
       -0.0026551895 -0.008617909 -0.012292424 0.0013431002
000310 64 d2 62 3d ad 7c 22 3c d8 c2 2d bd ab 7f 97 3d
       0.055376425 0.00991742 -0.042422146 0.073973976
000320 0d 0d f7 3d 88 fd 35 3d 56 10 1f bc dc 86 9d bd
       0.12063036 0.04443124 -0.009708485 -0.07691738
000330 4f 25 bb 3d 3d 15 f8 3c 64 72 45 bd 72 44 66 3d
       0.091379754 0.030283565 -0.048204795 0.05621762
000340 1a 92 04 bd 89 38 f8 3d ef 57 9b bd 76 33 c9 bd
       -0.032365896 0.12120158 -0.075851314 -0.098242685
000350 e4 b1 67 bd e6 55 d6 bd 31 0a 64 3f de 0d 69 bd
       -0.056566134 -0.104656026 0.8907805 -0.05689799
000360 15 40 14 bd 35 be e7 3c 5d 5f 93 bb 01 40 7a 3b
       -0.036193926 0.02828894 -0.004497452 0.0038185122
000370 c3 c5 ab bd 42 52 aa bd ed 52 f8 3c bc bc 93 3d
       -0.083873294 -0.08316471 0.03031298 0.072137326
000380 18 d2 98 3c 0e ad 67 3d 49 f7 2c 3d 1c 70 a5 bd
       0.018654868 0.056561522 0.042228017 -0.08078024
000390 d0 8a 62 be 39 99 9a bd 9c 1a 52 3d 2d 69 ed 3d
       -0.22123265 -0.07548756 0.051294908 0.11592326
0003a0 aa 2c 8b be a7 05 d5 3b 23 42 05 bd 2b 22 86 bd
       -0.27182513 0.006500918 -0.032533776 -0.06549486
0003b0 0a 54 86 3d 40 dc b9 3b ff 57 90 3e 49 03 bd ba
       0.06558998 0.005672008 0.28192136 -0.0014420535
0003c0 36 1e f3 bd 10 dc 96 3d 57 65 0e bd 5a 11 e1 3c
       -0.11870997 0.07366192 -0.034764614 0.027474094
0003d0 4f 80 2a bd 8f c3 59 3d 40 1f 30 3d 8e 86 29 bd
       -0.04162627 0.053165015 0.042998552 -0.041388087
0003e0 54 cf 99 3d 0e 7c cf 3d 15 57 1f 3d 06 a1 1b 3e
       0.07510248 0.101310834 0.038901407 0.15198144
0003f0 58 a2 25 bd 15 41 92 bd bc 95 be bd 24 67 b1 bd
       -0.040438026 -0.0714132 -0.09305903 -0.08662251

fc2.bias f4 [256]
000000 09 b1 5c 3d 4a 1b c3 bb a0 41 fd bc cc 75 1b bd
       0.05387977 -0.005954181 -0.030915082 -0.037954137
000010 f9 02 04 3e 73 51 fe 3b 0f f6 32 3b 34 57 a2 bb
       0.12891759 0.0077611743 0.0027307307 -0.004954243
000020 80 21 91 bd f0 6c af 3d 1d 5f 8f 3d 7e c1 57 3c
       -0.07086468 0.085657 0.07000563 0.013168691
000030 4b 70 00 bb f4 9d be 3c a6 5f d9 bd 2b 9d 73 bc
       -0.0019598182 0.023268677 -0.106139466 -0.014869015
000040 c2 d0 3b bd 78 11 8d bd e3 c5 c0 bd a9 10 aa bd
       -0.045853384 -0.068880975 -0.09412744 -0.08303959
000050 25 5f cd 3c 75 3d 43 bd e4 f4 9d 3b ac 34 61 bd
       0.025069783 -0.047666032 0.004820453 -0.054981872
000060 41 9c 00 3e e3 56 55 3d 32 e0 10 3e 4c 08 3d bd
       0.12559606 0.052084815 0.14148024 -0.04615049
000070 7a 64 0b 3e a4 42 0d 3e ac 86 40 3e 58 6a 74 3d
       0.13612548 0.13794953 0.18801373 0.05967173
000080 ac 84 c5 bb 71 13 46 3e cb 8a 2c bd 40 a4 f0 3d
       -0.0060277786 0.19343354 -0.04212455 0.11750078
000090 cd bd af 3d 02 20 5e 3d 17 e2 40 3d f2 73 02 3e
       0.085811235 0.054229744 0.047090616 0.12739542
0000a0 1e b0 5c 3e 64 72 34 3e 42 50 0c 3e 26 ae 22 3d
       0.21551558 0.17621762 0.13702491 0.039716862
0000b0 d5 a9 6a 3e e4 3c 27 3e 3f 6f 66 3d b8 54 da 3d
       0.22916348 0.16331822 0.056258436 0.1066069
0000c0 7a dc 05 3e 4a 68 9a 3e a6 ee a2 3e fb fb b1 3d
       0.13072386 0.3015769 0.318227 0.086906396
0000d0 f7 e1 e4 3d c6 42 49 3e c1 af a3 3e 52 ad 81 3e
       0.11175912 0.19654378 0.31970027 0.25327545
0000e0 ac 2a 0c 3e 74 40 a0 3e ad 98 23 3e 5d d2 59 3e
       0.13688153 0.31299174 0.1597621 0.21271653
0000f0 3a 35 9e 3e d1 cf 8d 3e a3 98 b5 3e e5 e2 95 3e
       0.30899984 0.27697614 0.35468015 0.2927467
000100 27 32 c9 3e f4 79 8b 3e 8e 57 8c 3e 90 86 43 3e
       0.39296076 0.2724148 0.2741055 0.190943
000110 17 41 cd 3e 45 63 d0 3e 79 d2 a7 3e 28 a2 b1 3e
       0.40088722 0.40700737 0.32777765 0.34694028
000120 fe af b6 3e 83 50 87 3e 50 a3 84 3e b7 00 b6 3e
       0.35681146 0.26428613 0.25905848 0.3554742
000130 9c 29 ac 3e ef 02 b4 3e 99 05 7c 3e 1e d1 c4 3e
       0.33625495 0.35158488 0.2461151 0.38440794
000140 fa 0b ef 3e 33 da a0 3e 6c 2a db 3e 17 ac c7 3e
       0.46688825 0.31416473 0.42805803 0.38998482
000150 7d fd 73 3e ec 37 b1 3e 10 50 ae 3e 8f f2 9f 3e
       0.23827167 0.34612978 0.34045458 0.31239745
000160 dd e0 e3 3e 43 0a bf 3e 48 29 d9 3e 42 ac d8 3e
       0.44507495 0.37312517 0.42414308 0.42318922
000170 32 1f 76 3e b7 a3 bf 3e 59 ad d5 3e 20 d0 86 3e
       0.24035338 0.37429592 0.41733816 0.26330662
000180 ba 79 a0 3e c6 f7 ea 3e b4 aa bf 3e cb a5 dc 3e
       0.3134287 0.4589216 0.37434924 0.4309524
000190 40 e7 d8 3e ae 7e bd 3e 29 c9 dd 3e 35 d0 ba 3e
       0.4236393 0.3701071 0.43317536 0.36486974
0001a0 8f dd db 3e 24 d6 92 3e ea fe de 3e 7c da dc 3e
       0.42942473 0.28679 0.4355386 0.4313544
0001b0 27 d4 8b 3e 83 10 c0 3e de bd ca 3e a8 9e c0 3e
       0.27310297 0.37512597 0.39597982 0.37621045
0001c0 cc cc c7 3e 13 fc 48 3e 27 2a 4e 3e 26 d4 54 3e
       0.39023435 0.19627409 0.20133267 0.20784053
0001d0 55 09 68 3e 1a 29 d5 3e d3 60 89 3e 39 f4 9d 3e
       0.2265981 0.4163292 0.26831684 0.3085039
0001e0 3a c1 3b 3e d9 fc ac 3e fd 68 50 3e e1 f8 c1 3e
       0.18335429 0.33786657 0.2035255 0.37885192
0001f0 bd fc 76 3e d7 36 b0 3e 5f 52 5c 3e 08 a6 d3 3e
       0.2411985 0.3441684 0.21515797 0.4133761
000200 11 e7 39 3e 98 c2 c1 3e 2a b2 6f 3e cb 39 d0 3e
       0.18154551 0.37843776 0.23407808 0.40669093
000210 02 84 c4 3e 77 54 9e 3e 7e 43 5d 3e 4f cd a8 3e
       0.38381964 0.30923817 0.21607777 0.32969138
000220 c2 1e 3d 3e 26 92 ba 3e 26 a8 88 3e fc 12 9c 3e
       0.18468764 0.36439627 0.26690787 0.30483234
000230 c4 eb 2f 3e ef e3 b6 3e 11 a0 7c 3e ae ea 98 3e
       0.17179781 0.35720775 0.24670435 0.29866546
000240 e2 40 64 3e 1e 11 73 3e 19 30 b3 3e d2 39 80 3e
       0.22290376 0.23736998 0.34997633 0.25044113
000250 a0 c1 9c 3e b6 9b ab 3e d6 3d 45 3e ef 66 99 3e
       0.30616474 0.33517236 0.1926187 0.29961345
000260 03 a3 95 3e 4c 2b 2c 3e c0 71 57 3e 41 13 fa 3d
       0.2922593 0.16813391 0.21039486 0.12210704
000270 5a 0e 13 3e 5b 32 aa 3e 41 43 92 3e 4a 5a 96 3e
       0.14360943 0.33241543 0.28566936 0.2936576
000280 40 28 c3 3d 06 4b 54 3e 1a 6b 53 3e 67 29 27 3e
       0.095291615 0.20731744 0.20646325 0.16324387
000290 de 08 0a 3e 23 c5 01 3e c9 44 16 3e a0 23 c1 3d
       0.13479945 0.12672858 0.14674677 0.09430623
0002a0 aa d9 47 3e 43 0b 98 3e 84 5c 25 3e 0c 69 6d 3e
       0.19516626 0.29696092 0.16148573 0.23184603
0002b0 e3 bf 4f 3e 41 b8 10 3e 55 1c e0 3d 22 bd 1e 3e
       0.20288043 0.14132787 0.10942904 0.15501836
0002c0 0d b3 0b 3e 54 27 1b 3e 1c a5 9a 3e 97 f4 fa 3d
       0.13642521 0.15151721 0.30204093 0.12253683
0002d0 78 93 bd 3d 73 dd 94 3e 6d 78 40 3e 58 97 92 3e
       0.09256643 0.29075202 0.18795939 0.2863109
0002e0 b8 b3 65 3e 26 31 8a 3e 69 06 22 3e 36 cc e8 3d
       0.22431839 0.26990622 0.15822758 0.11367075
0002f0 aa f9 0f 3e 71 e3 92 3d 09 a4 3c 3e 94 0e 30 3e
       0.14060083 0.07172287 0.1842195 0.17193061
000300 c0 db 7c 3e ff ef 53 3d f4 f7 d0 3c 8a cd 78 3e
       0.24693203 0.05174255 0.025508858 0.24297157
000310 ec 29 68 3e a2 6c 42 3e fa 1f 2d 3b 00 d0 84 3d
       0.22672242 0.18986753 0.0026416765 0.06484985
000320 a0 c5 15 3e 8c 41 13 3d 01 21 25 3e 7c 7a 8d 3d
       0.14626169 0.035951182 0.16125871 0.06908128
000330 34 0b 54 3e 5c d5 41 3e 27 9d a8 bc e7 f6 1c 3e
       0.20707399 0.18929046 -0.020582749 0.15328561
000340 2d 77 c6 3d f7 84 28 3e dd e9 db 3d c0 7d e9 bb
       0.096907 0.16456972 0.10737965 -0.0071255863
000350 7c b1 e5 3a fd 2c 28 3d 20 b0 8a 3d 56 f6 2d 3e
       0.0017524208 0.04105853 0.067718744 0.16988501
000360 36 15 9a 3d cc 4d 05 3e a4 a5 29 3e 1f 40 05 3d
       0.07523577 0.13017958 0.16567093 0.032531854
000370 32 a3 26 3e d0 41 16 3e 10 37 4b 3d fe 39 61 3c
       0.16273192 0.14673543 0.04961306 0.013746737
000380 42 d9 c5 3d 25 1f e7 3b 73 a5 21 3e 20 5c e1 3d
       0.09660579 0.0070532733 0.1578577 0.110038996
000390 88 36 0a bd c4 69 69 bd f5 ef d0 3c 7b 66 7d 3b
       -0.03374341 -0.05698563 0.025505045 0.003866582
0003a0 7e e7 4a bd 3d 8d 92 bd c3 06 8e 3d 1a b0 b9 3d
       -0.049537174 -0.07155845 0.069348834 0.09066792
0003b0 4b 76 69 3b 9e 8c 5c bd 4f 88 81 3b e3 de 38 3c
       0.0035623487 -0.05384504 0.003953017 0.011283609
0003c0 7c 48 9a bd 04 8d 1b bd 23 69 35 3d b7 53 42 3d
       -0.075333565 -0.03797628 0.04428972 0.047443118
0003d0 66 14 6b 3d 71 2d d0 bc 2c a8 27 bd 4f c8 58 bd
       0.0573925 -0.025412293 -0.040931866 -0.052925404
0003e0 85 74 94 3d 83 5c 98 bd 6a 9e 11 3e 11 3f f6 3d
       0.07248787 -0.0743952 0.14220586 0.12023748
0003f0 f0 90 6d bd 6d e0 dc 3c 62 35 ec 3d fb 5e f5 3c
       -0.05799955 0.026962483 0.115336195 0.029952517
