cached_models/ABM_models/ABM_BiRNNmodel.pth (torch, 172387 bytes, 12 tensors)

rnn.weight_ih_l0 f4 [64, 3]
-0.059236694 -0.017089618 -0.0676633 -0.012758105 0.02566683 0.121201515 -0.0068154433 -0.099796124
0.07653105 0.03883232 0.046534896 0.047867462 -0.06825645 0.09989458 -0.11589821 -0.072333395
-0.029861493 -0.11061938 0.094965935 -0.062721066 -0.05960238 -0.023086052 0.068478815 -0.055036366
0.026302746 -0.07942199 0.12401004 0.0770744 0.08104285 0.028635964 0.03849661 -0.09430902
0.019667938 -0.020240184 0.0378089 0.062185436 0.093475066 -0.013399204 0.07909012 0.06670932
0.039784066 0.12448767 0.09351329 -0.08868774 0.06459977 0.007942499 0.018823532 -0.0037121773
0.08103512 -0.044746734 0.110214576 -0.07989512 -0.062032983 0.077895164 0.0060859555 -0.042461444
0.07292126 -0.050337825 -0.09540629 -0.10719074 0.080322415 0.01846038 0.005621299 -0.05534867
0.040776145 0.004390374 0.059434436 0.032841045 0.071958184 0.06925885 0.05429377 -0.048917845
-0.042812295 -0.0962362 -0.10685931 0.013921973 -0.053189553 0.059810296 -0.090099916 0.056808006
0.09252101 -0.02245911 0.027317518 -0.11909047 0.071780235 -0.0873896 -0.028568655 -0.00056973135
0.01946235 0.066019356 0.09219713 0.048575103 -0.07690644 -0.007097003 0.08557079 0.013379961
0.053073872 0.08979442 -0.092601344 0.07603726 0.040340435 -0.010877356 -0.071573384 0.049748585
-0.11334966 -0.04214918 -0.012226579 0.10234979 0.047216937 -0.02508876 0.032826528 0.045665678
-0.06607148 -0.07252142 -0.018424368 0.059345532 -0.06475797 -0.096699074 0.09320987 -0.0936887
-0.031688165 -0.10519215 0.042324886 -0.021195496 0.088680126 -0.09339005 0.093492635 0.08033911
0.005064875 -0.020261543 -0.0969842 0.045706287 0.06330772 -0.08212596 0.11770591 -0.02343885
-0.08427482 0.03286299 0.035886887 0.078876525 0.09375578 -0.014623034 -0.020908296 -0.04365474
0.054307684 -0.08033389 -0.068785414 0.0041314564 0.023768188 0.005903572 -0.0050043687 -0.09435003
0.08372104 0.047204167 0.041811336 0.05455348 -0.057108067 -0.07168802 -0.02099675 0.008883436
0.036607813 0.046692416 0.00850844 0.09908411 0.06476542 -0.08164283 -0.078040786 0.0850749
-0.060350385 0.0790884 0.041944116 0.04594038 0.06369328 0.018019795 -0.045835838 -0.035821334
-0.08770676 0.024850039 -0.025829582 0.06524208 0.008232319 0.00058680784 0.08365704 -0.013480276
0.073989205 0.026855454 -0.022631045 -0.021839142 0.015739769 0.083411194 0.111676455 -0.05173643
00000000: 2da2 72bd 87ff 8bbc 0e93 8abd 5f07 51bc
00000010: 3e43 d23c 8038 f83d 1554 dfbb e961 ccbd
00000020: 50bc 9c3d a40e 1f3d 609b 3e3d ac10 443d
00000030: 0aca 8bbd 8895 cc3d 0a5c edbd 8823 94bd
00000040: 17a0 f4bc 6a8c e2bd 807d c23d e773 80bd
00000050: a021 74bd f61e bdbc 9f3e 8c3d d06d 61bd
00000060: db78 d73c ffa7 a2bd faf8 fd3d 2fd9 9d3d
00000070: cbf9 a53d f895 ea3c 9fae 1d3d 1625 c1bd
00000080: a81e a13c bece a5bc 81dd 1a3d 28b6 7e3d
00000090: db6f bf3d 5688 5bbc 00fa a13d e59e 883d
000000a0: 9ef4 223d 64f3 fe3d e583 bf3d eba1 b5bd
000000b0: e24c 843d 4121 023c cf33 9a3c 0048 73bb
000000c0: bef5 a53d 5a48 37bd 2eb8 e13d 0da0 a3bd
000000d0: 4c16 7ebd 8087 9f3d b26c c73b 0dec 2dbd
000000e0: be57 953d 092f 4ebd 5f64 c3bd d286 dbbd
000000f0: 1480 a43d 393a 973c e032 b83b 49b5 62bd
00000100: e304 273d 20dd 8f3b 8671 733d 5584 063d
00000110: d05e 933d 95d7 8d3d 2563 5e3d 145e 48bd
00000120: f25b 2fbd 7c17 c5bd 0ed9 dabd fd18 643c
00000130: 4add 59bd a4fb 743d 4e86 b8bd 83af 683d
00000140: a87b bd3d 2bfc b7bc fdc8 df3c b4e5 f3bd
00000150: 8401 933d 52f9 b2bd d008 eabc 065a 15ba
00000160: 826f 9f3c 2835 873d d9d1 bc3d b0f6 463d
00000170: 2081 9dbd fa8d e8bb bd3f af3d a037 5b3c
00000180: fd63 593d 23e6 b73d c6a5 bdbd 6cb9 9b3d
00000190: 033c 253d f036 32bc 1195 92bd 2cc5 4b3d
000001a0: de23 e8bd 9ea4 2cbd fd51 48bc c49c d13d
000001b0: 8c66 413d f186 cdbc 1c75 063d ef0b 3b3d
000001c0: 7c50 87bd 1c86 94bd b3ee 96bc 4d14 733d
000001d0: d49f 84bd 2a0a c6bd d1e4 be3d dcdf bfbd
000001e0: 73cb 01bd fb6e d7bd dc5c 2d3d 2da2 adbc
000001f0: ed9d b53d 4843 bfbd 1179 bf3d d588 a43d
00000200: 40f7 a53b 89fb a5bc a79f c6bd 8436 3b3d
00000210: 7aa7 813d a831 a8bd cc0f f13d d502 c0bc
00000220: 4798 acbd 589b 063d 21fe 123d 048a a13d
00000230: 0803 c03d 7395 6fbc e047 abbc 50cf 32bd
00000240: bc71 5e3d 1886 a4bd 5edf 8cbd 2b61 873b
00000250: 81b5 c23c c072 c13b b0fb a3bb 973a c1bd
00000260: f075 ab3d 2859 413d 5d42 2b3d 7873 5f3d
00000270: 26ea 69bd 2bd1 92bd 6001 acbc d58b 113c
00000280: 13f2 153d 8c40 3f3d fc66 0b3c 9cec ca3d
00000290: bca3 843d 5b34 a7bd d9d3 9fbd c03b ae3d
000002a0: f731 77bd 19f9 a13d 98cd 2b3d fb2b 3c3d
000002b0: 9f71 823d 409e 933c 5cbe 3bbd 64b9 12bd
000002c0: 9a9f b3bd 4f92 cb3c 8f98 d3bc a49d 853d
000002d0: d9e0 063c 02d4 193a 6254 ab3d 60dc 5cbc
000002e0: a787 973d f8ff db3c be64 b9bc 00e8 b2bc
000002f0: b0f0 803c 7dd3 aa3d a0b6 e43d 94e9 53bd

rnn.weight_hh_l0 f4 [64, 64]
0.05818035 0.102866456 -0.047160096 0.0629852 -0.0026207815 -0.0786742 0.043512486 -0.0033915904
-0.010803879 0.07967699 0.09639555 -0.13222508 -0.059010386 0.07272752 -0.04649093 -0.0005326727
0.045221772 0.07072043 -0.10724043 -0.10582896 0.077852204 -0.034608714 0.1233478 -0.11010203
0.09672568 0.10727886 -0.1238185 -0.07564983 -0.106422774 -0.067702174 -0.048927847 0.10016591
-0.08201581 -0.12685043 -0.13896817 -0.12190341 0.062044363 0.048477974 -0.025818562 0.013685439
-0.05414153 0.1251102 -0.008565006 0.03689272 -0.04472721 -0.12689722 -0.043930896 -0.011982852
-0.08959944 -0.07347312 -0.031608906 -0.06972401 0.08808082 -0.11640575 0.008476985 0.077724144
0.10415049 0.045632273 -0.062781736 0.039350376 -0.045521226 0.1062546 0.008133711 0.017754186
-0.11339892 0.01270446 -0.040696178 0.10737609 -0.054563772 -0.05355034 -0.07120892 0.121885836
0.011338091 0.008928512 0.051682007 0.05078102 0.021311613 0.08840685 -0.08398978 -0.08830799
-0.0078093736 -0.1089472 0.05972057 0.08982067 -0.07256333 0.11094935 -0.019768184 -0.09104056
-0.08279345 -0.026352365 0.06499959 0.12588252 -0.016558273 0.09199968 0.12520786 -0.11263835
0.011316034 -0.059548546 0.10344506 0.008071387 0.065643996 -0.064323954 0.024157403 0.08121242
0.09340473 -0.12402474 0.029238725 0.057379473 0.108157694 0.09478253 0.051281642 0.074046195
0.0046463017 -0.04811449 -0.051185586 -0.07436777 -0.11499972 -0.10611247 -0.003004119 -0.119273506
0.04537645 0.04620155 -0.13099004 0.072485074 0.1088815 -0.034150317 -0.020191366 -0.089454815
-0.12890366 -0.022077013 -0.107226565 0.05275061 0.032620203 0.08228955 -0.13064124 0.05846387
0.0593622 0.054072525 0.0317688 -0.09195147 -0.06106365 0.014228668 0.1218124 -0.072309084
-0.016390784 0.08184287 0.08039309 -0.05880484 0.1147077 -0.027886668 -0.06280231 -0.03770378
-0.020125385 0.069768324 -0.114074275 0.034314793 0.08617086 -0.082114495 -0.08775522 -4.6291603e-05
-0.009397357 0.046396542 0.04600008 -0.06313551 0.10330723 0.0442828 -0.009355717 -0.0040228567
-0.11315349 -0.08528633 -0.02428235 -0.06494935 0.0389442 0.1028766 -0.036291514 -0.018286282
-0.016744945 -0.022558292 -0.06761478 0.10576625 -0.08451042 0.08246979 -0.0078030303 0.0224393
0.0037699447 0.11861829 -0.06621044 -0.068261154 -0.0366945 -0.031606335 -0.035669662 -0.015957635
-0.037255537 0.09874574 0.089012876 0.057824578 -0.030833045 0.103356056 0.0069645904 -0.0394171
0.071097374 -0.101038426 0.048810165 0.09527292 0.08876838 -0.14421692 -0.06836168 -0.023042982
0.0833183 0.073771484 -0.04129448 8.939168e-05 0.08729787 0.024393763 -0.09740321 -0.047971837
0.027424611 -0.043763667 0.0906556 -0.04171388 0.09309841 -0.05929573 0.046658304 0.10856472
0.024394516 -0.035141047 0.08714032 0.092670955 0.054761823 -0.07385495 0.09525951 -0.09044316
0.045428798 0.09762689 0.046956174 -0.055097524 -0.072634965 0.1292401 -0.072461545 0.033403132
0.09965736 0.07412376 -0.04421665 -0.07993565 -0.0688273 -0.10797751 -0.005027168 -0.08592974
0.05749068 0.021898841 -0.07521184 -0.07749413 -0.045171317 -0.03427383 0.05551341 0.052210808
00000000: 854e 6e3d a6ab d23d f22a 41bd 62fe 803d
00000010: 6bc1 2bbb f01f a1bd 263a 323d 7245 5ebb
00000020: c102 31bc b12d a33d 086b c53d 0366 07be
00000030: e0b4 71bd 2af2 943d 466d 3ebd 0fa3 0bba
00000040: 773a 393d dfd5 903d dfa0 dbbd dbbc d8bd
00000050: fa70 9f3d dec1 0dbd c59d fc3d 2c7d e1bd
00000060: 1d18 c63d 05b5 db3d 8e94 fdbd 4cee 9abd
00000070: 2ff4 d9bd 70a7 8abd 9168 48bd c923 cd3d
00000080: e8f7 a7bd 14e5 01be ac4d 0ebe 7fa8 f9bd
00000090: 3b22 7e3d d790 463d 7381 d3bc e438 603c
000000a0: 82c3 5dbd e31c 003e 3d54 0cbc d21c 173d
000000b0: e133 37bd 58f1 01be e2f0 33bd b953 44bc
000000c0: e97f b7bd 1379 96bd 5778 01bd 76cb 8ebd
000000d0: b863 b43d 2366 eebd 0de3 0a3c d62d 9f3d
000000e0: da4c d53d e8e8 3a3d b693 80bd dc2d 213d
000000f0: 7774 3abd 039c d93d 4243 053c 3a71 913c
00000100: b13d e8bd 5e26 503c 09b1 26bd ffe7 db3d
00000110: 437e 5fbd 9a57 5bbd fbd5 91bd 489f f93d
00000120: 67c3 393c e548 123c 83b0 533d c2ff 4f3d
00000130: b195 ae3c a70e b53d d502 acbd d2da b4bd
00000140: c6e5 ffbb b61f dfbd 8e9d 743d e6f3 b73d
00000150: 159c 94bd 6a39 e33d e3f0 a1bc 7973 babd
00000160: 9d8f a9bd eae0 d7bc 811e 853d 59e7 003e
00000170: 37a5 87bc 546a bc3d 7d36 003e efae e6bd
00000180: e366 393c 2de9 73bd 01db d33d da3d 043c
00000190: 5c70 863d 47bc 83bd bfe5 c53c b252 a63d
000001a0: fb4a bf3d af00 febd 0d86 ef3c bd06 6b3d
000001b0: c881 dd3d 581d c23d b30c 523d 88a5 973d
000001c0: 0140 983b b313 45bd faa7 51bd 214e 98bd
000001d0: f984 ebbd 7f51 d9bd c1e0 44bb ab45 f4bd
000001e0: a8dc 393d d63d 3d3d 4122 06be 0e73 943d
000001f0: 44fd de3d 34e1 0bbd 5d68 a5bc 1634 b7bd
00000200: 52ff 03be dada b4bc 9a99 dbbd 0611 583d
00000210: c39c 053d 6c87 a83d d1c6 05be d077 6f3d
00000220: c725 733d 277b 5d3d 0020 023d 0d51 bcbd
00000230: e11d 7abd 5c1f 693c c878 f93d c916 94bd
00000240: f745 86bc 3c9d a73d 22a5 a43d 58dd 70bd
00000250: dfeb ea3d 9572 e4bc 7f9e 80bd 476f 1abd
00000260: fedd a4bc b2e2 8e3d c69f e9bd ab8d 0c3d
00000270: 597a b03d a52b a8bd 02b9 b3bd 3b29 42b8
00000280: 5ff7 19bc 4d0a 3e3d 946a 3c3d 314d 81bd
00000290: be92 d33d e261 353d b948 19bc 2bd2 83bb
000002a0: 04bd e7bd 99aa aebd c7eb c6bc 2a04 85bd
000002b0: f483 1f3d f8b0 d23d 69a6 14bd 1dcd 95bc
000002c0: b22c 89bc 2bcc b8bc 9e79 8abd fa9b d83d
000002d0: cd13 adbd ece5 a83d 90b0 ffbb 9fd2 b73c
000002e0: 2d11 773b 25ee f23d 5799 87bd 81cc 8bbd
000002f0: f94c 16bd a575 01bd 5a1a 12bd 96b9 82bc
00000300: 4399 18bd 353b ca3d 624c b63d 77d9 6c3d
00000310: 9595 fcbc 57ac d33d 3837 e43b d373 21bd
00000320: 809b 913d 3ced cebd 2bed 473d 731e c33d
00000330: 32cc b53d 9aad 13be 3501 8cbd a3c4 bcbc
00000340: c9a2 aa3d 8115 973d 6724 29bd cb77 bb38
00000350: 3ac9 b23d 6ed5 c73c 567b c7bd 1e7e 44bd
00000360: 94a9 e03c 8841 33bd a5a9 b93d 2cdc 2abd
00000370: 61aa be3d 14e0 72bd c71c 3f3d 2e57 de3d
00000380: 02d7 c73c 0ff0 0fbd a076 b23d 45ca bd3d
00000390: ef4d 603d 4441 97bd 6b17 c33d 433a b9bd
000003a0: 8c13 3a3d 9bf0 c73d 1e55 403d f1ad 61bd
000003b0: a4c1 94bd 8457 043e b866 94bd b9d1 083d
000003c0: 2819 cc3d 33ce 973d 851c 35bd 4db5 a3bd
000003d0: 54f5 8cbd 5023 ddbd f1ba a4bb eefb afbd
000003e0: 597b 6b3d 3365 b33c aa08 9abd 3eb5 9ebd
000003f0: 8f05 39bd b762 0cbd 0862 633d 00db 553d

rnn.bias_ih_l0 f4 [64]
0.1447491 -0.13180003 -0.06523793 -0.056128893 -0.12635876 0.14516555 0.14049222 -0.07590017
-0.14842735 -0.022131022 -0.13151325 -0.07948684 0.11778075 0.14040442 -0.08511784 -0.050348826
0.13855755 -0.12816247 0.048052937 -0.053826712 0.1316068 0.00411702 0.0002609831 -0.10117528
0.023486549 0.03154136 -0.112849556 -0.06417027 -0.10078915 0.10799219 0.0006504023 -0.0049139615
0.073434904 -0.07351773 -0.079879366 -0.06339216 -0.08582924 -0.06364442 0.12268268 0.05916879
0.008963974 0.042630695 -0.11524492 -0.10032312 0.14259553 -0.07066684 -0.04241449 -0.07334987
0.11627214 0.06820711 -0.062809244 -0.07916385 -0.07145996 0.047299713 -0.0018034594 -0.05996345
-0.1333211 -0.14080468 -0.052516576 -0.08368965 -0.0005224177 -0.03764416 -0.05719753 -0.0011179826
00000000: 1c39 143e 96f6 06be 779b 85bd 69e7 65bd
00000010: 3164 01be 47a6 143e 31dd 0f3e 8c71 9bbd
00000020: 57fd 17be 1e4c b5bc 69ab 06be ffc9 a2bd
00000030: 0937 f13d 2dc6 0f3e 4352 aebd 923a 4ebd
00000040: 08e2 0d3e 063d 03be 28d3 443d 6679 5cbd
00000050: efc3 063e 11e8 863b 8fd4 8839 fc34 cfbd
00000060: dd66 c03c 8331 013d ab1d e7bd b46b 83bd
00000070: 8b6a cebd 022b dd3d c27f 2a3a 4c05 a1bb
00000080: 0a65 963d 7790 96bd cb97 a3bd c0d3 81bd
00000090: 3ec7 afbd 0158 82bd 0f41 fb3d f95a 723d
000000a0: a2dd 123c 869d 2e3d 8705 ecbd 3576 cdbd
000000b0: 9004 123e c7b9 90bd d1ba 2dbd 7538 96bd
000000c0: 1620 ee3d 2bb0 8b3d 22a2 80bd a820 a2bd
000000d0: 9959 92bd 58bd 413d 0e62 ecba 3c9c 75bd
000000e0: 5485 08be 1a2f 10be 9f1b 57bd 7b65 abbd
000000f0: dcf2 08ba c330 1abd f547 6abd 4589 92ba

rnn.bias_hh_l0 f4 [64]
0.13698143 0.01634197 -0.10841919 -0.043951254 0.058458775 -0.015226071 0.1474091 -0.067781486
0.026945606 -0.08316892 0.011939424 0.005693254 -0.07151362 0.09868222 0.061162177 0.08456171
0.086017914 0.071679495 -0.0645418 -0.09768126 -0.011639976 -0.027494222 0.10904024 0.0275973
0.13930944 0.14717765 -0.062529184 -0.07022413 -0.09660695 0.043274388 -0.006889838 -0.115753755
0.028412417 0.105415225 -0.08062685 0.04726987 0.010696542 0.09791536 0.044878885 -0.009365392
0.116548166 0.14579384 0.0008091774 0.03140426 -0.095112406 0.008464036 0.08238579 -0.13778585
0.08366279 -0.034276113 0.070578724 0.089232035 0.023435099 -0.09755851 0.07602392 0.040478464
-0.009907897 -0.13117683 0.06970978 0.02298248 -0.041792788 0.06332122 0.005020023 0.104310796
00000000: dc44 0c3e 98df 853c e10a debd 3b06 34bd
00000010: 7872 6f3d c576 79bc 69f2 163e 05d1 8abd
00000020: 08bd dc3c 7754 aabd 939d 433c 7a8e ba3b
00000030: bc75 92bd e719 ca3d 3185 7a3d b12e ad3d
00000040: 292a b03d b3cc 923d 7e2e 84bd 1d0d c8bd
00000050: 99b5 3ebc 903b e1bc 7d50 df3d bc13 e23c
00000060: 22a7 0e3e bdb5 163e 4d0f 80bd abd1 8fbd
00000070: ddd9 c5bd 7c40 313d 26c4 e1bb 4e10 edbd
00000080: 28c1 e83c f0e3 d73d b11f a5bd 0d9e 413d
00000090: 8d40 2f3c d987 c83d ecd2 373d 4d71 19bc
000000a0: ceb0 ee3d fb4a 153e fa1e 543a c1a1 003d
000000b0: 4bca c2bd bdac 0a3c e2b9 a83d bc17 0dbe
000000c0: 6657 ab3d 1c65 0cbd 948b 903d 49bf b63d
000000d0: f7fa bf3c c2cc c7bd 6eb2 9b3d bfcc 253d
000000e0: bb54 22bc 3853 06be 00c4 8e3d c145 bc3c
000000f0: ea2e 2bbd 8eae 813d 017f a43b e6a0 d53d

rnn.weight_ih_l0_reverse f4 [64, 3]
-0.009165773 0.043310326 -0.0035340637 0.042595416 -0.095572904 0.119487405 0.058382425 0.039103918
0.10340366 0.04285877 0.013401727 -0.12208617 -0.0050215726 0.08630279 -0.040167034 0.056217223
0.0054146773 -0.04860647 -0.03932019 0.07492557 0.124958724 -0.05742817 -0.009231385 0.035567403
0.05380721 0.0745516 -0.11755985 0.0985564 0.098705746 -0.10591699 -0.05856203 -0.01727438
-0.09883803 0.056913175 -0.0041987593 0.047581643 -0.09302849 0.07619121 -0.056509495 0.027599862
-0.037356816 -0.04987921 0.035222143 0.001727996 -0.03027314 -0.047347054 -0.0058762277 0.098687336
-0.08331473 -0.10173534 -0.048651114 -0.05450953 -0.073805176 -0.010567844 -0.067229524 0.038832378
-0.06730029 -0.034985572 0.09383774 0.079033464 0.009986862 0.079740316 -0.1138649 -0.028330902
-0.0007026035 0.10824014 0.0038771331 -0.072109826 -0.101029634 -0.03802271 0.033509027 -0.03414251
-0.0017947 0.061058164 0.0020985305 -0.09605627 -0.0025626326 0.038648263 0.092406094 0.072207384
0.05620633 -0.05955751 0.0774743 -0.083344415 0.02833452 -0.025178151 0.08205542 -0.042703208
0.05623455 -0.008482769 0.07270112 -0.08468699 0.08090843 -0.007858255 -0.098164536 0.11256844
0.025344085 -0.0026540805 -0.10730183 -0.06632891 -0.04416923 -0.11445071 0.023338836 0.07624675
0.099599406 0.08082652 -0.054811444 0.09289922 0.07916201 0.10160852 -0.10636176 -0.0515775
-0.06633663 0.08855486 -0.06481091 -0.051397048 0.0068445504 -0.06944386 0.07929387 0.09879638
0.07104001 0.054954983 -0.0077566653 0.023967462 0.080957524 -0.08569434 0.08350995 -0.061956674
-0.070050314 0.07855422 0.035760447 -0.10752419 0.08873737 -0.022255942 0.10042879 -0.024970042
-0.011446363 -0.12451106 0.027809778 -0.10086672 -0.060045183 0.068686366 0.060827628 0.028336555
-0.07353739 -0.025035534 0.08919406 0.0056661763 -0.04633394 -0.07367754 0.072209924 -0.045898944
-0.11655119 -0.04177236 -0.07710133 -0.067969084 0.07073142 0.093364485 0.08533977 -0.025163878
0.07755951 0.040098697 0.018710488 0.05645074 -0.004438475 0.039932128 -0.05063369 0.012478381
0.02047417 0.082791105 0.094339386 0.039365124 0.062551215 0.055028617 -0.024456033 -0.03691096
0.012676358 -0.060143188 -0.07439317 -0.088179186 0.045309927 0.0922173 -0.04820268 0.014898983
-0.07876259 0.10887146 -0.097779565 -0.026465843 -0.1032048 -0.019792946 -0.08862613 -0.034255832
00000000: 0a2c 16bc 2b66 313d c09b 67bb 8878 2e3d
00000010: babb c3bd d0b5 f43d 6922 6f3d 6e2b 203d
00000020: 4cc5 d33d ad8c 2f3d eb92 5b3c 5008 fabd
00000030: 018c a4bb 84bf b03d 3086 24bd 0844 663d
00000040: 9b6d b13b 9417 47bd 350e 21bd 9472 993d
00000050: 5cea ff3d cd39 6bbd 3c3f 17bc 20af 113d
00000060: f364 5c3d 82ae 983d 38c3 f0bd f0d7 c93d
00000070: 3d26 ca3d 02eb d8bd bdde 6fbd 0083 8dbc
00000080: 986b cabd ca1d 693d bf95 89bb f8e4 423d
00000090: b985 bebd 230a 9c3d 8076 67bd 1b19 e23c
000000a0: 7603 19bd 244e 4cbd 1845 103d ed7d e23a
000000b0: 60ff f7bc fcee 41bd 5f8d c0bb 961c ca3d
000000c0: eaa0 aabd 9e5a d0bd 6446 47bd 6345 5fbd
000000d0: 2b27 97bd c024 2dbc a2af 89bd b30e 1f3d
000000e0: bcd4 89bd 084d 0fbd 002e c03d 4cdc a13d
000000f0: ef9f 233c e44e a33d 0032 e9bd 3516 e8bc
00000100: ec2e 38ba 02ad dd3d 8017 7e3b 51ae 93bd
00000110: a0e8 cebd b3bd 1bbd c340 093d 04d9 0bbd
00000120: 243c ebba 2018 7a3d 8087 093b 26b9 c4bd
00000130: d7f1 27bb a44d 1e3d 683f bd3d 77e1 933d
00000140: 9c38 663d 93f2 73bd d9aa 9e3d 7ab0 aabd
00000150: cc1d e83c 6942 cebc ac0c a83d 8fe9 2ebd
00000160: 3356 663d 50fb 0abc 53e4 943d 5f70 adbd
00000170: 52b3 a53d e9bf 00bc 7d0a c9bd 488a e63d
00000180: 669e cf3c 15f0 2dbb 10c1 dbbd 74d7 87bd
00000190: cbea 34bd 2265 eabd 1631 bf3c 4227 9c3d
000001a0: c6fa cb3d 6088 a53d f781 60bd f241 be3d
000001b0: b11f a23d 2118 d03d 32d4 d9bd ee42 53bd
000001c0: 80db 87bd 405c b53d 95bb 84bd b685 52bd
000001d0: 4048 e03b 9538 8ebd d364 a23d c255 ca3d
000001e0: 6d7d 913d 7a18 613d a02b febb 6957 c43c
000001f0: 0fcd a53d 8480 afbd 4407 ab3d 48c6 7dbd
00000200: 8a76 8fbd 09e1 a03d 8c79 123d a435 dcbd
00000210: f0bb b53d 1852 b6bc 9cad cd3d f98d ccbc
00000220: 8789 3bbc a8ff febd 55d1 e33c 3693 cebd
00000230: f0f1 75bd 70ab 8c3d 6426 793d 1022 e83c
00000240: c59a 96bd 5217 cdbc 60ab b63d 55ab b93b
00000250: a8c8 3dbd 40e4 96bd cce2 933d 8800 3cbd
00000260: 64b2 eebd 7f19 2bbd 4de7 9dbd 6033 8bbd
00000270: a2db 903d e135 bf3d 9ec6 ae3d 7a24 cebc
00000280: 85d7 9e3d 883e 243d bd46 993c e438 673d
00000290: a070 91bb df8f 233d 4665 4fbd 2072 4c3c
000002a0: 72b9 a73c 628e a93d 0235 c13d 533d 213d
000002b0: da1a 803d b065 613d 0558 c8bc f22f 17bd
000002c0: 80b0 4f3c b458 76bd 725b 98bd 4a97 b4bd
000002d0: e796 393d 6cdc bc3d 2c70 45bd dd1a 743c
000002e0: 484e a1bd 00f8 de3d a740 c8bd e5ce d8bc
000002f0: 0a5d d3bd d124 a2bc 9e81 b5bd d84f 0cbd

rnn.weight_hh_l0_reverse f4 [64, 64]
-0.0137946205 -0.07071252 -0.041534446 0.114772685 0.033240307 0.0035999722 0.06515811 -0.04851033
0.045960378 -0.052346695 -0.10062178 -0.087900944 0.05401673 0.10826884 -0.0032370377 -0.005296188
-0.012943834 -0.032288503 0.010319803 0.048368998 -0.10645185 0.10249186 0.02173682 -0.11809857
-0.027442396 -0.08855345 -0.014051746 0.11526694 -0.09000313 -0.103874944 -0.0052556153 -0.10433606
-0.064106524 0.07646641 -0.104163416 0.094411656 0.048538323 0.09490538 0.053094562 0.10210967
-0.015054819 -0.10087421 -0.07439637 -0.10036177 0.071175694 -0.0006511806 -0.024753137 0.13312866
-0.08281656 0.058095645 -0.105703175 0.0875266 -0.08937385 -0.004010497 0.06117046 0.11915379
0.074106865 0.09935207 -0.11028175 0.0745014 -0.0551329 -0.038103636 0.06563208 -0.026615549
0.058093328 0.10348574 0.10972303 -0.054841008 -0.072693065 0.04813594 0.06062182 -0.07371588
0.12575056 0.12301352 -0.009330342 0.11161292 -0.0040502492 -0.097324006 0.11978751 0.045409564
0.06295909 0.06663521 0.09740936 -0.075607106 0.006161034 -0.060561582 0.07682048 0.002306142
-0.092668876 -0.04551994 0.1098256 -0.014585396 -0.0078876065 0.048342608 -0.091385104 -0.06762276
-0.012505402 0.07166219 -0.10123888 -0.04322098 -0.1297503 -0.006892343 -0.055958252 0.06991709
0.012587648 -0.09319944 -0.008583463 0.013215077 -0.13817473 0.10334677 0.052900575 0.062214456
-0.07410911 0.10344893 0.097798325 0.074414425 -0.10299409 0.033151716 -0.11820511 -0.12787326
0.028269475 -0.098241806 -0.0937694 -0.0770691 0.09343606 0.040583804 0.13283257 -0.009716474
-0.14569388 0.05043479 0.09880674 -0.07150618 -0.11776913 0.08774188 -0.04263215 -0.102711394
-0.07413478 -0.07933766 0.08192241 0.07795476 -0.12833408 -0.1384291 0.12155097 -0.00657163
0.08232558 -0.0950197 -0.06136088 -0.026891714 -0.07407266 0.058582053 -0.08784238 -0.058312297
0.043606207 -0.039878327 0.14133094 0.0023966767 -0.113185324 -0.004200151 -0.0760763 -0.11943508
-0.04935081 -0.11691127 -0.09863016 0.03485865 0.07425402 0.05366033 0.07986939 -0.0750096
0.03203009 -0.0396032 0.0032199027 0.10958168 -0.11778743 0.03604604 -0.09706871 -0.08705987
-0.007910543 0.023207458 -0.0025341408 -0.0005103965 -0.052068494 0.008428538 0.0006948246 0.09130272
-0.010516947 0.0707737 -0.073635705 0.03390217 0.057728168 -0.079504244 0.05044373 -0.09678925
-0.028713986 -0.074436486 -0.021907724 -0.059368063 0.0751235 -0.026338628 0.1037359 0.07429543
-0.1130086 -0.08390594 0.0017337855 0.023978628 -0.041381106 -0.008000143 -0.11317127 -0.13889354
0.074090645 -0.06824374 0.09747523 -0.01731848 0.07540644 -0.019609835 -0.017124908 -0.01852947
0.11042569 0.0928575 -0.09366969 -0.10823489 0.022772655 0.07978442 0.067087844 0.105334125
-0.018143402 0.04869029 -0.03792507 0.045990236 0.029369473 0.0375707 0.03416365 0.013716306
0.08684671 0.023652006 0.06994467 -0.018205775 0.060764775 -0.05199727 0.004490181 -0.1112758
-0.024741048 0.12483885 0.05448165 -0.048249245 0.07590745 -0.07542464 -0.05154005 -0.08740087
-0.0072461395 -0.04357696 -0.06789862 0.0008875344 0.015260161 -0.03846878 0.06746397 -0.10824557
00000000: d502 62bc bad1 90bd 0620 2abd f10d eb3d
00000010: fd26 083d 83ed 6b3b 9d71 853d c5b2 46bd
00000020: f340 3c3d 7d69 56bd cb12 cebd 6905 b4bd
00000030: a640 5d3d 0ebc dd3d 7b24 54bb a58b adbb
00000040: 6012 54bc f340 04bd 6414 293c 921e 463d
00000050: 6d03 dabd 41e7 d13d 6a11 b23c aadd f1bd
00000060: e0ce e0bc 835b b5bd 4b39 66bc 1311 ec3d
00000070: 9053 b8bd 63bc d4bd 4c37 acbb 25ae d5bd
00000080: 484a 83bd 6c9a 9c3d a153 d5bd e65a c13d
00000090: 1fd0 463d c05d c23d af79 593d e01e d13d
000000a0: 7da8 76bc 2397 cebd 205d 98bd 798a cdbd
000000b0: 90c4 913d feb3 2aba 17c7 cabc e152 083e
000000c0: bb9b a9bd b3f5 6d3d e87a d8bd 2541 b33d
000000d0: a309 b7bd 7d6a 83bb e08d 7a3d e706 f43d
000000e0: 57c5 973d 1979 cb3d 66db e1bd 3194 983d
000000f0: 09d3 61bd 8f12 1cbd 1d6a 863d da08 dabc
00000100: 45f3 6d3d 55f0 d33d 78b6 e03d f7a0 60bd
00000110: 1ae0 94bd 312a 453d 964e 783d 5af8 96bd
00000120: c1c4 003e 83ee fb3d 4ade 18bc 5195 e43d
00000130: f4b7 84bb cf51 c7bd 2753 f53d 61ff 393d
00000140: b2f0 803d 0a78 883d 8f7e c73d e6d7 9abd
00000150: 80e2 c93b 6c0f 78bd 0e54 9d3d a422 173b
00000160: 2ec9 bdbd 1e73 3abd 3fec e03d 96f7 6ebc
00000170: 053b 01bc e602 463d 1d28 bbbd cd7d 8abd
00000180: 75e3 4cbc a0c3 923d 5456 cfbd 7b08 31bd
00000190: 43dd 04be 2ad9 e1bb 7b34 65bd b130 8f3d
000001a0: 6c3c 4e3c 59df bebd a7a1 0cbc 0d84 583c
000001b0: ad7d 0dbe 79a7 d33d 46ae 583d 96d4 7e3d
000001c0: 84c6 97bd 08dd d33d 7d4a c83d 9766 983d
000001d0: 91ee d2bd 18ca 073d 8515 f2bd 35f1 02be
000001e0: 6395 e73c 0033 c9bd 2c0a c0bd 68d6 9dbd
000001f0: 685b bf3d 343b 263d 4305 083e d931 1fbc
00000200: c730 15be b694 4e3d 305b ca3d d571 92bd
00000210: f130 f1bd 04b2 b33d 0d9f 2ebd 5a5a d2bd
00000220: fad3 97bd c87b a2bd f0c6 a73d bfa6 9f3d
00000230: 026a 03be 5cc0 0dbe b7ef f83d d456 d7bb
00000240: 509a a83d b099 c2bd 8c55 7bbd 034c dcbc
00000250: 68b3 97bd bcf3 6f3d b5e6 b3bd e0d8 6ebd
00000260: 6c9c 323d 7557 23bd 0fb9 103e 9011 1d3b
00000270: b5cd e7bd 6ca1 89bb e4cd 9bbd 619a f4bd
00000280: 1324 4abd 2d6f efbd 9cfe c9bd f2c7 0e3d
00000290: 7e12 983d efca 5b3d 9092 a33d a29e 99bd
000002a0: fc31 033d f736 22bd 0105 533b 5c6c e03d
000002b0: 893a f1bd 03a5 133d f6cb c6bd 724c b2bd
000002c0: 399b 01bc 911d be3c d413 26bb 21cc 05ba
000002d0: c645 55bd da17 0a3c e424 363a ecfc ba3d
000002e0: 464f 2cbc cdf1 903d 51ce 96bd 00dd 0a3d
000002f0: 5f74 6c3d 1fd3 a2bd 169e 4e3d 7139 c6bd
00000300: 9839 ebbc 2872 98bd d477 b3bc ed2b 73bd
00000310: 59da 993d 1bc4 d7bc 7d73 d43d 3428 983d
00000320: 0e71 e7bd e1d6 abbd 3040 e33a d46e c43c
00000330: 3c7f 29bd 0813 03bc 57c6 e7bd 1c3a 0ebe
00000340: d6bc 973d 60c3 8bbd 18a1 c73d 7cdf 8dbc
00000350: b16e 9a3d cea4 a0bc 8949 8cbc 1dcb 97bc
00000360: dd26 e23d 132c be3d e5d5 bfbd 41aa ddbd
00000370: b88d ba3c 0466 a33d 5a65 893d 6bb9 d73d
00000380: 79a1 94bc 786f 473d 5157 1bbd 4260 3c3d
00000390: 4098 f03c bce3 193d 2fef 0b3d 5bba 603c
000003a0: b0dc b13d dac1 c13c 273f 8f3d 4724 95bc
000003b0: 7ce4 783d 17fb 54bd 5e22 933b 91e4 e3bd
000003c0: bdad cabc 83ab ff3d 2728 5f3d 00a1 45bd
000003d0: 5d75 9b3d 3c78 9abd a91b 53bd 3aff b2bd
000003e0: 0671 edbb c17d 32bd 6f0e 8bbd 6da9 683a
000003f0: c105 7a3c 7191 1dbd 8d2a 8a3d daaf ddbd

rnn.bias_ih_l0_reverse f4 [64]
0.105231375 -0.008174867 -0.11710785 0.024866628 0.07851758 0.01884864 0.11664363 0.11367634
-0.13387449 -0.024872795 -0.04818552 0.011752944 0.13093834 0.11859877 -0.023945594 -0.010540353
0.07833054 0.13381523 0.043766156 -0.06917688 0.095757 -0.0022430175 0.019093137 -0.13429494
-0.05755293 -0.12907274 -0.089226015 0.0136958305 0.09531035 -0.11501156 0.10282312 0.13679236
0.030192774 0.08253848 -0.075453915 0.12577808 0.12244442 -0.11242516 0.10010257 -0.085689835
-0.075329535 0.077494465 -0.09962016 0.047973406 0.13146545 -0.069907315 0.036901332 -0.092496954
0.015286715 0.123995185 0.057430457 -0.023664204 -0.1290912 -0.10991687 -0.045157623 0.0020742307
-0.051263027 -0.07545873 -0.103351265 -0.028605942 0.03369061 0.08742717 -0.09085611 -0.11625286
00000000: 8c83 d73d e1ef 05bc 3ed6 efbd 19b5 cb3c
00000010: d3cd a03d 7768 9a3c dbe2 ee3d 24cf e83d
00000020: 6516 09be 08c2 cbbc 2e5e 45bd 6c8f 403c
00000030: b314 063e e9e3 f23d 8d29 c4bc 72b1 2cbc
00000040: c36b a03d dc06 093e 2444 333d 9cac 8dbd
00000050: 3f1c c43d 97ff 12bb 3669 9c3c 9d84 09be
00000060: 9fbc 6bbd a52b 04be 21bc b6bd 7a64 603c
00000070: 1332 c33d 2e8b ebbd ee94 d23d 4c13 0c3e
00000080: d656 f73c ef09 a93d 9587 9abd f8cb 003e
00000090: 24c4 fa3d 2a3f e6bd 9402 cd3d 277e afbd
000000a0: 5f46 9abd 6bb5 9e3d a805 ccbd c37f 443d
000000b0: e19e 063e 912b 8fbd da25 173d 0b6f bdbd
000000c0: 2175 7a3c 30f1 fd3d 333c 6b3d 6fdb c1bc
000000d0: 7c30 04be 191c e1bd 33f7 38bd d1ef 073b
000000e0: 2ef9 51bd 1b8a 9abd d4a9 d3bd 0257 eabc
000000f0: 2aff 093d 040d b33d c512 babd fb15 eebd

rnn.bias_hh_l0_reverse f4 [64]
-0.059126575 -0.038611818 -0.12357646 0.061474547 0.13296731 0.1160404 0.13057236 0.12773286
-0.052719757 0.029548941 0.05395016 0.12733689 0.0022258197 -0.09534355 -0.1505962 -0.13441984
-0.021446262 -0.003372369 0.079006515 -0.010544894 -0.06573842 0.12914112 -0.09735758 0.004044347
-0.0027232645 -0.06922119 -0.13870783 -0.09231344 0.12949857 -0.10745764 0.051400173 0.06853413
0.074690506 0.04469651 -0.1346892 0.08455913 -0.033584908 -0.09901209 -0.0655774 0.032823514
-0.04506806 0.09616772 -0.07010514 -0.11003335 0.07376763 -0.0851721 -0.11805548 0.034913808
-0.06321898 0.03703258 -0.028804388 -0.13804358 -0.12028173 -0.020656196 0.08273194 0.09395039
0.12855308 0.056447852 -0.025275208 0.13039118 0.0023437757 0.092685714 0.011453985 -0.11772785
00000000: b52e 72bd 6d27 1ebd a815 fdbd bccc 7b3d
00000010: 9528 083e 97a6 ed3d c3b4 053e 67cc 023e
00000020: acf0 57bd 9f10 f23c d8fa 5c3d 9a64 023e
00000030: 0fdf 113b 7b43 c3bd e435 1abe 5ba5 09be
00000040: 12b0 afbc f702 5dbb 2bce a13d 7ec4 2cbc
00000050: dda1 86bd 923d 043e 6963 c7bd 7186 843b
00000060: cc78 32bb d7c3 8dbd 6d09 0ebe d40e bdbd
00000070: 469b 043e c012 dcbd fd88 523d 9f5b 8c3d
00000080: 56f7 983d b013 373d f7eb 09be 562d ad3d
00000090: 5490 09bd dac6 cabd 724d 86bd f371 063d
000000a0: 4999 38bd 95f3 c43d 4993 8fbd 2a59 e1bd
000000b0: 7c13 973d b66e aebd 12c7 f1bd c801 0f3d
000000c0: f478 81bd 79af 173d 2ef7 ebbc 4c5b 0dbe
000000d0: 4556 f6bd 2f37 a9bc 5d6f a93d 1069 c03d
000000e0: 6ba3 033e dd35 673d f40d cfbc 4485 053e
000000f0: 089a 193b 02d2 bd3d 7fa9 3b3c 4d1b f1bd

fc.weight f4 [256, 128]
-0.0066551995 0.0632425 -0.012076125 -0.038321942 -0.07260312 0.029032936 -0.055612158 0.03591683
0.017584478 0.056843486 0.07242285 0.005977801 -0.07346456 -0.021368667 0.021775972 -0.025356596
0.058817107 -0.020371832 -0.00726029 0.07539465 0.06223991 0.07928047 0.06479261 -0.02893808
-0.07258033 -0.052666705 -0.0050694086 -0.013876606 0.024966016 -0.07177956 0.036080252 0.049488664
-0.07419468 0.0084525235 0.04392948 0.05313061 0.017793732 -0.010333867 -0.009187435 -0.05096554
0.038642127 0.009147383 -0.049376953 0.033687245 -0.06822557 -0.028464146 -0.060693115 0.05569648
-0.019969134 0.01797098 -0.00553769 0.0025531624 -0.06567827 -0.020138789 0.0049730954 0.07398312
0.05665842 0.037268635 0.033989597 -0.000922887 0.035789963 0.035122 0.047585662 0.045272764
0.029623032 -0.05551705 -0.026147658 0.010049847 -0.0103559345 0.010916932 -0.00026777392 0.024304815
0.004679675 0.07113208 -0.01622103 -0.07094454 -0.062304024 -0.05493455 -0.005477912 0.019810546
-0.054566287 0.03655854 -0.06911669 0.0418827 -0.08205862 0.0018766611 0.0015455756 0.05364368
-0.02924119 -0.03866054 -0.047989234 -0.012716288 0.055379115 0.00022227858 0.04207663 0.0690154
-0.022413023 0.016237251 0.029167874 0.016172728 -0.022218999 -0.06926922 -0.028555723 -0.04193348
0.057981506 -0.0530975 -0.026847012 0.05444008 -0.06463779 0.005285718 -0.031038007 0.054757778
0.068434 -0.026269015 0.011370381 0.017806817 0.07653383 -0.015583055 0.044501863 -0.032585625
-0.05159811 0.036921374 0.06017579 -0.06818353 0.018909523 0.058824882 -0.021922158 -0.049258284
0.012996422 -0.04712691 0.0379886 0.05652501 -0.022141725 -0.037389856 -0.076486215 0.06372398
0.05904083 0.08370495 -0.06654804 0.045399636 -0.054237768 -0.028700262 -0.007086572 0.049847726
-0.030254347 -0.039565023 -0.06585673 -0.07210777 -0.022986464 0.062453073 0.047362473 0.036681738
0.018231869 0.044213884 0.04452878 0.027269335 -0.060286034 -0.04131116 0.016921952 -0.013545966
-0.019326184 0.05835132 0.038853534 0.048136845 0.022587227 -0.0027177655 -0.00083769637 -0.07414294
-0.09339443 -0.026164472 -0.026697533 0.01925883 -0.023170901 -0.039574496 0.08136898 0.048655737
-0.015449695 0.05582386 0.049069785 0.024290353 -0.0073861815 -0.048795737 0.020066645 0.025466036
-0.04760219 -0.018826334 -0.06664103 -0.05153767 0.07395261 0.035000842 -0.060191464 0.014106525
0.06903958 0.07348908 0.08177933 -0.036846932 0.0024576224 -0.06271732 -0.012652373 -0.070261165
-0.04271434 -0.014662644 0.034940906 -0.011154494 -0.0173302 0.0636257 0.041700594 0.014576539
0.035293296 -0.027497675 -0.037887733 -0.059812125 0.058890976 -0.031318355 0.007547598 0.079079926
0.07208245 0.03981739 0.033249255 -0.04553995 -0.09467245 0.051087547 -0.010089832 0.042733658
-0.0035182124 0.009818149 -0.038287677 -0.0011212573 -0.09036795 -0.017061226 -0.014393151 0.023076456
0.09110542 -0.06952839 0.07139509 0.012521597 0.05918619 0.014108371 -0.039131563 -0.0628956
-0.048480526 -0.036567245 -0.054363087 0.034658913 -0.047349527 -0.031378705 0.02836368 0.028426554
0.049151406 0.07361001 0.04994349 0.042990092 -0.051599465 0.0498097 0.03987186 -0.008521996
00000000: dc13 dabb 4985 813d f0da 45bc 78f7 1cbd
00000010: f2b0 94bd 7bd6 ed3c 93c9 63bd 871d 133d
00000020: 530d 903c b7d4 683d 6e52 943d 6ee1 c33b
00000030: 9674 96bd 580d afbc 8663 b23c a3b8 cfbc
00000040: 35ea 703d d4e2 a6bc bae7 edbb 8368 9a3d
00000050: 47ef 7e3d cd5d a23d fdb1 843d 8d0f edbc
00000060: ffa4 94bd 0bb9 57bd 481d a6bb b45a 63bc
00000070: 8885 cc3c 2901 93bd e3c8 133d a0b4 4a3d
00000080: 61f3 97bd 747c 0a3c 66ef 333d 7c9f 593d
00000090: 29c4 913c 614f 29bc e586 16bc 3ec1 50bd
000000a0: 3547 1e3d e8de 153c 7d3f 4abd a3fb 093d
000000b0: d9b9 8bbd a42d e9bc 5899 78bd fe21 643d
000000c0: 4f96 a3bc e037 933c 8375 b5bb f552 273b
000000d0: 5482 86bd 1afa a4bc 59f5 a23b 7684 973d
000000e0: a912 683d ffa6 183d ad38 0b3d e6ed 71ba
000000f0: 7f98 123d 16dc 0f3d 2fe9 423d ef6f 393d
00000100: 00ac f23c d965 63bd 9d33 d6bc 1da8 243c
00000110: f0ab 29bc eedc 323c 0264 8cb9 e41a c73c
00000120: f657 993b b2ad 913d f7e1 84bc 5f4b 91bd
00000130: 8132 7fbd 0d03 61bd 0e80 b3bb ba49 a23c
00000140: e680 5fbd 68be 153d 0d8d 8dbd 328d 2b3d
00000150: 5a0e a8bd 4cfa f53a e994 ca3a 7ab9 5b3d
00000160: 388b efbc 845a 1ebd 5c90 44bd fa57 50bc
00000170: 36d5 623d 7413 6939 8b58 2c3d f257 8d3d
00000180: 849b b7bc fc03 853c 77f1 ee3c ab7c 843c
00000190: 9e04 b6bc 05dd 8dbd b1ed e9bc 71c2 2bbd
000001a0: 047e 6d3d c47c 59bd 44ee dbbc 90fc 5e3d
000001b0: d160 84bd d133 ad3b 6b43 febc b149 603d
000001c0: 2027 8c3d 1e32 d7bc d64a 3a3c 9adf 913c
000001d0: c5bd 9c3d 1250 7fbc 9647 363d 8178 05bd
000001e0: 8a58 53bd de3a 173d e47a 763d cea3 8bbd
000001f0: 25e8 9a3c 5cf2 703d 1996 b3bc 0ec3 49bd
00000200: f2ee 543c 2608 41bd ef99 1b3d c586 673d
00000210: 9062 b5bc 1b26 19bd cea4 9cbd b881 823d
00000220: ccd4 713d 806d ab3d 574a 88bd f8f4 393d
00000230: 6c28 5ebd d01c ebbc 7936 e8bb 212d 4c3d
00000240: f7d7 f7bc ef0e 22bd e5df 86bd 3dad 93bd
00000250: 1c4e bcbc cbce 7f3d 27ff 413d 973f 163d
00000260: 005b 953c 9e19 353d cf63 363d f163 df3c
00000270: 7dee 76bd e435 29bd e89f 8a3c e6ef 5dbc
00000280: f251 9ebc cb01 6f3d e224 1f3d 242b 453d
00000290: d908 b93c 8a1c 32bb da98 5bba 41d8 97bd
000002a0: 9445 bfbd e056 d6bc c9b4 dabc b2c4 9d3c
000002b0: e7d0 bdbc de18 22bd c8a4 a63d 3d4b 473d
000002c0: b820 7dbc 8fa7 643d 66fd 483d 90fc c63c
000002d0: c807 f2bb 0ade 47bd ce62 a43c 269e d03c
000002e0: 84fa 42bd af39 9abc 187b 88bd 2a19 53bd
000002f0: 7774 973d 0b5d 0f3d 538b 76bd 0e1f 673c
00000300: a064 8d3d 7181 963d ec7b a73d cfec 16bd
00000310: 1010 213b f071 80bd e64b 4fbc 16e5 8fbd
00000320: 3bf5 2ebd 963b 70bc 321e 0f3d 57c1 36bc
00000330: 10f8 8dbc 314e 823d 3ece 2a3d 70d2 6e3c
00000340: b48f 103d ce42 e1bc 2b30 1bbd 8ffd 74bd
00000350: aa37 713d ad47 00bd d751 f73b a8f4 a13d
00000360: f79f 933d 8f17 233d 5f30 083d 1988 3abd
00000370: a1e3 c1bd 2d41 513d d34f 25bc 7d09 2f3d
00000380: cf91 66bb 4ddc 203c 8ad3 1cbd 27f7 92ba
00000390: d512 b9bd fcc3 8bbc 40d1 6bbc d60a bd3c
000003a0: 7a95 ba3d e764 8ebd 9737 923d 6227 4d3c
000003b0: 386d 723d cc26 673c 6b48 20bd 69cf 80bd
000003c0: 8493 46bd 89c7 15bd d4ab 5ebd 81f6 0d3d
000003d0: 94f1 41bd f586 00bd f35a e83c cede e83c
000003e0: fc52 493d d8c0 963d 8c91 4c3d 6116 303d
000003f0: f659 53bd 4205 4c3d ad50 233d d89f 0bbc

fc.bias f4 [256]
-0.01257697 -0.064046845 -0.040819477 -0.004341197 0.0448613 0.07372119 -0.024993127 -0.01037099
0.027486388 -0.0017352209 0.059748895 0.0033627728 0.07685599 -0.028147168 0.09670938 -0.032005716
0.04743778 0.06321958 0.11228766 0.031330056 0.018295627 0.06418633 0.12700962 0.05100489
0.09807392 0.06497448 0.09067514 0.0050901263 0.022845095 0.0472602 0.090558305 0.0148373535
0.07743121 -0.01862746 0.022324625 0.08366575 0.041412923 0.13177997 0.10897358 0.018808782
0.00063504546 0.021453356 0.06513251 0.00909784 0.12471971 0.12462433 -0.020874262 0.11380149
0.031833213 0.12775089 0.049727082 0.014657219 0.047946442 0.12606741 0.1358013 0.100307696
0.079022065 0.14640741 0.006815464 0.11038573 0.11350385 0.1014668 0.13790977 0.046083458
-0.021345142 0.122034244 -0.030586796 -0.03301694 0.027734509 -0.011034118 0.07834762 0.060628034
-0.024415549 0.124737486 0.054615233 0.12620191 0.1143986 -0.0035109534 0.096798494 -0.024900397
-0.025567409 0.008608634 0.11189779 0.10465935 0.04519462 0.114974484 -0.025312647 -0.040879276
0.091709875 0.03474387 0.08121024 0.015966369 0.08290377 0.0040305657 0.0309124 0.01994283
0.09980987 0.01601227 0.10837406 0.043210108 0.062016483 0.10473667 0.06660529 0.115907215
0.10431557 0.0009251961 -0.031388152 -0.037349753 -0.04423225 -0.037881095 0.08875176 0.10534037
-0.014481842 0.06783133 -0.031172644 -0.00343935 -0.07907911 -0.027565919 -0.07308075 0.09805481
0.0035260634 0.101427734 -0.07279048 0.08372684 0.021802513 -0.036859002 -0.08724663 0.0007070421
-0.013569659 0.019570574 0.02117729 0.0124707315 0.064887084 0.0065632323 -0.01381492 0.057287335
0.078570776 0.05625314 -0.066242814 0.029341226 -0.061463386 0.020872027 -0.07709659 0.058963157
-0.072982416 0.040012702 -0.06475473 0.029208848 -0.07757903 0.04962268 -0.018619848 -0.09201931
0.013657665 0.05323711 -0.00259871 -0.021192797 0.029005196 0.05246837 -0.0075104856 -0.08736163
-0.028891955 -0.03290123 -0.035206243 0.038385212 0.0054550106 0.04691211 -0.047597248 0.042272568
-0.0997899 -0.08194512 -0.000489435 -0.0923564 0.009610563 -0.09814793 0.041759815 0.012052004
-0.0032385539 -0.09786982 -0.038164742 -0.06684641 0.040250037 -0.02715396 -0.06503719 -0.08769771
-0.072758965 -0.09917809 0.008775599 0.031031521 -0.02588115 -0.09662936 -0.09114052 -0.06284337
-0.01619633 0.025127703 0.055665895 0.06512386 -0.019628517 -0.0055384557 0.0018002967 -0.017542133
-0.06448708 0.023298651 -0.089993194 -0.0061049596 -0.01741569 0.037001062 -0.1025198 -0.070861936
-0.0815515 -0.01695675 -0.10552021 0.054553796 0.06380721 0.010925759 0.03448532 0.064170174
-0.010801366 -0.10709233 -0.097719565 -0.04673268 -0.08726025 -0.033734582 0.03856058 -0.08675397
-0.05158537 -0.1041772 -0.030993396 0.06481255 -0.05317919 -0.006170369 0.012259525 -0.013278031
0.07198526 -0.037704837 -0.028484894 0.06897327 0.043607518 0.015378271 0.021505376 -0.041283976
-0.095480956 0.040204655 -0.04881319 -0.010379515 -0.014727529 -0.019378627 -0.09183025 -0.10347529
-0.08844364 -0.038651966 0.005728762 0.028530778 0.018676788 0.04582185 0.031254523 0.045195375
00000000: a30f 4ebc fe2a 83bd 5332 27bd 9a40 8ebb
00000010: 7cc0 373d 23fb 963d 63be ccbc 16eb 29bc
00000020: 222b e13c 5a70 e3ba 42bb 743d f761 5c3b
00000030: ac66 9d3d e494 e6bc 910f c63d 6d18 03bd
00000040: 1e4e 423d 4479 813d 13f7 e53d f253 003d
00000050: b6e0 953c 1f74 833d cf0e 023e 81ea 503d
00000060: fbda c83d 5711 853d e3b3 b93d 13cb a63b
00000070: a325 bb3c e993 413d a276 b93d 5f18 733c
00000080: 4194 9e3d 9d98 98bc 22e2 b63c f358 ab3d
00000090: 99a0 293d 54f1 063e 8a2d df3d e014 9a3c
000000a0: 2e79 263a f3be af3c 3264 853d 1b0f 153c
000000b0: 0c6d ff3d 0a3b ff3d 8000 abbc c110 e93d
000000c0: 8b63 023d 21d1 023e a0ae 4b3d d524 703c
000000d0: 7d63 443d d117 013e 7f0f 0b3e 1f6e cd3d
000000e0: 52d6 a13d d3eb 153e 4154 df3b ea11 e23d
000000f0: b574 e83d d3cd cf3d 3838 0d3e 02c2 3c3d
00000100: 02dc aebc 17ed f93d 2991 fabc c53c 07bd
00000110: 7b33 e33c 72c8 34bc b874 a03d 1a55 783d
00000120: 1e03 c8bc 5e76 ff3d 39b4 5f3d 133b 013e
00000130: d049 ea3d 0618 66bb 4a3e c63d ebfb cbbc
00000140: be72 d1bc 3a0b 0d3c ab2a e53d a457 d63d
00000150: fe1d 393d be77 eb3d 785c cfbc 0771 27bd
00000160: 63d2 bb3d 974f 0e3d 8e51 a63d e7cb 823c
00000170: 74c9 a93d d612 843b 003c fd3c 255f a33c
00000180: 1e69 cc3d 2a2c 833c 38f3 dd3d 15fd 303d
00000190: ff04 7e3d 2e80 d63d 5b68 883d c360 ed3d
000001a0: 67a3 d53d dc88 723a dd90 00bd 0efc 18bd
000001b0: e02c 35bd 3529 1bbd 7cc3 b53d b1bc d73d
000001c0: 3f45 6dbc 27eb 8a3d c65d ffbc b866 61bb
000001d0: 3af4 a1bd ecd1 e1bc 5cab 95bd f6d0 c83d
000001e0: 8715 673b 58b9 cf3d 2d13 95bd fa78 ab3d
000001f0: 2f9b b23c 77f9 16bd 5cae b2bd cb58 393a
00000200: 4653 5ebc 7852 a03c ff7b ad3c 0a52 4c3c
00000210: 85e3 843d 6210 d73b f957 62bc 20a6 6a3d
00000220: b7e9 a03d b169 663d 50aa 87bd 035d f03c
00000230: 08c1 7bbd d0fb aa3c d1e4 9dbd 5a83 713d
00000240: ce77 95bd 5ce4 233d 219e 84bd 6547 ef3c
00000250: c1e1 9ebd 2741 4b3d a788 98bc 9f74 bcbd
00000260: 66c4 5f3c 280f 5a3d 1e4f 2abb 849c adbc
00000270: 4e9c ed3c 13e9 563d 851a f6bb a7ea b2bd
00000280: d2ae ecbc 71c3 06bd 6c34 10bd d039 1d3d
00000290: f2bf b23b ea26 403d 55f5 42bd 0026 2d3d
000002a0: a65e ccbd d8d2 a7bd 6d4d 00ba 5a25 bdbd
000002b0: 9f75 1d3c c801 c9bd 570c 2b3d c575 453c
000002c0: eb3d 54bb f96f c8bd a252 1cbd c5e6 88bd
000002d0: 39dd 243d fb71 debc 3832 85bd db9a b3bd
000002e0: a702 95bd e21d cbbd 88c7 0f3c d135 fe3c
000002f0: b504 d4bc 9de5 c5bd e2a7 babd 06b4 80bd
00000300: 2aae 84bc 9dd8 cd3c ec01 643d a95f 853d
00000310: fccb a0bc ef7b b5bb eff7 eb3a 85b4 8fbc
00000320: cd11 84bd d0dc be3c 5a4e b8bd 1d0c c8bb
00000330: 59ab 8ebc 6d8e 173d e7f5 d1bd 1020 91bd
00000340: 7904 a7bd e2e8 8abc fb1a d8bd cd73 5f3d
00000350: 5bad 823d f401 333c 7b40 0d3d a76b 833d
00000360: 36f8 30bc 3953 dbbd 3221 c8bd c46a 3fbd
00000370: 80b5 b2bd 462d 0abd b3f1 1d3d 11ac b1bd
00000380: 2e4b 53bd db5a d5bd dde5 fdbc 71bc 843d
00000390: 6cd2 59bd cf30 cabb 2ddc 483c 198c 59bc
000003a0: 026d 933d 6370 1abd 2759 e9bc dc41 8d3d
000003b0: cc9d 323d 25f5 7b3c 0b2c b03c 6319 29bd
000003c0: 858b c3bd a3ad 243d 57f0 47bd d70e 2abc
000003d0: bc4b 71bc edbf 9ebc 8011 bcbd daea d3bd
000003e0: f021 b5bd 8651 1ebd 57b8 bb3b 61b9 e93c
000003f0: 1000 993c b1af 3b3d be04 003d c91e 393d

ln.weight f4 [128]
1.071483 1.0866067 1.0711983 1.0735193 1.0795994 1.0789957 1.0749797 1.0829139
1.072345 1.0794703 1.0738139 1.0649434 1.0827495 1.0677804 1.0732471 1.0766842
1.0667751 1.0779016 1.0814967 1.0776813 1.0806745 1.0879776 1.0797608 1.0777496
1.0779872 1.0721214 1.0730058 1.0848484 1.07739 1.0796039 1.0867436 1.0767603
1.0815738 1.079683 1.0790908 1.0794073 1.0891145 1.0890157 1.0812851 1.0758272
1.0756767 1.0830246 1.0286212 1.070255 1.0758172 1.0846034 1.0812787 1.0724531
1.0820634 1.0831256 1.0812728 1.0722098 1.0794009 1.0801753 1.0755309 1.0774612
1.0833209 1.0734446 1.0818725 1.0833324 1.0827653 1.0805515 1.0789627 1.0843115
1.075461 1.083446 1.0758425 1.0878493 1.0863376 1.0786972 1.0860054 1.0821674
1.09057 1.0772585 1.0778991 1.0930802 1.0755699 1.0850201 1.0916994 1.0788078
1.0809758 1.0787371 1.0875939 1.079777 1.0753086 1.0751768 1.0724763 1.085112
1.0791082 1.0896066 1.0808403 1.0862559 1.0712863 1.0695865 1.0754838 1.0756178
1.0911318 1.0723611 1.0746524 1.0814525 1.0765772 1.0785251 1.0802467 1.0705879
1.084258 1.0808498 1.0698956 1.0837649 1.0851642 1.0891709 1.0836654 1.0822725
1.0793518 1.0759183 1.055559 1.0756793 1.0832144 1.0836327 1.0843068 1.0792774
1.0837511 1.0816342 1.0811689 1.0802997 1.0605716 1.0782493 1.0885068 1.0789578
00000000: 5b26 893f ee15 8b3f 071d 893f 1569 893f
00000010: 5030 8a3f 881c 8a3f ef98 893f ec9c 8a3f
00000020: 9a42 893f 152c 8a3f bc72 893f 1150 883f
00000030: 8997 8a3f 07ad 883f 2960 893f cad0 893f
00000040: 168c 883f aef8 893f 7c6e 8a3f 76f1 893f
00000050: 8b53 8a3f da42 8b3f 9a35 8a3f b3f3 893f
00000060: 7cfb 893f 463b 893f 4158 893f 50dc 8a3f
00000070: eae7 893f 7630 8a3f 6a1a 8b3f 48d3 893f
00000080: 0371 8a3f 0d33 8a3f a61f 8a3f 052a 8a3f
00000090: 1b68 8b3f de64 8b3f 8d67 8a3f b5b4 893f
000000a0: c6af 893f 8da0 8a3f dca9 833f 1efe 883f
000000b0: 61b4 893f 49d4 8a3f 5767 8a3f 2546 893f
000000c0: 0e81 8a3f dca3 8a3f 2667 8a3f 2c3e 893f
000000d0: cf29 8a3f 2f43 8a3f ffaa 893f 40ea 893f
000000e0: 42aa 8a3f a266 893f cc7a 8a3f a3aa 8a3f
000000f0: 0e98 8a3f 834f 8a3f 731b 8a3f b8ca 8a3f
00000100: b5a8 893f 5cae 8a3f 35b5 893f a53e 8b3f
00000110: 1c0d 8b3f c012 8a3f 3a02 8b3f 7684 8a3f
00000120: cc97 8b3f 9be3 893f 99f8 893f 0dea 8b3f
00000130: 46ac 893f f0e1 8a3f cebc 8b3f 6016 8a3f
00000140: 6a5d 8a3f 0f14 8a3f 4736 8b3f 2236 8a3f
00000150: b6a3 893f 659f 893f e746 893f f3e4 8a3f
00000160: 3820 8a3f 3b78 8b3f fa58 8a3f 6f0a 8b3f
00000170: e91f 893f 36e8 883f 74a9 893f d8ad 893f
00000180: 35aa 8b3f 2143 893f 368e 893f 096d 8a3f
00000190: 48cd 893f 1c0d 8a3f 8645 8a3f 0609 893f
000001a0: f7c8 8a3f 4959 8a3f 57f2 883f cfb8 8a3f
000001b0: a9e6 8a3f f469 8b3f 8cb5 8a3f e887 8a3f
000001c0: 3328 8a3f b1b7 893f 8f1c 873f dcaf 893f
000001d0: c5a6 8a3f 7ab4 8a3f 91ca 8a3f c325 8a3f
000001e0: 5bb8 8a3f fd72 8a3f be63 8a3f 4347 8a3f
000001f0: cfc0 873f 1304 8a3f 3154 8b3f 4a1b 8a3f

ln.bias f4 [128]
0.07722052 -0.08686716 -0.077497 -0.07549609 -0.081697516 0.07697297 0.078317344 -0.083456606
-0.076467685 -0.079212956 -0.07532144 0.08313101 0.076026976 0.07636785 -0.07522391 0.077909686
0.06735206 -0.078379646 0.07882621 -0.080959484 0.078535154 0.08393147 0.08140631 0.083020665
0.08061222 0.07323685 -0.07816337 -0.0821536 -0.079757355 0.0757065 -0.08483831 -0.08174184
0.09317865 -0.086346306 -0.084229946 -0.08048819 -0.083794385 0.085759036 0.08562867 0.08059336
0.07806668 0.08441984 0.060882516 0.080169715 0.07631107 -0.08494822 -0.08723927 -0.07247896
0.079633676 -0.081431486 0.082215756 -0.06673754 0.076147586 -0.082751036 0.076399855 0.07516435
-0.081434086 -0.07757703 0.06890311 -0.07955525 -0.0857986 -0.07504005 -0.08382968 0.08202929
0.07981782 -0.0820547 -0.077503085 0.085314125 0.084627256 0.08071312 0.08439381 0.083673425
-0.088433534 -0.0801432 -0.07151637 0.08758047 0.07700072 0.073580556 -0.0777229 -0.07861859
-0.083846346 0.07504539 0.08447916 -0.08332427 0.07453703 0.079220116 -0.07108591 -0.082650036
-0.07703568 -0.0863912 -0.08312016 -0.07870391 0.07261891 -0.07696743 0.07889433 0.07961494
0.085524626 0.07883527 -0.07953705 0.079455204 0.07753948 -0.08575818 0.083403714 -0.085073546
-0.0856003 0.08911274 -0.07416771 -0.075249314 0.08339781 -0.08563342 -0.082995385 -0.084077254
0.08432025 0.073495954 -0.052581113 -0.07956546 -0.08597368 -0.08372473 0.08450527 0.08015844
0.08203282 -0.087325454 -0.07942008 0.08230127 -0.061259646 0.08143361 0.089689545 -0.08271699
00000000: cb25 9e3d 69e7 b1bd bfb6 9ebd b29d 9abd
00000010: 0751 a7bd 01a4 9d3d d864 a03d 4ceb aabd
00000020: 179b 9cbd 673a a2bd 2142 9abd 9740 aa3d
00000030: 08b4 9b3d bf66 9c3d fe0e 9abd 1d8f 9f3d
00000040: e0ef 893d 8285 a0bd a36f a13d 16ce a5bd
00000050: 0ad7 a03d 43e4 ab3d 5ab8 a63d bd06 aa3d
00000060: 0518 a53d 34fd 953d 1e14 a0bd 2640 a8bd
00000070: d357 a3bd 020c 9b3d b5bf adbd 4468 a7bd
00000080: 73d4 be3d 55d6 b0bd c080 acbd fed6 a4bd
00000090: 649c abbd 6fa2 af3d 165e af3d 220e a53d
000000a0: 6ce1 9f3d 4fe4 ac3d f25f 793d 0530 a43d
000000b0: fa48 9c3d 55f9 adbd 81aa b2bd d96f 94bd
000000c0: fb16 a33d 8dc5 a6bd bc60 a83d b1ad 88bd
000000d0: 44f3 9b3d 6079 a9bd 8777 9c3d c4ef 993d
000000e0: eac6 a6bd b5e0 9ebd 131d 8d3d dded a2bd
000000f0: 2db7 afbd 99ae 99bd e5ae abbd f9fe a73d
00000100: 8677 a33d 4b0c a8bd f0b9 9ebd 2cb9 ae3d
00000110: 0e51 ad3d ec4c a53d a9d6 ac3d f95c ab3d
00000120: a41c b5bd 1e22 a4bd 2d77 92bd 645d b33d
00000130: 8eb2 9d3d 67b1 963d 2f2d 9fbd c902 a1bd
00000140: a2b7 abbd 66b1 993d 6903 ad3d eaa5 aabd
00000150: dfa6 983d 283e a23d 7d95 91bd 6c44 a9bd
00000160: e2c4 9dbd dfed b0bd e73a aabd 842f a1bd
00000170: 39b9 943d 1aa1 9dbd 5a93 a13d 280d a33d
00000180: 8927 af3d 6374 a13d 52e4 a2bd 69b9 a23d
00000190: 05cd 9e3d fca1 afbd 91cf aa3d 0a3b aebd
000001a0: 364f afbd bd80 b63d 3ee5 97bd 501c 9abd
000001b0: 79cc aa3d 9360 afbd 7cf9 a9bd b230 acbd
000001c0: 18b0 ac3d 0c85 963d 4b5f 57bd 37f3 a2bd
000001d0: f812 b0bd df77 abbd 1911 ad3d 1c2a a43d
000001e0: d300 a83d b0d7 b2bd ffa6 a2bd 918d a83d
000001f0: 65eb 7abd aac6 a63d 27af b73d 8667 a9bd
