cached_models/ABM_models/ABM_GRUmodel.pth (torch, 122817 bytes, 8 tensors)

gru.weight_ih_l0 f4 [192, 3]
0	0xbcab15a9	-0.020884352
1	0xbdd57c29	-0.10424072
2	0xbbadb360	-0.005300924
3	0xbb6464da	-0.0034850151
4	0x3ecbfa98	0.39839625
5	0xbcc07aa0	-0.023495972
6	0xbe1d639a	-0.15370026
7	0x3d62670b	0.05527405
8	0x3dc6d414	0.097084194
9	0xbe2031fe	-0.1564407
10	0xbd4f90ef	-0.05067533
11	0xbdf893a6	-0.12137537
12	0xbd9ad147	-0.07559448
13	0xbe3a23b4	-0.18177682
14	0x3d8c2ff2	0.06845082
15	0xbe605e09	-0.21910872
16	0xbed32a1d	-0.41243067
17	0xbdf0d948	-0.11760193
18	0xbe858134	-0.26075137
19	0xbe8620e8	-0.2619698
20	0xbdd1f552	-0.10251869
21	0xbddc36e4	-0.10752657
22	0xbd51d82f	-0.05123156
23	0xbcdef780	-0.027217627
24	0x3cc02365	0.023454377
25	0xbec94ad3	-0.393149
26	0xbca69a70	-0.020337313
27	0x3cf12c55	0.029440084
28	0xbce10b94	-0.027471341
29	0x3db0718e	0.08615409
30	0xbe96f643	-0.29484758
31	0x3e94dabe	0.29073137
32	0xbd707c04	-0.05871202
33	0xbd3a34f8	-0.04546067
34	0x3e5497ab	0.20760982
35	0x3c271bf0	0.010199532
36	0x3cebad20	0.028769076
37	0x3e287213	0.16449766
38	0xbd4f82f0	-0.05066198
39	0xbe95c30c	-0.2925037
40	0xbddf8e17	-0.10915773
41	0x3d55f504	0.05223562
42	0xbe08084c	-0.13284415
43	0xbcb234b5	-0.021753648
44	0x3df30ea0	0.11868024
45	0xbe84e4d9	-0.25955847
46	0x3ef0eda1	0.47056296
47	0xbde84f06	-0.113431975
48	0x3c5910b3	0.01324861
49	0x3e735d81	0.23766138
50	0xbcae1590	-0.021250516
51	0x3c89a359	0.016801523
52	0xbe3df589	-0.18550695
53	0x3dbf9784	0.09355071
54	0xbe9576ee	-0.291923
55	0xbe587ef0	-0.21142173
56	0xbd9edafc	-0.07756612
57	0xbe1b8d45	-0.15190609
58	0xbd0b6db4	-0.034040168
59	0xbdee229c	-0.11627695
60	0xbc899dd6	-0.016798895
61	0x3c9e6410	0.019334823
62	0x3df3a8a6	0.118974015
63	0xbe234cf4	-0.15947324
64	0xbe790f95	-0.2432235
65	0xbbf4a6a0	-0.0074661523
66	0xbe314e4a	-0.17315021
67	0xbe089cb9	-0.13341035
68	0x3dc54772	0.09632768
69	0xbe53ebd3	-0.20695429
70	0xbe0eb397	-0.13935696
71	0xbdedd082	-0.11612035
72	0xbe0d055c	-0.13771576
73	0x3d89b1e3	0.06723382
74	0xbba6c940	-0.005089909
75	0x3d36b41c	0.04460536
76	0x3ef9a270	0.48756742
77	0xbd5c13d4	-0.053729847
78	0xbe4d9ce5	-0.20079382
79	0xbe155648	-0.14583695
80	0x3d43e7d4	0.04782851
81	0xbe06b6c8	-0.13155663
82	0xbe8255ca	-0.25456077
83	0x3d178150	0.036988556
84	0xbe7dd7cf	-0.24789356
85	0x3ec3af8d	0.38219872
86	0xbd924cc0	-0.07143545
87	0xbdbfbbbc	-0.09361979
88	0xbd9af4d8	-0.075662315
89	0xbd2e5e7c	-0.042570576
90	0xbd88b579	-0.06675238
91	0xbcc2a520	-0.023760378
92	0x3dbe5d3a	0.09295125
93	0xbe046494	-0.12928993
94	0x3d9020d8	0.070375144
95	0xbcbf2860	-0.023334682
96	0xbea20d1a	-0.3165062
97	0x3ed86ced	0.42270604
98	0x3bd60220	0.006531015
99	0xbe5633db	-0.20918219
100	0xbe488b4c	-0.19584388
101	0xbc3b5710	-0.011434332
102	0xbd3246f5	-0.0435247
103	0xbdfc4b8f	-0.12319099
104	0xbd5e50b4	-0.054276183
105	0xbdad5cdb	-0.084649764
106	0xbe44809f	-0.1918969
107	0x3dabe22e	0.0839275
108	0xbef78e82	-0.48350912
109	0xbecaf9ab	-0.39643607
110	0x3c58b8b0	0.013227627
111	0xbd96823b	-0.07349058
112	0x3a3e59a9	0.0007261285
113	0xbda6b5d0	-0.08140147
114	0x3dc140ba	0.09436174
115	0xbe5d00a1	-0.21582271
116	0xbdb10d86	-0.086451575
117	0xbdd17140	-0.10226679
118	0xbcc49457	-0.023996515
119	0x3d3e8fc8	0.04652384
120	0xbe6af882	-0.2294636
121	0x3de566c2	0.1120124
122	0xbd6fade0	-0.05851543
123	0xbda3d047	-0.0799871
124	0x3d6262d8	0.055270046
125	0x3db1e776	0.08686726
126	0xbde4d094	-0.111725956
127	0x3d3d6cb1	0.046246234
128	0xbd90b80e	-0.07066356
129	0xbd436b45	-0.047709722
130	0xbdf50a37	-0.11964839
131	0x3dc5249a	0.09626122
132	0xbe8c95e4	-0.27458107
133	0xbd13319e	-0.03593599
134	0xbbc2b6c0	-0.0059421957
135	0xbea3befb	-0.31981644
136	0xbeba6a84	-0.3640939
137	0xbda00aee	-0.07814585
138	0xbe1e6b7c	-0.1547069
139	0xbe2b12d8	-0.16706407
140	0xbdb13558	-0.08652753
141	0xbc59dc3a	-0.013297135
142	0x3f0926f3	0.53575057
143	0xbda091c2	-0.07840301
144	0xbe6ac433	-0.22926407
145	0x3f186a76	0.59537446
146	0xbdeee094	-0.11663929
147	0xbe0b84fe	-0.13624951
148	0xbd0f6f77	-0.03501841
149	0xbd507fbc	-0.050903067
150	0xbda7d3f6	-0.08194725
151	0x3d58068a	0.05274061
152	0xbc7b3990	-0.015333548
153	0xbe085710	-0.13314462
154	0xbf2c579c	-0.6732118
155	0x3d82c40a	0.06385048
156	0xbe1a71b2	-0.15082434
157	0xbcfbae3e	-0.030722734
158	0x3de9a902	0.11409189
159	0xbdfae22f	-0.12250172
160	0xbe1c4bed	-0.15263338
161	0x3dd911ec	0.105991215
162	0x3cb6f4db	0.022333553
163	0xbedf48b1	-0.43610147
164	0x3d9ae6d0	0.07563555
165	0xbdee372c	-0.11631617
166	0xbe8da73e	-0.27666658
167	0xbd7a71c8	-0.061143667
168	0xbdf0f0f4	-0.11764708
169	0x3df362ad	0.11884055
170	0xba859500	-0.00101915
171	0xbe334421	-0.17506458
172	0x3ed13ac2	0.4086514
173	0xbdce6fe4	-0.10079935
174	0xbe443dd0	-0.19164205
175	0x3dee6363	0.1164005
176	0x3d30a63c	0.043127283
177	0xbd162525	-0.036656518
178	0xbd9afbef	-0.07567584
179	0xbc418710	-0.011811987
180	0x3ca71c83	0.020399338
181	0x3e34a8c2	0.17642501
182	0xbddd65c6	-0.10810427
183	0x3e32e413	0.17469816
184	0xbee80a03	-0.45320138
185	0xbd1142dc	-0.035464153
186	0xbe0b411f	-0.1359906
187	0x3e4c2c29	0.19938721
188	0xbc57f1b0	-0.013180181
189	0xbd1b20ef	-0.037873205
190	0xbe247ead	-0.16063948
191	0xbda977a2	-0.08274771
192	0x3dee997e	0.1165037
193	0xbce6fd47	-0.028196944
194	0xbb9e56a0	-0.004832104
195	0x3ecaea8e	0.39632076
196	0x3e1ca774	0.15298253
197	0xbd2ea398	-0.042636484
198	0x3daa7701	0.083234794
199	0xbe65e1c6	-0.22449407
200	0xbd18f228	-0.037340313
201	0xbdf470ff	-0.11935615
202	0xbebb855f	-0.36625192
203	0x3d6631e8	0.056199938
204	0xbe956a01	-0.29182437
205	0xbde59a3a	-0.11211057
206	0x3dd661f2	0.104679
207	0xbeeb4d90	-0.45957613
208	0xbe8a0751	-0.26958707
209	0xbbabc3e0	-0.005241856
210	0xbf0f767b	-0.5604016
211	0xbe5f9700	-0.21834946
212	0xbd8c40bc	-0.068482846
213	0x3d543b4e	0.05181437
214	0xbda00cc4	-0.07814935
215	0x3d2ce960	0.04221475
216	0x3dab436c	0.08362469
217	0xbe5400ee	-0.2070348
218	0x3d50ff80	0.051024914
219	0xbe33fbd8	-0.1757654
220	0xbe0e892c	-0.13919514
221	0xbdbbb5ac	-0.091655105
222	0xbd92c353	-0.071661614
223	0xbdd340f5	-0.10315124
224	0xbde8bed6	-0.11364524
225	0xbd1d3fb8	-0.038390845
226	0xbe926964	-0.28596032
227	0x3d376ed8	0.044783443
228	0x3eb08d71	0.3448291
229	0xbe14ffa4	-0.14550644
230	0xbd0b3bc8	-0.03399256
231	0xbe5a4247	-0.21314345
232	0xbe443068	-0.1915909
233	0x3d6df300	0.05809307
234	0xbe289806	-0.16464242
235	0xbec7f9ea	-0.39057857
236	0x3c4bd800	0.012441635
237	0x3b2d715c	0.0026465273
238	0x3da8f60f	0.08250057
239	0xbdb3c7ee	-0.08778368
240	0x3e935796	0.2877776
241	0x3e3c49fc	0.18387598
242	0x3d9f6a28	0.077839196
243	0xbc996051	-0.018722685
244	0xbe47f077	-0.19525324
245	0x3d97c56a	0.074107006
246	0xbecce19f	-0.40015885
247	0xbe562ca5	-0.20915468
248	0x3bd627e0	0.006535515
249	0xbe82bb38	-0.25533462
250	0xbe0ea6fb	-0.13930885
251	0xbd96c716	-0.073621914
252	0xbd34c28e	-0.044130854
253	0xbe998b53	-0.29989108
254	0xbd71a524	-0.05899538
255	0xbe664a46	-0.2248927

gru.weight_hh_l0 f4 [192, 64]
0	0xbd9d6cd3	-0.07686772
1	0xbccd123a	-0.025033105
2	0x3d906fd2	0.07052578
3	0x3d5def3c	0.05418323
4	0x3c9fd68b	0.019511482
5	0xbd523603	-0.05132104
6	0xbd29ab25	-0.04142298
7	0x3d9bcd6f	0.07607543
8	0xbd88d108	-0.066804945
9	0x3d77e6d4	0.06052287
10	0xbd19025f	-0.037355777
11	0xbd863bf4	-0.06554404
12	0x3c28fd4f	0.0103143
13	0xbc806e63	-0.015677636
14	0x3e06e4a8	0.13173163
15	0x3d015845	0.03157832
16	0x3d2b80e0	0.04187095
17	0x3cab150b	0.020884058
18	0x3cb2127c	0.02173733
19	0xbd1d4cac	-0.038403198
20	0x3e0e2d79	0.13884534
21	0x3e348882	0.17630199
22	0x3df2e220	0.11859536
23	0xbd29f2c7	-0.041491296
24	0x3df674c5	0.12033991
25	0xbe0bda89	-0.13657583
26	0x3d4203d3	0.04736693
27	0x3e21ada2	0.15788892
28	0xbde3e26a	-0.111271694
29	0xbe0f9b83	-0.14024167
30	0xbcc79a37	-0.024365528
31	0xbdc87bcb	-0.09789237
32	0xbd8e98ed	-0.06962762
33	0x3d9f86aa	0.07789357
34	0x3bd409e8	0.0064709075
35	0x3d6f3bf8	0.0584068
36	0xbe2ae75e	-0.16689822
37	0x3d1d9145	0.038468618
38	0x3cfe79bf	0.031063912
39	0xbdbae5a0	-0.09125829
40	0x3d394ad7	0.04523739
41	0xbd35a88a	-0.044350185
42	0x3d88e866	0.066849515
43	0xbdc1d1a4	-0.09463814
44	0x3db76415	0.08954636
45	0x3dad6888	0.084672034
46	0xbc556e70	-0.013026819
47	0xbcccef87	-0.02501656
48	0xbd8425e2	-0.06452538
49	0x3d53f86f	0.051750597
50	0x3d8f65d2	0.070018426
51	0x3e48be32	0.19603804
52	0xbda5298b	-0.08064564
53	0xbe01acf8	-0.12663639
54	0xbe2a9ef7	-0.16662203
55	0x3da0d756	0.07853572
56	0x3db7006a	0.08935626
57	0x3aea2fae	0.0017866993
58	0xbc698689	-0.014253267
59	0xbe2598b5	-0.16171534
60	0x3dc4a200	0.096012115
61	0x3e3b79cd	0.18308182
62	0xbac8e5bf	-0.0015327259
63	0x3d526eaa	0.05137507
64	0xbe52d679	-0.20589627
65	0xbe7356f1	-0.23763634
66	0x3d1f787e	0.03893327
67	0xbb953cd8	-0.0045543723
68	0xbbe31d1a	-0.0069309594
69	0x38d3d504	0.00010100941
70	0xbcc71e9b	-0.024306586
71	0xbcd47569	-0.025934892
72	0x3df2df57	0.11859005
73	0xbc0e5dc7	-0.00868935
74	0x3e665023	0.22491507
75	0x3dc4dd55	0.09612528
76	0x3e2edf45	0.17077358
77	0x3dd034f2	0.101663485
78	0x3df4e8b2	0.119584456
79	0x3e57f001	0.21087648
80	0xbddf13e0	-0.10892463
81	0xbba37212	-0.0049879635
82	0xbda7ea7c	-0.08199021
83	0x3d34de7e	0.044157498
84	0x3d6641bb	0.05621503
85	0x3e2f94c1	0.17146589
86	0x3db68604	0.0891228
87	0xbdf03d2a	-0.11730416
88	0x3e1e3f2c	0.15453786
89	0xbdeec791	-0.11659158
90	0xbbd13807	-0.006384853
91	0x3d76e793	0.06027944
92	0x3e5f0c52	0.21782044
93	0xbdab309b	-0.0835888
94	0xbe070989	-0.13187231
95	0xbe6048af	-0.21902727
96	0x3d5cced4	0.053908184
97	0xbd740744	-0.05957724
98	0x3ddcb4ef	0.10776698
99	0x3dcebd30	0.100946784
100	0xbc5a8fa2	-0.013339909
101	0x3e5c74a8	0.21528876
102	0x3d196ae8	0.03745547
103	0xbdd15685	-0.102215804
104	0xbcaf5e0a	-0.021407146
105	0xbda4288a	-0.08015545
106	0x3e2ce0ae	0.16882583
107	0xbd08aa8f	-0.033365782
108	0xbcb51f74	-0.022109725
109	0xbdd2f690	-0.10300934
110	0x3c0885e8	0.008332707
111	0xbe11ae22	-0.14226583
112	0xba8d7299	-0.0010791599
113	0x3c37c19e	0.0112155955
114	0xbe1c78cc	-0.15280455
115	0x3c96dd47	0.01841606
116	0xbd9ba24a	-0.075993136
117	0xbc92906f	-0.017891137
118	0xbd107c28	-0.035274655
119	0xbdbf8be0	-0.09352851
120	0xbd20fc9e	-0.039303415
121	0x3dcffb09	0.10155303
122	0xbe0b519c	-0.1360535
123	0xbda55b3b	-0.080740415
124	0xbe1054b5	-0.14094813
125	0x3c59e6d3	0.013299662
126	0x3c92c6bd	0.017917031
127	0x3d7fb8ca	0.062432088
128	0xbe125d1c	-0.14293331
129	0xbe08e3e5	-0.13368185
130	0x3e39d2bf	0.181468
131	0x3e2bcfa2	0.16778424
132	0x398bfb68	0.00026699458
133	0x3d9fbbe1	0.07799507
134	0xbe15d656	-0.14632544
135	0xbd914bb8	-0.0709452
136	0x3dc24a94	0.09486881
137	0xbe2138d6	-0.15744337
138	0x3df184a1	0.11792875
139	0x3df28243	0.11841252
140	0xbc6fe4cc	-0.014641952
141	0x3e30a396	0.17249903
142	0x3c823eab	0.015899023
143	0x3d2338fe	0.039849274
144	0xbc42b2a1	-0.011883409
145	0x3e4c2435	0.19935687
146	0xbe57a00a	-0.21057144
147	0xbdd3330c	-0.10312471
148	0x3e23934b	0.15974157
149	0x3e314854	0.17312747
150	0x3e69ff90	0.22851396
151	0xbe391e2d	-0.18077917
152	0x3e1e3845	0.15451153
153	0xbd2a9033	-0.041641425
154	0xbd9e8a81	-0.07741261
155	0x3e2ac3d9	0.16676272
156	0x3deae768	0.114699185
157	0xbe03f71d	-0.12887235
158	0xbd457e2f	-0.04821604
159	0xbcdae7ff	-0.026721952
160	0xbd88c485	-0.06678108
161	0xbe4c158c	-0.19930094
162	0x3db06830	0.08613622
163	0xbd2e7c94	-0.042599276
164	0xbcf99aeb	-0.030469378
165	0x3deae8e9	0.11470205
166	0x3d8ab1e5	0.06772212
167	0xbd5a3936	-0.053277217
168	0x3e4da9c4	0.20084292
169	0xbe318b6a	-0.17338338
170	0x3dae2b6a	0.08504374
171	0xbdd6ec32	-0.104942694
172	0x3e3968ab	0.18106334
173	0x3db67451	0.08908904
174	0xbe4280ec	-0.18994492
175	0xbdb2989d	-0.08720515
176	0xbd2b6f9d	-0.04185449
177	0xbdb4d492	-0.08829607
178	0xbd0aad98	-0.03385696
179	0x3d968ae5	0.07350711
180	0xbda2b3f3	-0.07944479
181	0xbdd51485	-0.104043044
182	0xbdcef70f	-0.101057164
183	0xbd1c950e	-0.038228087
184	0xbd0c3d04	-0.034237877
185	0x3d2d94c6	0.04237821
186	0xbe80eb0d	-0.2517933
187	0xbe3beda8	-0.18352377
188	0x3bcbc399	0.0062183854
189	0x3d570dd0	0.052503407
190	0x3cad98a0	0.021190941
191	0x3e1c8dee	0.15288517
192	0xbe63f7bd	-0.22262473
193	0xbe51216a	-0.20422903
194	0x3e215d61	0.15758277
195	0x3de31f0e	0.110899076
196	0xbd9c485c	-0.07630989
197	0x3d48847b	0.04895447
198	0xbe0d017c	-0.13770097
199	0xbdfbb20e	-0.122898206
200	0x3da8aa4d	0.08235607
201	0xbe828794	-0.25494063
202	0xbd4ba294	-0.049715593
203	0x3dcc3f1a	0.09972973
204	0x3dff49b7	0.12465232
205	0x3e659614	0.22420532
206	0x3da958d7	0.08268898
207	0x3dba3619	0.090923496
208	0xbe3f398f	-0.186743
209	0x3e7f38f2	0.24924067
210	0xbe1b450b	-0.15163057
211	0xbea381db	-0.3193501
212	0x3e243709	0.16036619
213	0x3eaf831d	0.3427972
214	0x3e172e4b	0.14763753
215	0xbe619968	-0.22031176
216	0x3df34b3b	0.118795834
217	0xbe1fe9fb	-0.156166
218	0xbea0b995	-0.31391588
219	0x3e965b0c	0.29366338
220	0x3e0fd133	0.14044647
221	0xbdffcbbe	-0.124900326
222	0xbdca207c	-0.09869477
223	0xbe6ae358	-0.22938287
224	0xbdad4343	-0.08460095
225	0xbe45c1ac	-0.19312161
226	0x3e0678c2	0.13132003
227	0xbe486006	-0.1956788
228	0xbe08fe10	-0.13378167
229	0x3e22a1c9	0.15882029
230	0x3e6e9f31	0.23302914
231	0xbe937829	-0.28802612
232	0x3eae9ce0	0.3410406
233	0xbdbfd555	-0.09366862
234	0x3e58e914	0.21182662
235	0xbe924dc4	-0.28574955
236	0x3e846eed	0.2586588
237	0x3df028be	0.11726521
238	0xbea4a150	-0.32154322
239	0xbd0a1d37	-0.033719268
240	0xbc43df14	-0.011955041
241	0xbdd36970	-0.10322845
242	0xbe405243	-0.1878138
243	0x3dc2be5f	0.09508967
244	0xbe46d37d	-0.19416614
245	0xbe4f1f5f	-0.20226811
246	0xbe1e5428	-0.1546179
247	0xbdd2d154	-0.102938324
248	0xbdb451c3	-0.08804657
249	0x3def21bb	0.116763555
250	0xbeb30b2d	-0.34969464
251	0xbe5f3cff	-0.21800612
252	0xbcbb1e69	-0.02284165
253	0x3dc27552	0.09495033
254	0x3e9b8a7d	0.30379096
255	0x3e362c14	0.17790252

gru.bias_ih_l0 f4 [192]
0	0xbdc3551d	-0.095377184
1	0xbe436a77	-0.19083582
2	0xbe49a8da	-0.19693318
3	0xbe739625	-0.23787744
4	0xbe2609b0	-0.16214633
5	0xbe3fb127	-0.18719922
6	0xbd494ec3	-0.04914738
7	0xbd825645	-0.06364111
8	0xbdf99488	-0.12186533
9	0xbe423af5	-0.18967803
10	0xbd1ab41e	-0.03776943
11	0xbe970e6c	-0.2950319
12	0xbb84753e	-0.0040422967
13	0xbd4703ce	-0.048587613
14	0x3d8ed558	0.06974286
15	0xbd8ba32c	-0.06818232
16	0xbd008e06	-0.031385444
17	0xbd95eaeb	-0.07320198
18	0xbd3ffcf0	-0.04687208
19	0xbe85f0ea	-0.26160365
20	0x3c9468c5	0.018116364
21	0xbe4a2f34	-0.19744569
22	0xbe2b386b	-0.1672074
23	0x3b95a5d8	0.0045668893
24	0xbe0e2d2f	-0.13884424
25	0xbda01496	-0.078164265
26	0x3d77fc34	0.060543254
27	0xbe15ed6d	-0.14641352
28	0xbe050a63	-0.12992243
29	0xbe29a918	-0.1656841
30	0xbd068e7b	-0.032850724
31	0xbe6ce50f	-0.23134254
32	0xbe76d8fb	-0.24106209
33	0xbe55ca36	-0.20877919
34	0x3c8de557	0.017321272
35	0x3d2c9753	0.0421365
36	0xbd86d7fc	-0.065841645
37	0xbe144101	-0.14477922
38	0xbd405a22	-0.046960957
39	0xbe5a03aa	-0.2129046
40	0xbe95d589	-0.29264477
41	0xbc273ab1	-0.010206864
42	0xbdc9af2b	-0.09847864
43	0xbd318953	-0.043343853
44	0xbe5c20e0	-0.21496916
45	0xbd8ea4ef	-0.06965052
46	0xbdec760c	-0.11545953
47	0xbde500c7	-0.11181789
48	0x3d8da405	0.0691605
49	0xbdef82cc	-0.116948694
50	0xbe31ec04	-0.17375189
51	0x3db67f02	0.089109436
52	0xbdf4091d	-0.11915801
53	0xbdeedb74	-0.11662951
54	0xbda8f4cd	-0.08249817
55	0xbd8349d8	-0.06410569
56	0xbdf0e9c1	-0.11763335
57	0xbdbe2731	-0.09284819
58	0xbe115fb1	-0.1419666
59	0xbd79f27c	-0.061022267
60	0xbde48f99	-0.111602016
61	0xbde9dd1a	-0.11419125
62	0xbd4ec4e9	-0.050480757
63	0xbe95a934	-0.29230654
64	0xbbea4157	-0.0071489024
65	0xbd9472e1	-0.07248474
66	0x3dff4bc1	0.12465621
67	0x3e53b6cb	0.20675199
68	0xbe1ffe70	-0.15624404
69	0xbc0482a6	-0.00808779
70	0x3cb71118	0.022347018
71	0x3e694c31	0.22782971
72	0xbe50d601	-0.20394136
73	0xbd25e8a4	-0.040505067
74	0xbe401f9f	-0.18762062
75	0xbd093a93	-0.033503126
76	0xbded6a98	-0.11592597
77	0x3d7038c0	0.05864787
78	0x3dbfa7a3	0.09358146
79	0xbe6505bf	-0.22365473
80	0xbda525fb	-0.08063885
81	0xbddce38a	-0.10785587
82	0x3dd3ce8f	0.10342132
83	0x3e41ad69	0.18913807
84	0xbcf69b6a	-0.030103404
85	0xbadb7fc5	-0.0016746452
86	0xbda9eb37	-0.08296817
87	0x3e72c34c	0.23707312
88	0xbd33d735	-0.04390641
89	0xbdeac776	-0.114638254
90	0xbc175a50	-0.009237841
91	0x3e1004ef	0.14064382
92	0xbe2678af	-0.16256975
93	0x3da5938c	0.08084783
94	0x3d47f1ba	0.048814513
95	0xbdafd316	-0.08585183
96	0xbe92d3d6	-0.28677243
97	0x3db626c4	0.08894113
98	0x3e61a10d	0.22034092
99	0xbc2b8ff1	-0.01047133
100	0xbc85c7b8	-0.016330585
101	0x3e05f345	0.13081081
102	0xbdd9daf2	-0.10637464
103	0x3e0608fa	0.13089362
104	0x3e16d843	0.14730935
105	0x3d338d93	0.043836188
106	0xbd2b7324	-0.041857854
107	0xbd650a43	-0.05591799
108	0x3dc21a61	0.094776876
109	0xbda7508b	-0.08169659
110	0xbde385c6	-0.111095
111	0xb9b2cb83	-0.00034102434
112	0xbde653d2	-0.11246456
113	0x3e168455	0.14698918
114	0x3dcee43a	0.101021245
115	0xbe1f6304	-0.15565115
116	0x3d5faa47	0.05460575
117	0xbcc7e859	-0.024402784
118	0xbdfd432d	-0.123663284
119	0xbe12449e	-0.14283988
120	0x3e264194	0.16235954
121	0xbdb6f2df	-0.08933043
122	0x3e08d987	0.1336423
123	0x3d1e5a6c	0.03866045
124	0xbb44aa1f	-0.0030008627
125	0xbe5ffe0c	-0.21874255
126	0x3c10a5a1	0.0088285515
127	0x3d047f21	0.032347802
128	0x3dbe0d3c	0.09279868
129	0x3d44cc24	0.048046246
130	0xbd8428fa	-0.06453128
131	0xbda3a201	-0.07989884
132	0x3d08b97b	0.033380013
133	0xbe0bd4d8	-0.13655412
134	0x3dd4650c	0.10370836
135	0x3ded2c66	0.11580734
136	0xbdecaa9c	-0.11555979
137	0x3dc505e3	0.096202634
138	0x3c291b31	0.010321424
139	0xbdf0a30d	-0.117498495
140	0xbd929873	-0.07157984
141	0xbd83a6d5	-0.06428305
142	0xbce0b459	-0.027429746
143	0x3d64fbd3	0.05590422
144	0x3dd2eef3	0.10299482
145	0xbddbefc8	-0.10739094
146	0x3da98710	0.08277714
147	0x3dac600a	0.084167555
148	0xbd093615	-0.033498842
149	0xbda9c4f7	-0.08289521
150	0xbdb58e1a	-0.08864994
151	0x3d494679	0.049139474
152	0xbde84658	-0.11341542
153	0x3e26c91a	0.16287652
154	0x3cd84da2	0.026404206
155	0xbdd23198	-0.102633655
156	0x3cb0f460	0.021600902
157	0x3dbf53e8	0.09342176
158	0x3d2a3b60	0.04156053
159	0x3dd286bd	0.102796055
160	0x3d6b6c5b	0.057476383
161	0x3d78d4d4	0.060749844
162	0xbdb717a2	-0.089400545
163	0x3db48acb	0.08815535
164	0x3d2bcb9a	0.041942216
165	0xbddd9c8f	-0.10820877
166	0xbd1da77f	-0.038489815
167	0x3d8c8153	0.06860604
168	0xbd9a1c05	-0.075248756
169	0x3d90fb8d	0.070792295
170	0xbe089654	-0.13338596
171	0x3e0233a6	0.12715015
172	0xbd9ecadb	-0.07753535
173	0xbdc52a3e	-0.09627198
174	0x3dae715e	0.08517717
175	0x3d9e8e24	0.07741955
176	0xbcf09824	-0.029369421
177	0x3de947cc	0.11390647
178	0x3be0ddb6	0.0068623675
179	0xbd8dc5b9	-0.06922478
180	0x3d19dce7	0.037564185
181	0x3ddd399b	0.10802003
182	0x3daed537	0.08536761
183	0x3d99fb89	0.0751868
184	0x3caf915c	0.021431617
185	0x3cd58169	0.026062684
186	0x3ddd0840	0.10792589
187	0x3d074678	0.03302619
188	0x3d8e4b97	0.06948011
189	0xbd87fd39	-0.06640095
190	0xbe0561a5	-0.1302553
191	0xbd620eee	-0.05519002

gru.bias_hh_l0 f4 [192]
0	0xbdb9db41	-0.090750225
1	0xbde90a1e	-0.11378883
2	0xbd915a08	-0.0709725
3	0xbe8a9718	-0.270684
4	0x3d51ace6	0.05119028
5	0xbccfe1ae	-0.025376167
6	0xbe0a71eb	-0.13520019
7	0xbd60de38	-0.054899424
8	0xbd5ddc6a	-0.05416528
9	0xbe181410	-0.14851403
10	0xbe0d4034	-0.13794023
11	0xbe11024d	-0.14161034
12	0xbdf0a8fe	-0.11750983
13	0xbdfe3b73	-0.12413683
14	0xbdf2a231	-0.11847342
15	0xbe2c9194	-0.16852409
16	0xbe163ba9	-0.14671196
17	0xbe16b123	-0.1471601
18	0xbd977d02	-0.0739689
19	0xbcc3f482	-0.023920301
20	0xbe20cf3f	-0.15704058
21	0xbd236879	-0.039894555
22	0xbe4a91f6	-0.19782242
23	0xbe2499db	-0.16074316
24	0xbd99471c	-0.07484266
25	0xbe53c6f8	-0.2068137
26	0xbe0d32f5	-0.1378897
27	0x3cca8da0	0.024725735
28	0xbd09cd39	-0.03364298
29	0xbe3f4673	-0.18679218
30	0xbe5bcdd7	-0.2146524
31	0xbe17c053	-0.1481946
32	0xbe472d87	-0.19450961
33	0x3c4474d2	0.011990743
34	0xbcde6fd8	-0.02715294
35	0x3c8b6c18	0.017019317
36	0xbd5ce169	-0.053925905
37	0xbd986438	-0.0744099
38	0x3c86cd16	0.016455214
39	0xbd8f4137	-0.069948606
40	0xbe8a0ea8	-0.26964307
41	0xbd66333e	-0.056201212
42	0xbe7a3c23	-0.24437003
43	0xbe304980	-0.17215538
44	0xbdddc240	-0.10828066
45	0xbdd4d695	-0.10392491
46	0xbe1c01f7	-0.15235125
47	0x3c42b09e	0.011882929
48	0xbe03d07e	-0.12872502
49	0xbdbb42bb	-0.09143587
50	0xbd4309fb	-0.04761694
51	0xbd275df5	-0.04086109
52	0xbd4b9fb2	-0.049712844
53	0xbd7baac0	-0.061442137
54	0xbda6c0f1	-0.081422694
55	0xbdafa72c	-0.085768074
56	0xbc83db2e	-0.016095724
57	0xbc064b1d	-0.008196619
58	0xbdab16e6	-0.08353977
59	0xbd940ecd	-0.072293855
60	0xbdbaa6ae	-0.09113823
61	0xbd11b3cd	-0.035571862
62	0xbcaed47e	-0.021341559
63	0xbe295aa1	-0.16538478
64	0x3e4ced08	0.20012295
65	0x3df7db1d	0.121023394
66	0x3c3ab12b	0.011394779
67	0x3e5fa847	0.21841536
68	0xbc859aad	-0.016309107
69	0x3c89426e	0.016755309
70	0xbd8b5db4	-0.06804982
71	0x3d7a492d	0.061104942
72	0xbe011c80	-0.12608528
73	0x3d9556eb	0.07291969
74	0xbd9dac34	-0.07698861
75	0x3d6903a3	0.056888234
76	0x3d1736c9	0.03691748
77	0x3c68f64d	0.014218879
78	0x3c8cfbc3	0.017209893
79	0xbe804fad	-0.25060788
80	0xbd9ede82	-0.07757284
81	0x3dfc9c18	0.1233446
82	0x3c99d8c1	0.018780114
83	0x3da79397	0.081824474
84	0x3d5ae8ce	0.053444676
85	0xbc114597	-0.008866689
86	0x3c189bd1	0.009314493
87	0x3e2a2291	0.16614749
88	0xbd73b1a3	-0.05949558
89	0xbccf923b	-0.025338283
90	0xbc45e418	-0.012078308
91	0xbd409c45	-0.04702403
92	0xbe2af8c0	-0.16696453
93	0x3e8a7aab	0.27046713
94	0x3e101c56	0.1407331
95	0xbd68f28f	-0.056871947
96	0xbdb06281	-0.08612538
97	0x3cc45dda	0.023970533
98	0x3e6e1e3a	0.23253718
99	0xbc9b6457	-0.018968744
100	0xbe3d982f	-0.18515085
101	0x3dab0614	0.08350769
102	0xbdd18d00	-0.10231972
103	0x3e70ab5f	0.23502873
104	0x3c3cef83	0.011531713
105	0x3b8339fd	0.0040047155
106	0xbd8a662e	-0.067577705
107	0x3cf5219a	0.029923249
108	0x3d77c032	0.060486026
109	0x3cf15d44	0.029463418
110	0x3d983f1a	0.07433911
111	0xbe2906e0	-0.16506529
112	0xbe09ab42	-0.13444236
113	0x3dcca804	0.09992984
114	0x3dd14efa	0.10220142
115	0xbe3069c3	-0.17227845
116	0x3ca8e20c	0.0206156
117	0xbd163f07	-0.0366812
118	0xbc1ffa4f	-0.009764268
119	0xbe0cd808	-0.13754284
120	0x3b018b03	0.0019766695
121	0xbe3c9eb8	-0.18419921
122	0x3e4133e2	0.18867448
123	0x3dd02b3a	0.10164495
124	0x3c7f7fa5	0.015594398
125	0xbd6aa044	-0.057281747
126	0x3e109cbc	0.1412229
127	0x3d585d0c	0.05282311
128	0xbc65a8d0	-0.014017299
129	0x3dc1257c	0.09430978
130	0xbdcc41bd	-0.09973476
131	0xbdbb0079	-0.091309495
132	0x3e0f8e2a	0.14019075
133	0xbd4e0168	-0.05029431
134	0x3dd52ee7	0.104093365
135	0x3c4bb699	0.012433671
136	0xbd03dbba	-0.03219197
137	0xbbd76667	-0.0065734866
138	0xbc8d6ff0	-0.01726529
139	0x3d43c9b0	0.047799766
140	0x3d67832f	0.05652159
141	0xbdf1b121	-0.11801363
142	0xbe510b44	-0.20414454
143	0xbdee09aa	-0.11622937
144	0xbd8f3c51	-0.06993926
145	0xbd482030	-0.04885882
146	0x3dd2a751	0.10285819
147	0x3cd9ed8d	0.02660253
148	0xbe3ac27e	-0.18238255
149	0xbdc9db84	-0.098563224
150	0xbda841fb	-0.0821571
151	0x3d6baffc	0.05754088
152	0x3d1f6b82	0.038920887
153	0x3d8865ee	0.066600665
154	0x3e390e2d	0.18071814
155	0xbdcfc04d	-0.101441
156	0xbda690bc	-0.08133075
157	0xba0ac1fb	-0.00052931876
158	0x3da38007	0.07983404
159	0xbdbb248d	-0.09137831
160	0xbc72f2b7	-0.014828376
161	0x3dc93f16	0.09826486
162	0xbddd44c1	-0.108041294
163	0x3d30a4c1	0.04312587
164	0x3e4b7c06	0.1987153
165	0xbbfbbf7c	-0.007682739
166	0xbe3ac94d	-0.18240853
167	0x3cd14ff9	0.02555083
168	0xbdb06cf4	-0.08614531
169	0x3cb3d829	0.02195366
170	0x3d8b6bbb	0.06807657
171	0xbddef72d	-0.10886989
172	0xbe0bb6fa	-0.13644019
173	0xbe0bdff3	-0.13659649
174	0x3ce7e939	0.028309451
175	0x3db89e07	0.09014516
176	0x3dcd413a	0.100222066
177	0xbd1f616f	-0.03891128
178	0x3e25c1b6	0.16187176
179	0xbe42d8c3	-0.19028
180	0x3da0d552	0.078531876
181	0xbc7aeff4	-0.015315998
182	0x3d1fcb0e	0.039012007
183	0x3df8c60b	0.12147149
184	0x3ddc2840	0.107498646
185	0x3c6a6066	0.01430521
186	0x3cae4993	0.021275317
187	0x3da31c58	0.079643905
188	0xbc2ac2b5	-0.010422398
189	0xbe4a0d28	-0.19731581
190	0x3d878819	0.066177554
191	0xbd90c71f	-0.07069229

fc.weight f4 [256, 64]
0	0x3db1dfab	0.086852394
1	0x3cc9abfe	0.024618145
2	0x3cb550fe	0.022133347
3	0x3b60c91c	0.0034299558
4	0xba6792ac	-0.00088338065
5	0xbd5828c3	-0.05277325
6	0x398f2356	0.00027301413
7	0xbd68b902	-0.056817062
8	0x3cee3bd4	0.029081263
9	0xbcd98ab0	-0.02655539
10	0xbdc98df2	-0.09841527
11	0x3c1a7025	0.009426151
12	0x3c815f96	0.01579265
13	0x3da47a1f	0.08031105
14	0x3c1f7bda	0.009734118
15	0x3c8c8d1f	0.017157136
16	0xbd0487c7	-0.03235605
17	0xbdaed5d3	-0.085368775
18	0x3d9c3b0a	0.07628448
19	0x3d26ed62	0.04075373
20	0xbd8ac151	-0.067751534
21	0xbd8a8481	-0.06763554
22	0xbd7ae44e	-0.061252885
23	0xbd1ca212	-0.0382405
24	0xbd2039e7	-0.03911772
25	0xbc7237bc	-0.014783796
26	0x3df0a3ea	0.11750014
27	0x3d9396c3	0.0720649
28	0x3d605f7e	0.05477857
29	0xbc264d74	-0.010150302
30	0x3ce30543	0.02771247
31	0xbd8b380c	-0.067977995
32	0xbd7b8fca	-0.061416425
33	0xbe1ba509	-0.15199675
34	0x3db2c15e	0.08728288
35	0xbd8193d8	-0.06327027
36	0x3d8a84bb	0.067635976
37	0xbd9e1518	-0.07718867
38	0x3dea0727	0.114271455
39	0x3a46bd41	0.00075813016
40	0x3db1afe6	0.08676128
41	0xbde5f473	-0.112282656
42	0xbd903330	-0.07041013
43	0x3d9bdd05	0.076105155
44	0x3d903f79	0.070433564
45	0xbd47e627	-0.048803475
46	0xbd215225	-0.03938498
47	0x3d31a939	0.043374274
48	0x3cb7502a	0.022377092
49	0x3d2a9937	0.041650023
50	0xbd6efa9b	-0.058344465
51	0x3c8d133a	0.017221082
52	0xbe0aefa2	-0.13567975
53	0xbe18fec5	-0.14940937
54	0x3d55ae30	0.05216807
55	0xbc510ee6	-0.0127599
56	0x3b055a80	0.0020348132
57	0x3d1dee81	0.038557533
58	0xbc98d593	-0.018656528
59	0x3c1f9798	0.009740733
60	0xbddee30f	-0.10883152
61	0xbd8e4988	-0.06947619
62	0xbd38c725	-0.045111794
63	0xbd342d84	-0.04398872
64	0xbd9b097f	-0.075701706
65	0x3cef282c	0.02919396
66	0xbddaacc6	-0.10677485
67	0xbd1d1986	-0.03835442
68	0xbd641e98	-0.05569324
69	0x3d4aa246	0.049471162
70	0xbd528621	-0.051397447
71	0xbd137b31	-0.036006156
72	0xbe1310e0	-0.14361906
73	0x3de727ed	0.11286912
74	0x3ddb57c8	0.10710102
75	0x3b2a9134	0.002602649
76	0x3e035b26	0.12827739
77	0xbd03dccb	-0.032192986
78	0x39cee21a	0.0003945984
79	0xbb9de87a	-0.004818973
80	0xbd2fd446	-0.04292705
81	0xbd9921cb	-0.074771486
82	0x3aa805f3	0.0012819156
83	0x3d1da638	0.038488597
84	0xbd92713e	-0.071505055
85	0x3da7f405	0.0820084
86	0xbda0e4f9	-0.07856173
87	0xbd8a044d	-0.067391016
88	0x3ca87cc2	0.020567302
89	0x3d213d9c	0.039365396
90	0x3dde7cb9	0.10863633
91	0x3d139cf5	0.036038358
92	0xbdd259b7	-0.10271018
93	0x3b3d2405	0.002886058
94	0x3d179e76	0.037016355
95	0x3bcc8433	0.0062413453
96	0xbd938b64	-0.07204321
97	0x3d25533b	0.040362578
98	0xbcd47be6	-0.025937986
99	0xbda33f59	-0.07971067
100	0x3d9dabc6	0.07698779
101	0x3db71cf3	0.089410685
102	0x3d9fcece	0.07803117
103	0xbc43a64d	-0.011941505
104	0x3db9f094	0.0907909
105	0xbe14867f	-0.14504431
106	0x3d2e047d	0.04248475
107	0xbde07a41	-0.10960818
108	0x3bd663e0	0.0065426677
109	0xbe196182	-0.14978603
110	0x3dbda32b	0.092596374
111	0xbd795d64	-0.06088008
112	0x3d8eb017	0.0696718
113	0xbd1d9919	-0.038476083
114	0xbe101b24	-0.14072853
115	0xbdc0de9c	-0.09417459
116	0x3d0d1e6c	0.03445284
117	0xbd60c4eb	-0.054875296
118	0x3ce34566	0.027743053
119	0xbdde8209	-0.10864646
120	0x3bd261d3	0.006420353
121	0xbcbf13f6	-0.023324948
122	0xbdc4158d	-0.09574423
123	0x3da02930	0.07820356
124	0xbd639cd2	-0.055569477
125	0x3d9fab41	0.07796336
126	0xbdfcf3a4	-0.12351158
127	0x3c398de8	0.011325337
128	0xbda38ce7	-0.07985859
129	0xbd8c7770	-0.068587184
130	0xbb0ea3b3	-0.0021765053
131	0x3d2631e0	0.04057491
132	0xbcc21fe8	-0.023696855
133	0xbe15c397	-0.14625393
134	0xbd6deead	-0.058088947
135	0x3c707e68	0.014678575
136	0xbd0df802	-0.034660347
137	0x3dabfd02	0.08397867
138	0x3bfd5adb	0.007731778
139	0xbdb5f500	-0.08884621
140	0xbd8a20f8	-0.067445695
141	0x3da3af83	0.079924606
142	0xbbf1457a	-0.0073630186
143	0xbc3b67c9	-0.0114383185
144	0x3cd5f843	0.026119357
145	0x3d4a5368	0.04939595
146	0xbca7ec5e	-0.02049845
147	0x3d31e6e5	0.04343309
148	0x3b272e4a	0.0025509768
149	0xbdbcafd8	-0.09213227
150	0x3d7de510	0.06198603
151	0x3d050c19	0.03248224
152	0xbdb92714	-0.09040657
153	0xbcf8ef56	-0.030387562
154	0x3d11d960	0.035607696
155	0x3b3b18af	0.0028548648
156	0xbd050583	-0.03247596
157	0xbd9b3bbe	-0.07579754
158	0xbcba8253	-0.022767222
159	0xbda653b0	-0.08121431
160	0xbd0fbc69	-0.03509179
161	0xbe0890ed	-0.13336535
162	0x3da9044a	0.08252771
163	0xbbd7364a	-0.006567751
164	0xbd1d7087	-0.038437393
165	0xbdbdef3b	-0.09274145
166	0x3de568a5	0.112016
167	0x3c599e1a	0.013282323
168	0x3cc30f30	0.023810953
169	0xbce3b77c	-0.027797453
170	0xbd2483a5	-0.04016461
171	0xbc8e23f9	-0.017351137
172	0x3c572b81	0.013132931
173	0xbdea4bee	-0.11440264
174	0x3deb8afc	0.115011185
175	0xbc59999f	-0.013281255
176	0x3db2016e	0.08691679
177	0xbd9cb02b	-0.07650789
178	0x3d79be12	0.06097228
179	0xbddb1b40	-0.10698557
180	0xbe1ec2c8	-0.1550399
181	0xbdd26af4	-0.10274306
182	0x3c800e49	0.015631812
183	0xbd828e92	-0.063748494
184	0xbc8b2e77	-0.01698993
185	0x3cb3e0d7	0.021957798
186	0xbd8d178f	-0.06889259
187	0xbb0a1c7b	-0.0021074105
188	0x3c94a836	0.018146615
189	0x3cdd50c5	0.027016053
190	0xbdcae02f	-0.09906041
191	0xbdcd9b29	-0.1003936
192	0x3c7ba93e	0.015360175
193	0x3c329dfc	0.010901924
194	0xbdc0f6d3	-0.09422078
195	0x3e02510c	0.1272623
196	0xbc81b42e	-0.015832987
197	0xbd8ca80f	-0.06867992
198	0xbd4552e4	-0.048174754
199	0x3d856a08	0.065143645
200	0xbcc2eb3d	-0.023793811
201	0xbd72ab28	-0.05924526
202	0xbd557053	-0.052109074
203	0x3dc0bc62	0.09410931
204	0x3e0ae0c3	0.13562302
205	0xbd9ed4a9	-0.077554055
206	0xbdabc170	-0.08386505
207	0xbd54f6ec	-0.051993296
208	0xbd512d13	-0.051068377
209	0x3db6527f	0.08902454
210	0xbd112233	-0.035433006
211	0xbc90f343	-0.017694121
212	0xbdf8d2a3	-0.12149551
213	0xbca2affc	-0.019859307
214	0xbd95cc94	-0.07314411
215	0xbaaf3a8a	-0.0013368886
216	0x3d7189df	0.058969375
217	0xbcb578f5	-0.022152403
218	0xbdf1d598	-0.11808318
219	0xbd3b4a45	-0.045725126
220	0xbb04e423	-0.0020277582
221	0xbd1387b8	-0.036018103
222	0x3db96a79	0.09053511
223	0x3cb7e036	0.02244578
224	0xbd91c707	-0.071180396
225	0xbd7ed195	-0.06221159
226	0xbc9a511f	-0.01883751
227	0xbc3e9622	-0.011632474
228	0x3d9774bf	0.073953144
229	0xbda72182	-0.08160688
230	0x3d5f042f	0.05444735
231	0xbde5c973	-0.11220064
232	0x3d179785	0.037009735
233	0x3cacb62f	0.021082966
234	0x3c989b1b	0.018628648
235	0xbb48136c	-0.0030529154
236	0xbda95566	-0.082682416
237	0xbb038c18	-0.0020072516
238	0x3d685716	0.056723677
239	0xbd221aaf	-0.03957623
240	0x3cfcc6ca	0.030856509
241	0xbd579252	-0.052629776
242	0x3c8d7f6c	0.017272674
243	0xbd8cfe12	-0.068843976
244	0xbd4fbe5e	-0.050718658
245	0xbddf9f35	-0.10919038
246	0x3d87327e	0.066014275
247	0x3cc9d651	0.024638327
248	0xbdf78860	-0.12086558
249	0xbceddeeb	-0.02903696
250	0xbc2621a4	-0.0101398565
251	0x3cdfb86d	0.02730962
252	0xbcc2e495	-0.023790637
253	0xbc6c1665	-0.014409636
254	0xbe136183	-0.14392667
255	0xbc148c60	-0.009066671

fc.bias f4 [256]
0	0xbee62050	-0.44946527
1	0xbeeb925a	-0.46010095
2	0xbe8e0271	-0.27736238
3	0xbe92dcd9	-0.28684118
4	0xbe12097a	-0.14261428
5	0xbd825635	-0.06364099
6	0xbc9efbaf	-0.019407121
7	0x3d4629ba	0.048379637
8	0x3ca75f89	0.020431297
9	0x3e7d635b	0.24744932
10	0x3e2c5f72	0.16833284
11	0x3e0b6427	0.13612424
12	0x3e57ec03	0.21086125
13	0x3e1cd86c	0.15316933
14	0x3e9883a7	0.29787943
15	0x3e7b99d1	0.24570395
16	0x3ed0907c	0.40735233
17	0x3eaa96f1	0.33318284
18	0x3f0e8854	0.5567677
19	0x3ef99de2	0.48753268
20	0x3f0c87bf	0.5489463
21	0x3f1c204b	0.60986775
22	0x3f2793d9	0.6545997
23	0x3f376ef0	0.7165365
24	0x3f3fcd81	0.7492295
25	0x3f36fab8	0.71476316
26	0x3f33b920	0.70204353
27	0x3f000ed1	0.5002261
28	0x3ee45dad	0.4460272
29	0x3efad750	0.48992395
30	0x3eb3e1ab	0.35133108
31	0x3ebb5c36	0.3659379
32	0x3ea78c44	0.32724202
33	0x3ea78900	0.3272171
34	0x3d90a294	0.07062259
35	0x3dbe8c41	0.09304095
36	0x3e1ebb9d	0.15501256
37	0x3e9bd25c	0.3043393
38	0x3e48a28b	0.19593255
39	0x3e368ad3	0.17826395
40	0x3e65462a	0.22390047
41	0x3e1d87e2	0.15383866
42	0x3e3c7eb1	0.18407704
43	0x3ebe0b1a	0.37117845
44	0x3e146bac	0.14494199
45	0x3e727b8d	0.23679943
46	0x3e932dc4	0.28745854
47	0x3e648ff1	0.22320534
48	0x3e86e787	0.26348516
49	0x3ea01fb1	0.3127418
50	0x3eccccba	0.39999944
51	0x3e8384b9	0.25687197
52	0x3e9304c1	0.28714564
53	0x3e999073	0.29993019
54	0x3eed3e03	0.46336374
55	0x3eab7228	0.33485532
56	0x3ed95a91	0.4245191
57	0x3ec5678b	0.3855556
58	0x3eeee067	0.4665558
59	0x3e7bcafb	0.2458915
60	0x3ec1bd77	0.37839863
61	0x3edfdbf9	0.43722513
62	0x3e8b10b5	0.27161184
63	0x3ebfd35d	0.37465945
64	0x3ee54a89	0.44783428
65	0x3eee7946	0.465769
66	0x3ebb97e8	0.36639333
67	0x3e898d14	0.26865447
68	0x3ee8de01	0.45481876
69	0x3ea6fd27	0.32615015
70	0x3eab48fe	0.33454126
71	0x3e71261b	0.23549692
72	0x3e783670	0.24239516
73	0x3e8cc238	0.27491927
74	0x3e8c44fb	0.27396378
75	0x3e76834e	0.24073526
76	0x3e879902	0.26483923
77	0x3e80d8cd	0.25165406
78	0x3eb0b9e8	0.34516835
79	0x3e26f008	0.16302502
80	0x3e36a63c	0.17836851
81	0x3e7ec653	0.24880342
82	0x3e8de1ea	0.2771142
83	0x3ddd76f2	0.10813703
84	0x3e937c6f	0.28805873
85	0x3e639189	0.22223486
86	0x3e2a295e	0.16617343
87	0x3e1b921a	0.15192452
88	0x3e1926ac	0.14956158
89	0x3e1d3f79	0.15356244
90	0x3dea0ddd	0.114284255
91	0x3d9a8023	0.075439714
92	0x3de606d0	0.11231768
93	0x3e82100b	0.25402865
94	0x3daedab9	0.08537812
95	0x3e802acc	0.2503265
96	0x3d8a545b	0.06754371
97	0x3e0f6480	0.14003181
98	0x3dd3a0f2	0.10333432
99	0x3d6a95d7	0.057271805
100	0xbdcfc616	-0.10145204
101	0x3d93ccf4	0.07216826
102	0xbc6bcefa	-0.014392609
103	0x3d500e23	0.05079473
104	0xbdc1e484	-0.09467414
105	0x3c658138	0.014007859
106	0xbcd0616b	-0.025437078
107	0x3c715b5c	0.014731254
108	0xbdc99765	-0.09843329
109	0x3d08ced0	0.033400357
110	0xbca085c8	-0.019595042
111	0xbd870a5a	-0.06593771
112	0xbb23ad27	-0.0024975033
113	0xbdf6b9b2	-0.12047137
114	0xbc7d1348	-0.015446492
115	0xbd1cc3d3	-0.03827269
116	0xbe403eb8	-0.18773925
117	0xbd542bfa	-0.05179975
118	0xbdf63669	-0.12022097
119	0xbe6e5832	-0.23275831
120	0xbe1a9d39	-0.15099038
121	0xbe0d5d86	-0.13805208
122	0xbc4d3ada	-0.012526238
123	0xbe684410	-0.22682214
124	0xbde26f93	-0.11056437
125	0xbea2cee5	-0.31798473
126	0xbe51030f	-0.20411323
127	0xbdf8f456	-0.121559784
128	0xbe1f08ba	-0.15530673
129	0xbe966167	-0.29371187
130	0xbea5dc77	-0.32394764
131	0xbe5588a7	-0.2085291
132	0xbeeb7fc0	-0.45995903
133	0xbe901ad1	-0.2814546
134	0xbf17ceeb	-0.59300107
135	0xbf1066a3	-0.5640661
136	0xbec1a7f8	-0.37823462
137	0xbec4707c	-0.3836707
138	0xbf180576	-0.5938333
139	0xbebd0931	-0.36921075
140	0xbe85cd38	-0.26133132
141	0xbf381d22	-0.71919453
142	0xbe97fe37	-0.29686138
143	0xbea354b3	-0.31900558
144	0xbec83751	-0.39104703
145	0xbef626a7	-0.48076364
146	0xbee3d53f	-0.4449863
147	0xbeb01f91	-0.34399083
148	0xbee66f7a	-0.45006925
149	0xbf026a0b	-0.5094306
150	0xbee457b0	-0.4459815
151	0xbf254384	-0.64556146
152	0xbecd01c0	-0.40040398
153	0xbf0ea822	-0.557253
154	0xbec2b52e	-0.38028854
155	0xbe6f26dc	-0.23354667
156	0xbe086ce1	-0.13322784
157	0xbe9c3ed7	-0.30516693
158	0xbe171592	-0.14754322
159	0xbe925d89	-0.28586987
160	0xbe3b34a3	-0.18281798
161	0xbe98325a	-0.29725915
162	0xbe35a1b5	-0.17737468
163	0xbe80e8b6	-0.25177544
164	0xbdfc74d6	-0.12326972
165	0xbe8f5d4d	-0.2800087
166	0xbe9a8445	-0.3017904
167	0xbe81b33a	-0.25332052
168	0xbe213ec5	-0.15746601
169	0xbe2842a1	-0.16431667
170	0xbe15463b	-0.14577572
171	0xbe909a6b	-0.28242812
172	0xbe9f0d08	-0.3106463
173	0xbe1655c2	-0.14681152
174	0xbe8035d1	-0.2504106
175	0xbe102069	-0.14074863
176	0xbe77630e	-0.2415888
177	0xbe39557d	-0.18099017
178	0xbe7e39c8	-0.2482673
179	0xbe7d30af	-0.24725603
180	0xbe6eacf2	-0.23308161
181	0xbe3ca72a	-0.18423143
182	0xbd99110f	-0.07473957
183	0xbea0dc81	-0.3141823
184	0xbe850d0d	-0.2598652
185	0xbe3539c0	-0.17697811
186	0xbe59b3cc	-0.21259993
187	0xbe800022	-0.250001
188	0xbe673643	-0.22579293
189	0xbe12416e	-0.14282772
190	0xbe672cb3	-0.22575645
191	0xbd328e2a	-0.04359261
192	0xbda3671e	-0.079786524
193	0xbc67db00	-0.014151335
194	0xbdb9afc7	-0.0906673
195	0xbe53dc08	-0.20689404
196	0xbc5fddaf	-0.013663693
197	0xbe9396b5	-0.28825918
198	0xbe597c74	-0.21238881
199	0xbe333872	-0.17502001
200	0xbe78ab8c	-0.2428419
201	0xbdae175b	-0.085005485
202	0xbdf414d1	-0.11918033
203	0xbd0d363d	-0.034475554
204	0xbe24c94c	-0.16092414
205	0xbe87b8cf	-0.26508185
206	0xbd77046d	-0.060306955
207	0xbe6ca08a	-0.23108116
208	0xbdcd5013	-0.100250386
209	0xbdc3b3ad	-0.09555755
210	0xbe59b936	-0.21262059
211	0xbc5fbd2c	-0.013655942
212	0xbe09e3b2	-0.13465765
213	0xbe336e74	-0.17522603
214	0xbe3af5a8	-0.18257773
215	0xbd416907	-0.047219303
216	0xbd8638e1	-0.065538175
217	0xbd5a32d2	-0.053271122
218	0xbaa36e9d	-0.0012468878
219	0xbe7b3d36	-0.24535069
220	0xbe516da8	-0.20451987
221	0xbc22fd19	-0.0099480385
222	0xbe0ecc41	-0.13945104
223	0xbdbe5315	-0.092931904
224	0x3c8a6584	0.01689411
225	0xbe35a90c	-0.17740268
226	0xbcc99b0f	-0.02461007
227	0x3cb2017e	0.021729227
228	0xbd8bc4d1	-0.06824649
229	0xbdce35b9	-0.100688405
230	0xbdbac57c	-0.091196984
231	0xbd8aaed5	-0.06771628
232	0xbe3e3c69	-0.18577732
233	0xbdf92946	-0.121660754
234	0xbc8fcee9	-0.017554717
235	0xbe349df1	-0.17638375
236	0xbe53e8bc	-0.2069425
237	0xbe497cc2	-0.19676498
238	0xbe3ef896	-0.18649516
239	0xbde7241b	-0.112861834
240	0xbcd1ebf2	-0.025625203
241	0xbd7225fc	-0.059118256
242	0xbc9d658f	-0.019213466
243	0xbde456f4	-0.111493975
244	0xbc896b2a	-0.016774733
245	0xbcd4962b	-0.025950512
246	0xbb29be38	-0.0025900733
247	0xbbc787ef	-0.0060892026
248	0x3c730bc6	0.01483435
249	0x3d166529	0.036717568
250	0xbc1d28ec	-0.009592276
251	0x3cecd5c4	0.028910525
252	0xbde02a47	-0.10945564
253	0xbdb874cf	-0.090066545
254	0xbe48663b	-0.19570248
255	0xbd93c766	-0.072157666

ln.weight f4 [64]
0	0x3ffc9246	1.9732139
1	0x3ff44f03	1.9086612
2	0x3ff52adb	1.9153703
3	0x3fe2a352	1.7706091
4	0x3febdef7	1.8427418
5	0x3ff9d276	1.9517353
6	0x40042ce2	2.0652394
7	0x40017f95	2.023412
8	0x3ff0e9b3	1.8821319
9	0x3ff99acc	1.9500365
10	0x3ff05147	1.8774804
11	0x3ff27589	1.8942119
12	0x3fe89b80	1.8172455
13	0x3ff17fac	1.8867087
14	0x3fee384f	1.8610934
15	0x3ff0ce49	1.8812953
16	0x3ff2f1f4	1.8980088
17	0x3ff0ba40	1.8806839
18	0x3ffe4586	1.9864967
19	0x3ff9c9e4	1.9514737
20	0x3ffd2796	1.9777706
21	0x3ff1daf8	1.8894949
22	0x3ff81972	1.9382765
23	0x3ff2d115	1.8970057
24	0x4000a5a7	2.0101106
25	0x3ff113c5	1.8834158
26	0x3ff51834	1.9148011
27	0x3fe17f4f	1.7616976
28	0x3fe300be	1.7734601
29	0x40014743	2.0199745
30	0x3ffb931a	1.9654267
31	0x3fe83066	1.813977
32	0x3ff3c8bc	1.9045634
33	0x3ff309b2	1.8987334
34	0x3fe9305b	1.8217882
35	0x3ffd73bd	1.9800946
36	0x3ffe7b7c	1.9881434
37	0x3feb0c9b	1.8363222
38	0x3fe95956	1.8230388
39	0x3ff195b1	1.8873807
40	0x3fee9847	1.8640221
41	0x3fe81c6e	1.8133676
42	0x3fe6a249	1.8018275
43	0x3ff0236b	1.8760809
44	0x3fedda9b	1.8582338
45	0x3ff6d21d	1.9282871
46	0x3fe9f137	1.8276738
47	0x3fec45fd	1.8458859
48	0x3feec44b	1.8653654
49	0x3ff4a0a0	1.9111519
50	0x3fef8ac1	1.8714219
51	0x40007558	2.007162
52	0x3ff28a06	1.8948371
53	0x3fe88878	1.8166647
54	0x3fdfb96f	1.7478465
55	0x3ff5f3af	1.9214991
56	0x3ffd5070	1.9790173
57	0x3ff3cdf9	1.9047233
58	0x4002b609	2.0423605
59	0x3ff9e2ec	1.9522376
60	0x3fed3b19	1.853366
61	0x3ff67caa	1.9256794
62	0x3ff31d89	1.8993388
63	0x3ff358da	1.901149

ln.bias f4 [64]
0	0x3f5a8433	0.8535797
1	0x3f5ee447	0.87067074
2	0xbf5b634c	-0.8569839
3	0xbf583690	-0.84458256
4	0x3f5fa809	0.87365776
5	0xbf67db74	-0.90569234
6	0x3f76eb34	0.9645264
7	0x3f679de7	0.90475315
8	0xbf6c98dc	-0.92420745
9	0x3f639d40	0.8891182
10	0xbf5babe9	-0.8580919
11	0xbf5f5df7	-0.87252754
12	0xbf5238ba	-0.8211781
13	0xbf62a617	-0.88534683
14	0xbf5da2ae	-0.86576355
15	0xbf58c747	-0.84679073
16	0x3f5f8065	0.8730529
17	0xbf626f69	-0.8845125
18	0x3f6626c8	0.89902925
19	0x3f60ce4b	0.8781478
20	0xbf6282ff	-0.88481134
21	0xbf5f884f	-0.87317365
22	0xbf62778f	-0.8846368
23	0x3f5dae63	0.8659422
24	0xbf6195a1	-0.8811894
25	0x3f5d7d8c	0.86519694
26	0x3f618773	0.88097304
27	0xbf59e73c	-0.8511846
28	0xbf526512	-0.8218547
29	0x3f5f15a7	0.87142414
30	0x3f5f70f3	0.8728172
31	0x3f54614c	0.82960963
32	0xbf5553c8	-0.83330965
33	0x3f60ec20	0.878603
34	0xbf5e4f5c	-0.8683984
35	0x3f6554eb	0.895827
36	0x3f627264	0.88455796
37	0xbf5adac1	-0.8549004
38	0xbf62fa3f	-0.88663095
39	0x3f5ec5a2	0.87020314
40	0xbf5e300b	-0.8679206
41	0x3f5acf66	0.85472715
42	0xbf579f77	-0.842277
43	0x3f5ce197	0.8628172
44	0xbf61c40f	-0.88189787
45	0xbf60d2c2	-0.8782159
46	0x3f59e164	0.85109544
47	0x3f57bed6	0.8427557
48	0x3f5900ab	0.84766644
49	0x3f622b02	0.88346875
50	0x3f5aeb89	0.8551565
51	0xbf75a1f6	-0.9595026
52	0x3f5c8ea2	0.8615514
53	0x3f5ef830	0.87097454
54	0x3f5b67db	0.85705346
55	0x3f6f42b2	0.93461144
56	0x3f642fde	0.8913554
57	0xbf5afadf	-0.8553905
58	0x3f6860f2	0.90772927
59	0x3f5ae505	0.85505706
60	0x3f5855c0	0.84505844
61	0xbf752cd1	-0.9577151
62	0xbf5c1200	-0.85964966
63	0xbf5bebf2	-0.859069
