cached_models/ABM_models/ABM_FFNNmodel.pth (torch, 340833 bytes, 14 tensors)

fc1.weight f4 [64, 3]
0.26504168 0.47294545 -0.105974555 -0.31640252 0.26230502 0.09382254 0.35012302 0.23590858
-0.11436406 -0.004981283 -0.11903361 0.41059017 0.11352876 -0.26471645 0.31279618 0.57115775
0.46579626 0.014600933 -0.13818052 -0.085107714 0.4223488 0.20287627 -0.0025834024 -0.5025455
-0.024481816 0.20668766 -0.017525733 -0.13383104 -0.09913506 0.15274 0.2828175 -0.37362763
-0.1139946 -0.07510237 -0.25022382 0.2545213 0.4571151 0.307866 -0.407777 -0.040181734
-0.12627847 0.17389208 0.51733905 0.46405485 -0.168071 0.25575107 -0.14797091 -0.10431278
0.04355632 -0.06088386 0.5349746 0.27542037 0.31007347 0.17501211 -0.51042265 0.04025769
0.51395607 -0.29263058 -0.36932397 -0.07191926 0.32983673 -0.15759426 -0.43514264 0.15287486
-0.559497 -0.5602076 -0.10806024 0.55121887 0.34003592 -0.5088819 0.2380584 0.4838873
0.3166051 0.3644351 -0.09572762 -0.52064335 0.0014377176 0.27285892 0.48843652 0.21363288
-0.20786372 0.21525447 -0.23960663 0.1198585 0.04657589 0.12636292 0.54075754 0.387205
-0.4786611 0.4222272 0.4970523 0.17618 0.32659012 0.2895404 -0.057695277 0.13005984
0.3546804 0.15266235 0.4254818 0.4961033 0.5626139 -0.004560709 0.5707327 -0.20152634
-0.012822628 -0.5750989 0.4882746 -0.3960852 0.013832425 -0.35858998 -0.30287632 0.13861449
-0.4546976 -0.20321545 -0.1235424 0.16358975 -0.55570334 0.39404288 -0.3232086 0.37023568
0.28976193 0.39686945 -0.5748132 0.08889268 -0.53813875 -0.337977 0.4886941 0.18876015
0.50676847 -0.23111293 -0.12316786 0.15396404 0.19018698 -0.50251615 -0.45018685 -0.25816533
0.35951385 -0.014225125 0.017293045 -0.51197404 -0.046491146 -0.4733872 -0.47502452 -0.5490419
-0.3495982 -0.15366793 0.096628964 -0.4750954 0.19392319 -0.16849217 -0.3004087 0.08741788
0.16051894 -0.21044911 -0.08125249 -0.2358194 -0.029721614 0.27767998 0.25395942 -0.4423183
0.4958522 -0.37648252 0.33546117 0.0674912 -0.48160893 0.15542014 0.4216464 -0.51409715
0.47258562 -0.15071028 -0.31004193 -0.10229281 0.23712732 -0.5480041 -0.15078054 -0.4731441
-0.19076374 -0.48587206 -0.06741171 0.46647072 -0.12658808 -0.27398542 0.20943981 -0.01345867
0.22456124 -0.13031629 -0.31559548 0.5002668 0.3140589 0.11907201 0.22136612 -0.456837
00000000: 8bb3 873e e825 f23e 3009 d9bd 83ff a1be
00000010: d84c 863e 0826 c03d 5343 b33e 0592 713e
00000020: b437 eabd 083a a3bb e5c7 f3bd e038 d23e
00000030: c481 e83d ea88 87be d226 a03e 6537 123f
00000040: d97c ee3e c038 6f3c 327f 0dbe f44c aebd
00000050: 1a3e d83e ccbe 4f3e 4d4e 29bb d2a6 00bf
00000060: 178e c8bc eea5 533e 2092 8fbc 010b 09be
00000070: 5307 cbbd e067 1c3e 75cd 903e 1f4c bfbe
00000080: 0076 e9bd 45cf 99bd 561d 80be 9e50 823e
00000090: fe0a ea3e 9da0 9d3e 26c8 d0be 9a95 24bd
000000a0: 254f 01be c410 323e 5570 043f 9998 ed3e
000000b0: ce1a 2cbe cef1 823e b085 17be f0a1 d5bd
000000c0: 1d68 323d 5b61 79bd 18f4 083f e603 8d3e
000000d0: f3c1 9e3e 6036 333e 0fab 02bf 3fe5 243d
000000e0: a092 033f add3 95be 0818 bdbe 684a 93bd
000000f0: 5ce0 a83e 6460 21be 04cb debe 3a8b 1c3e
00000100: 323b 0fbf c469 0fbf b04e ddbd ae1c 0d3f
00000110: 3019 ae3e 1646 02bf 95c5 733e 14c0 f73e
00000120: 101a a23e 3d97 ba3e d80c c4bd e248 05bf
00000130: cc71 bc3a 2ab4 8b3e 5a14 fa3e 94c2 5a3e
00000140: 3ada 54be ab6b 5c3e 715b 75be 6078 f53d
00000150: 5cc6 3e3d 4865 013e 166f 0a3f bc3f c63e
00000160: 1113 f5be 2a2e d83e a47d fe3e 8868 343e
00000170: d236 a73e a43e 943e e251 6cbd 682e 053e
00000180: ab98 b53e 8553 1c3e c0d8 d93e 4001 fe3e
00000190: 7707 103f 0072 95bb 8a1b 123f ec5c 4ebe
000001a0: 0016 52bc ae39 13bf 21ff f93e aecb cabe
000001b0: 65a1 623c 1b99 b7be 9b12 9bbe f5f0 0d3e
000001c0: 20ce e8be b617 50be cc03 fdbd 1284 273e
000001d0: 9342 0ebf fdbf c93e 997b a5be 888f bd3e
000001e0: ad5b 943e 7932 cb3e f526 13bf 5e0d b63d
000001f0: 76c3 09bf 520b adbe 1d36 fa3e 574a 413e
00000200: 94bb 013f dea8 6cbe 6e3f fcbd c0a8 1d3e
00000210: 60c0 423e e6a4 00bf e47e e6be 3f2e 84be
00000220: 3312 b83e 8010 69bc 25aa 8d3c bb10 03bf
00000230: 806d 3ebd cf5f f2be 6a36 f3be 038e 0cbf
00000240: 89fe b2be 205b 1dbe 68e5 c53d b43f f3be
00000250: cd93 463e 3689 2cbe 2bcf 99be 2508 b33d
00000260: 145f 243e f97f 57be b567 a6bd a47a 71be
00000270: be7a f3bc 122c 8e3e f806 823e 8b77 e2be
00000280: 57e0 fd3e 51c2 c0be 91c1 ab3e d438 8a3d
00000290: 7295 f6be 7526 1f3e 09e2 d73e df9b 03bf
000002a0: bef6 f13e cc53 1abe d1bd 9ebe e57e d1bd
000002b0: 81d1 723e ff49 0cbf 3766 1abe f23f f2be
000002c0: 9257 43be 39c4 f8be 270f 8abd 40d5 ee3e
000002d0: 4ea0 01be d147 8cbe 6477 563e c181 5cbc
000002e0: 62f3 653e a271 05be bb95 a1be 7c11 003f
000002f0: 54cc a03e 07dc f33d cdad 623e 8ae6 e9be

fc1.bias f4 [64]
-0.5468214 -0.24868332 -0.028401937 0.21728231 -0.36657625 0.1607619 -0.34261242 -0.20711799
-0.35992393 0.5540132 -0.26501063 0.47232053 -0.3655829 0.30653414 -0.3469338 0.394456
0.36844796 0.3744469 0.13421269 0.48630258 -0.17836015 -0.41619176 0.16002195 0.06489817
0.45724288 0.13164444 0.5580902 -0.48024216 0.43502983 0.50386596 -0.15354143 0.53996325
-0.28617635 -0.39118958 0.5020269 0.37122744 -0.51507777 -0.06601966 0.03993764 -0.38973346
-0.5396231 0.4041664 -0.5760661 -0.44843325 -0.031436726 -0.2574857 0.31179124 -0.28806353
-0.27642912 0.09191094 -0.35067692 -0.15333964 -0.4001732 0.08031578 -0.20828791 0.48316383
-0.42004758 0.45627204 0.35741112 0.5140795 -0.48865664 0.5404261 0.52763975 -0.022701992
00000000: 7dfc 0bbf d7a6 7ebe 2eab e8bc 417f 5e3e
00000010: e2af bbbe c49e 243e e56a afbe bd16 54be
00000020: f347 b8be cfd3 0d3f 79af 87be ffd3 f13e
00000030: af2d bbbe 0bf2 9c3e 4fa1 b1be 23f6 c93e
00000040: 36a5 bc3e 81b7 bf3e 0d6f 093e a7fc f83e
00000050: 0ba4 36be 1617 d5be cbdc 233e 55e9 843d
00000060: bd1b ea3e cdcd 063e 00df 0e3f 4de2 f5be
00000070: 3bbc de3e 5cfd 003f f739 1dbe 083b 0a3f
00000080: b585 92be 004a c8be d684 003f 8611 be3e
00000090: 23dc 03bf 5135 87bd a795 233d 258b c7be
000000a0: bd24 0abf e6ee ce3e 1179 13bf 0b99 e5be
000000b0: ccc3 00bd 2ad5 83be 1aa3 9f3e 107d 93be
000000c0: 1e88 8dbe ce3b bc3d ed8b b3be 1105 1dbe
000000d0: 80e3 ccbe 9a7c a43d 6d49 55be 4061 f73e
000000e0: 7a10 d7be 7d9c e93e 97fe b63e b79a 033f
000000f0: 3431 fabe 5d59 0a3f 6613 073f 87f9 b9bc

bn1.weight f4 [64]
1.0019617 1.0006673 0.99797195 1.001534 1.0014362 0.9992447 0.99792457 0.998897
0.9956526 0.99834085 1.0018241 0.99730885 1.0024841 0.99673796 0.999549 1.0011542
0.9989972 0.9985878 1.0028064 1.0023677 0.99771667 1.004066 0.99879426 0.99857265
0.99871224 1.0037678 0.9981684 0.9995682 0.9983894 0.99870133 1.0036703 1.0014013
1.0045408 1.0008909 0.9998643 1.0008532 0.9993087 0.9993191 1.0006293 0.99522245
0.9999914 1.0010965 0.99812484 0.9951682 1.0000982 1.0010426 0.999957 0.99890363
0.9978447 0.9993986 0.9970508 0.9977662 0.9941001 1.0001011 0.99884933 1.0035926
0.9963335 1.0004717 1.0013323 1.0012271 0.99840534 0.9987493 0.9989108 1.0050347
00000000: 4840 803f de15 803f 177b 7f3f 4432 803f
00000010: 102f 803f 80ce 7f3f fc77 7f3f b7b7 7f3f
00000020: 17e3 7e3f 4493 7f3f c63b 803f a24f 7f3f
00000030: 6651 803f 382a 7f3f 71e2 7f3f d225 803f
00000040: 48be 7f3f 73a3 7f3f f65b 803f 964d 803f
00000050: 5c6a 7f3f 3c85 803f fbb0 7f3f 75a2 7f3f
00000060: 9bab 7f3f 777b 803f f787 7f3f b4e3 7f3f
00000070: 7396 7f3f e4aa 7f3f 4578 803f eb2d 803f
00000080: cb94 803f 311d 803f 1bf7 7f3f f51b 803f
00000090: b2d2 7f3f 60d3 7f3f 9f14 803f e6c6 7e3f
000000a0: 70ff 7f3f ee23 803f 1c85 7f3f 58c3 7e3f
000000b0: 3803 803f 2a22 803f 2ffd 7f3f 26b8 7f3f
000000c0: c072 7f3f 96d8 7f3f b93e 7f3f 9b6d 7f3f
000000d0: 587d 7e3f 5003 803f 97b4 7f3f b975 803f
000000e0: b60f 7f3f 750f 803f a82b 803f 3628 803f
000000f0: 7e97 7f3f 09ae 7f3f 9eb8 7f3f faa4 803f

bn1.bias f4 [64]
-0.0023794507 -0.0004879875 0.00014500972 0.001116793 -0.00015730417 0.0013162085 0.00052662805 0.0014697958
0.001387471 0.0001779097 -0.001620134 -0.0010777815 -0.0010274159 6.1809675e-05 0.0013557447 -0.0016784514
0.0011589861 0.0003719044 -9.248674e-05 -0.0015080335 -0.00051966903 -0.0010017834 0.00020035701 0.001714717
0.0013634118 -0.0007912526 0.0018860261 -0.0006912225 -0.0001885772 -0.0015551918 -0.00073794986 0.0008956209
0.00032232807 0.0016387871 0.002004149 0.002831507 -0.001218091 -0.00049691985 0.00071874086 0.0013103584
0.0005307606 -0.00012419774 -0.00055689504 0.00091579644 -0.000900243 0.0019044454 -4.4430715e-05 0.0014205509
0.0020713685 0.0008314139 0.001684533 0.0014399571 0.0035497835 0.0016309704 -0.00012980415 -0.0021913603
-0.0005242007 0.00075887877 -0.0007781068 0.00078880304 -0.0009337795 -0.00032456242 0.0015411174 -0.0014248677
00000000: 8ff0 1bbb 93d8 ffb9 c00d 1839 5b61 923a
00000010: 04f2 24b9 a184 ac3a 690d 0a3a 2aa6 c03a
00000020: cddb b53a 458d 3a39 ad5a d4ba 5944 8dba
00000030: 5baa 86ba d19f 8138 3eb3 b13a 7cff dbba
00000040: 1fe9 973a 2afc c239 71f5 c1b8 35a9 c5ba
00000050: 663a 08ba 464e 83ba ed16 5239 5bc0 e03a
00000060: 82b4 b23a 106c 4fba 8934 f73a 2833 35ba
00000070: cfbc 45b9 94d7 cbba fa72 41ba 1ac8 6a3a
00000080: 24fe a839 92cc d63a 0a58 033b ce90 393b
00000090: 5aa8 9fba ba43 02ba e269 3c3a 55c0 ab3a
000000a0: be22 0b3a 143b 02b9 98fc 11ba 0f12 703a
000000b0: 49fe 6bba 959e f93a 1e5b 3ab8 c731 ba3a
000000c0: ccbf 073b 3ef3 593a 8ccb dc3a f1bc bc3a
000000d0: 7ca3 683b 49c6 d53a 091c 08b9 ed9c 0fbb
000000e0: 836a 09ba 7eef 463a ddf9 4bba adc7 4e3a
000000f0: e2c8 74ba 082a aab9 52ff c93a a0c2 baba

bn1.running_mean f4 [64]
0.040372472 0.08452999 0.16976772 0.20751984 0.004910771 0.4061719 7.5773605e-05 0.014150656
6.6156725e-05 0.5497138 0.066101044 0.45396042 0.09553806 0.29713538 0.15294148 0.3891012
0.36214042 0.43375167 0.31226066 0.5008836 0.06847836 0.06416223 0.3506387 0.29062855
0.5230772 0.31343025 0.59914964 0.0024465353 0.44423315 0.54031974 0.16295229 0.5270246
0.05920171 0.15493514 0.55734944 0.5540187 0.0024169288 0.14377502 0.11201216 0.0501262
0.031903885 0.43107927 0.035930056 0.0035457972 0.17932168 0.08958444 0.359136 0.14802742
0.05643747 0.2847237 0.024167847 0.03703617 0.0029747516 0.3334098 0.06627145 0.54353166
0.044972096 0.47906557 0.38921693 0.5577642 0.0044807927 0.55930305 0.61792856 0.09699833
00000000: 9b5d 253d 0f1e ad3d 97d7 2d3e 1580 543e
00000010: 88ea a03b c3f5 cf3e a5e8 9e38 27d8 673c
00000020: 9fbd 8a38 0bba 0c3f fc5f 873d 806d e83e
00000030: 75a9 c33d 2122 983e b19c 1c3e 4638 c73e
00000040: 786a b93e b314 de3e a1e0 9f3e e839 003f
00000050: 623e 8c3d 7d67 833d ea86 b33e 44cd 943e
00000060: 63e8 053f ee79 a03e df61 193f 0d56 203b
00000070: 8772 e33e 6552 0a3f f7dc 263e 16eb 063f
00000080: 7e7d 723d 51a7 1e3e 74ae 0e3f 2bd4 0d3f
00000090: 5665 1e3b c239 133e a266 e53d 2151 4d3d
000000a0: a6ad 023d 6cb6 dc3e 652b 133d 9b60 683b
000000b0: 1aa0 373e 0c78 b73d ace0 b73e 8094 173e
000000c0: fa2a 673d 4ec7 913e a6fb c53c 3db3 173d
000000d0: 0df4 423b b0b4 aa3e 53b9 873d e424 0b3f
000000e0: a934 383d 1548 f53e 7147 c73e a2c9 0e3f
000000f0: 9dd3 923b 7c2e 0f3f 9130 1e3f 0fa7 c63d

bn1.running_var f4 [64]
0.012544702 0.027264064 0.056855325 0.012765964 0.00054937287 0.24073316 1.9493755e-06 0.0009490108
1.8815268e-06 0.028898435 0.018712709 0.063217476 0.035292566 0.016364306 0.07776902 0.07329101
0.005157347 0.1239406 0.12680778 0.17469461 0.014392745 0.017509578 0.13193299 0.13747808
0.17120166 0.12883568 0.24493016 0.00029171814 0.017038288 0.21911451 0.06213735 0.09111396
0.013575081 0.08453598 0.24491781 0.3490965 0.00012199997 0.045122147 0.01910678 0.013738984
0.008918346 0.17847355 0.008497166 0.00029055518 0.06503514 0.030954616 0.1448084 0.084154725
0.014380822 0.12194012 0.0034396988 0.005358042 0.00016163473 0.19133776 0.012962825 0.14983946
0.009812609 0.05953904 0.15909906 0.21359126 0.00044900647 0.04493306 0.25953293 0.017026376
00000000: 4b88 4d3c e358 df3c 21e1 683d 5528 513c
00000010: ca03 103a c182 763e 04d2 0236 09c7 783a
00000020: c588 fc35 69bc ec3c 654b 993c 2a78 813d
00000030: f08e 103d 700e 863c 5d45 9f3d 9919 963d
00000040: f6fe a83b 92d4 fd3d e6d9 013e 25e3 323e
00000050: 8ccf 6b3c 3f70 8f3c 7119 073e 0ec7 0c3e
00000060: 7d4f 2f3e 80ed 033e f9ce 7a3e bff1 9839
00000070: e193 8b3c 8e5f 603e bc83 7e3d f599 ba3d
00000080: 046a 5e3c 3321 ad3d bccb 7a3e c7bc b23e
00000090: 3cda ff38 00d2 383d d285 9c3c 7a19 613c
000000a0: 411e 123c c5c1 363e b337 0b3c a855 9839
000000b0: 2531 853d 8994 fd3c a748 143e 5059 ac3d
000000c0: 8a9d 6b3c bebb f93d 926c 613b 8492 af3b
000000d0: 7e7c 2939 0cee 433e 0762 543c 846f 193e
000000e0: 11c5 203c 35df 733d ddea 223e abb7 5a3e
000000f0: a168 eb39 ba0b 383d 80e1 843e e67a 8b3c

fc2.weight f4 [256, 64]
0.08439725 -0.01731066 -0.083004266 -0.111052856 0.11130742 -0.042392693 0.09444064 0.09852226
-0.09524881 0.046631355 0.035265166 -0.0060255863 0.09866786 -0.053225037 0.0013866578 0.008696082
-0.099257305 -0.090795666 0.10227113 -0.036187973 0.10109765 -0.09200454 -0.06737788 0.019937713
-0.08124432 0.013359486 0.028521108 0.045224212 -0.102896616 -0.011054437 0.11227202 0.116869874
0.119345084 -0.072282724 -0.12025128 0.117670074 -0.082905464 -0.015623439 -0.05845772 -0.04259625
-0.11417609 -0.008505256 0.0030577653 0.027362362 0.108363084 0.018413235 -0.121632084 -0.06336438
-0.11407912 0.092201106 0.085953794 -0.100419804 0.06606487 -0.08153573 0.05546175 -0.00094102166
-0.036289133 0.036663838 -0.084020734 -0.010960611 0.051718734 0.07853592 -0.053350456 -0.0076950532
0.01178944 0.016742874 0.08130799 0.078465454 -0.07911103 0.06426729 -0.06698284 -0.06323426
-0.01739831 0.03647489 -0.094929025 0.015509136 -0.10394062 0.12354724 0.11646396 -0.06802338
0.0942696 0.020826451 0.1038234 -0.10113625 -0.12312546 -0.044567257 0.014553735 0.006692603
0.12316246 -0.12366257 -0.051517967 -0.10581011 -0.022737464 -0.096917324 0.03367493 -0.055388667
-0.019557461 0.053070817 -0.04445189 0.09989624 0.096285045 -0.05004847 0.06689894 0.037829064
0.067766264 -0.071337715 0.08275037 0.059911903 -0.04491461 -0.09423801 -0.014974055 0.014886064
0.022020664 0.043738734 -0.08916091 -0.08072303 -0.017162958 -0.021833668 0.06423257 -0.02710012
-0.016268032 -0.0069784746 -0.06642215 -0.040724564 -0.049266122 -0.037108894 0.010050451 0.04555049
-0.047205985 0.06543905 -0.112256944 0.047456488 -0.061819296 -0.019550506 0.10835741 0.055885162
0.042944178 0.05334877 -0.0876852 0.0037322242 0.019531708 0.033594105 0.11588597 -0.0064959773
-0.05921164 0.02824755 -0.08352562 -0.11562748 -0.08353238 -0.0110703 0.1168744 -0.023332251
0.1156904 0.003006953 -0.008732804 0.0754219 0.0006254103 0.100638166 0.01232945 0.032239445
0.07769773 -0.0918917 0.02970826 -0.05406251 -0.11047118 0.0068398383 -0.07130215 -0.040404625
0.09007741 -0.056687266 -0.009623602 0.08976058 -0.11964826 0.0009335629 0.009065695 -0.022942156
0.00068471686 0.0027496512 -0.033571646 0.06983061 -0.09903727 0.08468903 0.022916289 -0.07897185
-0.036723483 0.043379832 0.09039023 -0.10326898 -0.09186377 0.018869659 -0.122606 0.12209244
-0.058430765 0.03260896 -0.10894268 -0.12159762 0.03784775 0.106675774 -0.042180344 0.045861397
-0.055866044 -0.07762549 0.09200864 0.03788901 0.02664803 -0.057481844 0.099661395 0.017473886
0.07983903 -0.1160281 -0.015938995 0.076591805 -0.12283 -0.02138651 0.06293343 0.073648915
0.0941215 -0.016537545 0.06799956 -0.05259208 0.047432344 -0.03911534 -0.039317217 0.051147975
0.106466725 -0.039423075 0.0841708 -0.037001092 0.10062091 0.03197416 -0.00763645 0.030759372
0.05464181 -0.056179855 -0.01473162 0.08860092 -0.07918155 0.045880914 -0.08673851 0.062917985
-0.038685743 -0.11833616 0.0598047 0.11751858 -0.0534029 -0.10976957 0.10734182 0.06698657
-0.08752356 0.07732684 0.026446676 -0.029360892 -0.076911665 0.04060985 -0.036508054 -0.010105968
00000000: 77d8 ac3d 16cf 8dbc 24fe a9bd ae6f e3bd
00000010: 25f5 e33d f6a3 2dbd 186a c13d 0ac6 c93d
00000020: cf11 c3bd 8500 3f3d 3572 103d 4872 c5bb
00000030: 6012 ca3d 7f02 5abd 84c0 b53a 037a 0e3c
00000040: 6a47 cbbd 14f3 b9bd 8773 d13d d739 14bd
00000050: 490c cf3d e06c bcbd 6afd 89bd 6a54 a33c
00000060: 6c63 a6bd bfe1 5a3c 19a5 e93c 063d 393d
00000070: 76bb d2bd ab1d 35bc dfee e53d 7959 ef3d
00000080: 326b f43d f708 94bd 4e46 f6bd 02fd f03d
00000090: 57ca a9bd 74f9 7fbc 5d71 6fbd 6879 2ebd
000000a0: 27d5 e9bd a159 0bbc ca64 483b 0827 e03c
000000b0: 77ed dd3d 5ad7 963c 3e1a f9bd 2fc5 81bd
000000c0: 50a2 e9bd efd3 bc3d 8b08 b03d e6a8 cdbd
000000d0: 054d 873d 34fc a6bd dc2b 633d e5ae 76ba
000000e0: eaa3 14bd d22c 163d 1013 acbd 2294 33bc
000000f0: 06d7 533d 71d7 a03d 0286 5abd c926 fcbb
00000100: 7f28 413c 5a28 893c ce84 a63d 7fb2 a03d
00000110: f704 a2bd 929e 833d 4d2e 89bd f780 81bd
00000120: e786 8ebc b266 153d 266a c2bd 081a 7e3c
00000130: d2de d4bd 5606 fd3d a884 ee3d d84f 8bbd
00000140: 6c10 c13d 3c9c aa3c 5da1 d43d 8620 cfbd
00000150: 3429 fcbd 288c 36bd ca72 6e3c a04d db3b
00000160: 9a3c fc3d cd42 fdbd 8104 53bd f9b2 d8bd
00000170: eb43 babc 977c c6bd b9ee 093d 3adf 62bd
00000180: f836 a0bc c960 593d 2f13 36bd 6696 cc3d
00000190: 1831 c53d a0ff 4cbd 5002 893d a6f2 1a3d
000001a0: 0ac9 8a3d 8219 92bd 0779 a93d 2f66 753d
000001b0: 62f8 37bd dcff c0bd bd55 75bc aee4 733c
000001c0: ae64 b43c 6327 333d ff99 b6bd 1e52 a5bd
000001d0: 5599 8cbc 85dc b2bc 5e8c 833d 1201 debc
000001e0: 8944 85bc b0ab e4bb 5608 88bd cdce 26bd
000001f0: 46cb 49bd 7fff 17bd a6aa 243c 2793 3a3d
00000200: 105b 41bd e904 863d f8e6 e5bd bc61 423d
00000210: 3b36 7dbd 6228 a0bc 7dea dd3d d7e7 643d
00000220: 3ce6 2f3d 3d84 5a3d 4c94 b3bd 5598 743b
00000230: f600 a03c f999 093d a055 ed3d 35dc d4bb
00000240: e887 72bd 6867 e73c 7b0f abbd 1ace ecbd
00000250: 0613 abbd 3460 35bc d85b ef3d 4723 bfbc
00000260: 17ef ec3d 4d10 453b 0914 0fbc cc76 9a3d
00000270: 93f2 233a 621b ce3d 7601 4a3c 820d 043d
00000280: fd1f 9f3d b731 bcbd bd5e f33c a770 5dbd
00000290: b73e e2bd b920 e03b dd06 92bd 527f 25bd
000002a0: 817a b83d e830 68bd 50ac 1dbc 65d4 b73d
000002b0: 260a f5bd 58ba 743a 4888 143c 30f1 bbbc
000002c0: 927e 333a 7e33 343b 6c82 09bd 5a03 8f3d
000002d0: 0dd4 cabd 7171 ad3d f1ba bb3c febb a1bd
000002e0: 5d6b 16bd 0daf 313d 831e b93d b07e d3bd
000002f0: 1223 bcbd 8b94 9a3c db18 fbbd 9a0b fa3d
00000300: 1955 6fbd f990 053d 571d dfbd 2c08 f9bd
00000310: 3e06 1b3d d478 da3d 4cc5 2cbd 29d9 3b3d
00000320: cbd3 64bd 1dfa 9ebd 076f bc3d 8231 1b3d
00000330: f84c da3c 1572 6bbd 461b cc3d 6525 8f3c
00000340: a582 a33d 24a0 edbd 7f92 82bc 2adc 9c3d
00000350: 4c8e fbbd c332 afbc 3ee3 803d 3ed5 963d
00000360: c6c2 c03d bf79 87bc 5a43 8b3d cb6a 57bd
00000370: 6b48 423d 6837 20bd 170b 21bd 8a80 513d
00000380: 3a0b da3d 177a 21bd be61 ac3d 758e 17bd
00000390: 5612 ce3d 56f7 023d 303b fabb 14fb fb3c
000003a0: 17d0 5f3d d91c 66bd e55c 71bc 6674 b53d
000003b0: f029 a2bd a0ed 3b3d f6a3 b1bd 25db 803d
000003c0: f174 1ebd 3b5a f2bd c6f5 743d 95ad f03d
000003d0: 00bd 5abd dece e0bd 07d6 db3d 4130 893d
000003e0: 8d3f b3bd 895d 9e3d b3a6 d83c 4186 f0bc
000003f0: dd83 9dbd 8456 263d 7889 15bd 8193 25bc

fc2.bias f4 [256]
-0.0676408 0.0563887 0.11357922 0.038623154 0.095929615 0.06420712 0.12523997 -0.09252279
0.036909167 0.0511822 -0.01695336 0.06702983 0.09980936 0.06966365 -0.072592914 0.11755448
-0.10317895 -0.00077216874 -0.1013341 0.07879227 -0.007782685 -0.022707459 0.08285187 0.06790666
0.12381368 0.11786424 0.1067572 0.090366855 -0.054403152 0.055841614 0.07365807 -0.049948055
0.03280248 0.07269691 -0.022070898 0.094760686 -0.08735851 0.11875769 0.054387122 0.10686839
-0.0752273 -0.122720085 -0.07794231 -0.106793925 -0.013172939 0.0070689972 -0.026428577 0.0024632015
-0.101210445 -0.108759575 0.08084195 0.042989593 0.032804087 -0.0841779 0.032998182 0.054193977
0.10382869 -0.0011718917 0.10425201 -0.061671954 0.06820052 0.054791626 -0.054360345 0.030214205
0.013627126 0.122185804 0.11638527 -0.11024422 0.070091814 -0.09152586 0.030202532 -0.101654395
-0.10513455 -0.12496256 -0.07000479 0.030757666 0.12053466 -0.017651679 -0.007442176 0.036806244
0.054092854 -0.092193656 -0.010451335 0.029464653 -0.06145458 0.039722927 0.11789414 -0.110655226
0.078230664 -0.005056969 -0.057105534 -0.108118124 -0.061021328 -0.02137386 -0.016671715 0.08960201
0.08357383 -0.035206646 -0.079591736 0.09497331 -0.013727946 0.063177615 -0.07929528 0.09354083
0.025413768 0.0047732573 -0.10372467 -0.11202813 -0.11056045 -0.10601282 0.11388942 -0.049659356
0.10365737 -0.059676297 -0.056141365 0.014067355 -0.097878836 0.038374845 0.033281416 -0.11942371
-0.01960682 0.08744458 0.030062428 -0.061288305 0.04175414 -0.09223406 0.089199916 0.122459516
-0.104180664 -0.04945988 0.061844893 -0.07435925 -0.0006705278 0.05628576 -0.103079736 -0.015424586
0.05826726 -0.088161156 -0.006297242 0.05887977 0.10803648 0.030718768 0.07003175 0.0010603889
-0.08199773 -0.06578072 -0.024934651 -0.11963867 0.11822539 0.060184415 0.086604215 0.10997602
0.108622715 -0.00056301587 -0.11497554 -0.016969455 -0.016480358 0.025334526 -0.06150812 -0.01816986
0.0788695 0.0918658 -0.042482406 -0.09695688 0.11687811 0.068823144 -0.11985806 0.046292946
0.018145712 0.02187747 0.0006175505 -0.05319136 -0.11181923 0.035858303 0.042646047 0.046858985
-0.0722396 -0.02539147 0.036453877 0.118880995 0.11692051 -0.042775035 0.033837996 0.09919228
-0.11104502 0.120784715 -0.050779 -0.058258645 0.10299018 -0.04631357 -0.087817356 0.10921052
-0.030839168 0.09169946 -0.02174864 0.12040929 0.08112172 1.5709831e-05 0.07303067 0.09970062
0.017233161 -0.05682913 0.08539671 -0.055469997 -0.07484989 0.040758066 -0.049141984 0.05954959
-0.03493959 -0.1250797 0.023290476 0.061040904 -0.07278238 0.08959203 0.05113607 -0.042723592
0.03612195 0.021549592 -0.058016036 -0.026990747 0.003439598 0.0019390741 -0.11484746 0.12086743
-0.10181886 0.07521153 -0.05609362 -0.0543466 0.0063477345 0.08059018 -0.05124263 0.03500057
0.108212 -0.025344158 0.08028337 0.062340766 0.092053786 -0.038977724 0.054568015 0.07625414
-0.07270294 -0.05752629 -0.027536532 -0.10909722 -0.116971925 0.11434601 -0.07643289 -0.08017043
0.042656645 0.11290103 0.1153277 0.08297749 0.057982348 0.07914649 -0.05364257 0.08556518
00000000: 4287 8abd d6f7 663d 399c e83d 5033 1e3d
00000010: bf76 c43d 067f 833d e83e 003e 977c bdbd
00000020: 112e 173d 6da4 513d c6e1 8abc ef46 893d
00000030: da68 cc3d d1ab 8e3d 98ab 94bd 67c0 f03d
00000040: 7c4f d3bd 5e6b 4aba 4188 cfbd d75d a13d
00000050: e505 ffbb fe04 babc 3eae a93d a612 8b3d
00000060: 0792 fd3d cf62 f13d 85a3 da3d 4212 b93d
00000070: d7d5 5ebd 2dba 643d 0bda 963d 5596 4cbd
00000080: e55b 063d 1ee2 943d 07ce b4bc e411 c23d
00000090: 05e9 b2bd 3b37 f33d 08c5 5e3d d1dd da3d
000000a0: c510 9abd ab54 fbbd 38a0 9fbd c6b6 dabd
000000b0: 50d3 57bc 0ca3 e73b be80 d8bc aa6d 213b
000000c0: 6c47 cfbd 57bd debd 7790 a53d db15 303d
000000d0: 945d 063d 7665 acbd 1a29 073d 81fa 5d3d
000000e0: 23a4 d43d 299a 99ba 1482 d53d bb9b 7cbd
000000f0: b7ac 8b3d 2f6d 603d f4a8 5ebd c883 f73c
00000100: 4f44 5f3c 8d3c fa3d 675b ee3d b9c7 e1bd
00000110: 4c8c 8f3d e971 bbbd 4d6b f73c 2e30 d0bd
00000120: c850 d7bd 5fec ffbd ac5e 8fbd 80f7 fb3c
00000130: e0da f63d 419a 90bc 7fdd f3bb 25c2 163d
00000140: 7890 5d3d 07d0 bcbd 143c 2bbc db5f f13c
00000150: ccb7 7bbd 82b4 223d 7c72 f13d 359f e2bd
00000160: 6637 a03d eeb4 a5bb 7ee7 69bd 096d ddbd
00000170: 80f1 79bd 3c18 afbc 1f93 88bc 4281 b73d
00000180: c228 ab3d d834 10bd fe00 a3bd 5e81 c23d
00000190: 2eeb 60bc 4463 813d 9065 a2bd 5692 bf3d
000001a0: 8930 d03c fc68 9c3b 9a6d d4bd 016f e5bd
000001b0: 846d e2bd 401d d9bd db3e e93d 9c67 4bbd
000001c0: 514a d43d 226f 74bd 7df4 65bd c37a 663c
000001d0: b374 c8bd f12e 1d3d 1852 083d 6b94 f4bd
000001e0: 7b9e a0bc 2516 b33d 7b45 f63c 7209 7bbd
000001f0: 6406 2b3d 36e5 bcbd 72ae b63d 0ecc fa3d
00000200: ac5c d5bd 7196 4abd 1251 7d3d aa49 98bd
00000210: 5cc6 2fba e68b 663d 781b d3bd 67b7 7cbc
00000220: a7a9 6e3d d68d b4bd 1859 cebb ea2b 713d
00000230: 3b42 dd3d eda5 fb3c ce6c 8f3d bffc 8a3a
00000240: 6dee a7bd 0bb8 86bd c143 ccbc 1e05 f5bd
00000250: 2720 f23d ef83 763d 8d5d b13d 1c3b e13d
00000260: 9675 de3d 5b97 13ba 4c78 ebbd 8703 8bbc
00000270: d101 87bc 5a8a cf3c f0ef 7bbd f5d8 94bc
00000280: 5586 a13d 2324 bc3d 0802 2ebd 5491 c6bd
00000290: ca5d ef3d 26f3 8c3d 2478 f5bd ac9d 3d3d
000002a0: 51a6 943c 6138 b33c 1de3 213a 2fdf 59bd
000002b0: 7b01 e5bd 28e0 123d 9fad 2e3d 35ef 3f3d
000002c0: 5bf2 93bd c601 d0bc a950 153d e177 f33d
000002d0: 0574 ef3d e034 2fbd b699 0a3d 5225 cb3d
000002e0: 926b e3bd fa5d f73d a4fd 4fbd 9ea0 6ebd
000002f0: 84ec d23d 4cb3 3dbd 96d9 b3bd c4a9 df3d
00000300: 6ca2 fcbc edcc bb3d 342a b2bc 2599 f63d
00000310: 2523 a63d 9bc8 8337 1b91 953d d72f cc3d
00000320: 8f2c 8d3c a9c5 68bd 78e4 ae3d 8234 63bd
00000330: e64a 99bd eef1 263d 1b49 49bd 45ea 733d
00000340: d11c 0fbd e514 00be abcb be3c 0706 7a3d
00000350: ee0e 95bd 077c b73d 0e74 513d effe 2ebd
00000360: 9cf4 133d c588 b03c 39a2 6dbd b31b ddbc
00000370: e16a 613b 8828 fe3a 2535 ebbd 5889 f73d
00000380: 6886 d0bd 8108 9a3d 6cc2 65bd 8a9a 5ebd
00000390: a800 d03b 770c a53d cbe3 51bd c25c 0f3d
000003a0: 419e dd3d 8d9e cfbc 9c6b a43d 0859 7f3d
000003b0: b286 bc3d 1ba7 1fbd b682 5f3d 212b 9c3d
000003c0: 47e5 94bd b0a0 6bbd 4b94 e1bc 5d6e dfbd
000003d0: fa8e efbd 3e2e ea3d d988 9cbd 6530 a4bd
000003e0: bcb8 2e3d a838 e73d ee30 ec3d 1af0 a93d
000003f0: e67e 6d3d 8e17 a23d 50b8 5bbd cc3c af3d

bn2.weight f4 [256]
1.0045954 1.0073115 1.0057808 0.9971228 1.0007985 1.0029697 1.0033146 1.0026184
1.0053828 1.0021408 0.999586 1.0070251 1.0025612 1.0045967 0.99788374 1.0034336
1.0039731 0.9974731 1.0021695 1.0034077 1.0013758 1.0020294 1.0020818 1.0027574
1.0022767 0.99999464 0.99796975 1.0055139 1.0001533 1.005006 1.0024536 1.0041224
1.0000829 1.0041753 1.0039977 1.0034336 1.0055312 1.0018989 1.0047282 1.0019295
1.0040704 1.0057542 0.99791443 0.99892455 1.0004168 1.0048867 1.0062689 1.0034581
1.0062375 1.0003875 1.0034924 1.0013204 1.0053983 1.0045555 1.0042832 1.0004977
1.0014788 1.0026071 1.0036079 1.001117 1.0024667 0.99635506 1.0022093 1.0000911
1.0011977 1.0042719 1.0044732 1.0032021 1.00092 1.0056458 1.0026037 1.0029578
1.0043913 1.0035039 1.002959 1.0031097 1.004495 1.0063802 1.005997 1.0031487
1.0064963 1.005389 1.0037912 1.0023547 1.0043505 1.0030835 1.0018663 1.0031545
1.0045033 1.0071493 1.0013968 1.0037471 1.0051324 1.001892 1.0011775 1.0060757
1.004373 0.99830854 1.0073694 0.99940485 1.0021548 1.0023724 1.0054792 1.0040295
1.0021809 1.0035803 1.0013281 1.0059532 1.0019494 1.0041673 1.0048081 1.0073218
1.0056329 1.0039028 1.0026668 0.99948645 1.0021528 1.0042922 1.0031132 1.0010785
1.0003377 1.0049974 1.0066998 1.0021861 1.0031967 1.0065917 1.0062872 1.0024225
0.9981325 1.0014569 1.003166 1.0022863 0.9997979 0.9998312 1.0026995 1.0027723
1.0023407 1.0019192 1.0021322 1.0025072 1.005257 1.0054132 1.0027986 1.0030531
1.000337 1.0079933 1.0003705 1.0038297 1.0059174 1.0054057 1.0020185 0.9975783
1.0028213 1.0026985 1.0032634 1.0036533 1.0008702 1.0058503 1.0049378 1.0039829
1.0038457 0.9988791 1.0054623 0.99965745 1.0010537 1.0033671 1.0043608 1.003569
1.004725 1.0006713 1.0031627 0.9974981 0.99883986 1.0016938 1.0036745 0.9989183
1.0021274 1.0062814 1.0023974 1.0031102 1.0046464 1.007567 1.0022811 1.0034295
1.0028757 1.0037326 1.0008131 0.999589 1.0048585 0.9993511 1.0034436 1.0028127
1.0003781 0.99714756 1.003402 1.0024496 1.0035913 1.0000535 1.0069634 1.0070522
0.99923205 1.0047497 1.0006642 1.0051361 1.0047891 1.0058966 1.006029 1.0017903
0.99943906 0.99989015 1.0011289 1.0034982 1.0055256 1.0038446 1.0008447 1.0010659
0.99857026 1.0004048 0.9980054 1.005069 0.99881583 1.0002171 0.99579465 1.0001968
1.0008017 1.0022839 1.007543 1.002418 1.0005724 0.9959039 1.0001235 1.0008662
0.99981713 0.9987362 1.0023592 1.0026034 1.0012602 0.9961152 1.0035181 1.0008433
1.001364 1.003394 1.0011672 1.0024723 1.0038292 1.0081092 1.0020356 1.0020167
1.0072232 1.0010451 1.0007441 1.0009938 1.0026985 1.00483 1.0031806 1.0003262
00000000: 9596 803f 95ef 803f 6dbd 803f 7143 7f3f
00000010: 2a1a 803f 5061 803f 9d6c 803f cd55 803f
00000020: 62b0 803f 2646 803f dee4 7f3f 33e6 803f
00000030: ed53 803f a096 803f 4f75 7f3f 8370 803f
00000040: 3182 803f 665a 7f3f 1747 803f aa6f 803f
00000050: 152d 803f 8042 803f 3744 803f 5b5a 803f
00000060: 9a4a 803f a6ff 7f3f f27a 7f3f aeb4 803f
00000070: 0605 803f 09a4 803f 6650 803f 1587 803f
00000080: b702 803f d188 803f ff82 803f 8370 803f
00000090: 3fb5 803f 393e 803f ef9a 803f 3a3f 803f
000000a0: 6185 803f 8ebc 803f 5277 7f3f 85b9 7f3f
000000b0: a80d 803f 21a0 803f 6bcd 803f 5171 803f
000000c0: 64cc 803f b30c 803f 7072 803f 442b 803f
000000d0: e4b0 803f 4695 803f 5a8c 803f 4f10 803f
000000e0: 7530 803f 6e55 803f 3976 803f 9a24 803f
000000f0: d450 803f 2011 7f3f 6548 803f fc02 803f
00000100: 3f27 803f fb8b 803f 9492 803f ed68 803f
00000110: 261e 803f 00b9 803f 5155 803f ec60 803f
00000120: e58f 803f d172 803f f660 803f e665 803f
00000130: 4b93 803f 11d1 803f 82c4 803f 2d67 803f
00000140: dfd4 803f 96b0 803f 3b7c 803f 294d 803f
00000150: 8f8e 803f 0a65 803f 283d 803f 5e67 803f
00000160: 9093 803f 45ea 803f c52d 803f c97a 803f
00000170: 2ea8 803f ff3d 803f 9626 803f 17c7 803f
00000180: 4b8f 803f 2691 7f3f 7bf1 803f ffd8 7f3f
00000190: 9c46 803f bd4d 803f 8bb3 803f 0a84 803f
000001a0: 7747 803f 5275 803f 852b 803f 13c3 803f
000001b0: e13f 803f 8e88 803f 8d9d 803f ecef 803f
000001c0: 94b8 803f e37f 803f 6357 803f 58de 7f3f
000001d0: 8b46 803f a68c 803f 0366 803f 5723 803f
000001e0: 110b 803f c1a3 803f 8adb 803f a247 803f
000001f0: c068 803f ffd7 803f 05ce 803f 614f 803f
00000200: 9d85 7f3f bd2f 803f be67 803f eb4a 803f
00000210: c1f2 7f3f f0f4 7f3f 7558 803f d85a 803f
00000220: b34c 803f e33e 803f de45 803f 2852 803f
00000230: 43ac 803f 61b1 803f b45b 803f 0b64 803f
00000240: 0b0b 803f ed05 813f 240c 803f 7e7d 803f
00000250: e7c1 803f 22b1 803f 2442 803f 4b61 7f3f
00000260: 735c 803f 6d58 803f ef6a 803f b677 803f
00000270: 841c 803f b4bf 803f cda1 803f 8382 803f
00000280: 047e 803f 8ab6 7f3f fdb2 803f 8de9 7f3f
00000290: 8722 803f 556e 803f e58e 803f f374 803f
000002a0: d49a 803f ff15 803f a367 803f 095c 7f3f
000002b0: f8b3 7f3f 8137 803f 6878 803f 1cb9 7f3f
000002c0: b645 803f d4cd 803f 8f4e 803f ea65 803f
000002d0: 4198 803f f5f7 803f bf4a 803f 6170 803f
000002e0: 3b5e 803f 4f7a 803f a51a 803f 11e5 7f3f
000002f0: 349f 803f 79d5 7f3f d770 803f 2b5c 803f
00000300: 640c 803f 1045 7f3f 7a6f 803f 4550 803f
00000310: ae75 803f c101 803f 2de4 803f 16e7 803f
00000320: accd 7f3f a39b 803f c415 803f 4da8 803f
00000330: ee9c 803f 38c1 803f 8fc5 803f aa3a 803f
00000340: 3ddb 7f3f cdf8 7f3f fe24 803f a172 803f
00000350: 10b5 803f fb7d 803f ae1b 803f ed22 803f
00000360: 4da2 7f3f 440d 803f 487d 7f3f 1aa6 803f
00000370: 65b2 7f3f 1d07 803f 66ec 7e3f 7306 803f
00000380: 451a 803f d74a 803f 2bf7 803f 3c4f 803f
00000390: c212 803f 8ff3 7e3f 0c04 803f 621c 803f
000003a0: 04f4 7f3f 2dad 7f3f 4e4d 803f 4f55 803f
000003b0: 4b29 803f 6801 7f3f 4873 803f a21b 803f
000003c0: b22c 803f 376f 803f 3f26 803f 0351 803f
000003d0: 7a7d 803f b909 813f b442 803f 1542 803f
000003e0: b1ec 803f 3f22 803f 6218 803f 9120 803f
000003f0: 6d58 803f 459e 803f 3968 803f b00a 803f

bn2.bias f4 [256]
-0.008490391 -0.010115623 -0.009541343 0.006573026 0.007361165 0.008985533 0.008804914 -0.006046501
-0.009251791 0.008887898 0.008376275 -0.009958411 0.005377707 -0.009064616 -0.008203079 0.008754771
-0.0028335229 -0.007218924 0.007906646 -0.0023035188 -0.0050531984 -0.008298567 -0.008667291 -0.008193077
-0.0057373634 0.0041331816 0.007923467 -0.008655109 0.007769085 -0.008546819 0.0062616114 -0.008784432
0.00661397 5.966511e-06 -0.007546344 0.005321024 -0.008796114 0.0064576473 0.008781804 0.0025182648
0.00870976 -0.007727103 0.008802671 0.005446778 0.0077498835 -0.007338639 -0.008964341 0.007501053
-0.009183869 0.0054152943 0.0040276847 -0.009487344 -0.009329569 -0.008018578 -0.00587973 -0.008385624
0.008081281 0.007968783 -0.0045224666 -0.008607533 -0.0076555903 -0.0023954187 -0.004179341 0.0068037035
-0.008737876 -0.0068397024 -0.0039505986 -0.0014685125 -0.0015203747 -0.008372069 -0.007683639 0.008633342
-0.009230994 -0.009408106 0.007422259 0.009083319 -0.0048052925 -0.009898827 -0.0097734425 -0.0084510585
-0.006116408 -0.009398844 -0.007976455 -0.008783832 -4.0567647e-05 -0.006093911 -0.00214314 0.008945335
-0.009206078 -0.0096093705 -0.007919312 -0.007677782 -0.007977561 0.008363289 0.0068494235 -0.009423317
-0.009172228 0.0060730334 -0.00974906 0.007514546 0.0022638205 -0.007885002 -0.009389795 -0.0087115
0.0044366545 -0.0005764749 0.008691447 -0.008685373 0.0031901614 -0.009419254 -0.009334044 -0.008940162
-0.009148257 -0.007523165 -0.0075082663 0.0053995084 -0.008449293 -0.0060912445 0.00460827 0.005014837
0.008467071 -0.005311481 -0.009723486 -0.007567319 -0.0003751697 -0.009347026 -0.009096299 0.007921599
0.0021109576 -0.0021233263 -0.0036269515 -0.0002792747 0.0075056357 0.0025263128 0.0071036615 -0.004612778
-0.008578863 -0.008361293 -0.0073338295 0.0022745712 -0.008243767 -0.0032015215 0.005289573 -0.004927511
0.007728139 -0.009920842 0.008118823 -0.008910669 -0.008271269 -0.010169761 0.005734695 0.007991019
-0.008863185 0.0074231247 0.004851134 0.0033358515 -0.008889275 -0.009421771 -0.008068846 -4.5773504e-05
0.009497948 0.007203293 -0.009357857 -0.0048011555 -0.008669573 0.0020695515 -0.0037522232 -0.008708524
-0.009344528 0.008170747 0.006700461 0.0060814 0.0006340044 0.0068240045 -0.009222889 0.006191261
0.008337402 -0.009542374 0.008270965 -0.008527756 -0.0037260503 -0.009541613 0.008056936 -0.0063761435
-0.0076637506 0.009174798 -0.007780729 0.008896743 -0.008162679 0.0066898097 -0.009037612 -0.003237186
0.0057743313 0.0033756224 -0.008282571 0.00883384 -0.00857003 0.007061758 -0.009706816 -0.009342923
-0.008796514 -0.0077461535 0.0009125215 -0.009064951 -0.00026538732 -0.009900611 -0.009460273 -0.008968117
0.0036755595 -0.008216071 0.0040127398 -0.007947675 -0.0049169473 0.0074901246 -0.008246277 0.009032003
0.008565834 0.007937848 0.007893457 -0.009589418 -0.003293256 0.0043406063 0.007053429 -0.0075906557
-0.008735404 -0.008639621 -0.009044443 0.002130899 -0.0085502835 0.0032833891 0.0027951614 -0.0075169723
0.006495931 -0.007916723 0.0076256488 -0.008532114 0.0058749514 0.007432809 -0.007510913 0.0075847027
-0.00860502 0.007933193 0.008652489 -0.0015092208 -0.008803147 -0.009494633 0.0076808166 -0.00521211
-0.008983536 -0.0031345887 -0.009081133 0.0051659024 0.006298507 0.009194461 -0.0035422596 0.0023119794
00000000: 481b 0bbc ffbb 25bc 4b53 1cbc 8a62 d73b
00000010: ed35 f13b 0f38 133c 7c42 103c ba21 c6bb
00000020: d394 17bc 8c9e 113c a53c 093c 9a28 23bc
00000030: 7a37 b03b c183 14bc 3566 06bc 2c70 0f3c
00000040: a0b2 39bb b98c ecbb e08a 013c a2f6 16bb
00000050: 4d95 a5bb b6f6 07bc 4101 0ebc 413c 06bc
00000060: 7e00 bcbb a46f 873b 6ed1 013c 29ce 0dbc
00000070: cf93 fe3b f507 0cbc 342e cd3b 94ec 0fbc
00000080: 00ba d83b f033 c836 5247 f7bb fc5b ae3b
00000090: 931d 10bc ac9a d33b 8ee1 0f3c 7909 253b
000000a0: 62b3 0e3c a333 fdbb 1439 103c e37a b23b
000000b0: bcf2 fd3b f778 f0bb 2cdf 12bc 65cb f53b
000000c0: f077 16bc c872 b13b abfa 833b ce70 1bbc
000000d0: 0cdb 18bc 5b60 03bc c0aa c0bb db63 09bc
000000e0: 5967 043c 808f 023c 3331 94bb 9c06 0dbc
000000f0: bfdb fabb 75fc 1cbb daf2 88bb 9af1 de3b
00000100: 4f29 0fbc 951f e0bb 0674 81bb 1a7b c0ba
00000110: 4f47 c7ba 012b 09bc 09c7 fbbb dc72 0d3c
00000120: 983d 17bc 7524 1abc 6c36 f33b 34d2 143c
00000130: b775 9dbb b12e 22bc ca20 20bc 4f76 0abc
00000140: 266c c8bb 9cfd 19bc adaf 02bc 10ea 0fbc
00000150: 2e27 2ab8 6eaf c7bb ec73 0cbb 748f 123c
00000160: 17d5 16bc 9f70 1dbc 01c0 01bc e795 fbbb
00000170: 51b4 02bc 2d06 093c 2171 e03b 4264 1abc
00000180: 1d47 16bc 4c00 c73b 85ba 1fbc 953c f63b
00000190: 9b5c 143b 1830 01bc a8d7 19bc aeba 0ebc
000001a0: 5b61 913b 931e 17ba 9266 0e3c 184d 0ebc
000001b0: 0712 513b 3753 1abc d1ed 18bc c279 12bc
000001c0: 92e2 15bc e284 f6bb e707 f6bb 5cee b03b
000001d0: e76e 0abc 1099 c7bb f800 973b 8053 a43b
000001e0: 78b9 0a3c ef0b aebb 424f 1fbc 46f7 f7bb
000001f0: 6db2 c4b9 4524 19bc a508 15bc 98c9 013c
00000200: fe57 0a3b 8127 0bbb 26b2 6dbb 9e6b 92b9
00000210: d6f1 f53b 7f90 253b d5c5 e83b c926 97bb
00000220: 5c8e 0cbc cefd 08bc 9f50 f0bb f910 153b
00000230: dd10 07bc 9ed0 51bb 2854 ad3b f576 a1bb
00000240: 543c fd3b 078b 22bc d004 053c 0efe 11bc
00000250: 3784 07bc 129f 26bc 1cea bb3b c3ec 023c
00000260: e436 11bc af3d f33b 43f6 9e3b 4d9e 5a3b
00000270: 52a4 11bc c65d 1abc 3133 04bc edfc 3fb8
00000280: 489d 1b3c 9a09 ec3b b251 19bc 0353 9dbb
00000290: d30a 0ebc 50a1 073b dce7 75bb 32ae 0ebc
000002a0: cb19 19bc 99de 053c 8a8f db3b 7b46 c73b
000002b0: 5133 263a e69b df3b 9a1b 17bc 10e0 ca3b
000002c0: 9999 083c 9e57 1cbc f182 073c 00b8 0bbc
000002d0: c030 74bb 6d54 1cbc 3d01 043c f8ee d0bb
000002e0: 3320 fbbb e451 163c 7cf5 febb a5c3 113c
000002f0: c2bc 05bc 3136 db3b 7e12 14bc f826 54bb
00000300: 9a36 bd3b 8c39 5d3b 9fb3 07bc cfbb 103c
00000310: 5069 0cbc 5266 e73b 5609 1fbc 0f13 19bc
00000320: 411f 10bc 72d3 fdbb 4836 6f3a 2985 14bc
00000330: af23 8bb9 2c36 22bc 43ff 1abc 02ef 12bc
00000340: a8e1 703b b39c 06bc 4d7d 833b f736 02bc
00000350: 581e a1bb b86f f53b 651b 07bc f7fa 133c
00000360: b657 0c3c bf0d 023c 8f53 013c ef1c 1dbc
00000370: abd3 57bb a53b 8e3b 7320 e73b 09bb f8bb
00000380: f11e 0fbc 328d 0dbc 252f 14bc 8ea6 0b3b
00000390: 7d16 0cbc 212e 573b 072f 373b ef50 f6bb
000003a0: d2db d43b 25b5 01bc 94e0 f93b 48ca 0bbc
000003b0: aa82 c03b ec8e f33b 1b1e f6bb 1989 f83b
000003c0: 12fc 0cbc 39fa 013c 2bc3 0d3c 0cd1 c5ba
000003d0: 133b 10bc 618f 1bbc 5caf fb3b 59ca aabb
000003e0: ae2f 13bc ac6d 4dbb 08c9 14bc bb46 a93b
000003f0: b563 ce3b 5da4 163c 4125 68bb 9484 173b

bn2.running_mean f4 [256]
0.24106082 0.34428996 0.3499427 0.34589538 0.35875285 0.31113347 0.34951082 0.23401858
0.3360833 0.27535754 0.24772167 0.34443367 0.40762725 0.43376812 0.39656448 0.2538437
0.27202916 0.31247258 0.16068709 0.39781156 0.23116569 0.30023754 0.369537 0.31947502
0.3197067 0.2964381 0.33786038 0.29343647 0.2768033 0.31812668 0.30000052 0.300754
0.2564235 0.2609868 0.24460123 0.30628556 0.2756622 0.3861377 0.326153 0.3662524
0.31963676 0.17689838 0.179341 0.19480467 0.25693995 0.24365838 0.26765403 0.2983791
0.23472647 0.19585395 0.32455325 0.2524596 0.26299086 0.34427947 0.24606165 0.3426342
0.3208961 0.21538685 0.32210314 0.23376256 0.315168 0.28150892 0.27896628 0.441431
0.33537358 0.37453172 0.389495 0.22807965 0.3334138 0.22773392 0.27994815 0.2526389
0.21377052 0.21439105 0.20658553 0.31244922 0.34026772 0.23000526 0.25693777 0.31137943
0.30870235 0.22836407 0.3062455 0.43992195 0.28936952 0.27077773 0.51618046 0.22887215
0.30043516 0.2606993 0.20835388 0.25006163 0.19720724 0.30995855 0.23393057 0.33353624
0.34615654 0.38199937 0.2527856 0.39095548 0.32474533 0.49085838 0.27512348 0.3412379
0.30787557 0.30210406 0.28595817 0.2469949 0.18900128 0.19098003 0.34033683 0.24192907
0.3214817 0.21178403 0.30663624 0.33078256 0.1895141 0.30000556 0.31683317 0.18777674
0.2959519 0.4559211 0.25958392 0.23054239 0.3421681 0.26177403 0.37771612 0.38132
0.23677206 0.30715957 0.28771245 0.1985179 0.27630273 0.34197593 0.3643862 0.2405346
0.32457298 0.25041884 0.25752762 0.24210887 0.36343193 0.3491521 0.33767703 0.3191164
0.2337185 0.2643445 0.25328267 0.19980426 0.3573737 0.39842588 0.26712292 0.42651412
0.361477 0.26350057 0.1920387 0.25951678 0.27662548 0.4142312 0.23590052 0.24095318
0.38407296 0.30980706 0.21907856 0.44144675 0.31762758 0.30881378 0.23123267 0.28526703
0.257732 0.34954414 0.28455186 0.2088323 0.26304653 0.25682658 0.30405045 0.29136574
0.22019176 0.24510188 0.31345344 0.3533984 0.35445058 0.305366 0.4491309 0.37913156
0.19027017 0.46977544 0.25251463 0.303902 0.29605183 0.28076774 0.2282188 0.33307186
0.27319038 0.3763091 0.27158922 0.34048024 0.33715487 0.26829007 0.30925363 0.3460621
0.2804863 0.33108857 0.3044306 0.35200566 0.19481808 0.34638664 0.27275214 0.31074232
0.2598197 0.38785228 0.33905372 0.28828776 0.24486242 0.30359697 0.2864604 0.2874873
0.24783272 0.29687494 0.18656665 0.26048154 0.29391366 0.26351327 0.33746132 0.35416943
0.1879745 0.24475583 0.26702845 0.2559431 0.35770544 0.32852846 0.31606877 0.3199577
0.30050218 0.24779554 0.3102271 0.3358047 0.29775777 0.20856217 0.33230937 0.2943366
0.3036774 0.30037168 0.34721568 0.2096023 0.24239773 0.36192757 0.3321954 0.21820548
0.45602182 0.33876878 0.30437285 0.33080238 0.28638965 0.34672284 0.22476475 0.39270195
00000000: a6d8 763e c646 b03e b12b b33e 3319 b13e
00000010: 74ae b73e e34c 9f3e 15f3 b23e 91a2 6f3e
00000020: 1c13 ac3e aafb 8c3e c0aa 7d3e 9c59 b03e
00000030: 85b4 d03e db16 de3e 800a cb3e cdf7 813e
00000040: 6847 8b3e 68fc 9f3e 288b 243e f5ad cb3e
00000050: b3b6 6c3e bcb8 993e f433 bd3e 3b92 a33e
00000060: 99b0 a33e bcc6 973e 09fc ac3e 4e3d 963e
00000070: 2ab9 8d3e 80e1 a23e ab99 993e 6efc 993e
00000080: f149 833e 10a0 853e bf78 7a3e 76d1 9c3e
00000090: 9923 8d3e d7b3 c53e 87fd a63e 6f85 bb3e
000000a0: 6ea7 a33e d924 353e 2ba5 373e e07a 473e
000000b0: a28d 833e 9581 793e f309 893e 25c5 983e
000000c0: 235c 703e f08d 483e d82b a63e 6242 813e
000000d0: bda6 863e 6645 b03e 96f7 7b3e c06d af3e
000000e0: 7e4c a43e 5f8e 5c3e b4ea a43e 745f 6f3e
000000f0: b35d a13e f021 903e abd4 8e3e 3e03 e23e
00000100: 16b6 ab3e 9fc2 bf3e e36b c73e b68d 693e
00000110: 37b5 aa3e 1533 693e 5d55 8f3e e359 813e
00000120: a9e6 5a3e 5489 5b3e 288b 533e 58f9 9f3e
00000130: 9237 ae3e 8086 6b3e 598d 833e 206d 9f3e
00000140: 3c0e 9e3e 45d8 693e 36cc 9c3e 733d e13e
00000150: 3e28 943e 61a3 8a3e 6724 043f 765d 6a3e
00000160: a3d2 993e 617a 853e b85a 553e 1408 803e
00000170: b2f0 493e e3b2 9e3e 7f8b 6f3e 43c5 aa3e
00000180: 6e3b b13e 6c95 c33e 1d6d 813e 512b c83e
00000190: 0545 a63e ca51 fb3e fcdc 8c3e bcb6 ae3e
000001a0: dea1 9d3e 62ad 9a3e 1c69 923e 3bec 7c3e
000001b0: 8d89 413e 4590 433e a140 ae3e 41bc 773e
000001c0: 4099 a43e eadd 583e 6dff 9c3e 555c a93e
000001d0: fc0f 423e 549a 993e f537 a23e 8c48 403e
000001e0: 0287 973e 7e6e e93e 2fe8 843e 4e13 6c3e
000001f0: a830 af3e 3f07 863e 0264 c13e 603c c33e
00000200: 6074 723e 0544 9d3e 0c4f 933e 4748 4b3e
00000210: 8d77 8d3e 7817 af3e d490 ba3e b44e 763e
00000220: 6e2e a63e e636 803e a9da 833e 63eb 773e
00000230: c013 ba3e 10c4 b23e 01e4 ac3e 3a63 a33e
00000240: e753 6f3e 2a58 873e 44ae 813e 7d99 4c3e
00000250: b0f9 b63e 7afe cb3e 56c4 883e 0f60 da3e
00000260: 8313 b93e 8ce9 863e cba5 443e 62df 843e
00000270: dba1 8d3e 1d16 d43e e88f 713e 6ebc 763e
00000280: 36a5 c43e 089f 9e3e 2156 603e 4f05 e23e
00000290: 15a0 a23e d71c 9e3e 42c8 6c3e 850e 923e
000002a0: 73f5 833e 73f7 b23e c8b0 913e 22d8 553e
000002b0: 09ae 863e c67e 833e 80ac 9b3e e42d 953e
000002c0: f379 613e fdfb 7a3e f87c a03e a3f0 b43e
000002d0: 8c7a b53e ef58 9c3e 7cf4 e53e 881d c23e
000002e0: 2fd6 423e 6886 f03e 9949 813e 0b99 9b3e
000002f0: 1b94 973e cac0 8f3e 30b2 693e 6588 aa3e
00000300: 9cdf 8b3e 96ab c03e be0d 8b3e 6d53 ae3e
00000310: 909f ac3e 515d 893e 7e56 9e3e 0d2f b13e
00000320: e69b 8f3e 7184 a93e 54de 9b3e 163a b43e
00000330: 647e 473e 9759 b13e 2ba6 8b3e 9e19 9f3e
00000340: 1607 853e 9394 c63e 7398 ad3e 749a 933e
00000350: 37bd 7a3e 1071 9b3e f0aa 923e 8931 933e
00000360: dcc7 7d3e feff 973e 540b 3f3e d65d 853e
00000370: da7b 963e 36eb 863e bbc7 ac3e b255 b53e
00000380: 637c 403e 46a1 7a3e f4b7 883e f90a 833e
00000390: 2b25 b73e e234 a83e c4d3 a13e 7fd1 a33e
000003a0: 6cdb 993e 1dbe 7d3e 16d6 9e3e 98ee ab3e
000003b0: b573 983e 5291 553e 7424 aa3e 49b3 963e
000003c0: 9b7b 9b3e 51ca 993e 41c6 b13e fca1 563e
000003d0: 1c37 783e 924e b93e 8415 aa3e 4271 5f3e
000003e0: b17b e93e 1a73 ad3e c2d6 9b3e ee5e a93e
000003f0: aaa1 923e a885 b13e bb28 663e 3b10 c93e

bn2.running_var f4 [256]
0.18190381 0.23867303 0.25501227 0.34691507 0.21662317 0.25747195 0.20682402 0.24011622
0.32291028 0.149492 0.14878096 0.31674328 0.33484805 0.57142574 0.24829443 0.1245558
0.23931105 0.31254253 0.09548327 0.37450972 0.1813773 0.20927452 0.2324133 0.25207412
0.29560563 0.18476163 0.28304562 0.17569211 0.2592014 0.21714681 0.19106807 0.24922667
0.20863912 0.1580139 0.17958795 0.22115128 0.2715742 0.17874998 0.20930596 0.3233253
0.26608688 0.083296314 0.09018394 0.1317061 0.1682891 0.18286839 0.2443429 0.15318607
0.19112697 0.14138424 0.16315252 0.164714 0.16252336 0.34269002 0.15316561 0.25127453
0.16375978 0.09321264 0.17322703 0.19239204 0.26041284 0.13584554 0.20911026 0.44286427
0.24653716 0.2531093 0.2547167 0.1677589 0.2496296 0.20332828 0.17959343 0.15275781
0.20165525 0.1438993 0.12372174 0.16414529 0.16097383 0.15771909 0.22409718 0.25550932
0.20141982 0.18998182 0.30665872 0.4208879 0.2010475 0.2184864 0.70781094 0.17253551
0.2498959 0.26634067 0.13559914 0.24216293 0.105277285 0.18517755 0.1585465 0.28302532
0.27804497 0.44005078 0.2156217 0.2758771 0.24951997 0.5232102 0.26318586 0.18433678
0.33622703 0.2838792 0.24674815 0.17851086 0.0972573 0.10322232 0.22858226 0.1704325
0.2441004 0.12367303 0.30564567 0.17449676 0.12991625 0.18771693 0.18136807 0.09974102
0.300125 0.38634023 0.19775707 0.14621083 0.25931033 0.17425095 0.3593011 0.28996912
0.21263725 0.29828468 0.1723191 0.1304454 0.19614704 0.23425099 0.32313234 0.16545476
0.21635595 0.19014071 0.11692827 0.15750106 0.24194556 0.2866574 0.22468348 0.25187725
0.24070832 0.2219551 0.20635284 0.14422496 0.27891928 0.32461196 0.18954732 0.4590898
0.2058505 0.15343182 0.13835102 0.16152191 0.14706966 0.4161039 0.18369792 0.19659649
0.2866646 0.25114363 0.13669117 0.50876886 0.23592755 0.25376314 0.12945107 0.25576875
0.21298787 0.2351124 0.13201843 0.17070961 0.20152988 0.118447065 0.22141403 0.22297257
0.15404622 0.18742761 0.19004633 0.26109612 0.33344787 0.38847145 0.47123542 0.39371485
0.13880359 0.5211865 0.22039546 0.2511122 0.19588627 0.22155598 0.20211644 0.19971028
0.2994898 0.3382805 0.13890667 0.22342767 0.31971243 0.20288724 0.2296366 0.28349707
0.22869797 0.23836318 0.17648055 0.3300076 0.08044512 0.24390276 0.21849072 0.23957428
0.1999527 0.49663466 0.3346734 0.18658765 0.16014338 0.13521643 0.18458505 0.13796319
0.15624046 0.25005218 0.14640547 0.21641886 0.27799094 0.19719134 0.31450042 0.1850788
0.11543328 0.168592 0.25830296 0.19813043 0.3812995 0.26266035 0.34142825 0.19926697
0.20367151 0.15344419 0.18649459 0.30458963 0.18124448 0.12791903 0.2790709 0.20857255
0.3236433 0.16526163 0.2974627 0.17491686 0.17929302 0.28253907 0.24927424 0.13465267
0.61973673 0.22263895 0.20059566 0.33880705 0.16777897 0.32735562 0.13230723 0.33808395
00000000: fe44 3a3e b466 743e f890 823e da9e b13e
00000010: 77d2 5d3e 5dd3 833e adc9 533e 07e1 753e
00000020: 7f54 a53e 6e14 193e 095a 183e 2d2c a23e
00000030: 3471 ab3e f548 123f e540 7e3e 1c17 ff3d
00000040: f50d 753e 9305 a03e bc8c c33d bdbf bf3e
00000050: f9ba 393e 0f4c 563e c1fd 6d3e dc0f 813e
00000060: 9f59 973e 2732 3d3e 5beb 903e a2e8 333e
00000070: 0cb6 843e bc5b 5e3e 59a7 433e 4735 7f3e
00000080: 7ea5 553e 65ce 213e e7e5 373e 7b75 623e
00000090: c60b 8b3e 3c0a 373e 4d54 563e e58a a53e
000000a0: 8a3c 883e 4297 aa3d 5cb2 b83d f7dd 063e
000000b0: fa53 2c3e da41 3b3e 0635 7a3e cfdc 1c3e
000000c0: cab6 433e 08c7 103e 7411 273e c9aa 283e
000000d0: 866c 263e 1175 af3e 72d7 1c3e 0ea7 803e
000000e0: a5b0 273e 45e6 be3d 6d62 313e 6b02 453e
000000f0: d554 853e 181b 0b3e 0021 563e 1bbf e23e
00000100: 3d74 7c3e 8b97 813e 3a6a 823e fdc8 2b3e
00000110: e79e 7f3e 4a35 503e 57e7 373e 8b6c 1c3e
00000120: b77e 4e3e 575a 133e d361 fd3d b415 283e
00000130: 53d6 243e 1d81 213e bb79 653e 1ed2 823e
00000140: ff40 4e3e 988a 423e 5f02 9d3e 9e7e d73e
00000150: 65df 4d3e e6ba 5f3e 1933 353f 26ad 303e
00000160: b6e4 7f3e ce5d 883e 80da 0a3e 8ff9 773e
00000170: 9e9b d73d 2f9f 3d3e 045a 223e b2e8 903e
00000180: e95b 8e3e 564e e13e efcb 5c3e c33f 8d3e
00000190: 2a82 7f3e 1bf1 053f 4cc0 863e c8c2 3c3e
000001a0: f325 ac3e 9d58 913e 8cab 7c3e 8dcb 363e
000001b0: d62e c73d 3966 d33d 7811 6a3e db85 2e3e
000001c0: 75f5 793e 4948 fd3d 977d 9c3e 47af 323e
000001d0: c408 053e de38 403e 8db8 393e 0545 cc3d
000001e0: fca9 993e 63ce c53e d480 4a3e 4bb8 153e
000001f0: 53c4 843e d76e 323e 50f6 b73e d576 943e
00000200: 94bd 593e c5b8 983e 6b74 303e 7b93 053e
00000210: c5da 483e 7edf 6f3e 9a71 a53e f96c 293e
00000220: 6a8c 5d3e 3fb4 423e 1778 ef3d f547 213e
00000230: 94c0 773e c2c4 923e 6d13 663e 0ef6 803e
00000240: 3e7c 763e 3348 633e 294e 533e b5af 133e
00000250: 82ce 8e3e 8a33 a63e b118 423e d10d eb3e
00000260: 79ca 523e 3b1d 1d3e e4ab 0d3e 0066 253e
00000270: 6e99 163e 920b d53e 4f1b 3c3e 9750 493e
00000280: b4c5 923e e695 803e c5f8 0b3e ad3e 023f
00000290: fe96 713e 3eed 813e d28e 043e 1ff4 823e
000002a0: 7e19 5a3e 4ec1 703e d72f 073e 80ce 2e3e
000002b0: d95d 4e3e 6094 f23d 5cba 623e ec52 643e
000002c0: 4bbe 1d3e 06ed 3f3e 819b 423e 64ae 853e
000002d0: aeb9 aa3e bbe5 c63e c545 f13e fe94 c93e
000002e0: 8722 0e3e 7a6c 053f 59af 613e c791 803e
000002f0: 6996 483e 92df 623e 9df7 4e3e da80 4c3e
00000300: ba56 993e 1a33 ad3e 8d3d 0e3e 39ca 643e
00000310: 59b1 a33e acc1 4f3e db25 6b3e 8726 913e
00000320: cd2f 6a3e 7a15 743e 51b7 343e c2f6 a83e
00000330: 69c0 a43d a5c1 793e 08bc 5f3e f652 753e
00000340: 67c0 4c3e e646 fe3e 505a ab3e d510 3f3e
00000350: a0fc 233e 2d76 0a3e dd03 3d3e 3946 0d3e
00000360: 80fd 1f3e d706 803e 51eb 153e e89c 5d3e
00000370: d454 8e3e 87ec 493e 3306 a13e 4c85 3d3e
00000380: 4968 ec3d 62a3 2c3e 4940 843e b4e2 4a3e
00000390: b039 c33e 6b7b 863e afcf ae3e a40c 4c3e
000003a0: 448f 503e 7920 1d3e 70f8 3e3e 2cf3 9b3e
000003b0: 2798 393e 35fd 023e 62e2 8e3e 0b94 553e
000003c0: 93b4 a53e 583a 293e 084d 983e 681d 333e
000003d0: 9798 373e f6a8 903e bf41 7f3e 64e2 093e
000003e0: 11a7 1e3f 77fb 633e f368 4d3e 1e78 ad3e
000003f0: 40ce 2b3e 289b a73e 8c7b 073e 5719 ad3e
