cached_models/FFNNmodel.pth (torch, 42905 bytes, 14 tensors)

fc1.weight f4 [64, 20]
-0.18328325 -0.076101765 -0.19577296 -0.19476514 0.0043765185 -0.1508141 0.0801664 -0.05761352
-0.11042957 0.15051852 -0.13833469 0.033076614 -0.07054505 0.026111113 -0.3849816 -0.0041778414
0.0635285 -0.044512857 0.025448596 -0.023068286 0.19675516 0.204789 -0.06305372 -0.07111238
0.113283634 0.08085754 0.028889308 0.02011458 0.02431095 0.030627567 0.04347778 0.044526126
0.008447413 0.059744723 -0.44616467 -0.021310959 -0.0023363382 -0.23649612 0.033886418 0.25929165
0.07769774 0.07959454 -0.13961573 -0.16099086 0.07793383 0.030610591 0.07740415 0.095449656
0.09200243 0.098111816 -0.22813849 -0.21416385 -0.22678842 -0.22387946 -0.5238601 0.0038623908
0.006575559 0.08483164 -0.026629215 0.069648445 -0.15165228 -0.14073591 -0.18716107 -0.14590006
-0.16893315 0.024500648 0.067118384 0.05896459 0.05653465 0.062602915 -0.10146788 -0.097311705
-0.14496957 -0.07123762 0.5331326 -0.0056711957 0.0053323423 0.07988324 0.008408912 -0.011516314
0.09563877 0.10339132 0.037888363 0.09077985 -0.1108759 -0.070911124 0.027956272 0.016186535
0.017799146 0.016948285 -0.00937569 -0.002487018 0.0053565004 -0.01843912 -0.56807387 -0.0056198724
-0.0039418885 -0.16738273 0.02577179 0.056858055 0.03944354 0.020563763 0.10171603 -0.1512205
-0.05150089 -0.0426402 -0.0148043735 -0.02045047 -0.018362477 -0.019747961 0.043385692 0.042206176
0.010022198 0.03767428 0.16111617 0.02268191 0.032755584 0.4795049 -0.10023781 -0.4474878
0.20801668 0.2167495 -0.036442224 -0.042495076 0.105995156 0.093255244 0.038187347 0.039955735
0.0391752 0.03945748 0.054272216 0.057111092 0.04229068 0.0508674 -0.7554189 -0.007221255
0.00824885 0.06118904 0.007245668 -0.045668337 -0.05846477 -0.057634886 0.13874164 0.14833115
0.020166675 0.028184257 -0.0057780994 -0.0035694411 -0.0064907437 -0.0121026635 -0.021141985 -0.02651753
-0.0064728903 -0.029808357 0.9860781 0.012757889 -0.01728981 -0.06486574 -0.009902964 0.0350375
-0.030180158 -0.15521482 -0.0265668 -0.07612307 0.13586244 -0.13044088 -0.12059305 0.15331365
0.07777673 -0.03590478 0.033615585 0.08286337 0.10027406 0.07527172 -0.1679809 -0.057890452
-0.1132869 0.05652096 -0.11144277 0.023752239 -0.045713197 -0.03915879 0.14706567 0.18469842
0.115106806 0.14417583 0.02689392 0.027538152 0.01973019 0.01684797 0.0036887117 -0.017480383
0.019348241 -0.020649387 0.49122798 0.017608944 0.01878004 0.26700634 -0.022845678 -0.31820238
-0.030275274 -0.052154556 0.10568111 0.023106327 0.027091986 0.012527709 0.06276557 0.01030031
0.010807003 0.041569997 0.066597626 0.07452756 0.021672063 0.06188777 0.25802585 -0.008637591
0.022208244 0.2126622 -0.19219396 -0.35569853 0.04390179 0.04479175 0.10519336 0.095472895
-0.010175555 -0.031049257 0.061956335 0.04850961 0.05135075 0.05061944 0.0107373595 0.015182234
0.0072171832 0.022978103 -0.76114166 -0.013638632 -0.0018922978 0.045982607 0.021991031 -0.01600734
-0.14535786 -0.17603168 0.14136904 0.03908652 0.19292825 -0.15817603 -0.04375521 -0.007002525
-0.006698883 -0.013428363 0.102772795 0.09306617 0.18661413 0.039409645 -0.18232395 0.05053894
00000000: 9bae 3bbe 3edb 9bbd b578 48be 8370 47be
00000010: e668 8f3b 036f 1abe 482e a43d 28fc 6bbd
00000020: e628 e2bd 8721 1a3e 9ca7 0dbe 587b 073d
00000030: ec79 90bd f9e6 d53c 4f1c c5be 46e6 88bb
00000040: 3b1b 823d 1d53 36bd 9379 d03c b4f9 bcbc
00000050: 2f7a 493e 35b4 513e 4f22 81bd 5ea3 91bd
00000060: 4001 e83d a398 a53d 45a9 ec3c 55c7 a43c
00000070: c227 c73c aae6 fa3c c215 323d 0761 363d
00000080: 0567 0a3c e2b6 743d b26f e4be 5294 aebc
00000090: 401d 19bb 0a2c 72be 7ccc 0a3d e0c1 843e
000000a0: fe1f 9f3d 7602 a33d 6df7 0ebe cada 24be
000000b0: c69b 9f3d 10c3 fa3c 1186 9e3d 1c7b c33d
000000c0: c56b bc3d d9ee c83d 239d 69be c54d 5bbe
000000d0: 393b 68be a840 65be b21b 06bf 2a20 7d3b
000000e0: c977 d73b 36bc ad3d 8325 dabc d8a3 8e3d
000000f0: bc4a 1bbe 131d 10be 27a7 3fbe d366 15be
00000100: d0fc 2cbe 95b5 c83c 5d75 893d db84 713d
00000110: e190 673d f535 803d 64ce cfbd 5c4b c7bd
00000120: e772 14be 08e5 91bd 617b 083f 70d5 b9bb
00000130: eeba ae3b d399 a33d 89c5 093c ecae 3cbc
00000140: 42de c33d d4be d33d d430 1b3d c9ea b93d
00000150: e712 e3bd da39 91bd 8d04 e53c a099 843c
00000160: 84cf 913c 21d7 8a3c 7e9c 19bc 3dfd 22bb
00000170: 9585 af3b a30d 97bc 4a6d 11bf e826 b8bb
00000180: f52a 81bb 6166 2bbe 5c1f d33c fee3 683d
00000190: 8d8f 213d 5675 a83c 7e50 d03d 8cd9 1abe
000001a0: 99f2 52bd 7ea7 2ebd 0b8e 72bc be87 a7bc
000001b0: e86c 96bc 7ac6 a1bc 32b5 313d 62e0 2c3d
000001c0: 2534 243c 5950 1a3d a3fb 243e 6acf b93c
000001d0: b82a 063d ab81 f53e 7b49 cdbd 1f1d e5be
000001e0: 5302 553e 95f3 5d3e 7144 15bd 510f 2ebd
000001f0: fd13 d93d 9bfc be3d 566a 1c3d a0a8 233d
00000200: 2d76 203d 2b9e 213d 8b4c 5e3d 52ed 693d
00000210: fe38 2d3d 565a 503d 2263 41bf 47a0 ecbb
00000220: 2f26 073c 5ca1 7a3d 126d ed3b b90e 3bbd
00000230: c178 6fbd 8f12 6cbd 4a12 0e3e 1fe4 173e
00000240: 9534 a53c ace2 e63c 3656 bdbb 49ed 69bb
00000250: 4eb0 d4bb 404a 46bc f531 adbc 4b3b d9bc
00000260: 8a1a d4bb a830 f4bc 9d6f 7c3f 7706 513c
00000270: 5ca3 8dbc 54d8 84bd 0b40 22bc 7b83 0f3d
00000280: 613c f7bc a2f0 1ebe 9ea2 d9bc 6ae6 9bbd
00000290: 861f 0b3e 4b92 05be 7df9 f6bd 41fe 1c3e
000002a0: 6849 9f3d e410 13bd 7fb0 093d 45b4 a93d
000002b0: 7d5c cd3d 0f28 9a3d 2f03 2cbe 8a1e 6dbd
000002c0: f602 e8bd 8682 673d 1b3c e4bd 0e94 c23c
000002d0: c33d 3bbd f864 20bd 6298 163e 9521 3d3e
000002e0: 1ebd eb3d d4a2 133e a350 dc3c b197 e13c
000002f0: 35a1 a13c c104 8a3c 50be 713b 0533 8fbc
00000300: 3480 9e3c e728 a9bc 3c82 fb3e a240 903c
00000310: 99d8 993c 0eb5 883e dc26 bbbc 6ceb a2be
00000320: da03 f8bc 04a0 55bd 566f d83d 7b49 bd3c
00000330: 03f0 dd3c 0541 4d3c 3c8b 803d a2c2 283c
00000340: db0f 313c 4d45 2a3d 5664 883d e8a1 983d
00000350: 9c89 b13c 087e 7d3d f71b 843e af84 0dbc
00000360: 10ee b53c 1fc4 593e 7ece 44be 1e1e b6be
00000370: 5dd2 333d 8e77 373d 9e6f d73d 4b87 c33d
00000380: 5fb7 26bc 035b febc edc5 7d3d 03b2 463d
00000390: 2a55 523d 5456 4f3d c0eb 2f3c e8be 783c
000003a0: 1f7e ec3b 933c bc3c 2eda 42bf 9274 5fbc
000003b0: fa06 f8ba 4258 3c3d 8926 b43c d321 83bc
000003c0: b1d8 14be a641 34be 0cc3 103e 3019 203d
000003d0: fc8e 453e e6f8 21be aa38 33bd 7075 e5bb
000003e0: 4e82 dbbb a302 5cbc 8b7a d23d 7a99 be3d
000003f0: c617 3f3e 026c 213d 21b3 3abe eb01 4f3d

fc1.bias f4 [64]
0.07205376 0.24406864 0.14829895 -0.03935817 0.129423 -0.10947524 0.20780241 0.06707031
-0.27575055 -0.19951719 -0.23164879 0.36144564 0.052807204 -0.057350982 0.24094172 0.14869353
0.074261606 0.0074206847 -0.117693916 0.5503773 -0.081760935 -0.04853892 0.02245082 0.31900656
-0.24619788 0.29865378 0.04214201 -0.0362245 -0.10379532 0.11552054 -0.15374927 -0.17787774
-0.246205 -0.07641121 -0.10314279 0.411093 0.24864262 0.0067347297 -0.07188658 0.10755498
0.28411976 0.00044260357 -0.027297072 -0.18339491 -0.1550401 0.2604294 0.034032196 0.12476629
0.28104547 0.23247479 0.0051497594 -0.03757178 -0.070840806 0.097081825 0.49399102 -0.13308746
0.032654647 0.497663 -0.2317218 0.51700425 0.25868827 0.41796336 -0.11130471 -0.24409005
00000000: ec90 933d 21ed 793e aedb 173e 0836 21bd
00000010: 7787 043e 8e34 e0bd 28ca 543e 295c 893d
00000020: 2d2f 8dbe 3c4e 4cbe 5735 6dbe 670f b93e
00000030: 5e4c 583d dde8 6abd 6db9 763e 1e43 183e
00000040: 7816 983d 3729 f33b 8209 f1bd 87e5 0c3f
00000050: 4772 a7bd bfd0 46bd c8ea b73c d454 a33e
00000060: 4c1b 7cbe 26e9 983e 1a9d 2c3d 2460 14bd
00000070: a492 d4bd 0896 ec3d 7370 1dbe 9525 36be
00000080: 2a1d 7cbe 7b7d 9cbd 873c d3bd c87a d23e
00000090: 2c9c 7e3e 02af dc3b 4539 93bd c945 dc3d
000000a0: 2578 913e 3f0d e839 1c9e dfbc e0cb 3bbe
000000b0: d5c2 1ebe 0157 853e 5865 0b3d 7885 ff3d
000000c0: 31e5 8f3e df0d 6e3e 50bf a83b dee4 19bd
000000d0: fc14 91bd d6d2 c63d 64ec fc3e 1448 08be
000000e0: e1c0 053d afcd fe3e 7b48 6dbe 645a 043f
000000f0: ca72 843e 4bff d53e b9f3 e3bd bef2 79be

bn1.weight f4 [64]
0.88128936 0.59854525 0.66379154 0.80082625 0.7597157 0.71259433 0.65806526 0.6934699
0.90054244 0.7626445 0.8499876 0.6015753 0.58754617 0.6919681 0.6389154 0.65455675
0.6901301 0.6276093 0.848806 0.6721996 0.7033528 0.7146334 0.6101762 0.744634
0.9253487 0.64674413 1.00599 0.8595683 0.6954213 0.5300699 0.77921706 0.9241208
0.799069 0.7228735 0.65201384 0.78483874 0.66000676 0.63243145 0.9165188 0.7345666
0.64354616 0.9190544 0.70079094 0.7616483 0.70276344 0.5907055 0.72195935 0.7219472
0.690884 0.6325308 0.56697524 0.72793764 0.81036776 0.8063621 0.6356239 0.859281
0.7535159 0.5740217 0.8708759 0.7587958 0.6111491 0.656253 0.6452593 0.9679947
00000000: 2e9c 613f 433a 193f 3eee 293f f302 4d3f
00000010: ba7c 423f 956c 363f f776 283f 3e87 313f
00000020: f389 663f ac3c 433f ca98 593f d700 1a3f
00000030: 6d69 163f d224 313f f68f 233f 0891 273f
00000040: 5eac 303f 01ab 203f 5a4b 593f 4615 2c3f
00000050: ee0e 343f 37f2 363f 8234 1c3f 55a0 3e3f
00000060: a7e3 6c3f 0691 253f 48c4 803f ab0c 5c3f
00000070: 2107 323f a9b2 073f c57a 473f 2e93 6c3f
00000080: c98f 4c3f 3d0e 393f 61ea 263f 31eb 483f
00000090: 34f6 283f 07e7 213f faa0 6a3f 8f0c 3c3f
000000a0: 71bf 243f 2647 6b3f 0967 333f 62fb 423f
000000b0: 4ee8 333f 7a38 173f 54d2 383f 88d1 383f
000000c0: c6dd 303f 8aed 213f 4a25 113f 1f5a 3a3f
000000d0: 4374 4f3f bf6d 4e3f 3fb8 223f d7f9 5b3f
000000e0: 6be6 403f 16f3 123f b9f1 5e3f 7140 423f
000000f0: 4474 1c3f 3200 283f b72f 253f 80ce 773f

bn1.bias f4 [64]
-0.06652659 0.442794 0.5747263 0.21483053 0.51428276 0.23455107 0.025301004 0.018473472
-0.0831397 -0.070581414 0.17362206 0.6017714 -0.19043688 0.39387092 -0.18510489 0.49499974
0.22320627 -0.6322152 -0.05367201 0.00079581904 0.33171204 0.60046417 -0.60241526 0.026143529
-0.07362191 -0.06291053 0.38544104 0.1896477 0.38372123 -0.38020664 0.15872882 0.23000215
0.025631413 -0.086377144 0.33491325 0.02264336 0.48546633 0.3488462 -0.085725665 0.5339357
0.51834255 0.39049056 -0.0050778002 0.5906943 0.37023264 -0.34726354 -0.17803517 0.4467899
-0.31414387 0.5118364 -0.37012422 0.16799933 0.036179345 0.03322488 0.08905855 0.431253
-0.07991018 0.5577808 -0.07819516 0.22535516 0.665509 0.5223055 0.49740857 -0.043114703
00000000: 183f 88bd e5b5 e23e 4321 133f 89fc 5b3e
00000010: 09a8 033f 282e 703e 0d44 cf3c ae55 973c
00000020: 2645 aabd fd8c 90bd fbc9 313e b10d 1a3f
00000030: e301 43be 73a9 c93e 238c 3dbe 9b70 fd3e
00000040: 2f90 643e dbd8 21bf 2ed7 5bbd 839e 503a
00000050: 29d6 a93e 05b8 193f e337 1abf f42a d63c
00000060: 15c7 96bd 3cd7 80bd 8758 c53e 0233 423e
00000070: 1c77 c43e 72aa c2be cf89 223e af85 6b3e
00000080: f8f8 d13c 80e6 b0bd c079 ab3e 917e b93c
00000090: 0b8f f83e f89b b23e f090 afbd 03b0 083f
000000a0: 19b2 043f 61ee c73e ad63 a6bb be37 173f
000000b0: 228f bd3e 87cc b1be da4e 36be a5c1 e43e
000000c0: 77d7 a0be b607 033f ec80 bdbe 0408 2c3e
000000d0: cb30 143d d016 083d 5464 b63d 31cd dc3e
000000e0: f3a7 a3bd b9ca 0e3f c924 a0bd 81c3 663e
000000f0: cc5e 2a3f d0b5 053f 56ac fe3e 0b99 30bd

bn1.running_mean f4 [64]
6e-45 0.4381258 0.12652364 0.0076574394 0.06016799 0.031987853 0.28755692 0.4616819
6e-45 0.15283306 0.004566837 0.30866826 0.15583636 0.085014 0.46522254 0.71150535
0.61612517 0.27494752 6e-45 0.4012171 0.032207217 0.15798761 0.54183024 0.34161714
6e-45 0.26297608 0.009382899 0.0059642717 0.12032746 0.45976377 0.0035160661 0.00392155
0.0007396716 6e-45 0.23864473 0.44231042 0.7896327 0.39815012 6e-45 0.14297955
0.36935025 0.010733263 0.0005482869 0.079374395 0.046200197 0.49033165 0.13229269 0.09527877
0.29902098 0.42556852 0.300812 0.019213473 0.0001759063 0.31352746 0.29444084 0.055664957
6e-45 0.28325176 6e-45 0.34470963 0.28503376 0.39536506 0.15975808 6e-45
00000000: 0400 0000 0652 e03e 6a8f 013e 42eb fa3b
00000010: b672 763d b205 033d a93a 933e 9261 ec3e
00000020: 0400 0000 4580 1c3e 68a5 953b c409 9e3e
00000030: 9193 1f3e d21b ae3d a631 ee3e 3725 363f
00000040: 61ba 1d3f ecc5 8c3e 0400 0000 546c cd3e
00000050: b7eb 033d 81c7 213e 63b5 0a3f 71e8 ae3e
00000060: 0400 0000 cda4 863e bbba 193c f06f c33b
00000070: 3e6e f63d 2866 eb3e cd6d 663b 5880 803b
00000080: 85e6 413a 0400 0000 495f 743e 8376 e23e
00000090: 5e25 4a3f 55da cb3e 0400 0000 3b69 123e
000000a0: 7a1b bd3e 91da 2f3c e9ba 0f3a 0b8f a23d
000000b0: 6b3c 3d3d c00c fb3e bc77 073e 8421 c33d
000000c0: 4719 993e 1ee4 d93e 0804 9a3e 9365 9d3c
000000d0: 7d73 3839 ac86 a03e f3c0 963e f000 643d
000000e0: 0400 0000 6006 913e 0400 0000 c87d b03e
000000f0: f2ef 913e 4a6d ca3e 9f97 233e 0400 0000

bn1.running_var f4 [64]
6e-45 0.020207265 0.012049258 0.0006447447 0.0061576376 0.008491042 0.021775348 0.036643278
6e-45 0.01912732 0.00046347766 0.02206024 0.033127703 0.011137897 0.016984025 0.05681939
0.0582201 0.026322613 6e-45 0.04360923 0.0033969334 0.018460067 0.036550593 0.013369979
6e-45 0.019990934 0.00051933806 0.00069402356 0.017947756 0.09614367 0.00024546357 0.00019288117
4.2287695e-05 6e-45 0.015709365 0.020851882 0.06531038 0.01701623 6e-45 0.027843585
0.018188115 0.0005565037 3.404728e-05 0.0103000915 0.0065712067 0.19440655 0.013798275 0.012904274
0.02798884 0.022411298 0.024716765 0.0033299064 7.2145476e-06 0.010908301 0.022523183 0.008273694
6e-45 0.023191739 6e-45 0.012320668 0.021373559 0.019135952 0.014155918 6e-45
00000000: 0400 0000 b589 a53c 406a 453c 1604 293a
00000010: 02c6 c93b 031e 0b3c 3762 b23c 4317 163d
00000020: 0400 0000 e6b0 9c3c ebfe f239 adb7 b43c
00000030: eab0 073d ba7b 363c 1522 8b3c 73bb 683d
00000040: 3378 6e3d 85a2 d73c 0400 0000 989f 323d
00000050: 169f 5e3b 9139 973c 13b6 153d c20d 5b3c
00000060: 0400 0000 07c4 a33c 3024 083a 22ef 353a
00000070: 2c07 933c f9e6 c43d 90b1 8039 2540 4a39
00000080: 115e 3138 0400 0000 edb0 803c 91d1 aa3c
00000090: 73c1 853d 9f65 8b3c 0400 0000 3b18 e43c
000000a0: 3eff 943c 55e2 113a fdcd 0e38 b7c1 283c
000000b0: 4753 d73b 8312 473e 2912 623c 736c 533c
000000c0: da48 e53c e697 b73c d07a ca3c 8f3a 5a3b
000000d0: 7e14 f236 bbb8 323c 8a82 b83c 638e 073c
000000e0: 0400 0000 9afc bd3c 0400 0000 a1dc 493c
000000f0: 9a17 af3c 00c3 9c3c 39ee 673c 0400 0000

fc2.weight f4 [61, 64]
-0.06515964 0.13429749 -0.03488165 -0.01820618 -0.035065558 -0.22106157 0.012244304 0.0011377143
-0.035703965 -0.07080152 -0.07461536 0.024065739 0.0045793885 -0.035508364 -0.24306008 0.0077243433
0.011712554 -0.019493017 -0.03171285 -0.0012013497 -0.031000495 -0.033296578 -0.0053459494 0.05955098
-0.09876848 -0.009043643 0.033641387 -0.056823995 -0.015452476 0.0029289562 -0.096969746 -0.17164966
-0.051892836 -0.07052755 0.24009241 0.039604004 0.008772871 0.17737389 -0.08911919 0.019590013
0.07058311 -0.015164774 -0.066712074 -0.0011137256 -0.08638279 -0.005396251 -0.11944777 -0.01076154
-0.0030346736 0.078092426 0.031926814 -0.19541936 -0.01347864 0.048510477 -7.664917e-05 0.055575576
-0.07050462 0.013284939 -0.039277785 0.09114925 -0.057100076 0.07838369 0.13460009 -0.16953862
0.01192681 0.0025927776 -0.003965002 -0.32563537 0.008349722 0.019742602 0.045385834 -0.06271546
0.021198746 -0.006697478 0.007182423 -0.015247122 0.02044103 0.0060714446 0.0042013084 -0.64648384
-0.19523157 0.0009303839 0.038238287 0.042986684 0.0053354753 -0.0003550661 0.01178637 0.0029484353
0.048474558 0.084881075 -0.14986938 -0.0032947906 -0.0043178946 -0.00343715 -0.007599785 -0.05862562
-0.0424161 0.031982936 -0.014874995 0.007921701 -0.62786317 0.0072424663 0.013607403 0.008343747
0.0062464974 -0.7473428 0.0013367793 -0.019592522 0.013695236 -0.004907037 -0.008126296 -0.0074588056
0.30716598 0.00041350344 -0.011266007 -0.010265363 0.008521243 -0.0027662988 0.0270736 -0.0071704374
0.030938238 -0.0019518132 0.020751638 0.002324578 -0.0011472224 0.009570743 -0.0043962803 -0.00070736464
-0.03470048 0.09353423 -0.006986693 -0.013161267 0.061885934 -0.02518218 -9.5365205e-05 0.00030894965
-0.032096688 -0.020242678 -0.08054739 -0.0019790814 0.008124733 -0.033398096 -0.03647765 -0.005627133
0.0056892815 0.0053464053 -0.0068633514 -8.238171e-05 -0.021229982 -0.010491861 0.007429067 0.013516021
-0.011545831 -0.0024815598 0.012575348 -0.1472166 -0.0055593685 -0.008973854 -0.031633776 0.0013577
-0.006763418 -0.0042376583 0.026327424 0.019384967 -0.00023897302 0.049284205 -0.013747495 0.04045997
0.107317775 0.00063890265 -0.039631292 -0.0068486026 -0.0028069115 -0.0077803624 -0.018666452 -0.034632903
-0.0016740566 0.114803106 -0.027174655 -0.043811783 -0.025905568 0.015231483 0.004473368 -0.032078903
-0.048993625 -0.004493787 -0.037225004 0.01569029 0.021214198 0.11135888 0.058301553 -0.07130026
0.009050424 -0.00078331446 -0.086484216 0.0005574041 -0.07069717 -0.004277527 -0.022571778 0.01285684
-0.0077093365 0.0014897261 0.008666587 -0.056153283 -0.0066174567 0.0009500322 -0.0026423028 0.0118440995
0.011514504 0.059646178 -0.0023322855 -0.020157972 -0.070778236 -0.08858074 0.058728926 -0.008185365
0.009732641 -0.016204868 -0.14720777 0.007493973 -0.00015436056 0.005552636 0.012649873 -0.114561185
-0.07833022 -0.005506469 0.004956119 -0.007927721 0.0038939333 -0.0039406307 -0.0012270161 -0.024519706
0.0032139437 0.007707003 -0.003529206 -0.0016888382 0.00679607 -0.0066091507 0.001294102 0.010817128
-0.0113397725 -0.0030337197 0.014810852 0.011037109 -0.04200892 -0.0035134046 -0.01356551 0.014664018
0.010616694 -0.05211142 0.018891832 -0.0015459008 0.0025742457 0.0015434236 0.011350217 -0.003848699
00000000: 6b72 85bd 4885 093e 10e0 0ebd 2025 95bc
00000010: e7a0 0fbd f75d 62be 559c 483c 5b1f 953a
00000020: 523e 12bd 6300 91bd f0cf 98bd 8325 c53c
00000030: b20e 963b 3871 11bd bee4 78be 7d1c fd3b
00000040: 03e6 3f3c d2af 9fbc 55e5 01bd 9b76 9dba
00000050: c0f4 fdbc fe61 08bd 132d afbb baeb 733d
00000060: 2147 cabd ca2b 14bc 8dcb 093d 47c0 68bd
00000070: 622c 7dbc bbf3 3f3b 1398 c6bd eec4 2fbe
00000080: 958d 54bd c070 90bd c9da 753e cf37 223d
00000090: 17bc 0f3c 80a1 353e 1f84 b6bd 3c7b a03c
000000a0: e18d 903d ac75 78bc 57a0 88bd 6efa 91ba
000000b0: 76e9 b0bd 09d3 b0bb 08a1 f4bd 2c51 30bc
000000c0: 60e1 46bb ecee 9f3d b1c5 023d 031c 48be
000000d0: 83d5 5cbc ecb2 463d b6be a0b8 37a3 633d
000000e0: ba64 90bd 13a9 593c bee1 20bd 75ac ba3d
000000f0: c5e1 69bd a187 a03d 9bd4 093e 889b 2dbe
00000100: ab68 433c 97eb 293b d9ec 81bb aeb9 a6be
00000110: 46cd 083c 3dbb a13c 7fe6 393d f770 80bd
00000120: fea8 ad3c 8476 dbbb 885a eb3b 11cf 79bc
00000130: f273 a73c f8f2 c63b 21ab 893b f77f 25bf
00000140: c9ea 47be 02e5 733a c09f 1c3d ce12 303d
00000150: 36d5 ae3b 2a28 bab9 9e1b 413c 893a 413b
00000160: 428d 463d 21d6 ad3d 5c77 19be 6aed 57bb
00000170: 207d 8dbb cf41 61bb 9e07 f9bb 6b21 70bd
00000180: 81bc 2dbd 8a00 033d 40b6 73bc 06ca 013c
00000190: a4bb 20bf 3652 ed3b 96f1 5e3c 36b4 083c
000001a0: 6baf cc3b dc51 3fbf df36 af3a 7f80 a0bc
000001b0: fc61 603c 36cb a0bb 2824 05bc ff68 f4bb
000001c0: dc44 9d3e 7ecb d839 0f95 38bc 0e30 28bc
000001d0: af9c 0b3c cb4a 35bb 74c9 dd3c fdf5 eabb
000001e0: 3072 fd3c fcd3 ffba 57ff a93c f257 183b
000001f0: 655e 96ba 9bce 1c3c ac0e 90bb 706e 39ba
00000200: 1722 0ebd e08e bf3d a1f0 e4bb 5ba2 57bc
00000210: 1b7c 7d3d dc4a cebc cefe c7b8 85fa a139
00000220: d177 03bd f9d3 a5bc 08f6 a4bd 7ab3 01bb
00000230: 9a1d 053c 71cc 08bd 9769 15bd d063 b8bb
00000240: 276d ba3b e630 af3b f7e5 e0bb 58c4 acb8
00000250: 80ea adbc 0ee6 2bbc 886f f33b 4d72 5d3c
00000260: ba2a 3dbc aaa1 22bb d508 4e3c f3bf 16be
00000270: 5d2b b6bb 1207 13bc 6b92 01bd daf4 b13a
00000280: aa9f ddbb 0edc 8abb 9cac d73c 39cd 9e3c
00000290: d594 7ab9 3cde 493d 2c3d 61bc 5ab9 253d
000002a0: 6cc9 db3d 087c 273a 6c54 22bd 3e6a e0bb
000002b0: 29f4 37bb 69f2 febb 63ea 98bc 3bdb 0dbd
000002c0: 056c dbba e41d eb3d 629d debc fc73 33bd
000002d0: ea37 d4bc 788d 793c 5595 923b 2b65 03bd
000002e0: 8aad 48bd 9e40 93bb 3f79 18bd ec88 803c
000002f0: 66c9 ad3c 2010 e43d 9ccd 6e3d df05 92bd
00000300: 3b48 143c 5857 4dba a31e b1bd c21e 123a
00000310: aec9 90bd 7f2a 8cbb 73e8 b8bc 7fa5 523c
00000320: 9a9e fcbb ea42 c33a 4dfe 0d3c fc00 66bd
00000330: 40d7 d8bb 950b 793a 7c2a 2dbb c10d 423c
00000340: 55a7 3c3c 8d4f 743d 42d9 18bb 5522 a5bc
00000350: 2ef4 90bd d269 b5bd be8d 703d e91b 06bc
00000360: a875 1f3c 12c0 84bc a2bd 16be 0090 f53b
00000370: d9db 21b9 e3f2 b53b 6a41 4f3c 0e9f eabd
00000380: 986b a0bd 9c6f b4bb f166 a23b 46e3 01bc
00000390: 5c31 7f3b 6820 81bb d4d3 a0ba 8ddd c8bc
000003a0: 07a1 523b 078b fc3b 404a 67bb 025c ddba
000003b0: 91b1 de3b 9391 d8bb dc9e a93a 533a 313c
000003c0: 74ca 39bc 5fd1 46bb 37a9 723c fed4 343c
000003d0: 8c11 2cbd 2641 66bb df41 5ebc 5941 703c
000003e0: a4f1 2d3c c972 55bd 0bc3 9a3c d39f caba
000003f0: adb4 283b b44c ca3a 43f6 393c 743a 7cbb

fc2.bias f4 [61]
0.48702496 0.060881935 0.583577 1.338437 1.0875664 0.023095656 0.42541775 -0.31520757
0.4461947 -0.20172583 0.5296154 0.67127913 1.0117265 0.5132013 0.6716284 0.4409229
0.66969025 -0.16499867 -0.066745825 0.44717088 1.3933687 1.4796318 0.56301475 0.5258915
0.8716745 0.1289608 0.6808799 0.35485193 0.83986104 0.7131217 0.5539553 0.5595033
0.6691597 0.5827011 1.1044797 1.4137503 0.57518625 0.28958952 0.5401315 1.0545101
0.3072028 0.5580442 0.9707417 0.4019394 0.7212589 0.44120032 1.0664176 0.740797
0.5108062 0.38983667 0.6102594 0.54510397 -0.1044171 1.2811947 0.5330672 0.8591036
1.0295289 1.031416 1.397351 1.1200583 0.59233934
00000000: 565b f93e 565f 793d 4d65 153f e751 ab3f
00000010: 6035 8b3f 1a33 bd3c 5bd0 d93e e362 a1be
00000020: a273 e43e 3791 4ebe e094 073f f3d8 2b3f
00000030: 4180 813f 2961 033f d7ef 2b3f a5c0 e13e
00000040: d270 2b3f 69f5 28be 09b2 88bd 95f3 e43e
00000050: e859 b23f 9364 bd3f bc21 103f d3a0 063f
00000060: 0f26 5f3f 4d0e 043e 254e 2e3f 27af b53e
00000070: 2201 573f 258f 363f 04d0 0d3f 9c3b 0f3f
00000080: 0d4e 2b3f e62b 153f 975f 8d3f c5f5 b43f
00000090: 683f 133f 1445 943e 0f46 0a3f 30fa 863f
000000a0: af49 9d3e fcdb 0e3f 8782 783f 00cb cd3e
000000b0: 6ca4 383f 02e5 e13e 5f80 883f dfa4 3d3f
000000c0: 32c4 023f ac98 c73e f639 1c3f ef8b 0b3f
000000d0: a2d8 d5bd 30fe a33f 1877 083f 37ee 5b3f
000000e0: 9ac7 833f 7105 843f 66dc b23f 125e 8f3f
000000f0: 8da3 173f

bn2.weight f4 [61]
0.60062885 0.7873098 0.5475487 0.6138695 0.57482 0.7366729 0.6431999 1.0747703
0.6850433 0.8858263 0.65936464 0.64884454 0.5811266 0.6738055 0.63162225 0.62504596
0.62570417 0.826199 0.77087796 0.66253525 0.6705841 0.63121563 0.68134487 0.6230492
0.6185171 0.6989007 0.64275306 0.6758242 0.718447 0.6349194 0.6366071 0.61237997
0.6557015 0.6612716 0.5943212 0.60883206 0.5958078 0.7206346 0.62184167 0.62849665
0.68169385 0.5645169 0.54261476 0.6725819 0.6381834 0.65527785 0.5694033 0.5638761
0.67564243 0.66190565 0.6848281 0.56431764 0.8261514 0.58861804 0.63219684 0.6145753
0.55782634 0.6649328 0.6324641 0.6114442 0.66985655
00000000: d0c2 193f 238d 493f 272c 0c3f 8d26 1d3f
00000010: 6727 133f 9896 3c3f c0a8 243f 1392 893f
00000020: ff5e 2f3f 83c5 623f 1fcc 283f ad1a 263f
00000030: b6c4 143f 847e 2c3f ffb1 213f 0303 203f
00000040: 262e 203f c781 533f 4258 453f e99b 293f
00000050: 66ab 2b3f 5997 213f 9e6c 2e3f 2780 1f3f
00000060: 2357 1e3f 28eb 323f 778b 243f d102 2d3f
00000070: 25ec 373f 148a 223f aff8 223f efc4 1c3f
00000080: 0edc 273f 1849 293f 6f25 183f 6bdc 1b3f
00000090: dc86 183f 827b 383f 0431 1f3f 28e5 203f
000000a0: 7d83 2e3f 2e84 103f cde8 0a3f 542e 2c3f
000000b0: fd5f 233f 4ac0 273f 6ac4 113f 2f5a 103f
000000c0: e7f6 2c3f a672 293f e550 2f3f 1f77 103f
000000d0: a87e 533f acaf 163f a7d7 213f cf54 1d3f
000000e0: b5cd 0e3f 0939 2a3f 2be9 213f 9b87 1c3f
000000f0: b87b 2b3f

bn2.bias f4 [61]
0.5621338 0.38824737 0.59520066 -0.48129627 -0.65682304 0.40829837 0.579996 0.12998863
-0.09774849 0.28169748 0.4562759 0.50796306 -0.6760361 0.46248463 0.48774326 0.38378564
-0.2774247 0.35573217 0.34712586 0.5551611 -0.52887446 -0.49347088 -0.17980704 0.6048839
-0.64820725 0.48635447 0.48168564 0.48484007 -0.19487074 -0.50076884 0.48023212 0.6149841
-0.5492856 0.43749732 -0.65871483 -0.47734597 0.33539796 0.41878805 0.53930885 -0.654254
0.52296257 0.582869 -0.67500645 0.5524555 -0.5096779 0.5641068 -0.67863244 -0.45987177
0.4623209 0.5652236 -0.05917112 0.579602 0.39849207 -0.5655507 0.5136123 -0.6340174
-0.6444561 -0.62182873 -0.4992717 -0.6817881 0.47303087
00000000: 00e8 0f3f 5cc8 c63e 125f 183f 776c f6be
00000010: 8e25 28bf 7c0c d13e 9e7a 143f bd1b 053e
00000020: 5c30 c8bd a73a 903e ff9c e93e de09 023f
00000030: b410 2dbf c9ca ec3e 7cb9 f93e 8d7f c43e
00000040: 9c0a 8ebe 8722 b63e 7bba b13e 0a1f 0e3f
00000050: 5164 07bf 37a8 fcbe 561f 38be acd9 1a3f
00000060: e9f0 25bf 7403 f93e 809f f63e f53c f83e
00000070: 328c 47be 6332 00bf fce0 f53e 996f 1d3f
00000080: fb9d 0cbf a6ff df3e 89a1 28bf b166 f4be
00000090: 48b9 ab3e 636b d63e 2510 0a3f 317d 27bf
000000a0: e0e0 053f e736 153f 39cd 2cbf b96d 0d3f
000000b0: 407a 02bf 4e69 103f dbba 2dbf 5074 ebbe
000000c0: 53b5 ec3e 7eb2 103f 6b5d 72bd cc60 143f
000000d0: 2707 cc3e eec7 10bf 187c 033f f74e 22bf
000000e0: 13fb 24bf 2b30 1fbf 8aa0 ffbe aa89 2ebf
000000f0: 1a31 f23e

bn2.running_mean f4 [61]
1.0363714 0.22516488 0.894422 1.0131013 0.7074385 0.13536558 0.73366 0.0038084965
0.425233 0.029373487 0.5449208 1.1341678 0.67544043 0.554719 0.9141265 0.56817377
0.42639986 0.05714637 0.14785582 0.6723514 1.0680144 1.1289129 0.39067048 0.9381929
0.5144262 0.46059605 0.8137843 0.47014338 0.5703219 0.34561568 1.0987386 0.95037544
0.36547938 0.6982105 0.7260937 1.0758986 0.6143938 0.41640568 1.0682896 0.68543464
0.56150883 0.9580403 0.59963363 0.67909753 0.33993036 0.67686594 0.69660807 0.3422074
0.51601034 0.5861742 0.44471887 0.9354948 0.10004367 0.93650925 0.94415057 0.4838166
0.6823708 0.6673544 1.0754117 0.74737024 0.64095896
00000000: d1a7 843f 9f91 663e d7f8 643f 4ead 813f
00000010: b11a 353f 469d 0a3e 24d1 3b3f f897 793b
00000020: 24b8 d93e aba0 f03c ee7f 0b3f 692c 913f
00000030: aae9 2c3f 1002 0e3f 3204 6a3f d673 113f
00000040: 1551 da3e 5012 6a3d 8467 173e 391f 2c3f
00000050: b2b4 883f 3880 903f f605 c83e 692d 703f
00000060: 6fb1 033f 3fd3 eb3e 2b54 503f a2b6 f03e
00000070: 9e00 123f 8af4 b03e 77a3 8c3f ce4b 733f
00000080: 1d20 bb3e ecbd 323f 47e1 393f 0cb7 893f
00000090: e948 1d3f 2033 d53e b7bd 883f a578 2f3f
000000a0: 0bbf 0f3f 2142 753f 9781 193f 56d9 2d3f
000000b0: 5a0b ae3e 1647 2d3f e854 323f cf35 af3e
000000c0: 4119 043f 830f 163f 31b2 e33e 967c 6f3f
000000d0: b2e3 cc3d 12bf 6f3f dab3 713f cfb6 f73e
000000e0: daaf 2e3f bdd7 2a3f 17a7 893f a853 3f3f
000000f0: e315 243f

bn2.running_var f4 [61]
0.8710777 0.17674989 0.27830043 0.27842975 0.2949458 0.05517154 0.5350123 0.00061298755
0.2670721 0.008170066 0.38562784 0.8079381 0.27609244 0.44913986 0.57557076 0.38783857
0.19275118 0.018770913 0.08479453 0.38293627 0.289833 0.34579685 0.16719644 0.63134176
0.24161683 0.40694988 0.59606975 0.33442107 0.1575643 0.26365197 0.7812653 0.48842898
0.1534871 0.32628328 0.2556906 0.35725248 0.34284186 0.35321328 0.60634345 0.22665097
0.46207902 0.50907373 0.38933578 0.56391203 0.23404016 0.49838066 0.34366006 0.25277358
0.3795364 0.39772817 0.20054136 0.39845943 0.037397787 0.28892288 0.54979134 0.2312344
0.24658333 0.21986552 0.3562818 0.27318186 0.50205404
00000000: f3fe 5e3f ecfd 343e 657d 8e3e 588e 8e3e
00000010: 2303 973e 8dfb 613d 91f6 083f e6b0 203a
00000020: adbd 883e bedb 053c 0371 c53e 08d5 4e3f
00000030: fd5b 8d3e a9f5 e53e 9b58 133f c792 c63e
00000040: 9160 453e 75c5 993c c1a8 ad3d 3910 c43e
00000050: fe64 943e 490c b13e 8b35 2b3e 9d9f 213f
00000060: 676a 773e bc5b d03e 0798 183f 3d39 ab3e
00000070: 8958 213e 64fd 863e 0101 483f 5d13 fa3e
00000080: b92b 1d3e 9a0e a73e e1e9 823e cce9 b63e
00000090: f888 af3e 5fd8 b43e 5339 1b3f 3117 683e
000000a0: 9f95 ec3e a852 023f 0557 c73e 8a5c 103f
000000b0: 39a8 6f3e c02b ff3e 36f4 af3e 8a6b 813e
000000c0: 9852 c23e 07a3 cb3e b75a 4d3e e002 cc3e
000000d0: 6c2e 193d b3ed 933e 20bf 0c3f b6c8 6c3e
000000e0: 5780 7c3e 6d24 613e 916a b63e 7ede 8b3e
000000f0: 9d86 003f

fc3.weight f4 [61, 61]
-0.004128643 -0.13004188 -0.008990475 0.053289898 0.004408673 -0.0027835378 -0.0073347352 -0.18886779
-0.005757949 -0.07616535 -0.08256956 -0.075372614 0.0067794635 -0.11145638 -0.07778032 -0.0050599724
-0.0032561237 -0.012002172 -0.14574786 -0.0058749556 0.046282966 0.056875452 -0.006279457 -0.009492404
-0.0001277815 -0.008129753 -0.088611625 -0.04966319 0.025702305 0.02428236 -0.010831407 -0.008547747
0.003812509 0.010300886 0.006987658 0.06425092 -0.014539192 -0.12189287 -0.01840226 0.003141436
-0.0077593233 -0.0049464833 0.0029376447 -0.007289473 0.027778994 -0.0072335806 0.0042502386 0.029583285
-0.10763296 -0.006550228 -0.008491282 -0.00547608 -0.04705631 0.027396133 -0.056686144 0.00061695016
0.0047031785 0.0033639055 0.06427193 0.00707126 -0.10180844 -0.0037592535 -0.1261248 -0.00906231
0.04873161 0.0024033212 -0.0049788556 -0.0072635747 -0.18039082 0.013872937 -0.071415275 -0.08405273
-0.07220211 0.006749014 -0.105463095 -0.072478436 0.005479858 0.017783377 -0.012949304 -0.13668677
-0.0069047706 0.041189313 0.055931676 0.016060753 -0.008563024 -0.0023214498 -0.009226131 -0.0821563
-0.0626105 0.025517713 0.022447545 -0.031077359 -0.0073932083 0.00024320884 0.010813633 0.0058450466
0.062205646 0.007873373 -0.11628154 -0.010386354 0.0018543856 -0.007243644 -0.004078632 0.001767228
-0.0069132405 0.025808344 -0.006915746 0.0034925411 0.028184194 -0.10042588 -0.0062763775 0.016267395
-0.004543935 -0.04646632 0.02815006 -0.057801846 -0.0014461215 0.0038740523 0.0013719047 0.061553977
0.007139335 -0.093710065 -0.0010319579 -0.12509318 -0.0065959557 0.053084686 -0.00038995748 -0.0042239204
-0.0032277629 -0.17353863 0.007144832 -0.06892391 -0.0841708 -0.07080994 0.0047597005 -0.10349535
-0.07072936 0.010701599 0.022223009 -0.011546036 -0.13629492 -0.004485911 0.043808483 0.058516126
0.020942641 -0.0039055585 -0.0034265989 -0.0071734763 -0.080037095 -0.06864491 0.02643091 0.025490915
-0.038066436 -0.0037409149 0.008675811 0.009506016 0.0036827293 0.06477387 0.020443896 -0.115603395
-0.014398764 -0.0008242188 -0.003593523 -0.0013046934 -0.0018499978 -0.0030290391 0.028092861 -0.0031818862
0.0012251623 0.03176238 -0.09823219 -0.0021080787 0.022902675 -0.001351689 -0.046116468 0.02864537
-0.058884095 -0.0026411766 0.0016378099 -0.0004666372 0.06318952 0.0055895797 -0.09159412 0.001605669
-0.12515627 -0.003716264 0.058347326 -0.003404063 -0.0035607412 0.00075192086 -0.16982906 0.0017851909
-0.06707272 -0.08489072 -0.07126275 0.0025452734 -0.10345181 -0.0708244 0.01570489 0.03009895
-0.009754277 -0.13762885 -0.0022515554 0.04692875 0.062595025 0.0291949 0.0006373096 -0.005003922
-0.0051412717 -0.08047465 -0.07396975 0.02743092 0.028461969 -0.047614668 -6.8255395e-07 0.016928235
0.008144004 0.0013610289 0.06794456 0.033989612 -0.11615364 -0.018215703 -0.0035779567 7.008601e-05
0.0017924568 -0.005638961 0.00071871 0.030725433 0.00037294722 -0.0011506961 0.035478316 -0.09790328
0.0019039878 0.032765053 0.0018962821 -0.04509066 0.029071772 -0.061631378 -0.0042668455 -0.0007201381
-0.0024213493 0.065500654 0.0038919328 -0.09156709 0.0041341553 -0.12621155 -0.0005856519 0.06480484
-0.0064318823 -0.0028156373 0.0047313315 -0.17158628 -0.0031384667 -0.06593736 -0.085998334 -0.07408912
00000000: 9149 87bb b329 05be c94c 13bc 8246 5a3d
00000010: a176 903b 046c 36bb 3858 f0bb 8f66 41be
00000020: 2dad bcbb 94fc 9bbd 3b1a a9bd f55c 9abd
00000030: 4326 de3b 3e43 e4bd 4a4b 9fbd 20ce a5bb
00000040: b164 55bb c2a4 44bc ed3e 15be b382 c0bb
00000050: 3593 3d3d 3cf6 683d e7c3 cdbb 0786 1bbc
00000060: 16fd 05b9 a832 05bc 037a b5bd a16b 4bbd
00000070: a48d d23c cdeb c63c 3776 31bc d90b 0cbc
00000080: 49db 793b 0cc5 283c b9f8 e43b fd95 833d
00000090: cb35 6ebc f8a2 f9bd 56c0 96bc 8de0 4d3b
000000a0: ec41 febb 1c16 a2bb 8085 403b 88dc eebb
000000b0: c690 e33c ac07 edbb 9645 8b3b a558 f23c
000000c0: ab6e dcbd 4ca3 d6bb 051f 0bbc b070 b3bb
000000d0: 1ebe 40bd db6d e03c bb2f 68bd d3ba 213a
000000e0: 1f1d 9a3b f874 5c3b 00a1 833d 07b6 e73b
000000f0: f280 d0bd cf5d 76bb dc26 01be 157a 14bc
00000100: cc9a 473d 0a81 1d3b ab25 a3bb 4803 eebb
00000110: 5fb8 38be 514b 633c 2c42 92bd d623 acbd
00000120: b3de 93bd d526 dd3b 09fd d7bd 936f 94bd
00000130: 6190 b33b 72ae 913c 5129 54bc 9ef7 0bbe
00000140: 6a41 e2bb 20b6 283d 9d18 653d d791 833c
00000150: ed4b 0cbc 7723 18bb 3329 17bc 9041 a8bd
00000160: ef39 80bd 860a d13c eae3 b73c f295 febc
00000170: ba42 f2bb e005 7f39 aa2b 313c ce87 bf3b
00000180: 59cb 7e3d 52ff 003c 0425 eebd 872b 2abc
00000190: db0e f33a 175c edbb 0ca6 85bb 55a2 e73a
000001a0: 7788 e2bb 056c d33c 7b9d e2bb 1ee3 643b
000001b0: 8ae2 e63c 15ac cdbd 12aa cdbb 3343 853c
000001c0: 4ae5 94bb 7853 3ebd f49a e63c a1c1 6cbd
000001d0: c98b bdba d0e3 7d3b 7cd1 b33a 0620 7c3d
000001e0: 15f1 e93b 10eb bfbd c342 87ba 6d18 00be
000001f0: e322 d8bb 546f 593d 3573 ccb9 d068 8abb
00000200: e088 53bb 1cb4 31be 321f ea3b fb27 8dbd
00000210: be61 acbd cd04 91bd 43f7 9b3b 5ff5 d3bd
00000220: 8eda 90bd c255 2f3c 070d b63c 962b 3dbc
00000230: e590 0bbe 8dfe 92bb 8670 333d 9bae 6f3d
00000240: e78f ab3c 66f4 7fbb ca90 60bb 7b0f ebbb
00000250: 7dea a3bd b495 8cbd a385 d83c 53d2 d03c
00000260: 8deb 1bbd 232a 75bb fd24 0e3c 1fbf 1b3c
00000270: f259 713b 2aa8 843d f579 a73c 79c1 ecbd
00000280: cbe8 6bbc 6310 58ba 5081 6bbb 3f02 abba
00000290: a07b f2ba d882 46bb 0023 e63c 3187 50bb
000002a0: a095 a03a 4519 023d f52d c9bd b127 0abb
000002b0: 649e bb3c 282b b1ba 9fe4 3cbd b2a9 ea3c
000002c0: 7330 71bd 9717 2dbb c8ab d63a fca6 f4b9
000002d0: 8269 813d cb28 b73b b395 bbbd 5075 d23a
000002e0: f728 00be 908c 73bb 9bfd 6e3d b316 5fbb
000002f0: 535b 69bb 8e1c 453a abe7 2dbe 11fd e93a
00000300: 6c5d 89bd 30db adbd 34f2 91bd 9ace 263b
00000310: 8bde d3bd 620c 91bd 8ba7 803c 1392 f63c
00000320: 67d0 1fbc 94ee 0cbe d58e 13bb 5c38 403d
00000330: d231 803d 252a ef3c 2011 273a f1f7 a3bb
00000340: 1d78 a8bb e5cf a4bd 747d 97bd cfb6 e03c
00000350: 1329 e93c 9907 43bd c038 37b5 15ad 8a3c
00000360: 6e6e 053c 8d64 b23a 8426 8b3d b138 0b3d
00000370: f6e1 edbd 1939 95bc 277c 6abb 24fb 9238
00000380: dff0 ea3a 09c7 b8bb d067 3c3a e7b3 fb3c
00000390: 2188 c339 f4d2 96ba b651 113d 8481 c8bd
000003a0: 3b8f f93a a634 063d ab8c f83a fcb0 38bd
000003b0: ed27 ee3c 2f71 7cbd e5d0 8bbb a6c7 3cba
000003c0: 80af 1ebb 3525 863d cc0f 7f3b 8787 bbbd
000003d0: cf77 873b 9a3d 01be 6f86 19ba 66b8 843d
000003e0: 8ac2 d2bb 8e86 38bb 4909 9b3b 50b4 2fbe
000003f0: bcae 4dbb 2b0a 87bd e51f b0bd 09bc 97bd

fc3.bias f4 [61]
-0.5251769 -0.6243177 -0.79827064 -0.9614871 -1.07791 -1.0715237 -0.9947929 -0.90022373
-0.7810721 -0.6530366 -0.5485181 -0.48247245 -0.48568845 -0.57431185 -0.7399706 -0.898694
-1.0199972 -1.0378323 -0.99594676 -0.9377891 -0.85494995 -0.7488365 -0.65238345 -0.5887046
-0.5852237 -0.65889716 -0.78761524 -0.9170015 -1.0248333 -1.0191264 -0.95325 -0.87836164
-0.7855222 -0.67043114 -0.5636678 -0.48799977 -0.46620125 -0.52500194 -0.64993924 -0.7811758
-0.9006497 -0.9169913 -0.8596726 -0.792482 -0.7111317 -0.6065001 -0.5053034 -0.43028593
-0.40068993 -0.44907442 -0.5833673 -0.7534406 -0.9061169 -0.98537636 -0.9713375 -0.9277001
-0.8670432 -0.7742114 -0.6702625 -0.5876447 -0.5491413
00000000: fe71 06bf 49d3 1fbf 775b 4cbf 0524 76bf
00000010: f4f8 89bf b027 89bf bfaa 7ebf 1075 66bf
00000020: 57f4 47bf 682d 27bf af6b 0cbf a106 f7be
00000030: 28ac f8be 1a06 13bf b76e 3dbf cf10 66bf
00000040: 458f 82bf b0d7 84bf 5ef6 7ebf f212 70bf
00000050: 00de 5abf c0b3 3fbf 9a02 27bf 58b5 16bf
00000060: 38d1 15bf 7cad 28bf 27a1 49bf 9cc0 6abf
00000070: bd2d 83bf bc72 82bf 3108 74bf 4fdc 60bf
00000080: fc17 49bf 60a1 2bbf 884c 10bf 1bdb f9be
00000090: eeb1 eebe 8766 06bf 6b62 26bf 23fb 47bf
000000a0: fb90 66bf f1bf 6abf 8113 5cbf 1ae0 4abf
000000b0: ba0c 36bf 9743 1bbf 905b 01bf 704e dcbe
000000c0: 3b27 cdbe 15ed e5be 8f57 15bf 7ce1 40bf
000000d0: 47f7 67bf a041 7cbf 93a9 78bf c17d 6dbf
000000e0: 8bf6 5dbf b832 46bf 5396 2bbf e26f 16bf
000000f0: 8694 0cbf
